modules/prn_gen/exp/en_id/models/unigram/train-encoder-wdecay_1e_5-attn_dot-emb_64-hddn_128-layers_1-epoch_84.pth (torch, 308614 bytes, 5 tensors)

embedding.weight f4 [32, 64]
000000 5b 5a 05 00 c3 5e 05 80 d5 57 05 80 10 8b 05 00
       4.91591e-40 -4.93172e-40 -4.90686e-40 5.09064e-40
000010 e6 5d 05 80 d4 57 05 00 3c 5b 05 80 93 66 06 80
       -4.92862e-40 4.90684e-40 -4.91906e-40 -5.8781e-40
000020 35 62 05 80 6a 63 05 00 fd 63 05 80 c3 60 05 80
       -4.94408e-40 4.9484e-40 -4.95047e-40 -4.93889e-40
000030 fc 7e 05 00 bc 63 05 00 8b 58 05 00 c4 58 05 00
       5.04731e-40 4.94955e-40 4.90941e-40 4.9102e-40
000040 7a 60 05 00 af 5a 05 80 7d 61 05 00 a2 5e 05 80
       4.93787e-40 -4.91709e-40 4.9415e-40 -4.93125e-40
000050 cc 5f 05 80 79 bb 06 00 e8 67 05 00 6e 58 05 80
       -4.93543e-40 6.18265e-40 4.96452e-40 -4.909e-40
000060 50 5c 05 80 a8 66 05 80 57 65 05 00 3f 88 06 00
       -4.92293e-40 -4.96004e-40 4.95531e-40 5.99889e-40
000070 0e 78 05 80 2d 58 05 80 52 ba 06 80 c7 57 05 80
       -5.02245e-40 -4.90809e-40 -6.17852e-40 -4.90666e-40
000080 bc 61 05 00 d9 61 05 00 56 59 05 00 1c 58 05 80
       4.94238e-40 4.94279e-40 4.91225e-40 -4.90785e-40
000090 df 9e 06 00 ee 5c 05 80 00 6b 05 80 e7 6b 05 00
       6.08005e-40 -4.92514e-40 -4.97562e-40 4.97886e-40
0000a0 10 5f 05 80 8e ba 05 80 ca 60 05 80 10 5c 05 80
       -4.9328e-40 -5.261e-40 -4.93899e-40 -4.92203e-40
0000b0 ef 61 05 80 15 5d 05 80 5a 61 05 80 47 64 05 00
       -4.9431e-40 -4.92569e-40 -4.941e-40 4.9515e-40
0000c0 34 60 05 80 c3 25 06 80 61 66 05 00 16 6c 05 00
       -4.93689e-40 -5.6456e-40 4.95904e-40 4.97951e-40
0000d0 e9 61 05 00 d5 58 05 80 e0 57 05 80 6a 74 05 80
       4.94301e-40 -4.91044e-40 -4.90701e-40 -5.00939e-40
0000e0 13 58 05 80 64 63 05 80 04 5d 05 80 17 61 05 00
       -4.90773e-40 -4.94832e-40 -4.92545e-40 4.94007e-40
0000f0 b9 5b 05 80 08 63 05 00 ca 58 05 00 a1 5a 05 80
       -4.92081e-40 4.94703e-40 4.91029e-40 -4.91689e-40
000100 2a 58 1b 3d a5 60 df bd 96 a1 88 3e 88 1c 34 bf
       0.037925877 -0.10907105 0.2668578 -0.70356035
000110 8b ab 34 bd a0 6a 7d be 6f 5d b2 3e 49 a3 d2 3d
       -0.04410891 -0.24747705 0.3483691 0.102850504
000120 23 d8 05 bd c5 5a 6d 3e 1a 0a 0d 3e 66 49 62 3e
       -0.032676827 0.23179157 0.13773385 0.22098312
000130 26 51 bc 3d 93 c6 6b be e7 c7 82 be 02 c0 28 bf
       0.09195165 -0.23024969 -0.25543138 -0.6591798
000140 e8 33 5d bd e3 2e 1f 3e c5 6e 89 be 15 f7 d7 3a
       -0.05400458 0.1554523 -0.26842323 0.0016476834
000150 34 eb ce bd 4e c2 b6 bd 5b 84 b3 bc 51 ae a9 be
       -0.10103455 -0.089237794 -0.021913698 -0.33140805
000160 f4 0e d8 3e 55 bb ca bc 1b 4f 69 3e be fd 3d be
       0.42198908 -0.02474753 0.22784083 -0.18553826
000170 d5 be 7f bd c4 b3 a4 3e d7 98 09 bd 8c fd f0 bc
       -0.06243785 0.321684 -0.033593025 -0.029417776
000180 26 7c e5 3e d7 21 c5 bb cf a3 5c 3e 6f d9 81 be
       0.4482128 -0.006015997 0.21546863 -0.253612
000190 cf bc ad be 57 f8 7f bc 7c f4 17 3e af f6 9d bf
       -0.33933112 -0.015623174 0.14839357 -1.2340907
0001a0 01 89 f1 3e 4b 59 d1 3b 31 0b be 3c 74 96 9e 3d
       0.47174838 0.0063888184 0.023198696 0.077435404
0001b0 4c 67 2e be a9 02 4d bd db 38 2d 3f ef 5b e1 3d
       -0.17031592 -0.050051365 0.6766488 0.11003863
0001c0 f4 45 fd bd 4f 59 f9 3e 8c e9 7d bf 26 b8 af 3d
       -0.12366858 0.4870095 -0.9918449 0.085800454
0001d0 94 21 96 bd b5 6d 00 be 6d 4d a2 3e 1d 2c 95 be
       -0.07330623 -0.1254185 0.31699696 -0.29135218
0001e0 6c 42 c6 3d fa 98 db bd 11 d4 b8 be da 7a 2e 3c
       0.09680638 -0.10722537 -0.36099294 0.010649407
0001f0 bf 10 3d 3e 52 03 e7 3e 20 07 07 be e0 e1 33 be
       0.1846342 0.4511972 -0.13186312 -0.17566633
000200 e5 ad 7c 3e 7e c3 82 be f5 70 50 3e 4d 80 a9 be
       0.2467571 -0.25539774 0.2035559 -0.33105698
000210 41 3a 9e 3d a5 1d 3e 3f f5 6b 01 bf c0 af 31 be
       0.07725955 0.74263984 -0.50555354 -0.173522
000220 10 fd 4e bf b0 b0 cd bd 8e 14 bd bd 16 15 ab bd
       -0.8085489 -0.10043466 -0.09232436 -0.08353631
000230 26 85 30 3e b3 0e 20 3c 0d bc 0b be ad a8 cb bc
       0.17238292 0.00976913 -0.13645954 -0.024860704
000240 d4 87 f5 3e 06 c1 96 3e 2f 16 e1 be 82 ea a5 bc
       0.4795519 0.2944414 -0.43962237 -0.020253424
000250 8f b7 2a be 7d b2 37 3e 55 a8 f2 3d e8 54 bd 3e
       -0.16671585 0.17939182 0.11848513 0.3697884
000260 2c 7a d9 bd a5 a9 01 3f f6 00 6a 3e 16 dc 14 be
       -0.106190056 0.5064948 0.22851929 -0.14537081
000270 02 9e c4 3d 1d 73 2a 3f 58 d7 b5 3d c2 fd c8 3b
       0.0960045 0.665819 0.08878964 0.006133766
000280 03 ac 9d be d3 f0 52 bf 1e 05 fd be dc bc 88 be
       -0.30795297 -0.8239872 -0.49417967 -0.26706588
000290 8e 58 e5 3e bd c8 00 3f a4 33 07 3e 00 07 38 3d
       0.44794124 0.503063 0.13203293 0.04492855
0002a0 3f ac aa bd 44 83 04 3e 9d 22 76 3d 45 58 c8 bd
       -0.083336346 0.12940699 0.060091604 -0.09782461
0002b0 00 3a 37 3d 57 33 c8 be 72 d9 0d 3f 1c 77 8a bd
       0.044733047 -0.3910167 0.5540992 -0.067609996
0002c0 5e 9a 8c 3e 26 82 a3 bc 73 91 6a bf 1f 38 9b 3c
       0.27461523 -0.01995952 -0.9162819 0.018947659
0002d0 e7 01 dd be 6f 55 c3 be 81 66 20 be ec c6 e3 3e
       -0.43165514 -0.38151118 -0.15664102 0.44487703
0002e0 3c 5d 0f 3f e3 2f e2 be 53 25 52 bf 09 3c 16 be
       0.5600164 -0.4417716 -0.820882 -0.14671339
0002f0 c0 95 fb 3e b9 56 24 3e f0 a2 9b 3e fa df 33 bf
       0.49137688 0.16048707 0.3039775 -0.70263636
000300 c8 61 05 80 db 73 05 00 75 5a 05 00 7c 61 05 00
       -4.94255e-40 5.00739e-40 4.91627e-40 4.94148e-40
000310 b7 5d 05 80 fd 61 05 80 ef 59 05 00 39 60 05 80
       -4.92796e-40 -4.94329e-40 4.9144e-40 -4.93696e-40
000320 07 5e 05 00 39 63 05 00 1b 7e 06 80 fd 5b 05 80
       4.92908e-40 4.94772e-40 -5.96251e-40 -4.92177e-40
000330 f6 5b 05 80 39 5f 05 80 9b 61 05 80 78 62 05 00
       -4.92167e-40 -4.93337e-40 -4.94192e-40 4.94501e-40
000340 87 5e 05 80 c4 61 05 00 eb 62 05 80 72 67 05 80
       -4.93088e-40 4.94249e-40 -4.94663e-40 -4.96287e-40
000350 e7 5d 05 00 b7 5f 05 00 c0 62 05 80 3d 5f 05 00
       4.92863e-40 4.93513e-40 -4.94602e-40 4.93343e-40
000360 a2 59 05 80 74 60 05 80 c5 59 05 80 6b 57 05 00
       -4.91332e-40 -4.93778e-40 -4.91381e-40 4.90537e-40
000370 3d 6e 05 00 67 62 05 80 82 62 05 00 5c 61 05 00
       4.98724e-40 -4.94478e-40 4.94515e-40 4.94103e-40
000380 ae 58 05 80 82 65 05 80 13 5d 05 00 0e a9 05 80
       -4.9099e-40 -4.95592e-40 4.92566e-40 -5.19823e-40
000390 b6 59 05 00 a5 57 05 00 70 60 05 00 49 6f 05 80
       4.9136e-40 4.90618e-40 4.93773e-40 -4.99099e-40
0003a0 d8 75 05 00 71 5f 05 00 ef 72 06 00 89 57 05 80
       5.01452e-40 4.93415e-40 5.92243e-40 -4.90579e-40
0003b0 8f 62 05 00 da 5e 05 00 ec 5a 05 00 f4 60 05 80
       4.94534e-40 4.93204e-40 4.91794e-40 -4.93958e-40
0003c0 e4 62 05 80 f2 63 05 00 9d 6b 05 80 e0 57 05 00
       -4.94653e-40 4.95031e-40 -4.97782e-40 4.90701e-40
0003d0 02 59 05 80 cf 64 05 00 91 5d 05 80 a8 61 05 80
       -4.91107e-40 4.95341e-40 -4.92743e-40 -4.9421e-40
0003e0 b4 57 05 00 63 5a 05 00 b4 59 05 00 f4 59 05 00
       4.9064e-40 4.91602e-40 4.91357e-40 4.91447e-40
0003f0 9d 5c 05 80 3c 59 05 00 e2 5e 05 80 b0 5c 05 80
       -4.92401e-40 4.91189e-40 -4.93215e-40 -4.92427e-40

gru.weight_ih_l0 f4 [384, 64]
000000 a8 ca 4c bd 62 92 4f be 9f ad d4 bd 7e 58 b2 bd
       -0.049997956 -0.20270684 -0.10384678 -0.08708285
000010 f1 05 02 be b5 13 66 be 9e 96 06 3e 93 51 92 3d
       -0.12697579 -0.22468455 0.13143393 0.07144465
000020 10 5a 18 be 02 a6 dd bc d2 a5 47 3e 35 93 4f 3e
       -0.14878106 -0.027056698 0.19496849 0.20270999
000030 42 bf 7d 3e 7c 38 86 bd 82 f8 83 be 93 92 a0 be
       0.2477999 -0.06553742 -0.25775534 -0.31361827
000040 4a 20 83 bc a5 95 a2 3e 60 61 fd bd 61 c8 06 bd
       -0.016006608 0.31754795 -0.123720884 -0.03290594
000050 51 6f cc 3d 32 04 fb 3d c8 ae 09 bd 65 b3 fd 3d
       0.099821694 0.122566596 -0.03361395 0.123877324
000060 3d 5e 73 3e 22 b7 b4 bd d9 79 43 bc a7 0f 5f be
       0.23766418 -0.08823992 -0.011930906 -0.21783315
000070 85 27 4a 3d 8d 52 26 3d 5a 0d 83 3e 93 14 0b 3d
       0.049354095 0.04060607 0.25596124 0.033955168
000080 8b 5b ae 3e e5 f2 37 3e 2a 60 89 3e ea 70 ec bd
       0.34054217 0.1796375 0.2683118 -0.11544974
000090 a1 39 3a 3d 6a 21 9f bc 95 9d bf bd 11 db a5 be
       0.045465115 -0.019425113 -0.09356228 -0.32393697
0000a0 b5 c3 c8 3e 2d fd 4e bd d7 b2 dd 3d 2a e9 74 3e
       0.39211813 -0.050534416 0.108251266 0.2391707
0000b0 94 e8 b2 3d 60 7c 11 bc ce fb 0f 3e 06 c3 e9 3e
       0.08735767 -0.008879751 0.140609 0.45656604
0000c0 22 fb c9 3d 41 19 67 3e 09 a1 68 3d be 5b 13 3e
       0.09862353 0.22568227 0.0567942 0.14390466
0000d0 c7 60 27 bc 33 74 19 3e 64 dc 87 3d bd 80 87 3e
       -0.010215945 0.14985733 0.06633833 0.26465407
0000e0 b0 5a 0f 3e 73 e1 42 bc ec 1d 13 3d 06 91 0b be
       0.13999438 -0.011894572 0.035917208 -0.13629541
0000f0 ca eb e2 bd 98 d6 1b bd 3e 75 32 be 97 9c d5 3d
       -0.110801294 -0.03804645 -0.17427537 0.10430258
000100 1e c6 6d bc 16 8d 93 3e e3 07 4b 3e df b0 8f be
       -0.014512567 0.28818578 0.19827227 -0.2806463
000110 37 2b c1 3c b8 47 46 39 22 a7 11 bd 5a a1 36 bd
       0.023580177 0.00018909469 -0.03555978 -0.04458747
000120 a3 e5 69 be 38 7f bd 3e a8 9e 10 be de 19 2a 3e
       -0.22841506 0.37011123 -0.14123023 0.1661143
000130 b5 43 8f 3e bd 6d ac 3d aa ed e4 bd 86 5c 73 3e
       0.27981344 0.084193684 -0.11178143 0.23765764
000140 ff 24 3f be a1 95 50 3d cc a5 1e be e8 7e 6f bd
       -0.18666457 0.050923947 -0.15492934 -0.058470637
000150 3e 50 15 3e 47 a7 7d be cc 8f ce 3e 03 2b ec bc
       0.14581391 -0.24770842 0.40344083 -0.028829103
000160 c3 0f b5 3d 99 2c ac bd d2 93 e3 3d 29 f8 d4 be
       0.08840897 -0.08406944 0.11112179 -0.4159558
000170 af fe 74 3d 81 7e fa 3d cf b5 ea 3a e0 9c bf 3c
       0.059813198 0.1223116 0.0017906966 0.023390234
000180 71 18 a4 3d 56 91 1f bf c3 05 58 be 7e 65 ef bc
       0.08012474 -0.6233114 -0.21095948 -0.0292232
000190 4c ba 0c be 07 1c 93 3e e1 9d 11 3c a0 7f 4f 3d
       -0.13742942 0.2873232 0.008887739 0.050658822
0001a0 a1 d1 8e 3e e9 b9 99 3d 09 28 88 3d 76 05 93 be
       0.2789431 0.07506163 0.06648261 -0.28715104
0001b0 91 72 8b bc da 33 8e be 88 dc b9 3d 81 7b 51 bd
       -0.017022403 -0.27773935 0.09075266 -0.051143173
0001c0 0e 75 07 3e 32 d9 33 be 79 21 be be e5 d7 45 bd
       0.13228247 -0.17563322 -0.37134913 -0.048301596
0001d0 33 a9 2c bf 2a 1c 86 3e 35 92 2b 3e b5 ca 9e 3e
       -0.6744568 0.26193362 0.16754992 0.31014028
0001e0 2a 1b a4 3e 28 67 50 be 3e 6b 9d 3e 63 40 9e bd
       0.32051975 -0.20351851 0.30745882 -0.077271245
0001f0 3c b4 ff 3d b2 db a9 be 8e 01 ea 3d 29 28 52 be
       0.12485549 -0.33175427 0.11426078 -0.20523132
000200 5f d1 80 bd 9c 6b a7 be b2 08 2d be b9 f2 92 3e
       -0.06289934 -0.32699287 -0.16897848 0.28700808
000210 32 48 35 3d 66 cb 7a 3d 22 33 d9 bd 3c a8 f3 bd
       0.044258304 0.061229132 -0.10605456 -0.118973225
000220 4a c2 be 3e ad 3e 0b be 91 15 b5 3e 6f 68 73 be
       0.37257606 -0.13598128 0.35368016 -0.23770307
000230 83 ff 4e be ea 9f 37 bd e5 c3 bb be 23 18 89 be
       -0.20214657 -0.04483024 -0.36672893 -0.26776227
000240 c1 2f 13 3d 75 11 ad 3e 00 d0 a2 3d 48 ac b8 3e
       0.035934214 0.3380238 0.07949829 0.3606894
000250 df e8 46 3e e1 61 30 3e 02 48 e8 bd c8 b7 f7 bc
       0.19424771 0.17224838 -0.113418594 -0.030239
000260 54 30 4e 3e 6f 8a 95 bd 9b 0a 8c 3d a0 83 1a bd
       0.20135623 -0.07301795 0.0683796 -0.037723184
000270 4c 85 1d 3d f9 72 e6 bd ba f9 42 3e 43 ac 38 be
       0.0384572 -0.11252398 0.19040576 -0.18034463
000280 1c dc 3f be 1b e0 32 bd f7 83 97 be 07 1c 88 bd
       -0.18736309 -0.043670755 -0.2959287 -0.06645971
000290 2e 3e 62 bd 0b 8e 87 bb 9e 5d 30 be 53 5e 4f bd
       -0.05523508 -0.004136806 -0.17223212 -0.050627064
0002a0 8f 40 da 3b a5 a7 98 3d 8c 43 fd 3e fb 5e c8 3d
       0.006660528 0.07453851 0.49465597 0.09783741
0002b0 64 0e 63 3d 7b 2a 96 bd 24 21 b2 3e 34 5b 46 3e
       0.055433646 -0.07332321 0.3479091 0.19370729
0002c0 f8 eb 83 3c 47 6d b5 3e 6c 57 db 3d 39 fb d5 3d
       0.01610373 0.35434934 0.10710034 0.104483075
0002d0 ae a4 01 be f2 45 b1 bd ef b4 37 3e d2 63 08 3c
       -0.12660477 -0.08655919 0.17940114 0.00832458
0002e0 e0 f6 72 be db ee ec 3d 17 7c 79 be d2 8b ca bd
       -0.23726988 0.115689956 -0.24363743 -0.0988995
0002f0 72 11 6c 3e ad 67 94 bd cb f3 6e bd 93 fc a8 3d
       0.2305353 -0.07246337 -0.058337968 0.082513
000300 82 da 50 3d 98 15 c5 3e 79 c3 0c bd a8 1b 27 3e
       0.050989635 0.38493037 -0.034366105 0.16319144
000310 34 32 7f bd 12 2f 12 be c8 90 b5 bd b6 11 28 bd
       -0.062303737 -0.14275768 -0.088655055 -0.041032515
000320 c8 02 05 be fa 7a 67 3e 53 ef aa bd 9d 89 49 be
       -0.12989342 0.22605506 -0.08346429 -0.19681402
000330 01 a3 26 bc 49 81 b4 3d 81 77 c1 bd 13 67 21 be
       -0.010170699 0.08813722 -0.09446622 -0.15761976
000340 10 c5 c1 3d 62 02 14 3e 5e cc 90 bd d2 ea f4 bd
       0.09461415 0.14454034 -0.0707023 -0.11958851
000350 c1 fc 64 3c 0d 1f 17 3d b7 ab 07 3e 94 dd ff 3d
       0.013976277 0.036894847 0.13249098 0.124934345
000360 5c aa 10 be db 92 9c bd 68 46 22 be e9 d1 0c 3e
       -0.14127487 -0.07645198 -0.1584717 0.1375195
000370 b4 da 94 3b 1f e3 eb bd d9 0a 8b be e1 7d 26 bd
       0.004542673 -0.11517929 -0.27156714 -0.04064739
000380 32 8b 27 be f9 80 ca 3d 37 fb 73 be dc ef ca bc
       -0.16361693 0.09887881 -0.238263 -0.024772577
000390 0b b2 c1 3e 19 4d 2e 3d 1c 67 66 3c 7a d9 f1 3e
       0.37831149 0.042553995 0.014062669 0.47236234
0003a0 c6 c6 c6 bd 7c 1d 6e 3d cc 12 d0 bc 95 0c b8 3e
       -0.09705882 0.058133587 -0.025399588 0.359471
0003b0 29 3f a8 bd 78 12 1e bd 04 fb 7f 3e 2c ee 8f 3c
       -0.08215172 -0.038591832 0.24998099 0.017569624
0003c0 9e 1b fd 3b 08 45 a7 3c 89 81 0f 3e cd 4d 06 bd
       0.0077242395 0.020418659 0.14014257 -0.03278904
0003d0 35 87 d6 bc 61 37 dc 3d e7 97 c9 be 96 83 95 3e
       -0.026187519 0.1075275 -0.39373705 0.29201955
0003e0 d0 6a 52 bd db c1 a4 be fc 23 5e 3d c7 5e de bd
       -0.051371396 -0.3217915 0.054233536 -0.10857921
0003f0 b4 b1 67 be a8 5b a7 be 22 ff 0c 3e b2 b0 0c 3d
       -0.22626382 -0.32687116 0.137692 0.034348197

gru.weight_hh_l0 f4 [384, 128]
000000 66 61 3f 3e 5c d9 98 3e e0 dc fb bc a1 82 9e bd
       0.18689498 0.29853332 -0.03074497 -0.07739759
000010 e3 06 88 be 98 62 69 be 39 5a 10 bd 40 4e fa 3d
       -0.26567754 -0.22791517 -0.035242293 0.12221956
000020 a9 1b 81 bd 0b 4b e3 3d 05 e0 d9 bd 8f 91 e9 bd
       -0.06304104 0.11098298 -0.106384315 -0.11404716
000030 e7 da d1 bd 79 c6 fc bd bc 9a f0 3c 36 73 22 3e
       -0.102468304 -0.12342543 0.029370658 0.15864262
000040 08 21 e8 bc 63 50 b9 3d ca 77 0b be 3f 25 51 be
       -0.028336063 0.09048536 -0.13619915 -0.20424365
000050 6a d5 77 3d 30 bc 2e 3e 5d 9f 8e 3d eb 52 39 3d
       0.060506262 0.17063975 0.0696399 0.045245092
000060 d4 2d a8 bd 63 36 fe ba 1f 49 a2 be 8a de 19 3e
       -0.08211866 -0.0019394871 -0.31696412 0.15026298
000070 c1 81 aa 3d 13 c3 0d 3c e2 f2 43 be 21 64 a3 be
       0.0832553 0.008652466 -0.19135621 -0.3191233
000080 b5 f9 44 3e 3b e5 19 be d6 56 0c be c6 f9 b5 3d
       0.1923588 -0.1502885 -0.13705 0.08885531
000090 2e 71 60 3e 58 09 2d 3e 92 ce 9d 3d 4d 93 0c 3e
       0.21918175 0.16898096 0.07705416 0.13728066
0000a0 37 ec af bd ab e5 39 3d 75 26 43 3e 9e 8e 60 bd
       -0.08589976 0.045385044 0.19057639 -0.05482351
0000b0 3d 20 d2 bd 89 1e 27 be d5 fd ca be 7c 3c 10 bd
       -0.10260055 -0.16320242 -0.39646783 -0.035213932
0000c0 94 8b 31 be 42 00 2f be b4 90 f1 bd bb a5 c5 bd
       -0.17338401 -0.17089942 -0.11795178 -0.09650751
0000d0 37 30 83 be 59 1b 45 bd 88 fe 0e 3d 40 e4 ee 3e
       -0.25622723 -0.048121784 0.03491071 0.46658516
0000e0 69 82 47 3e b0 c9 f0 bd b9 0b 85 bd 61 58 99 3e
       0.19483341 -0.11757219 -0.064963765 0.2995024
0000f0 29 70 1a be 23 31 b0 3c 05 b0 11 3e 45 ef 7e bc
       -0.15081848 0.021507805 0.14227302 -0.015559976
000100 e4 d2 54 be 2a 26 56 be 57 1c 2a be 36 03 e7 bd
       -0.20783573 -0.20912996 -0.16612373 -0.11279909
000110 0c 01 fe 3d ae bb e1 3c c7 b0 35 be 11 43 59 3d
       0.124025434 0.027555313 -0.17743216 0.053042475
000120 4d ee a9 bd c3 73 04 3f 52 36 27 bc e4 e3 b5 be
       -0.082974054 0.5173914 -0.010205822 -0.3552543
000130 a7 de 4d 3e 55 d1 8e 3e 8c 29 2c 3e 87 c4 19 be
       0.20104466 0.27894083 0.16812724 -0.15016375
000140 cc ac 4d 3e 7f e1 ec 3d 6b f8 1c 3e dd 40 57 bd
       0.20085448 0.115664475 0.15329139 -0.052552093
000150 d0 c0 fb bd da 02 8b be 96 8f 8f bd 25 4a ba bd
       -0.122926354 -0.27150613 -0.07009809 -0.09096173
000160 ee 2c 25 3e 4a 0e 9f bd 2e f4 25 3e 44 a3 63 3e
       0.1613042 -0.07766397 0.16206428 0.2223025
000170 54 ff b7 3d af d4 b2 3c e3 99 a2 3d 16 28 dc 3c
       0.08984247 0.021829931 0.07939508 0.026874583
000180 b9 f5 fe bd d1 a2 f4 bb c6 81 81 3e bc fa 06 3e
       -0.124492116 -0.0074656983 0.25294322 0.13181585
000190 e1 8b bd 3d c5 06 20 3e 67 97 0f 3e 34 4a 75 be
       0.092551954 0.15627582 0.14022599 -0.23954087
0001a0 57 da fb bd 97 1a da 3d 20 b4 c3 3e 4c 19 ca bc
       -0.122975044 0.10649603 0.38223362 -0.024670266
0001b0 1e eb 5c 3c b8 58 73 be 06 64 04 bd 37 c2 37 be
       0.013483791 -0.23764312 -0.032321952 -0.17945181
0001c0 4b 0e 91 bc 80 1c 43 3e 16 c5 7e bb e6 f6 96 be
       -0.01770701 0.1905384 -0.0038874797 -0.29485244
0001d0 ba c5 b5 3b b1 ed 9f 3b 4c 2b 5e be 20 8e 54 be
       0.0055472525 0.00488063 -0.21696204 -0.20757341
0001e0 35 43 87 be 2c ce 97 3d fd e8 89 bd 55 50 a0 bd
       -0.26418462 0.07412371 -0.06733892 -0.07827822
0001f0 6f c3 e2 bd 78 fc f7 3d 5e 04 b2 3d 13 dc 22 be
       -0.11072432 0.121087015 0.08692239 -0.15904264
000200 7c 3a 4d 3c e9 3a 95 3d da a0 0f 3c 36 a0 40 bd
       0.012526151 0.07286627 0.008766377 -0.04702779
000210 38 37 04 3e dd bc 81 be 10 3b 63 3e 1c ba fd 3d
       0.1291169 -0.25339404 0.221905 0.12389013
000220 23 0d 15 3e a8 7d b0 be 84 70 70 bd 8f 61 af bd
       0.14555793 -0.34470868 -0.058701053 -0.0856353
000230 7f cc 13 be bd 74 8a be a1 62 a3 3e 7e 70 10 be
       -0.14433478 -0.2704219 0.31911185 -0.14105412
000240 e3 3d 49 3d bb d5 5a 3d 33 70 ad 3c 46 02 bc 3c
       0.049131285 0.053426486 0.021171665 0.022950303
000250 97 8e af bd 5a bd 1e 3e a1 6a 5b bd a1 32 73 be
       -0.08572119 0.1550192 -0.053568486 -0.23749782
000260 86 00 f8 3b 13 f4 e2 3d 7d 58 5f 3e ec da 82 3e
       0.007568422 0.1108171 0.218111 0.2555765
000270 64 31 39 be ad 14 9a be 6a 09 29 3d ad b5 4b 3c
       -0.18085247 -0.300939 0.041268744 0.012433452
000280 47 7a 7e be ad 18 33 3e 31 b9 11 3e 9d e2 c8 bc
       -0.24851333 0.17489882 0.14230801 -0.02452212
000290 ab 01 bc 3e d7 dd 7e bd dd 40 25 3e b7 cf 5a be
       0.36720023 -0.06222328 0.16138025 -0.213683
0002a0 47 72 a3 be 2b 33 8d be 4b 22 5d be 65 c9 29 3c
       -0.31923124 -0.275781 -0.21595113 0.010362958
0002b0 97 bb 56 be e7 83 25 3e 24 7b 81 bd 5f 90 72 3d
       -0.20969997 0.16163598 -0.06322315 0.059219714
0002c0 9f 7e c6 be 55 5b 87 3e 1b 8c af 3d 2a 2e 12 b9
       -0.3876848 0.26436868 0.08571645 -0.00013940842
0002d0 34 a0 94 be f2 5f 12 3e 8c f6 dd 3c ef 0b 8b be
       -0.29028475 0.14294413 0.027095102 -0.27157542
0002e0 ab f3 44 be d5 f8 fa 3d 6d 1b c4 3d 78 65 00 3e
       -0.19233577 0.12254492 0.095755436 0.12538707
0002f0 06 f1 3b 3e 84 4b 42 3e b7 bb 73 bd 67 0e 15 3f
       0.18353662 0.1897412 -0.05950519 0.582251
000300 8b 8a 66 be 4c 0f b4 3d c6 3e 3c bd 4d 0a d5 3e
       -0.22513787 0.0879198 -0.045958303 0.4160942
000310 64 6d 08 be 52 5d 98 bd 74 e2 ae be 57 5f c2 bd
       -0.13322979 -0.074396744 -0.34157145 -0.09490841
000320 e3 36 6d 3e a3 e9 94 be 78 55 86 3e 82 7f 88 bd
       0.23165469 -0.290845 0.26237082 -0.06664945
000330 b7 8e fd bd 67 ff a0 3e ba 54 15 bd 8b 8a 65 3e
       -0.12380736 0.31444857 -0.036457755 0.22416131
000340 80 6f 00 be ce 6d 1c be 4d 2d 9b bd e3 8f 94 3d
       -0.12542534 -0.15276262 -0.07577 0.07254007
000350 f4 58 9d 3d f4 69 79 3d 7f 13 39 be 94 f8 6e bd
       0.07682982 0.06089206 -0.18073843 -0.05834253
000360 b6 e7 e7 be e6 ca 3b bd 50 c0 4b be 45 c4 a4 3e
       -0.4529397 -0.045847796 -0.1989758 0.32180992
000370 44 cd 56 be f7 a7 1f 3d c9 1a b8 be db a7 4c be
       -0.2097674 0.038978543 -0.35957935 -0.19985907
000380 af 66 17 3e 9f 1e 55 3e a2 12 23 3e fc 53 89 bd
       0.14785264 0.20812462 0.15925077 -0.06705472
000390 a8 23 b1 be c3 ea 92 3d 01 e4 ab 3d 59 92 c6 3d
       -0.34597516 0.071736835 0.08393098 0.09695882
0003a0 51 ed da be 76 89 ca 3d 18 8d 1e 3e 92 34 32 bd
       -0.42759183 0.098895 0.1548351 -0.043507166
0003b0 34 10 d5 3d 1d 61 88 3d e1 e8 c2 be 50 52 f2 bd
       0.10403481 0.06659148 -0.38068298 -0.11832106
0003c0 78 ed fb be f6 38 ae bd bf 88 8e 3e 74 9d 53 3d
       -0.49204612 -0.08506958 0.27838704 0.05166383
0003d0 01 66 fc bd b7 24 e6 3d c6 be 01 be 29 67 c5 3d
       -0.12324143 0.112374716 -0.1267043 0.09638817
0003e0 80 2b af bc 95 d6 53 bd 27 fa 1a 3d 36 9a 9b 3d
       -0.021383047 -0.051718313 0.03783622 0.07597773
0003f0 a6 3e 53 be f4 eb c1 3d 3c 8a fd bc bb 82 7b 3e
       -0.20629367 0.094688326 -0.030949704 0.24561588

gru.bias_ih_l0 f4 [384]
000000 cc 55 f5 bd c0 2f b2 be f8 74 32 bd 10 8b 3d be
       -0.11979255 -0.34802055 -0.04356858 -0.1851008
000010 f3 4d c1 3d bc 13 8d be 80 3a 09 be 81 f5 0f be
       0.09438696 -0.2755412 -0.13401222 -0.14058496
000020 d1 46 f3 be 15 86 f6 be a2 fd 15 3e 15 9a 77 3e
       -0.47514966 -0.4814917 0.14647534 0.24179871
000030 04 f0 7b bd 41 45 54 be 61 a8 33 be 9b f0 3f be
       -0.061508194 -0.20729543 -0.175447 -0.18744127
000040 3c e5 b4 3e ce 47 48 3b f8 e0 37 3d 33 5f db 3c
       0.35331142 0.0030560377 0.04489228 0.026778793
000050 a5 10 95 3e 5e 1a b3 be 87 8a 33 3e 59 ea a4 be
       0.2911426 -0.34981054 0.17533313 -0.32210043
000060 7b 87 c8 be 8d 0a fd 3b c5 0e 58 bd f9 a0 e2 3e
       -0.39165863 0.007722205 -0.05274846 0.44263437
000070 a3 08 fd be fe 93 b0 be 3e 4b 3e be de 6f d1 be
       -0.49420652 -0.3448791 -0.1858339 -0.4090566
000080 af 75 91 be 9a 72 62 be 8f 25 58 3d 73 42 20 bd
       -0.28410098 -0.2211403 0.052770194 -0.03912587
000090 34 87 ff 3d 9b 7b bc 3e 98 50 df 3d 4f 13 c1 be
       0.1247696 0.36813053 0.10904044 -0.37710044
0000a0 ea cb f0 bd 4d 19 f8 bd bd 02 42 be 2f 18 a0 3e
       -0.117576435 -0.12114201 -0.18946357 0.3126845
0000b0 4b ec 1b bd 73 c6 41 3d dc 3d ac bd e2 30 c6 3d
       -0.038067143 0.047308397 -0.08410236 0.096772924
0000c0 7f 8a 5a be 27 6f 1c 3e 2f bb 1a 3e 6a ac 62 be
       -0.21341895 0.15276776 0.15110467 -0.22136083
0000d0 78 4e 1f 3e e3 74 96 bd 05 fc e0 bd 33 af 68 be
       0.15557277 -0.07346513 -0.10985569 -0.22723083
0000e0 fa bd 46 bc d8 38 5b 3e ca 63 8a 3d 85 69 b4 be
       -0.012130255 0.21408403 0.067573145 -0.35236755
0000f0 d3 b9 19 be 90 57 2d be 0e 7b fd be 46 95 0d 3e
       -0.15012293 -0.16927934 -0.49507946 0.13826475
000100 91 ca 4a be 6d cc 51 be df cb ca bc 8c c3 86 bb
       -0.19803835 -0.20488138 -0.024755416 -0.0041126665
000110 89 64 5b bc 66 c0 aa 3c 54 ed b2 be 3e bb d7 be
       -0.013390669 0.020843696 -0.34946692 -0.42135042
000120 76 a1 ce bd 64 64 8d 3d 0f 88 02 be 5a 58 03 3d
       -0.1008939 0.069039136 -0.12747215 0.03206668
000130 f7 79 39 bd 7e f8 33 be 01 0b a8 be 9d 20 1a be
       -0.04528233 -0.17575261 -0.32820895 -0.15051503
000140 77 bd 62 be 9d ee 82 bd 76 14 89 be 07 7c 26 be
       -0.22142588 -0.06393168 -0.26773423 -0.1625825
000150 8a 65 0c 3d a1 e3 74 be 8a b5 b5 be 4a 3a a1 be
       0.034276523 -0.23914959 -0.35490066 -0.31489784
000160 88 8b a9 bd 2f b0 ad 3d f2 12 43 3d 17 e1 21 3e
       -0.082785666 0.0848087 0.04762549 0.15808521
000170 a5 b0 ae bd 3c 08 30 be c2 8a 14 be 04 21 54 3b
       -0.08529786 -0.17190641 -0.14506057 0.0032368312
000180 0c c5 9d be 00 7d fc bd 25 61 47 be 97 1e 62 bd
       -0.30814397 -0.12328529 -0.19470651 -0.055204954
000190 e0 eb 89 3e f8 95 f1 bd d7 a1 4e be 26 f0 e8 3d
       0.2693777 -0.117961824 -0.20178925 0.1137393
0001a0 51 e5 b3 bc d6 93 64 be b6 fb c1 3e 39 2b bd be
       -0.021959933 -0.2232202 0.37887353 -0.3694704
0001b0 17 8f 02 bf e9 e9 3e be 62 ab 8a be 59 20 24 be
       -0.5099959 -0.18643917 -0.2708388 -0.16027965
0001c0 db 80 db bd b1 5c af bb 1a 4b 3b be 9f e2 45 be
       -0.107179366 -0.005351626 -0.18290368 -0.1932473
0001d0 bf 55 a1 bd 49 a7 37 be 23 36 95 be e7 bb 23 be
       -0.07877683 -0.17934908 -0.29142866 -0.15989648
0001e0 dd 6b 8c be ed 49 d3 3e d7 a3 29 be ee 72 5c be
       -0.27426043 0.41267338 -0.16566406 -0.21528217
0001f0 82 98 70 be 9a 80 d2 be 2b 2f 90 bd 60 e9 b0 be
       -0.23495677 -0.4111374 -0.070402466 -0.3455305
000200 51 48 c9 bd 55 6d 6e be 56 aa ef 3d 05 e5 7d 3d
       -0.098282464 -0.23283894 0.11702411 0.06198599
000210 ec a9 6b be cf ef 9c bd 35 26 2c be 6f 83 17 be
       -0.23014039 -0.07662927 -0.1681145 -0.14796232
000220 98 f4 fa bd d7 f9 49 bc 4b 1e 16 3f b1 2a b5 3e
       -0.12253684 -0.012327633 0.58639973 0.35384133
000230 b2 32 51 3d 79 fd 03 be 0d 4f 91 be 89 ee 47 3f
       0.051073737 -0.12889661 -0.28380623 0.7809835
000240 0a b6 67 3e 07 3a 44 3e 2c 21 32 be 9a fc cd 3e
       0.22628036 0.1916276 -0.17395467 0.40231782
000250 d7 dc 4b be e7 88 9c be 6a 45 b6 3e 57 b7 8d bd
       -0.19908462 -0.30573198 0.35599834 -0.06919735
000260 e2 80 d0 be b7 42 07 be 63 ff bc 3e 27 c9 0f bf
       -0.4072333 -0.13209043 0.36913595 -0.5616631
000270 32 a1 c8 3c 70 16 0a bf 5c b8 60 be 8a 50 65 bd
       0.024490926 -0.53940487 -0.21945328 -0.05598501
000280 b4 e1 8e be 49 a3 15 3e f7 3a 91 bc a2 bd 10 be
       -0.27906573 0.1461307 -0.017728312 -0.14134839
000290 97 c2 00 3f c4 bc 82 be 42 97 b5 3d 57 5e 4c bd
       0.5029692 -0.25534642 0.08866741 -0.049894657
0002a0 d5 62 a8 3d 46 72 2a bd 10 af 3c 3e 39 6a 28 bf
       0.08221976 -0.041612886 0.18426156 -0.6578708
0002b0 24 f3 f5 3d 59 d6 8d be 8e f8 52 be 93 a1 17 be
       0.12009266 -0.27702597 -0.20602629 -0.1480773
0002c0 f3 bf b2 be 31 99 ec bd 9c 45 df be 4f 66 86 3d
       -0.3491207 -0.115526564 -0.43607795 0.065624826
0002d0 5f bb 6e 3e 8c 0e 44 3e ac e5 10 be 42 e2 a1 be
       0.23313664 0.19146174 -0.14150113 -0.31617934
0002e0 95 1d 40 bd d8 4f 4b 3d f1 88 21 be 4b 1d 91 be
       -0.04690321 0.04963669 -0.15774895 -0.2834266
0002f0 ac e6 2c be 1c 43 f3 be fb b2 9b be d7 1f e1 3e
       -0.1688487 -0.47512138 -0.3040999 0.43969604
000300 12 83 1a 3e b8 47 b7 be 0b 5d a8 be 1b e5 97 3e
       0.15089062 -0.35796905 -0.32883486 0.2966698
000310 31 05 cd be 6e e3 6e be f1 99 ca bd 81 fe 72 be
       -0.40043023 -0.23328945 -0.09892643 -0.23729898
000320 fe a4 f5 3d 2e 3a da 3d 9d 9f c3 bd 69 16 97 be
       0.119943604 0.10655628 -0.09551928 -0.29509285
000330 d5 08 a9 3b 3f ed 1b be 26 e7 5f bc a7 cb 2c be
       0.0051585236 -0.15227221 -0.01366595 -0.16874562
000340 0e 3d 25 3d 33 b3 0a be 14 e2 31 be 42 f9 dc be
       0.04034143 -0.13544922 -0.17371398 -0.4315892
000350 25 e9 3e 3e b9 8a e6 bd 6b 09 79 be 15 88 b9 be
       0.18643625 -0.11256928 -0.24319999 -0.36236635
000360 50 81 7c be d4 da ec be 1c f5 93 bc a6 39 60 3d
       -0.24658704 -0.46260703 -0.018061213 0.054742478
000370 86 01 4d be 8f 4f 84 3d af 05 d3 be 8a bf 3e be
       -0.20020112 0.06460487 -0.41215274 -0.18627754
000380 f7 25 cb 3b ac bc 81 be c6 d6 f5 bc 9b 79 af 3b
       0.006199594 -0.25339258 -0.030009639 0.0053550727
000390 63 f5 ab be 4f 2e 34 3e 1d 2e 0d be 9f 64 76 be
       -0.33585653 0.1759579 -0.13787122 -0.24061821
0003a0 8e 00 0c be 12 40 9c be 0c 8d cc bc 8b ba a9 be
       -0.13672087 -0.30517632 -0.0249696 -0.33150133
0003b0 13 dd 6e 3c 56 ee d2 3c 1e 98 a7 3d ac 46 20 be
       0.014579075 0.025748413 0.08183311 -0.15651959
0003c0 bf c4 68 be 82 d7 53 3e d7 84 d0 be 0b 74 a9 3d
       -0.22731303 0.20687678 -0.4072635 0.082740866
0003d0 b7 54 6c 3d 9c 96 63 be 74 d4 71 be a5 ed 40 be
       0.057697978 -0.22225422 -0.236162 -0.18840654
0003e0 8d 00 8f be fd e3 50 be 5e 32 b3 3c 3b 36 74 be
       -0.27930108 -0.2039947 0.021874603 -0.23848812
0003f0 72 bf 25 be 7a 83 09 be 43 d8 97 3d 44 a2 e0 bd
       -0.16186312 -0.1342906 0.074142955 -0.1096845

gru.bias_hh_l0 f4 [384]
000000 06 1c e3 bd 4d 7b 9b be 7b 02 05 bd 22 38 3d be
       -0.110893294 -0.3036751 -0.03247307 -0.18478444
000010 02 97 a8 3d b3 a4 96 be 11 2f c0 bd 34 b0 13 be
       0.082319275 -0.2942253 -0.09383977 -0.14422685
000020 c1 b9 f0 be 2a ff f6 be a9 3a 2b 3e 6d 9c 6d 3e
       -0.4701672 -0.4824155 0.16721596 0.23204203
000030 7c 81 5a bd 6e 26 44 be 8d b3 3c be 18 0e 69 be
       -0.053346142 -0.19155285 -0.18427868 -0.22759283
000040 fe e8 b5 3e 72 d4 65 3b 59 01 b1 3d 4f 4a dd 3c
       0.3552932 0.0035069254 0.08642835 0.027012972
000050 7b 74 8b 3e a9 e0 c8 be 2b a2 38 3e b8 42 aa be
       0.27237305 -0.39233902 0.18030612 -0.33254027
000060 d7 7a bc be 2b 11 29 3d 8f ad ad bd 5b fa d5 3e
       -0.3681247 0.04127614 -0.08480369 0.4179257
000070 e0 6e 0a bf f1 a8 b2 be ab 46 7c be 4a a5 d8 be
       -0.5407543 -0.34894517 -0.24636333 -0.42313606
000080 d8 ad 9a be 33 33 30 be 54 15 93 3d 0d 3f 58 bd
       -0.30210757 -0.17207031 0.071818024 -0.052794505
000090 a4 b1 de 3d dc b4 ca 3e a7 9d 0e 3e a4 6d ae be
       0.10873726 0.3959111 0.13927327 -0.34068024
0000a0 f4 ce 0b be 4f fa 0a be 0b e9 3a be 81 33 6e 3e
       -0.13653165 -0.13572048 -0.18252961 0.23261835
0000b0 a2 94 60 bd c6 e2 a3 3c 21 11 3b bd 22 fd cd 3d
       -0.054829247 0.020005595 -0.045670632 0.10058047
0000c0 49 39 4a be 9e b8 44 3e e2 56 0e 3e 74 0c 6b be
       -0.19748415 0.19211051 0.1390033 -0.22953969
0000d0 c8 77 1f 3e 90 67 b3 bd 4f 29 37 be eb e1 71 be
       0.15573037 -0.08759987 -0.17886852 -0.23621337
0000e0 50 95 99 bc 10 93 66 3e 5b 6d 89 3d 4b 68 c7 be
       -0.018747956 0.22517037 0.06710311 -0.38946757
0000f0 de 3c d9 bd 67 48 20 be fc 53 00 bf cd 32 10 3e
       -0.106073126 -0.1565262 -0.5012815 0.14081879
000100 41 eb 52 be 7b 7e 5b be 26 90 90 bd e9 bd 3f 3c
       -0.20597555 -0.21434967 -0.07058744 0.011702993
000110 75 a0 a7 bc 01 fb 9c 3c 7c c2 ac be 77 4a e2 be
       -0.020462254 0.019162657 -0.3374213 -0.44197437
000120 00 e3 db bd 0b 51 8e 3d 4f db 0d be 1b 8d 11 3d
       -0.10736656 0.069490515 -0.13853191 0.03553496
000130 90 0c 12 bd f9 3e 3d be 35 b5 a5 be 67 06 04 be
       -0.03565651 -0.18481053 -0.32364812 -0.12893067
000140 d8 9f 59 be 57 d5 1e bd 12 8d 8e be b7 ae 18 be
       -0.21252382 -0.038777675 -0.27842003 -0.14910398
000150 ee db 0f 3d 58 1f 77 be 38 b6 b9 be 9a 1f a5 be
       0.03512185 -0.2413305 -0.36271834 -0.32250673
000160 bc 78 f9 bd 62 56 95 3d a1 b7 2b 3c 84 89 24 3e
       -0.121812314 0.07291867 0.010480792 0.16068083
000170 e1 10 f6 bd de 65 25 be 9b ab 17 be 9e c1 12 bd
       -0.12014938 -0.1615214 -0.14811556 -0.03582918
000180 d4 6a ad be dc 2c 13 be d7 0f 3a be 6f dc 44 bd
       -0.33870566 -0.14372581 -0.18170105 -0.048061784
000190 18 99 8a 3e 7b 46 f6 bd bb 07 2c be af af be 3d
       0.27069926 -0.12025162 -0.16799824 0.09310853
0001a0 cb 86 28 bd 94 72 73 be 4d 94 c6 3e 69 57 b8 be
       -0.041144174 -0.23774177 0.3878502 -0.3600419
0001b0 35 8e ed be 64 25 4d be 66 70 6e be 6e 1d 0a be
       -0.46397558 -0.20033795 -0.23285064 -0.13487789
0001c0 59 56 f0 bd d3 61 0a bd 17 88 19 be ce 56 33 be
       -0.117352195 -0.0337847 -0.1499332 -0.17513582
0001d0 e7 66 ea bd 18 b4 55 be 13 57 78 be 6a 83 fe bd
       -0.11445408 -0.20869482 -0.24251966 -0.12427409
0001e0 13 b2 94 be a7 9a d5 3e 84 52 47 be d6 c5 5d be
       -0.2904211 0.41719553 -0.19465071 -0.216575
0001f0 cc b0 7b be aa 97 bd be 71 dd 77 bd be 41 a1 be
       -0.24579161 -0.37029773 -0.060513917 -0.3149547
000200 14 3c c6 bd f3 ea 40 be e9 5c 09 3e b4 8f c5 3d
       -0.09679428 -0.18839626 0.13414349 0.0964655
000210 d2 bd 31 be c6 f3 7c bd a8 45 db bd d2 7d 06 be
       -0.17357567 -0.061755918 -0.10706645 -0.13133934
000220 e8 0f 53 be b3 4a 6c bc 01 c5 1d 3f df 82 d9 3e
       -0.20611537 -0.014422107 0.6162873 0.4248266
000230 ea 6e a6 3d fc 0e 36 be 37 44 77 be 75 1f 51 3f
       0.08126624 -0.17779154 -0.24147116 0.81688625
000240 fd b9 94 3e 0a ee 62 3e bf 79 46 be fa e8 9c 3e
       0.29048148 0.22161117 -0.1938238 0.30646497
000250 7f 89 35 be ed e0 91 be 6b 3f b1 3e f7 d7 be bd
       -0.17728232 -0.28491917 0.34618697 -0.09318536
000260 a3 77 b8 be 6f 24 ec bd e3 26 c8 3e 97 8f 05 bf
       -0.36028776 -0.11530387 0.39092168 -0.52172226
000270 a3 6e d4 bc 23 e5 09 bf f3 d8 5d be 43 ea 99 bd
       -0.025931662 -0.5386526 -0.21664791 -0.07515385
000280 da c9 90 be ff 9f 12 3e 54 5c c3 bc 48 eb 10 be
       -0.28279 0.14318846 -0.023847736 -0.14152253
000290 ee 76 f9 3e ec fd 13 be 63 b1 1a 3b 42 7e 80 bc
       0.4872355 -0.14452332 0.0023604266 -0.015685204
0002a0 ec e4 73 3d a1 70 41 bd 6c b1 7d 3e 72 54 24 bf
       0.05954449 -0.047226552 0.24774712 -0.64191353
0002b0 4a b0 52 3e 85 10 65 be e3 5c 2c be cd 1e 35 be
       0.20575061 -0.22369583 -0.16832308 -0.17687531
0002c0 8c e9 bf be 50 b1 d9 bd be 7e ce be 5d ab f6 3c
       -0.3748287 -0.10629523 -0.40331072 0.03011101
0002d0 6f 8e 99 3e ef 6a 50 3e 41 2c d0 bd 5b e8 91 be
       0.2999148 0.20353292 -0.10164691 -0.28497586
0002e0 81 e0 49 3b 77 cb 4f 3d ca 0b 48 be 55 c4 b1 be
       0.003080398 0.05073115 -0.19535747 -0.34720102
0002f0 ac 60 dd bd 91 6e ff be cd c3 8f be 81 b6 cc 3e
       -0.10809454 -0.49889043 -0.28079072 0.3998299
000300 12 ff c3 3d a7 d5 a2 be 55 93 8e be e9 6c b7 3e
       0.09570135 -0.3180363 -0.2784678 0.3582528
000310 7c 3c ca be 6d f2 8f be 36 4f d4 bd 76 83 5d be
       -0.3949927 -0.28114644 -0.10366671 -0.2163218
000320 b2 64 06 3e 28 11 a7 3d 34 d5 ee bd b3 9c a8 be
       0.1312435 0.08157569 -0.11661759 -0.32932052
000330 03 28 3c 3d 14 07 ea bd 71 8c 83 bd 90 57 00 be
       0.045936596 -0.11427131 -0.064232714 -0.12533402
000340 d6 0d 7e 3d 87 45 8f bd be 9c d7 bd c5 5a f9 be
       0.062024914 -0.06995683 -0.10527943 -0.48702064
000350 f3 fd 79 3e cc 13 a0 bd 26 54 7c be 0d d5 92 be
       0.2441328 -0.07816276 -0.24641475 -0.2867817
000360 a0 a4 88 be 4c d4 e1 be 4b 3f 08 bb 75 63 0d 3e
       -0.266881 -0.44107282 -0.0020789679 0.13807471
000370 26 0f 57 be ee fb 64 3d cc 41 bd be 74 7e 04 be
       -0.21001872 0.05590432 -0.36964262 -0.12938863
000380 9b 79 7d 3d 28 b0 75 be 38 3e 58 bc 43 48 03 3d
       0.06188355 -0.2399298 -0.013198428 0.032051336
000390 f9 ff 8c be b9 cf 34 3e b6 46 21 be 80 5f 43 be
       -0.27539042 0.17657365 -0.1574963 -0.19079399
0003a0 9b 2c ea bd 1d e4 80 be fc 66 cc ba 73 c3 aa be
       -0.11434289 -0.25174037 -0.0015594657 -0.3335224
0003b0 66 bb c9 3d c6 ce d3 bb c8 a9 f1 3d 25 f7 2c be
       0.098501965 -0.0064638583 0.11799961 -0.16891153
0003c0 d9 80 31 be ef b3 f7 3d 67 dd c7 be aa 2e 7e 3d
       -0.17334308 0.120948665 -0.39036104 0.06205622
0003d0 79 2b ac 3d f1 b7 8d be 26 75 62 be e4 d6 40 be
       0.08406729 -0.276794 -0.22115001 -0.18831974
0003e0 12 ae a7 be 8f 2f 28 be 87 b2 af 3c 70 7c 77 be
       -0.32749993 -0.16424392 0.021447433 -0.24168563
0003f0 16 d1 f3 bd ac a7 4f bd 15 65 83 3d c2 85 01 be
       -0.11905114 -0.050697014 0.06415764 -0.12648681
