modules/prn_gen/exp/en_id/models/unigram/train-decoder-wdecay_1e_5-attn_dot-emb_64-hddn_128-layers_1-epoch_84.pth (torch, 543992 bytes, 7 tensors)

embedding.weight f4 [36, 64]
0	0x3c186c15	0.0093031125
1	0xb920e02e	-0.00015342303
2	0xbbe37e19	-0.0069425222
3	0x3c510fb7	0.012760094
4	0xbb98ec4f	-0.004666842
5	0x3994451a	0.00028280244
6	0x3bcf50e8	0.0063267834
7	0xbb7d9fbf	-0.0038699952
8	0xbca120f7	-0.01966904
9	0x3e084aa5	0.13309725
10	0x3e892c7d	0.26791754
11	0x3c928897	0.017887397
12	0x3ad68e22	0.0016369263
13	0xbc761cc3	-0.015021506
14	0x3d87f510	0.06638539
15	0x3b83a16c	0.0040170457
16	0xbd5d952c	-0.05409734
17	0xbafb5f97	-0.0019178268
18	0x3c20da67	0.009817696
19	0x3fcc0cef	1.5941447
20	0x3bcd01cd	0.006256318
21	0x3af43078	0.0018630167
22	0xba55fba6	-0.0008162804
23	0x39544f93	0.00020247539
24	0x3fa34a35	1.2757021
25	0xbc8dcf6e	-0.017310824
26	0x3ccbea30	0.024891943
27	0x3c31c9a7	0.0108513
28	0x3b81c51f	0.0039602662
29	0x3c03bb85	0.008040314
30	0x3a2d2e57	0.00066063314
31	0x3f199f56	0.6000875
32	0xbaeb5dbf	-0.0017957016
33	0xbd25215c	-0.040315017
34	0x3ce5d822	0.028057162
35	0xbd806072	-0.062683955
36	0xbc152bcf	-0.009104683
37	0xbbf682a9	-0.0075229
38	0x3b95161b	0.0045497543
39	0x3c8211ee	0.01587769
40	0xbb7d569c	-0.003865636
41	0x3c10cbf1	0.008837686
42	0xbb070c8e	-0.0020606848
43	0xbd98f02e	-0.07467686
44	0xbb45990e	-0.0030151042
45	0xbad42aa4	-0.0016187024
46	0xbce77b1c	-0.028256945
47	0x3b001615	0.0019544412
48	0xbcbec48f	-0.023287086
49	0x39a27ba9	0.00030991182
50	0xbba4f2ac	-0.0050338116
51	0xbc152fba	-0.009105617
52	0xbbc50d4d	-0.0060135485
53	0xbb8ffc9c	-0.004394127
54	0x3c1c7ba9	0.009550967
55	0xbea77537	-0.32706615
56	0x3cb4baf9	0.022061812
57	0xbc00dfa7	-0.007865823
58	0xbb685b7c	-0.003545492
59	0x3d9f8ee8	0.07790929
60	0xbcbb31dc	-0.022850923
61	0xbceffa0d	-0.029294038
62	0x3d0473d4	0.032337025
63	0x3c78280e	0.0151462685
64	0x3d1c546b	0.038166445
65	0xbe7b68f9	-0.24551763
66	0x3eaa8e30	0.33311605
67	0xbee83e61	-0.4536009
68	0x3e101a65	0.14072569
69	0x3e893f11	0.26805928
70	0xbd35eece	-0.044417195
71	0xbd0f2e14	-0.034956053
72	0x3df3a57c	0.11896798
73	0xbe34e320	-0.17664766
74	0xbe26a7fd	-0.1627502
75	0x3e5ebc63	0.21751551
76	0xbe5a3e58	-0.21312845
77	0xbcb5205d	-0.022110159
78	0xbeb8b054	-0.36072028
79	0x3d938589	0.07203204
80	0x3dcdbcff	0.10045814
81	0xbecdeda6	-0.40220374
82	0xbeb6938b	-0.3565944
83	0xbd848c27	-0.064720444
84	0xbe7e4763	-0.2483192
85	0xbe860d6e	-0.2618212
86	0xbe8c5a50	-0.27412653
87	0xbdcab9b4	-0.09898701
88	0xbef8df96	-0.48608083
89	0xbdc197b3	-0.094527625
90	0xbe31e41d	-0.17372175
91	0x3e853d40	0.26023293
92	0x3e734922	0.23758367
93	0xbef0d3bc	-0.4703654
94	0x3e719fe2	0.23596147
95	0xbec0843d	-0.3760089
96	0xbc3d9200	-0.011570454
97	0x3e2588ff	0.16165541
98	0xbee5afa5	-0.4486057
99	0xbe0a3f81	-0.13500787
100	0x3d6dd153	0.058060955
101	0x3dfda7b3	0.12385502
102	0xbe69d1bc	-0.22833914
103	0x3e5d518e	0.21613142
104	0xbd7d7a52	-0.061884232
105	0x3e84d6f7	0.25945255
106	0x3ea54445	0.32278648
107	0xbe91cc65	-0.28476253
108	0x3d381d54	0.044949844
109	0x3db54225	0.08850507
110	0x3ec5dc13	0.38644466
111	0x3dc4dc0c	0.09612283
112	0xbdffe09c	-0.12494013
113	0xbdc2f37b	-0.095190965
114	0xbde8dd5e	-0.113703474
115	0xbee8132d	-0.4532713
116	0x3eaaa764	0.33330834
117	0xbec9762b	-0.39347968
118	0xbea4f0af	-0.32214877
119	0x3ee899cb	0.45429835
120	0x3e71559a	0.2356781
121	0x3d563f0f	0.05230623
122	0xbcd82c53	-0.026388323
123	0xbe1d4568	-0.15358508
124	0xbd8274b2	-0.06369914
125	0x3f0135a1	0.50472456
126	0xbd74b8a1	-0.05974639
127	0xbd97e899	-0.07417411
128	0x00055dc4	4.92814e-40
129	0x00055b60	4.91957e-40
130	0x80055e2b	-4.92959e-40
131	0x0006335f	5.69441e-40
132	0x00055f6a	4.93406e-40
133	0x0006d479	6.27234e-40
134	0x80055f62	-4.93394e-40
135	0x0005617d	4.9415e-40
136	0x00056525	4.95461e-40
137	0x0005b6c8	5.24747e-40
138	0x00055fc9	4.93539e-40
139	0x80056184	-4.9416e-40
140	0x80055d56	-4.9266e-40
141	0x00055f6e	4.93411e-40
142	0x8005593b	-4.91187e-40
143	0x00055d41	4.9263e-40
144	0x000557ff	4.90745e-40
145	0x0005629a	4.94549e-40
146	0x8005610a	-4.93989e-40
147	0x80055825	-4.90798e-40
148	0x8005574c	-4.90494e-40
149	0x00055eab	4.93138e-40
150	0x8005636a	-4.9484e-40
151	0x00056166	4.94117e-40
152	0x0005dcba	5.38359e-40
153	0x8005604d	-4.93724e-40
154	0x000564c9	4.95332e-40
155	0x80055b21	-4.91868e-40
156	0x0005629f	4.94556e-40
157	0x800563e9	-4.95018e-40
158	0x000563cb	4.94976e-40
159	0x00055745	4.90484e-40
160	0x00055a41	4.91554e-40
161	0x000562ac	4.94574e-40
162	0x80055fe0	-4.93571e-40
163	0x000563b7	4.94948e-40
164	0x00055a22	4.91511e-40
165	0x00056023	4.93665e-40
166	0x00056442	4.95143e-40
167	0x80055f2a	-4.93316e-40
168	0x00055892	4.9095e-40
169	0x800562ff	-4.9469e-40
170	0x80055d74	-4.92702e-40
171	0x000558d5	4.91044e-40
172	0x0006cbb7	6.24092e-40
173	0x80055dbe	-4.92806e-40
174	0x80055afe	-4.9182e-40
175	0x00055b2f	4.91888e-40
176	0x8005575e	-4.90519e-40
177	0x00055e69	4.93045e-40
178	0x8005590e	-4.91124e-40
179	0x80055798	-4.906e-40
180	0x00056247	4.94433e-40
181	0x00056560	4.95544e-40
182	0x000559f3	4.91445e-40
183	0x00056346	4.9479e-40
184	0x80055b66	-4.91965e-40
185	0x800563ee	-4.95025e-40
186	0x0005576a	4.90536e-40
187	0x8005646b	-4.952e-40
188	0x00056294	4.9454e-40
189	0x80055aaf	-4.91709e-40
190	0x00055f25	4.93309e-40
191	0x80055efc	-4.93251e-40
192	0xbcf8c647	-0.030367984
193	0x3f341229	0.7034021
194	0xbe3e30af	-0.18573259
195	0x3ed26004	0.4108888
196	0xbe5624a2	-0.20912412
197	0xbd632e65	-0.055464167
198	0x3dd0d4d1	0.101968415
199	0xbcbe7710	-0.023250133
200	0xbe4dd5d1	-0.20101096
201	0xbeb8c7ad	-0.3608984
202	0xbd53238b	-0.05154757
203	0x3e8a39b9	0.26997164
204	0x3ea74fc6	0.3267805
205	0xbd8b76f4	-0.06809798
206	0x3eca05b3	0.39457473
207	0xbe11e465	-0.14247282
208	0xbdc022d1	-0.09381641
209	0xbdd99c1f	-0.10625481
210	0x3e696a7f	0.22794531
211	0xbfaff7dc	-1.3747516
212	0x3d02abf6	0.031902276
213	0xbd878e41	-0.0661893
214	0xbed06bf0	-0.4070735
215	0xbde8f868	-0.11375505
216	0x3d7cb5b1	0.061696712
217	0xbf42c468	-0.7608094
218	0x3d05304e	0.03251677
219	0xbd42338c	-0.04741244
220	0x3cf01f48	0.029311791
221	0x3ca2ecb3	0.019888258
222	0x3d6693a8	0.05629316
223	0x3e33a13d	0.17541976
224	0xbd0b040b	-0.033939403
225	0xbe94eaa4	-0.29085267
226	0x3e91c1b1	0.28468087
227	0xbea70f28	-0.3262875
228	0xbf119fa5	-0.56884223
229	0x3cc37754	0.023860611
230	0xbda5bbc3	-0.08092453
231	0x3e2e0941	0.16995718
232	0xbe8e386b	-0.27777418
233	0x3e719dbb	0.23595326
234	0x3dbf41a0	0.09338689
235	0xbe162c88	-0.14665425
236	0xbd10d912	-0.035363264
237	0x3ee1e6bd	0.44121352
238	0x3d86599c	0.065600604
239	0xbdd5efae	-0.10446106
240	0xbe21b1ea	-0.15790525
241	0xbec6fc8f	-0.38864562
242	0xbecaac56	-0.39584607
243	0x3d21d0b6	0.039505683
244	0xbd04a425	-0.032383103
245	0x3e30afde	0.17254588
246	0xbce1b839	-0.027553665
247	0x3ea76401	0.32693484
248	0xbf1ec643	-0.62021273
249	0xbeed820a	-0.46388274
250	0xbf3576d1	-0.70884424
251	0x3cea4917	0.028599305
252	0xbe489087	-0.19586383
253	0xbf3cb4c1	-0.7371331
254	0x3e42b4a8	0.19014227
255	0x3c850664	0.016238399

gru.weight_ih_l0 f4 [384, 192]
0	0x3b638962	0.0034719338
1	0x3db97c1c	0.09056875
2	0x3c93cce8	0.018042043
3	0xbdba1986	-0.090868995
4	0xbd264df4	-0.040601686
5	0xbd02cfa8	-0.031936318
6	0xbd958202	-0.07300188
7	0x3cd91d26	0.026503157
8	0x3cfb14cf	0.03064957
9	0x3dc185b2	0.094493285
10	0x3d224d72	0.03962464
11	0xbc180af4	-0.009279955
12	0x3d3dd1ec	0.046342775
13	0x3ce17dc6	0.027525794
14	0x3bf9609a	0.0076103928
15	0x3d9b58df	0.0758531
16	0xbd2a345a	-0.041553833
17	0xbc91d50c	-0.017801784
18	0xbb3e5bed	-0.0029046491
19	0x3cfb53f3	0.030679679
20	0xbc9d639b	-0.019212535
21	0x3cb68996	0.022282403
22	0xbe04e5b1	-0.12978245
23	0x3b24ddc2	0.0025156592
24	0x3d82266b	0.06354984
25	0xbcd09764	-0.025462814
26	0x3ca83215	0.020531693
27	0xbd06b5e9	-0.032888327
28	0x3b0cbb5c	0.002147398
29	0x3d242ace	0.040079884
30	0xbc1d324e	-0.009594513
31	0x3d8e9460	0.06961894
32	0xbd33dcc3	-0.043911707
33	0x3cf842f1	0.030305358
34	0x3cb540e7	0.022125674
35	0x3d01ad16	0.03165921
36	0x3b90c615	0.0044181445
37	0x3d1f763a	0.03893111
38	0x3cfe80bb	0.031067243
39	0xbd59a9d9	-0.053140495
40	0xbd0594c5	-0.03261258
41	0xbbc089ac	-0.0058757868
42	0x3d79b940	0.060967684
43	0x3c3e6e3f	0.011622964
44	0xbdc51917	-0.09623926
45	0x3d30731f	0.043078538
46	0xbc3ab969	-0.011396744
47	0x3b3c2dda	0.0028713853
48	0xbce50aae	-0.027959194
49	0x3c305e97	0.0107647395
50	0xbc130e74	-0.008975614
51	0x3bbab05b	0.0056972927
52	0xbc5e4a1c	-0.013567474
53	0x3c2e6af5	0.010645618
54	0xbc979be8	-0.01850696
55	0xbb571294	-0.003281747
56	0xbb02443c	-0.0019877097
57	0x3d2ca680	0.042150974
58	0xbd1cfac8	-0.0383251
59	0x3d843b93	0.064566754
60	0x3d9c642c	0.07636294
61	0x3d1843f0	0.037174165
62	0xbd0b3b85	-0.03399231
63	0x3d7563d5	0.05990966
64	0xbde4bb62	-0.11168553
65	0x3c0ad5f1	0.008473859
66	0xbdc3e908	-0.095659316
67	0xbc3f51ae	-0.011677189
68	0x3cc26dc1	0.023733975
69	0x3de1e105	0.11029247
70	0x3d362d08	0.04447654
71	0xbd305103	-0.04304601
72	0x3d009c0d	0.03139882
73	0xbddce019	-0.10784931
74	0xbc961f6c	-0.01832553
75	0x3cde104c	0.02710738
76	0xbbb89120	-0.0056325346
77	0x3d1298bf	0.0357902
78	0x3d9acea7	0.07558947
79	0x3db449a1	0.08803106
80	0x3c3dbc8b	0.011580597
81	0xbd88377b	-0.06651207
82	0xbdd4dfcc	-0.10394248
83	0xbcbc09a7	-0.022953821
84	0x3d853d15	0.06505791
85	0x3c89e3a5	0.016832182
86	0x3de139e1	0.10997368
87	0xbcec01b2	-0.028809402
88	0x3d4a996b	0.049462717
89	0x3cfd27af	0.030902712
90	0xbda5f8b0	-0.08104074
91	0x3da76a27	0.08174544
92	0xbd7bd870	-0.061485708
93	0x3d98d04b	0.07461604
94	0xbc941fe5	-0.018081615
95	0xbc1f65cd	-0.009728861
96	0xbd500ef9	-0.05079553
97	0x3c0fb14b	0.008770297
98	0xbdcd3a83	-0.10020926
99	0xbba48579	-0.005020794
100	0xbd39b45f	-0.04533803
101	0xbc2617e9	-0.010137537
102	0x3dcf8fff	0.10134887
103	0xbcb25b9c	-0.021772198
104	0xbc7fd5e3	-0.015614959
105	0x3cb40724	0.021976061
106	0xbd392792	-0.045203753
107	0xbc5ec736	-0.0135973
108	0xbcd31db7	-0.025771005
109	0xbcaf3377	-0.021386845
110	0xbd16a462	-0.03677786
111	0xbc3a7e78	-0.011382692
112	0xbd024086	-0.031799816
113	0xbd2a3325	-0.04155268
114	0x3c51ded7	0.012809477
115	0x3d495deb	0.049161833
116	0xbcf1c344	-0.029512055
117	0x3d625559	0.055257175
118	0x3d9ed8cb	0.07756194
119	0xbceb0a0e	-0.028691318
120	0x3d6e3c8e	0.05816322
121	0xbcb12da9	-0.021628218
122	0xbb349373	-0.0027553707
123	0x3c5e7ab9	0.013579064
124	0x3bf230f5	0.00739109
125	0xbd0e6c18	-0.034771055
126	0xbd503601	-0.050832752
127	0xba942791	-0.0011303296
128	0xbc48541a	-0.012227083
129	0xbd4dcc00	-0.050243378
130	0x3c02c812	0.007982271
131	0xbcb3422e	-0.021882143
132	0x3c870d73	0.016485905
133	0xbc9fb7f5	-0.019496897
134	0xbc918f8f	-0.01776865
135	0x3b8f985e	0.0043821773
136	0x3da7b76e	0.08189283
137	0x3dc9cda5	0.09853677
138	0x3ca46b21	0.020070614
139	0x3b208b1d	0.002449698
140	0xbbd70cbd	-0.006562798
141	0x3d0b80d3	0.034058403
142	0x3c442046	0.011970585
143	0xbca645ae	-0.020296898
144	0x3d948af8	0.07253069
145	0x3cf3dd19	0.029768514
146	0xbce9c2a0	-0.028535187
147	0x3b87d2b2	0.00414499
148	0x3cb0e27d	0.021592373
149	0x3dc6f34a	0.097143725
150	0x3ceb4ebc	0.028724067
151	0x3d136fa0	0.035995126
152	0x3a0c0327	0.0005341046
153	0x3dc45b0d	0.09587679
154	0x3926246f	0.00015844566
155	0x3ca6e7e8	0.020374253
156	0xbbcf111b	-0.006319178
157	0xbcb9ff14	-0.022704639
158	0x3d7a920c	0.061174437
159	0xbcda0366	-0.026612949
160	0xbccf4823	-0.025302952
161	0x3de989ca	0.11403234
162	0x3c6d9b33	0.014502334
163	0xbdc9d416	-0.09854905
164	0xbc3fa071	-0.011695967
165	0xbc430d57	-0.011905036
166	0x3c450531	0.0120251635
167	0xbcf9fb42	-0.030515317
168	0xbc081889	-0.008306631
169	0xbd4292ec	-0.047503397
170	0x3dd0f1a2	0.10202338
171	0x3c860b45	0.016362796
172	0xbdccbd8a	-0.09997089
173	0x3c307ee3	0.01077244
174	0xbdaf5932	-0.085619345
175	0x3bc41a90	0.005984612
176	0xbd10545d	-0.035236705
177	0xbc2912d3	-0.010319429
178	0x3d8c205b	0.06842109
179	0xbcb5e65b	-0.022204569
180	0x3da3ee59	0.080044456
181	0xbd9968dc	-0.074907035
182	0x3cf8b1d3	0.03035823
183	0x3bed92ba	0.007250157
184	0x3d0518f6	0.032494508
185	0xbbc1b87c	-0.005911885
186	0x3e114c29	0.14189209
187	0xbaf5bd33	-0.0018748402
188	0x3cebd06e	0.02878591
189	0x3c1d5526	0.0096028205
190	0x3d1fc6ee	0.039008074
191	0x3cffe27e	0.03123593
192	0x3d08a2a2	0.033358224
193	0x3d08269e	0.033239953
194	0x3c7e9db2	0.015540527
195	0xbca94df0	-0.020667046
196	0xbc9f88e7	-0.01947446
197	0xbbc955db	-0.006144268
198	0x3cbe8c0a	0.023260135
199	0xbc8b5489	-0.017008083
200	0xbd3367db	-0.043800216
201	0x3a8b709a	0.0010638416
202	0x3c2c46e3	0.010514948
203	0x3c5bbe17	0.01341202
204	0xbce718d2	-0.028210077
205	0xbc95b26c	-0.018273555
206	0x3cbc0f5c	0.022956543
207	0xbc6b675e	-0.014367906
208	0x3d1cdffe	0.038299553
209	0xbc831960	-0.01600331
210	0xbcbc0f61	-0.022956552
211	0x3e0f6e4c	0.14006919
212	0x3bee3e52	0.0072706128
213	0xbd06ec23	-0.03294004
214	0x3c0ed040	0.008716643
215	0x3ce226e3	0.027606433
216	0x3daad4f9	0.083414026
217	0x3ca23df1	0.019804927
218	0x3cfae19d	0.030625159
219	0x3af358ff	0.0018565952
220	0x3cedeed9	0.029044556
221	0xbb914cac	-0.004434189
222	0xbc31d4bf	-0.010853945
223	0xbb97beb2	-0.004630887
224	0xbc16f565	-0.00921378
225	0xbae58eb4	-0.0017513842
226	0x3d284edd	0.041090835
227	0x3c987aae	0.018613186
228	0xbd4eadb6	-0.050458632
229	0x3c0b4e44	0.008502547
230	0x3aa266a6	0.0012390211
231	0x3b893969	0.004187752
232	0xbc4620ac	-0.0120927505
233	0x3ae871b1	0.0017734078
234	0xbc87015d	-0.016480142
235	0x3c35438c	0.011063468
236	0x3c8e875e	0.017398532
237	0xbcaa83c3	-0.020814782
238	0x3c42bcac	0.011885803
239	0x3bc18fd4	0.005907038
240	0xbcc7e6c9	-0.02440204
241	0x3d4e2e0d	0.050336886
242	0x3c3081ad	0.010773105
243	0x3c9a4330	0.018830866
244	0x3cf726f6	0.030169945
245	0xbcd3cee7	-0.025855495
246	0xbb9ba06c	-0.0047493484
247	0xbaad534c	-0.0013223677
248	0x3c267149	0.010158845
249	0xbc79483c	-0.015214976
250	0x3ca7df2f	0.020492164
251	0x3d600ec9	0.0547016
252	0x3cf30788	0.029666677
253	0xbb40aa9a	-0.0029398561
254	0x3bd1cf6a	0.0064028995
255	0x3c02fac4	0.0079943575

gru.weight_hh_l0 f4 [384, 128]
0	0xbdfabfef	-0.1224364
1	0xbd8eb5b8	-0.06968254
2	0x3e05dbb7	0.13072096
3	0xbd22cff8	-0.039749116
4	0xbe0bca09	-0.13651289
5	0xbc483c02	-0.012221338
6	0xbe139cf4	-0.14415342
7	0x3d3d2cd2	0.046185322
8	0x3dd403c8	0.10352284
9	0xbce7bfca	-0.028289694
10	0xbca7bb34	-0.020475008
11	0xbd3c26eb	-0.045935553
12	0x3dc65f5b	0.09686156
13	0xbe1329ed	-0.14371462
14	0xbdbd5a74	-0.09245768
15	0xbd27906e	-0.040909223
16	0x3db2f9de	0.08739065
17	0xbd144a54	-0.036203697
18	0xbda76f2d	-0.08175502
19	0x3be2c23d	0.0069201277
20	0xbcb4c5ad	-0.022066915
21	0x3e0d4a09	0.13797773
22	0x3d762328	0.06009212
23	0xbdd755bb	-0.10514399
24	0xbe1a04d9	-0.15040912
25	0x3d6102d3	0.054934334
26	0x3cee5b43	0.029096251
27	0x3d6fe72f	0.058570083
28	0x3e3bd3dd	0.18342538
29	0x3d9a5b3b	0.07536932
30	0x3da9905c	0.082794875
31	0xbc21777e	-0.009855149
32	0x3dc7e7b5	0.097609915
33	0x3e259c93	0.1617301
34	0xbcf52660	-0.029925525
35	0xbb5e06a4	-0.003387847
36	0xbb8061de	-0.0039179167
37	0x3cb0fcee	0.021604981
38	0x3e5b995f	0.21445225
39	0xbde73c57	-0.11290806
40	0x3ced9bf2	0.029005025
41	0x3d8cbecc	0.06872329
42	0xbde0b101	-0.10971261
43	0x3d97bde6	0.07409267
44	0xbc21519f	-0.00984612
45	0xbb71f90e	-0.003692213
46	0x3d3cc3b4	0.046085075
47	0x3d2f1cfe	0.04275226
48	0x3d3281e7	0.043580916
49	0x3d4b3c5b	0.049618106
50	0xbb6f804b	-0.0036544974
51	0xbb4a95bf	-0.003091201
52	0xbcb92cc0	-0.022604346
53	0xbb833d86	-0.004005137
54	0x3df23fe0	0.118285894
55	0xbdb863e1	-0.090034254
56	0xbdacbf32	-0.08434905
57	0x3db6fd90	0.08935082
58	0x3cd17678	0.025569186
59	0x3b53d35d	0.0032322027
60	0x3dc31567	0.095255665
61	0x3d938961	0.07203937
62	0x3cd356b9	0.025798189
63	0x3d64acb9	0.055828784
64	0x3c2f94cf	0.010716631
65	0x3c3c430a	0.011490593
66	0xbd9e7c87	-0.077385955
67	0xbdb43483	-0.08799078
68	0xbcd23fb1	-0.025665136
69	0xbd5a37d1	-0.053275887
70	0xbd4c7528	-0.049916416
71	0xbd0c1f47	-0.034209516
72	0xbceff657	-0.029292269
73	0xbc9352c5	-0.017983804
74	0x3d083aeb	0.033259314
75	0x3bbef2bc	0.005827276
76	0x3db09c1d	0.08623526
77	0x3ddc2309	0.1074887
78	0x3b03259b	0.0020011428
79	0x3cb76a1e	0.022389468
80	0x3d03330e	0.03203111
81	0xbdd34266	-0.10315399
82	0x3e5c6f4e	0.21526834
83	0xbc986b76	-0.018605929
84	0x3d930961	0.07179523
85	0xbe475f15	-0.19469865
86	0x3cb401e7	0.021973563
87	0x3dca8b84	0.09889892
88	0x3df225e7	0.118236355
89	0xbd0b9687	-0.0340791
90	0xbc4276b5	-0.011869122
91	0xbcdd1d44	-0.026991494
92	0xbd44ded1	-0.048064057
93	0x3c426545	0.011864965
94	0x3c24cbf8	0.010058396
95	0xbca5302c	-0.020164572
96	0x3df884a3	0.121346734
97	0xbd87932e	-0.06619869
98	0xbd30a62a	-0.043127216
99	0x3d467c93	0.048458647
100	0x3b043ca9	0.0020177758
101	0x3d95b9d2	0.07310833
102	0xbcf4539c	-0.029825024
103	0xbe291282	-0.16510966
104	0xbd29c743	-0.041449796
105	0xbd0edb69	-0.034877215
106	0xbcd2bf19	-0.025725888
107	0x3b9a2611	0.004704245
108	0xbd3b350e	-0.045704894
109	0x3cbc6b63	0.023000425
110	0xbe113c9f	-0.14183281
111	0xbcf1341f	-0.029443799
112	0x3b9f1156	0.0048543615
113	0x3d912a6f	0.07088172
114	0x3db6666a	0.08906253
115	0xbd50235c	-0.05081497
116	0x3dc09a64	0.09404448
117	0xbd08b8ee	-0.033379488
118	0xbdd619e6	-0.104541585
119	0xbce64b32	-0.028112028
120	0xbdaa5fa5	-0.08319024
121	0x3d07767b	0.033071976
122	0xbd9a3266	-0.07529144
123	0x3d836c93	0.06417193
124	0x3d5494a7	0.05189958
125	0x3c436074	0.011924852
126	0x3dae473e	0.08509682
127	0xbd39fad2	-0.045405217
128	0x3d1839e6	0.03716459
129	0x3dedd0f2	0.11612119
130	0x3ccd59eb	0.02506729
131	0x3d084534	0.033269122
132	0x3d794302	0.06085492
133	0x3dccce5a	0.10000296
134	0xbe0e464b	-0.13894002
135	0x3c91b74a	0.017787594
136	0x3d1da2ff	0.038485523
137	0x3d2e5794	0.04256399
138	0xbc0671e8	-0.008205868
139	0x3d7c9389	0.061664138
140	0xbb930eb7	-0.004487838
141	0xbd25a14d	-0.04043703
142	0xbd85b461	-0.06528545
143	0xbd7a5cb4	-0.061123565
144	0x39eab91e	0.0004476988
145	0x3cd5f5b6	0.02611814
146	0x3c6767d0	0.014123872
147	0x3e0ce9fd	0.13761134
148	0xbc84c129	-0.016205387
149	0xbd75af43	-0.059981596
150	0xbcda3771	-0.026637765
151	0x3de888e9	0.113542385
152	0x3deab8fd	0.11461065
153	0x3e0be465	0.13661344
154	0x3c2d9d84	0.010596637
155	0xbd2cd63d	-0.0421965
156	0x3e545528	0.2073561
157	0xbd5fa4d4	-0.05460055
158	0xbe0eff39	-0.13964547
159	0xbcfde7c6	-0.030994307
160	0x3d3aa84f	0.045570668
161	0xbc023e90	-0.007949486
162	0x3e04b167	0.12958299
163	0x3b6f5445	0.0036518734
164	0xbd049994	-0.032373026
165	0xbbd076b8	-0.0063618086
166	0x3cfb765c	0.030696087
167	0xbdfd937f	-0.12381648
168	0xbd821bd2	-0.063529626
169	0x3dd25dc7	0.10271793
170	0xbc50fadc	-0.012755122
171	0x3d751b2e	0.059840374
172	0xbd6b0aa8	-0.05738321
173	0x3d9e54c1	0.07731009
174	0xbcea8bc1	-0.028631093
175	0xbe156d43	-0.14592461
176	0xbd02471c	-0.031806096
177	0x3c9a270b	0.018817445
178	0xbc8b7436	-0.017023187
179	0x3c591a04	0.0132508315
180	0x3cfd81d8	0.030945703
181	0xbde97bcc	-0.114005655
182	0x3d4ba132	0.049714275
183	0x3d5a5ff3	0.05331416
184	0x396c9d39	0.00022565284
185	0xbddffb79	-0.109366365
186	0xbca15039	-0.019691573
187	0x3d0d2107	0.034455325
188	0xbcca55ff	-0.02469921
189	0x3bae24dd	0.005314453
190	0x3b022bbe	0.0019862498
191	0xbd6573a6	-0.056018494
192	0xbda37504	-0.07981303
193	0xbdbc4b73	-0.09194078
194	0xbd867140	-0.065645695
195	0xbdcb8ea8	-0.09939319
196	0x3e03f469	0.12886204
197	0x3b3bf279	0.002867846
198	0xbe3aaee3	-0.18230776
199	0x3cc707dc	0.02429574
200	0xbd111cca	-0.035427846
201	0xbaf8ad5e	-0.0018972566
202	0xbcf29980	-0.02961421
203	0x3e32d20a	0.17462936
204	0xbd10c8ab	-0.035347622
205	0x3cd7688b	0.026294967
206	0x3d13686f	0.035988268
207	0xbdfa7ef6	-0.12231247
208	0xbcb6d1a3	-0.02231676
209	0xbd1e65f3	-0.038671445
210	0x3d05bfbf	0.032653566
211	0x3b50dc3a	0.0031869547
212	0x3dd694cf	0.10477602
213	0xbdcbd42b	-0.09952577
214	0xbc9a1714	-0.018809833
215	0xbdf7e4f3	-0.121042155
216	0x3dc7ec54	0.09761873
217	0x3d94c068	0.07263261
218	0x3d054808	0.032539397
219	0x3caacbd7	0.020849152
220	0x3b973dc6	0.0046155183
221	0xbd18fe04	-0.037351623
222	0x3de2880a	0.11061104
223	0xbd0d57a9	-0.034507427
224	0x3e1b6c2e	0.15177986
225	0xbcae86f1	-0.02130458
226	0xbdd3885e	-0.10328744
227	0x3d1a542b	0.037677925
228	0xbc0ad8cc	-0.00847454
229	0x3e01dc5b	0.12681715
230	0xbd672de6	-0.056440257
231	0x3ce6b3dd	0.028161937
232	0xbb5bf552	-0.003356297
233	0x3d198f09	0.037489925
234	0xbdc37613	-0.09544005
235	0xbd5f766e	-0.054556303
236	0x3d627a32	0.055292316
237	0xbd4b794d	-0.04967623
238	0x3e5307ae	0.20608398
239	0x3d5fa050	0.054596245
240	0xbd66188d	-0.056175757
241	0xbd933947	-0.07188659
242	0xbdbaa74a	-0.09113939
243	0x3b3d3fc2	0.0028877114
244	0x3d4cbf8a	0.049987353
245	0x3d6cd912	0.057824202
246	0x3dcba3a1	0.09943319
247	0x3d0e387b	0.034721833
248	0x3d256a2f	0.040384468
249	0xbe2cb743	-0.16866784
250	0xbd5c08ec	-0.053719446
251	0x3ba06c9e	0.0048957607
252	0xbb88b4c8	-0.0041719414
253	0x3d373d93	0.044736456
254	0xbcebe7ca	-0.02879705
255	0x3c9dce90	0.019263536

gru.bias_ih_l0 f4 [384]
0	0x3ddac2c4	0.1068168
1	0x3db66678	0.08906263
2	0x3cf03d3c	0.029326074
3	0xbd05fbf6	-0.03271099
4	0x3c906fd3	0.017631447
5	0x3e562dae	0.20915863
6	0xbe7519fe	-0.23935696
7	0xbd7de1d5	-0.06198295
8	0xbdcb5b0b	-0.099294744
9	0xbdf3b666	-0.11900024
10	0x3d41d223	0.047319543
11	0x3d8777fa	0.066146806
12	0x3db16353	0.08661523
13	0xbdc92f7f	-0.09823512
14	0x3d8ae3f0	0.06781757
15	0x3db89c99	0.09014244
16	0x3c324cbe	0.010882555
17	0xbd0c23ad	-0.03421371
18	0xbd77d4ef	-0.060505804
19	0x3d25a448	0.040439874
20	0x3d294981	0.041329864
21	0xbda5aaea	-0.0808924
22	0x3d5d5fc1	0.054046396
23	0xbc72c418	-0.01481726
24	0xbb965f45	-0.0045889937
25	0x3ba728b2	0.005101287
26	0xbca02ad7	-0.019551678
27	0x3d42b36d	0.047534395
28	0xbe25a337	-0.16175543
29	0x3df47290	0.119359136
30	0x3bcbd8b5	0.006220902
31	0xbd98f9d7	-0.07469528
32	0x3bc5b99d	0.0060340897
33	0x3c66d1b4	0.014088083
34	0x3d3b9fcc	0.04580669
35	0x3e503475	0.20332511
36	0x3e0a7926	0.13522777
37	0x3d418231	0.0472433
38	0x3c43d580	0.011952758
39	0xbdf98d8d	-0.12185202
40	0xbb3bda2e	-0.002866398
41	0xbde58cae	-0.11208473
42	0x3c2a8a87	0.010409004
43	0xbd9070b4	-0.070527464
44	0x3d76239b	0.06009255
45	0xbe31b3f5	-0.17353804
46	0x3e22d13d	0.1590013
47	0xbdf37294	-0.118870884
48	0xbd9be5ea	-0.07612212
49	0x3d54c8b9	0.051949237
50	0x3db0d65e	0.08634637
51	0x3ce0df56	0.027450245
52	0x3e1d3502	0.15352252
53	0xbdccb4ce	-0.09995423
54	0xba584e69	-0.000825143
55	0xbd0f6d42	-0.035016306
56	0xbdfcec22	-0.12349726
57	0x3de0860b	0.10963067
58	0xbe20c095	-0.15698464
59	0x3dae3667	0.0850647
60	0xbc39c8de	-0.011339394
61	0xbe11cb8e	-0.14237806
62	0xbd4013ec	-0.046894
63	0xbcf7a18a	-0.030228395
64	0x3c123474	0.008923639
65	0xbd523d8e	-0.051328234
66	0xbdc43791	-0.09580911
67	0x3d3eb7b3	0.046561908
68	0xbd838195	-0.064212
69	0x3bd050dc	0.0063572954
70	0x3d82ab8e	0.06380378
71	0xbd027df0	-0.031858385
72	0xbddd5635	-0.10807458
73	0x3c6e84d8	0.01455804
74	0xbd2627db	-0.040565353
75	0x3e22a066	0.158815
76	0x3b950122	0.004547254
77	0xbb662f6f	-0.0035123487
78	0xbdc23a64	-0.094837934
79	0xbb2ac1c0	-0.0026055425
80	0x3dcb12d5	0.09915701
81	0xbcd9b1a2	-0.02657396
82	0xbd55f125	-0.052231926
83	0x3c22438c	0.0099038
84	0x3d4be3c5	0.049777765
85	0x39f371b5	0.0004643329
86	0x3daaeda9	0.08346111
87	0xbddc2481	-0.1074915
88	0xbddc31fc	-0.10751721
89	0xbdea308f	-0.11435043
90	0x3b921666	0.0044582365
91	0x3d196ab7	0.037455287
92	0xbde19336	-0.110144064
93	0x3ce4f184	0.027947195
94	0xbd65211d	-0.055939782
95	0xbd93f1fb	-0.072238885
96	0xbd038ceb	-0.03211681
97	0xbe1c666d	-0.15273447
98	0xbd7cfffd	-0.061767567
99	0x3b081a11	0.002076749
100	0xbd336568	-0.04379788
101	0xbc21ecba	-0.0098831
102	0x3d9a7fc4	0.075439006
103	0x3dc1d60d	0.09464655
104	0x3d260c9b	0.040539365
105	0xbdab633c	-0.08368537
106	0x3d6b0622	0.057378896
107	0xbcbe4953	-0.023228323
108	0xbcfe7007	-0.031059278
109	0xbda05708	-0.078291
110	0xbae912bf	-0.0017782076
111	0x3ce36ed8	0.027762815
112	0xbe06650b	-0.13124482
113	0xbd2b6c02	-0.04185105
114	0xbe36088d	-0.177767
115	0xbcc8a864	-0.024494357
116	0x3d5548a4	0.05207123
117	0xbe030ad8	-0.12797105
118	0xbd63b24d	-0.055589963
119	0x3c1537b2	0.009107517
120	0x3de6e294	0.11273685
121	0x3d10a8f2	0.03531737
122	0xbc82d3ce	-0.015970137
123	0xbd1e0028	-0.038574368
124	0xbbec4e9e	-0.0072115203
125	0x3beb8621	0.0071876203
126	0x3cd3f81b	0.025875142
127	0x3c6429cd	0.013925982
128	0x3e1f3679	0.15548123
129	0x3e9d3bec	0.3070978
130	0xbe39be03	-0.1813889
131	0x3e8b68e8	0.27228475
132	0xbed2d8de	-0.41181082
133	0xbe666be5	-0.22502096
134	0xbe81ab56	-0.2532603
135	0x3d47d79a	0.048789598
136	0x3e840725	0.257867
137	0x3eaa305b	0.33240017
138	0x3eef1330	0.46694326
139	0x3f1c3168	0.6101289
140	0xbdcbb1ea	-0.09946044
141	0x3dde84c2	0.10865165
142	0x3e9d6978	0.3074453
143	0x3f302c93	0.68818015
144	0x3e3fa0d6	0.18713698
145	0xbe17f9c3	-0.1484137
146	0xbe1a8c8f	-0.15092681
147	0x3ea8da50	0.3297906
148	0xbe48958f	-0.19588302
149	0x3e6c5798	0.2308029
150	0x3f0798af	0.5296735
151	0x3e9a4aca	0.30135185
152	0x3e6d4d61	0.23174049
153	0x3dee1271	0.11624611
154	0xbe12769d	-0.1430306
155	0xbe9c8bfb	-0.30575547
156	0x3e9dc083	0.30810937
157	0x3ed219f4	0.41035426
158	0x3ecb6641	0.3972645
159	0x3eb38f42	0.35070235
160	0x3e8bc623	0.27299604
161	0x3e7ca916	0.24673876
162	0xbe7d13f0	-0.24714637
163	0xbe7fe62c	-0.24990147
164	0x3ed4ca66	0.41560668
165	0xbe7e9ea6	-0.24865207
166	0xbda9ba29	-0.0828746
167	0x3dabe622	0.08393504
168	0xbe1f2a2c	-0.15543431
169	0x3b4783c4	0.0030443529
170	0xbe0da4cd	-0.13832398
171	0xbea48706	-0.32134265
172	0x3ecca1b6	0.39967126
173	0xbd783048	-0.06059292
174	0xbee25996	-0.44208974
175	0x3db83bda	0.08995791
176	0x3e850a60	0.25984478
177	0x3bc834f0	0.0061098263
178	0xbe136d1a	-0.14397088
179	0x3f347544	0.70491433
180	0xbe808522	-0.25101572
181	0xbe9d7f66	-0.3076126
182	0x39d4d5a2	0.0004059496
183	0x3ca7fcd1	0.020506294
184	0x3d44fe03	0.048093807
185	0xbc985de2	-0.018599454
186	0xbe7595ec	-0.23982972
187	0x3ed52a8c	0.41634023
188	0xbe257fd6	-0.16162047
189	0xbea36d44	-0.319193
190	0x3f11c49d	0.56940633
191	0x3ef88be0	0.48544216
192	0xbcb6523a	-0.022256006
193	0x3ecc388e	0.39886898
194	0xbe7d22e4	-0.24720341
195	0x3e9bcd44	0.30430043
196	0xbea3187a	-0.31854612
197	0xbe9bbe20	-0.3041849
198	0x3f1c009f	0.6093845
199	0x3ee3af97	0.44469902
200	0x3e0e3fac	0.13891476
201	0xbe8b643f	-0.2722492
202	0x3e6f8465	0.23390348
203	0x3d1f2694	0.03885515
204	0xbe9a282d	-0.30108777
205	0x3d784b19	0.060618494
206	0xbe174828	-0.14773619
207	0x3e6c14ef	0.2305486
208	0x3ea178a2	0.31537348
209	0xbe9a4eb9	-0.30138186
210	0x3e2a777c	0.16647142
211	0x3f06fedf	0.5273265
212	0x3d7b569e	0.0613619
213	0x3eb3a5ef	0.35087535
214	0x3d998915	0.074968494
215	0xbd5cb1ab	-0.053880375
216	0xbe01c01b	-0.12670939
217	0xbe35a66a	-0.17739263
218	0x3e274b12	0.16337231
219	0x3dba6774	0.09101763
220	0xbe5af41b	-0.21382181
221	0x3cdf3ff3	0.027252173
222	0x3e3a4767	0.181913
223	0x3e37fe70	0.17968154
224	0x3f0f073c	0.55870414
225	0xbe63615c	-0.22205108
226	0x3e870d51	0.26377347
227	0xbb443f65	-0.0029945013
228	0xbcd891de	-0.026436742
229	0x3e0d5e93	0.13805608
230	0x3eea5252	0.4576593
231	0xbc44ebc0	-0.012019098
232	0x3e4b185f	0.19833516
233	0x3ac7d2fe	0.0015245376
234	0xbe513b8b	-0.2043287
235	0xbdf188ca	-0.117936686
236	0x3efd7799	0.49505308
237	0x3e7aba94	0.24485236
238	0x3f17106f	0.5900945
239	0xbdf0432d	-0.11731563
240	0xbead5bca	-0.33859092
241	0xbc14b68a	-0.009076724
242	0xbe827bda	-0.25485116
243	0x3e53f344	0.20698267
244	0xbe2e307b	-0.17010681
245	0x3e7266e1	0.23672058
246	0x3ea0b5be	0.31388658
247	0x3eda23a3	0.42605314
248	0x3e43798c	0.19089335
249	0xbe530bf1	-0.20610024
250	0xbd737728	-0.059439808
251	0xbdc7add4	-0.09749952
252	0xbe8b3ab2	-0.27193218
253	0x3f0f1fa2	0.5590764
254	0xbe6d4052	-0.23169068
255	0x3ea515dd	0.32243243

gru.bias_hh_l0 f4 [384]
0	0x3ddba5f7	0.10725015
1	0x3db5c1fd	0.08874891
2	0x3cc755c7	0.024332894
3	0xbd05fc16	-0.03271111
4	0x3ccdb0c7	0.025108708
5	0x3e4c0ea9	0.19927467
6	0xbe72f268	-0.23725283
7	0xbd92d8b1	-0.07170237
8	0xbdd68720	-0.10474992
9	0xbdec360d	-0.11533747
10	0x3d41ee96	0.047346674
11	0x3d877908	0.06614882
12	0x3db0e03d	0.0863652
13	0xbdcf11bd	-0.10110805
14	0x3d96e42b	0.07367738
15	0x3db89c99	0.09014244
16	0x3c84be63	0.016204065
17	0xbd4a5e42	-0.049406298
18	0xbd5cd388	-0.05391267
19	0x3d25a448	0.040439874
20	0x3d295d4c	0.04134874
21	0xbda6ded2	-0.08147968
22	0x3d5d5fc1	0.054046396
23	0xbc756611	-0.014977948
24	0xbb953bb7	-0.0045542377
25	0x3ba7b730	0.005118273
26	0xbc73afea	-0.014873484
27	0x3d12839b	0.03577004
28	0xbe2d4cac	-0.16923779
29	0x3df46e5c	0.11935112
30	0x3b59b15e	0.0033217291
31	0xbd97e3fd	-0.07416532
32	0x3ba3575f	0.0049847807
33	0x3c13a5c6	0.009011691
34	0x3cbd76a5	0.023127863
35	0x3e57f778	0.21090496
36	0x3e0a731a	0.1352047
37	0x3d40f828	0.04711166
38	0x3c4db0d2	0.012554364
39	0xbdf3e2ff	-0.119085304
40	0xbbb87e38	-0.005630281
41	0xbdd2aa90	-0.102864385
42	0xbc827410	-0.015924484
43	0xbd90f05f	-0.07077097
44	0x3d635705	0.05550291
45	0xbe30cd30	-0.17265773
46	0x3e20c846	0.15701398
47	0xbde3df16	-0.11126535
48	0xbdbd8f8b	-0.09255894
49	0x3d4ec851	0.050484005
50	0x3da85825	0.08219937
51	0x3ce0df32	0.027450178
52	0x3e1e3271	0.1544893
53	0xbdb0441e	-0.08606742
54	0xbb241724	-0.0025038207
55	0xbd3a61c2	-0.045503385
56	0xbe003808	-0.12521374
57	0x3de0860b	0.10963067
58	0xbe134078	-0.14380062
59	0x3dac4234	0.08411065
60	0xbc5e0c2c	-0.013552707
61	0xbe12b26c	-0.14325875
62	0xbd4013ec	-0.046894
63	0xbca88c66	-0.02057476
64	0xbac4f4f8	-0.001502662
65	0xbd68b1ff	-0.056810375
66	0xbda8ed26	-0.082483575
67	0x3d3e5cf7	0.046475377
68	0xbd53f579	-0.051747773
69	0xbc4f4588	-0.012650855
70	0x3d82ab8e	0.06380378
71	0xbd0229d5	-0.031778175
72	0xbddc99ba	-0.107715085
73	0x3bddd045	0.0067692124
74	0xbd2590f3	-0.040421437
75	0x3e22adaa	0.1588656
76	0x3c53c823	0.012926134
77	0xbb37874b	-0.0028004225
78	0xbdc1e31c	-0.09467146
79	0xbb27c8cb	-0.002560186
80	0x3dcb7df5	0.09936134
81	0xbccb0e4c	-0.02478709
82	0xbd50b1e0	-0.050950885
83	0x3c1c93c4	0.009556714
84	0x3d4be3db	0.049777847
85	0xbb3d4576	-0.0028880513
86	0x3da0acc0	0.078454494
87	0xbdf11a50	-0.11772597
88	0xbddae057	-0.10687321
89	0xbde9004e	-0.11377011
90	0x3b91fca0	0.004455164
91	0x3d0a9652	0.033834763
92	0xbdf44855	-0.11927859
93	0x3cb94e81	0.022620441
94	0xbd4c6bbe	-0.04990744
95	0xbd9ac026	-0.07556181
96	0xbd038a37	-0.032114234
97	0xbe27552b	-0.16341083
98	0xbd802b15	-0.06258217
99	0x3b0e9e90	0.002176199
100	0xbd336556	-0.043797813
101	0xbc1c0c58	-0.009524427
102	0x3d9a804a	0.075440004
103	0x3dbc477a	0.091933206
104	0x3d255cff	0.04037189
105	0xbdb5052c	-0.08838877
106	0x3d69b45f	0.05705678
107	0xbcd13585	-0.025538215
108	0xbcfd5e30	-0.030928701
109	0xbdaf35b4	-0.08555165
110	0xbae8eeeb	-0.0017771398
111	0x3cda5a27	0.026654316
112	0xbe002e43	-0.12517647
113	0xbd321b1d	-0.04348289
114	0xbe3aee39	-0.18254937
115	0xbce63831	-0.028102966
116	0x3d79b7d0	0.060966313
117	0xbe026263	-0.12732844
118	0xbd63bde5	-0.05560102
119	0x3c16550c	0.00917555
120	0x3de1a8c6	0.11018519
121	0x3d1024b1	0.03519124
122	0xbcc39e10	-0.023879081
123	0xbd5a75f8	-0.05333516
124	0xbc30e077	-0.010795704
125	0x3beb441c	0.00717975
126	0x3d3ef52d	0.046620537
127	0x3c8e7627	0.017390324
128	0x3de4978c	0.11161718
129	0x3e9a0162	0.3007918
130	0xbe17459d	-0.14772649
131	0x3e64498e	0.22293684
132	0xbed5ae08	-0.41734338
133	0xbe2175d7	-0.15767609
134	0xbe79182c	-0.24325627
135	0x3c48dc3e	0.012259541
136	0x3e942198	0.2893188
137	0x3ea54024	0.32275498
138	0x3efd7774	0.49505198
139	0x3f0771a5	0.5290778
140	0xbe0217c6	-0.12704381
141	0x3dade810	0.08491528
142	0x3e923dc8	0.2856276
143	0x3f2cc1a7	0.6748299
144	0x3e55ad68	0.2086693
145	0xbe13dff8	-0.14440906
146	0xbdf379a3	-0.11888435
147	0x3e9d07a9	0.30669907
148	0xbe1e6143	-0.1546679
149	0x3e8f09e5	0.27937236
150	0x3f01cfb4	0.50707555
151	0x3e8db877	0.27679798
152	0x3e78dd4b	0.24303167
153	0x3e125424	0.1428991
154	0xbe2110b1	-0.15729024
155	0xbe8d7f71	-0.27636293
156	0x3ea6b938	0.32563186
157	0x3eb30ba3	0.34969816
158	0x3ec6e7c8	0.3884871
159	0x3eb024d0	0.34403086
160	0x3e821510	0.25406694
161	0x3e7f2a4c	0.24918479
162	0xbe857149	-0.26062992
163	0xbe7e9c7d	-0.24864383
164	0x3ecccbc0	0.399992
165	0xbe91979f	-0.2843599
166	0xbddba0a2	-0.10723998
167	0x3ce28cd3	0.02765504
168	0xbe14c582	-0.14528468
169	0x3d1be987	0.038064506
170	0xbda8ac90	-0.08236039
171	0xbe9ebd7e	-0.31003946
172	0x3eb95783	0.3619958
173	0xbd6e263f	-0.058141943
174	0xbed34e7d	-0.4127082
175	0x3e12a3d9	0.14320315
176	0x3e82d7ea	0.25555354
177	0x3c908fdc	0.017646722
178	0xbe2631a8	-0.1622988
179	0x3f3e7a9a	0.74405825
180	0xbe9fba8d	-0.31197014
181	0xbe91f7a2	-0.2850924
182	0xbca97f38	-0.020690545
183	0x3cde5945	0.027142176
184	0x3ccd665c	0.025073223
185	0x3da3a2c3	0.07990029
186	0xbe5146a5	-0.20437105
187	0x3ecb164c	0.3966545
188	0xbe41198c	-0.18857402
189	0xbe8e86c1	-0.27837184
190	0x3f0f9947	0.5609326
191	0x3efb5756	0.4909007
192	0x3c13871f	0.009004383
193	0x3ed1fb4d	0.4101204
194	0xbe89fbba	-0.26949865
195	0x3e96a5e0	0.29423428
196	0xbe982592	-0.29716164
197	0xbeaa7bf2	-0.33297688
198	0x3f14ee43	0.5817606
199	0x3ef75aeb	0.48311552
200	0x3e0951e2	0.13410142
201	0xbe85f10d	-0.2616047
202	0x3e63211d	0.221806
203	0x3c004a21	0.007830174
204	0xbea2cbf9	-0.31796244
205	0x3d8d52e6	0.06900577
206	0xbddfba01	-0.10924149
207	0x3e987399	0.29775694
208	0x3eaca31d	0.33718196
209	0xbe9684a3	-0.2939807
210	0x3e0505a6	0.12990436
211	0x3ef112cc	0.47084653
212	0x3dd03a79	0.10167403
213	0x3eaa13c4	0.33218205
214	0x3de4acf0	0.11165798
215	0xbd590453	-0.05298264
216	0xbd9fb8c1	-0.07798911
217	0xbe3e3c9c	-0.18577808
218	0x3e09c99f	0.13455819
219	0x3e24ea64	0.16105038
220	0xbe727525	-0.236775
221	0x3d008202	0.031373985
222	0x3e63ff17	0.22265278
223	0x3e1983be	0.14991662
224	0x3f0115dc	0.5042398
225	0xbe4ab0ff	-0.19794081
226	0x3e8bba9b	0.27290806
227	0x3bb556f1	0.005534046
228	0x3d110404	0.03540422
229	0x3e18931c	0.14899868
230	0x3ef0e2cd	0.47048035
231	0xbc10a351	-0.008828
232	0x3e01b856	0.12667975
233	0xbd05635e	-0.032565467
234	0xbe640209	-0.22266401
235	0xbe1bd2a2	-0.15217069
236	0x3ee5cedc	0.44884384
237	0x3e435762	0.19076303
238	0x3f157c1a	0.5839249
239	0xbdf9a7a9	-0.12190182
240	0xbea9d324	-0.331689
241	0xbc26e8e6	-0.010187363
242	0xbe6d9e81	-0.23204996
243	0x3e84c942	0.25934798
244	0xbe0ae908	-0.13565457
245	0x3e7018f5	0.2344702
246	0x3ea56c35	0.32309118
247	0x3edd2004	0.43188488
248	0x3e7e4e16	0.24834475
249	0xbe6da1b6	-0.23206219
250	0xbd54c675	-0.051947076
251	0xbe16c1aa	-0.14722314
252	0xbe9c0d3c	-0.30478847
253	0x3efe67f1	0.49688676
254	0xbe485a61	-0.19565727
255	0x3ebd7ed3	0.37010822

out.weight f4 [36, 256]
0	0xbd79b4dd	-0.0609635
1	0xbbd4f53d	-0.0064989612
2	0xbd006aff	-0.03135204
3	0x3dbaf76f	0.091292255
4	0x3d0b3cc6	0.033993505
5	0x3c5da96a	0.013529161
6	0xbcc3470e	-0.023837592
7	0xbca50920	-0.020145953
8	0x3bcdda32	0.0062821144
9	0x3b9349a9	0.004494865
10	0xbced4c06	-0.028966915
11	0x3ce32d3b	0.027731529
12	0x3d652e17	0.055952158
13	0x3d9382d2	0.07202686
14	0xbdbf7ac2	-0.09349586
15	0xbaf4d719	-0.0018679827
16	0xbd72f9a2	-0.0593201
17	0xbca02502	-0.019548897
18	0xbd01e517	-0.031712618
19	0x3c005da8	0.007834829
20	0x3d2ed6a6	0.042685173
21	0x3d9aa5b2	0.07551135
22	0xbd8fe806	-0.07026677
23	0xbc454bbb	-0.012041981
24	0xbdbbcb34	-0.09169617
25	0xbd8bd0bb	-0.068269216
26	0xbca93aeb	-0.020657977
27	0xbc75f629	-0.015012302
28	0x3d251c9a	0.04031048
29	0x3cd73096	0.026268285
30	0xbbc5d8f7	-0.006037827
31	0x3c1208d7	0.00891324
32	0x3d2e0f34	0.042494968
33	0xbace0670	-0.0015718471
34	0x3cddabf4	0.027059533
35	0x3d57d034	0.052688792
36	0x3d85ee89	0.065396376
37	0xbc97a36a	-0.01851054
38	0x3d6871c3	0.056749117
39	0xbb306c4d	-0.002692002
40	0xbcac7421	-0.021051468
41	0x3cdc2635	0.026873687
42	0xbdb8287b	-0.08992096
43	0x3d66b1ac	0.056321785
44	0xbcf60c8f	-0.030035285
45	0x3de0414e	0.10949956
46	0x3e15ae5b	0.14617293
47	0x3d29b179	0.041429017
48	0x3d2072d2	0.039172
49	0x3d06b7ea	0.032890238
50	0xbd0360dd	-0.032074798
51	0xbc3a5b45	-0.011374299
52	0xbd359ef8	-0.044341058
53	0x3da5c678	0.080944955
54	0x3cd90760	0.026492774
55	0xbd30d0f4	-0.043168023
56	0x3d972d7e	0.07381724
57	0x3c9935ba	0.018702377
58	0x3c5d9e3c	0.013526496
59	0x3c4d0543	0.0125134615
60	0x3d03199e	0.032006852
61	0xbcd71def	-0.02625939
62	0x3d6a3e11	0.057188097
63	0xbb6ca1ea	-0.003610725
64	0xbca98c05	-0.02069665
65	0x3c849345	0.016183505
66	0xbc7dfa7f	-0.015501617
67	0x3d4d05d3	0.050054383
68	0x3c35687f	0.011072277
69	0xbb898719	-0.004197013
70	0x3ca9c318	0.02072291
71	0xbc4f2721	-0.012643606
72	0x3d008f5f	0.03138673
73	0xbc00f42d	-0.007870716
74	0x3dd02a1d	0.101642825
75	0xba23d01b	-0.00062489667
76	0x3d32d7ce	0.04366284
77	0x3d3ea809	0.04654697
78	0x3bbb18bc	0.0057097357
79	0x3ac9a11e	0.00153831
80	0x3d0f674a	0.035010614
81	0x3d0069a0	0.03135073
82	0x3cabd4b2	0.020975444
83	0x3c45d0aa	0.012073675
84	0xbcc31a16	-0.02381615
85	0x3d50e730	0.051001728
86	0x3dda860b	0.10670098
87	0x3d1834d7	0.037159767
88	0x3c8cb5da	0.017176557
89	0xbcf7a2e4	-0.03022904
90	0x3d1bc79a	0.03803215
91	0xbbeef67c	-0.007292567
92	0xbc4038db	-0.011732305
93	0xbd0f9eab	-0.035063427
94	0xbd097b8b	-0.033565085
95	0xbcebce29	-0.028784828
96	0xbd019893	-0.031639647
97	0xba556532	-0.00081403845
98	0x3a948b60	0.0011333041
99	0xbc826993	-0.015919482
100	0xbdbffcbd	-0.09374378
101	0xbc14ff74	-0.009094108
102	0x3d74c5c1	0.059758905
103	0x3ccf6c3c	0.025320165
104	0xbcaae901	-0.020863058
105	0xbbadf195	-0.00530834
106	0x3dd37745	0.10325483
107	0xbda6d3a9	-0.0814584
108	0xbd632d8d	-0.055463362
109	0xbce8bdb3	-0.028410768
110	0xbd1ad9ea	-0.037805475
111	0x3d9b50b2	0.07583751
112	0xbdaf6297	-0.085637264
113	0x3d9b6a1a	0.07588597
114	0xbc76bd17	-0.015059731
115	0xbca9fe8e	-0.020751264
116	0x3cbe54fc	0.023233883
117	0x3d377bda	0.04479585
118	0xbd976e06	-0.07394032
119	0x3c7993c5	0.015232985
120	0xbd8deb21	-0.06929613
121	0x3d05f9ff	0.032709118
122	0xbd4818f6	-0.04885193
123	0xbceb6289	-0.028733509
124	0x3ce01c29	0.027357178
125	0x3c7c4788	0.015397914
126	0xbb9c93d4	-0.0047783647
127	0x3d0966e0	0.033545375
128	0x3cbb95ab	0.022898516
129	0xbc52c3aa	-0.012864033
130	0xbc95129a	-0.018197346
131	0xbce26342	-0.02763522
132	0xbd2f1925	-0.04274859
133	0x3c236aef	0.009974225
134	0xbc51e32b	-0.012810509
135	0xbc3cf639	-0.011533313
136	0xbc5d1436	-0.013493588
137	0xbc65f0df	-0.014034479
138	0xbabdc80e	-0.0014479177
139	0x3c8df777	0.017329914
140	0x3d9ffb39	0.07811589
141	0xbc0c2448	-0.008553572
142	0xbc64b28e	-0.013958586
143	0xbb8726fd	-0.004124521
144	0x3cee935c	0.029123
145	0xbca323d2	-0.019914541
146	0x3aca45d0	0.0015432183
147	0xbc042386	-0.00806511
148	0x3dcd6499	0.10028953
149	0xbc12f99d	-0.008970645
150	0x3a18ff4a	0.0005836381
151	0x3c7b6c73	0.0153456805
152	0x3c657d63	0.014006945
153	0x3aa9c9e2	0.0012953843
154	0xbccce8c5	-0.025013337
155	0x3e184405	0.14869697
156	0x3b7051a0	0.0036669746
157	0x3c8eecea	0.017446954
158	0xbc202a02	-0.00977564
159	0x3a2a444b	0.0006495162
160	0x3c7307f5	0.01483344
161	0x3bfd1f97	0.007724713
162	0xbc75e0c1	-0.015007199
163	0x3d5fb72b	0.054618042
164	0xbcccff34	-0.025024034
165	0xbd70ca1c	-0.058786497
166	0x3b817e3a	0.003951815
167	0xbca0ed6c	-0.019644462
168	0xbd9446dd	-0.072400786
169	0x3c834e3c	0.016028516
170	0x3bb76ec5	0.0055979216
171	0xbd68bb72	-0.056819387
172	0x3bcb7b8a	0.0062097954
173	0xbc9f1a55	-0.019421736
174	0x3c260a5f	0.010134309
175	0x3d8aaaac	0.06770834
176	0xbd071ff4	-0.032989457
177	0x3d1a89fc	0.03772925
178	0x3d2f85c7	0.04285219
179	0xbc3150d2	-0.010822492
180	0xbd8c7441	-0.06858111
181	0xbc3b2e97	-0.011424682
182	0x3c20e67b	0.009820576
183	0xbd741d28	-0.059598118
184	0x3cf97d42	0.030455235
185	0x3c718d4c	0.01474316
186	0x3c79747f	0.015225529
187	0x3d2194b0	0.03944844
188	0x3d00c931	0.03144187
189	0xbcf65ff1	-0.030075045
190	0xbb50290a	-0.0031762742
191	0x3b2bd113	0.0026217147
192	0xbc6cc6e1	-0.014451713
193	0x3c5ad4ac	0.013356369
194	0x3c95dfda	0.018295217
195	0x3ce8cdc5	0.028418431
196	0xbcb0cf5a	-0.021583248
197	0xbc9d9b91	-0.019239219
198	0xbbaded02	-0.0053077945
199	0x3c467e11	0.0121150175
200	0x3c0308ec	0.007997733
201	0x3d2bbdd0	0.041929066
202	0xbcccc8ce	-0.024998095
203	0xbc8e2c51	-0.017355116
204	0x3cd2dae3	0.025739139
205	0x3cfa8255	0.030579725
206	0xba27c0e3	-0.0006399287
207	0x3a8e3821	0.0010850468
208	0x3c9dedd9	0.019278454
209	0x3ba850fb	0.0051366067
210	0x3baf5103	0.0053502335
211	0x3cdc279f	0.026874362
212	0xbcb85c73	-0.02250502
213	0x3bbd1569	0.0057703746
214	0xbc17f14f	-0.009273841
215	0xbc913368	-0.017724708
216	0xbc0a655b	-0.008447017
217	0xbbd71cc2	-0.0065647075
218	0xbc520f3e	-0.012821017
219	0xbafa7f34	-0.0019111396
220	0xbcabd72e	-0.02097663
221	0x3d15f6ff	0.036612507
222	0xbcba8dfa	-0.022772778
223	0xbd139df4	-0.036039308
224	0xbd3a146b	-0.04542963
225	0xbbc6bf00	-0.0060652494
226	0x3cb9b90c	0.022671245
227	0xbc0a7892	-0.008451598
228	0xbdbc13d9	-0.09183473
229	0x3c36ebfb	0.011164661
230	0x3bd7e153	0.00658814
231	0xbc0253bb	-0.007954533
232	0x3c22deb2	0.00994079
233	0xbc85c62f	-0.016329853
234	0x3e02958d	0.12752362
235	0x3d3caafc	0.0460615
236	0xbc863feb	-0.0163879
237	0x3b1b1d52	0.00236686
238	0xbd59bcb2	-0.05315847
239	0x3c8f2185	0.017472038
240	0xbcff0ebb	-0.031134954
241	0xbb6098c4	-0.0034270743
242	0xbcd5b3df	-0.026086746
243	0xbafaca90	-0.0019133855
244	0x3d87ae04	0.06624988
245	0xbc8f234b	-0.017472884
246	0xbc2a8b3c	-0.010409173
247	0x3ba039e6	0.0048897145
248	0xbcce14fe	-0.025156494
249	0x3b7f8ec3	0.0038995005
250	0xbd52e696	-0.051489435
251	0x3d2b0156	0.04174932
252	0x3bb3dae9	0.0054887426
253	0x3b315b71	0.002706256
254	0xbbd5a12b	-0.006519457
255	0xbccb8d19	-0.024847554

out.bias f4 [36]
0	0xbe4cfba3	-0.20017867
1	0x3de3c260	0.111210585
2	0xbe4cfba4	-0.20017868
3	0x3e536a5e	0.20646045
4	0xbe2bcd9c	-0.16777653
5	0xbec8fb5c	-0.39254272
6	0x3ce00422	0.02734572
7	0xbec05cad	-0.37570706
8	0x3d974e8b	0.07388028
9	0xbec63ceb	-0.38718352
10	0xbd9a6862	-0.07539441
11	0xbe1b7be9	-0.15183987
12	0xbe9bfeb8	-0.30467772
13	0xbd711ba7	-0.058864262
14	0xbd7ec614	-0.06220062
15	0xbe2ad010	-0.16680932
16	0x3eb1a9a2	0.34699732
17	0xbe81faad	-0.25386563
18	0x3d25bef0	0.040465295
19	0x3ecd65e2	0.40116793
20	0x3e02b927	0.12765943
21	0x3ea77e43	0.32713518
22	0xbed3a608	-0.4133761
23	0xbe812ae5	-0.25228038
24	0xbed3aa44	-0.4134084
25	0x39e96d5f	0.0004452271
26	0xbd8ca050	-0.06866515
27	0x3ef737e3	0.48284826
28	0xbdf65896	-0.12028615
29	0xbe923d53	-0.28562412
30	0x3e01c847	0.12674056
31	0xbdcedd56	-0.1010081
32	0xbdb98c5f	-0.09059977
33	0x3e14b250	0.14521146
34	0xbe84c799	-0.2593353
35	0xbe381b06	-0.17979059
