modules/prn-gen/exp/en_id/models/bigram/decoder-attn_dot-emb_64-hddn_100-layers_1-epoch_32.pth (torch, 360232 bytes, 7 tensors)

embedding.weight f4 [36, 64]
000000 2b 0a 59 be 36 aa 91 bf 76 f9 84 bf 0d b1 cc bf
       -0.21195285 -1.1380069 -1.038863 -1.5991532
000010 56 69 94 bf 03 1c cf be cf 3c 48 3f 1f 4b ab be
       -1.1594646 -0.4045106 0.78217787 -0.3345575
000020 bb be a0 3e b8 34 60 3f 32 c8 5b be 45 d7 31 3f
       0.31395516 0.8758044 -0.21463087 0.694691
000030 71 ed 4e bf a4 86 51 3f 06 41 a2 3f b9 f9 8a 3f
       -0.80831057 0.8184607 1.2676094 1.0857459
000040 1d e5 87 3d 24 6d 23 bf e4 e7 23 3f ab 59 bc bd
       0.06635497 -0.6383841 0.6402571 -0.0919679
000050 9d 28 ec bd 71 56 14 3f cf a9 26 3e bb 3e c5 3e
       -0.11531184 0.579444 0.16275714 0.38524422
000060 3d 90 8f 3f dc 87 4f 3f 97 f5 ec 3f e1 c3 56 3c
       1.1215893 0.8106668 1.8512448 0.013108225
000070 f4 e4 42 3f 50 b9 12 bf d7 87 49 be 55 da 98 bf
       0.76130605 -0.57314014 -0.19680725 -1.194163
000080 dc 12 56 bc 3d 57 45 3d 18 6d 5b bf 3c 60 c3 3f
       -0.01306602 0.0481789 -0.8571334 1.5263743
000090 a8 d8 bd 3e 64 e8 cd 3f 08 f2 b7 3f 99 3c dc 3e
       0.37079358 1.6086545 1.4370737 0.43014982
0000a0 0b f4 19 bf 7e 7e 06 bf 1e 4a 29 3e 94 67 34 bf
       -0.60138005 -0.5253676 0.1653218 -0.7047055
0000b0 fc 2d d6 3f ab 23 ab bd 93 68 68 3f a5 8d 25 bf
       1.6732783 -0.083564125 0.9078457 -0.6466926
0000c0 85 e1 1f be f0 b9 b2 3e 15 b2 8d 3f 81 2c 14 bf
       -0.15613373 0.34907484 1.1069971 -0.5788041
0000d0 de cb 96 3f 1f 93 07 3f 63 ef 9d 3c d1 d8 3d bf
       1.1780965 0.52958864 0.019279188 -0.7415896
0000e0 0f 30 57 3d 4a 83 aa be ee d0 ad bd 9e 31 2a 3f
       0.052536067 -0.3330329 -0.08487116 0.6648196
0000f0 2d 3d df 3d 7d 13 75 be 34 6a 33 c0 cd 38 db 3e
       0.1090034 -0.23933215 -2.8033571 0.42816773
000100 f0 32 91 be cc a2 28 3f 43 30 cf 3e a4 b5 1f 3f
       -0.28359175 0.6587341 0.40466508 0.62386537
000110 f9 5e 93 3f e3 9a 04 bf 25 08 66 bf 19 c6 cb 3e
       1.1513358 -0.5179884 -0.8985618 0.39799574
000120 99 d0 0e c0 d8 b8 ae 3d ba c3 00 3f 21 07 3b 3e
       -2.2314818 0.0853135 0.50298655 0.18264438
000130 8c ea 67 be ac 71 b0 bf 7f 5c a2 3c d8 23 e4 3f
       -0.22648066 -1.378469 0.019819496 1.7823439
000140 95 fb 4e 3f 33 c9 15 3f 1f a8 f6 3f bd 97 93 3c
       0.80852634 0.5851013 1.9270056 0.01801669
000150 9b ed 83 3f 1e a8 78 3e 12 78 4c bf d0 9e 20 3f
       1.0306886 0.24282882 -0.7987071 0.6274233
000160 05 45 d5 3f 93 71 45 3e f6 b1 28 bf 76 40 17 bf
       1.6661688 0.19281606 -0.65896547 -0.59082735
000170 c3 5f 8b bd 98 54 49 3f 4f 2b 9f bb b0 1a c4 3d
       -0.068053745 0.78644705 -0.0048574577 0.09575403
000180 cf 02 bc be 38 11 cc 3f c7 1f 38 bf 71 b0 c1 3f
       -0.36720893 1.5942755 -0.7192349 1.5131971
000190 59 3d cf 3e d4 81 a3 bd 1f 7a f8 3e 98 3f 3d be
       0.40476492 -0.07983747 0.4853067 -0.1848129
0001a0 43 61 9e 3f 88 5e e3 bf 1c e2 a8 bf 9c 85 06 bf
       1.2373432 -1.7763224 -1.3194003 -0.5254762
0001b0 d1 7d 3d 3d 23 83 58 bf a6 a8 2a 3e 94 db 22 3e
       0.046262566 -0.845751 0.16665897 0.15904075
0001c0 5e 42 05 3f ff f4 df 3d 62 18 a3 be 25 2c 9a 3f
       0.52054393 0.10935401 -0.3185454 1.2044722
0001d0 29 67 a0 3f e1 f7 21 bf d7 35 0f be ff 3d 51 3f
       1.2531482 -0.6326886 -0.13985382 0.81735224
0001e0 c3 f7 aa bf 10 cf 80 bf 76 2d 3e 3e ab 52 6b bf
       -1.3356861 -1.006319 0.1857203 -0.91923016
0001f0 00 53 e5 be d3 38 dc be 87 f2 70 3f f5 38 4a 3e
       -0.44789886 -0.43012103 0.9412007 0.1974829
000200 5d 94 13 bf 92 63 7a bd 5e 67 ef bf 3f 0b 0d be
       -0.5764826 -0.061130114 -1.870342 -0.13773821
000210 b3 76 ba 3e 5f e8 ee 3e c7 6b 7d 3f 91 bd b4 3e
       0.36418685 0.4666166 0.9899258 0.35300878
000220 1f a9 b9 bd 6e 74 fa 3e b5 a0 e4 be 81 07 0d 3f
       -0.090654604 0.48916954 -0.4465386 0.55089575
000230 39 cc 27 be 7d 55 6a 3f 1e 66 a6 be b8 9b 69 3f
       -0.16386499 0.91536695 -0.32499784 0.9125323
000240 46 fe 86 3d ae 88 95 3f 44 83 83 3f e0 f1 98 bf
       0.065914676 1.1682336 1.0274434 -1.1948814
000250 90 5c 89 3f fd 18 10 3f bc 99 a3 be 32 6a 92 3f
       1.0731373 0.5628813 -0.31953228 1.1438658
000260 6d 0f 05 c0 68 77 65 bf e9 46 01 c0 9a 11 c0 3f
       -2.0790665 -0.89635324 -2.019953 1.5005372
000270 ef b4 9b 3e 4b 02 25 be 8e 14 54 40 cb a3 30 3f
       0.3041148 -0.16114156 3.3137546 0.6899993
000280 4e 03 1b c0 95 ad 6a be 09 8b 60 be 1f 77 e8 3d
       -2.4220767 -0.22917779 -0.21928038 0.113508455
000290 9b d6 53 3f 00 94 23 3f a2 35 02 c0 87 b0 89 be
       0.82749337 0.63897705 -2.0345235 -0.26892492
0002a0 59 52 91 3e 48 fe d9 3f f7 7b 1a 3e 7d 38 99 be
       0.2838314 1.7030725 0.15086351 -0.2992591
0002b0 a4 5c 93 3f 4d 34 02 be 57 7d d1 be 8a f7 17 3c
       1.1512647 -0.12715264 -0.4091594 0.0092753265
0002c0 88 50 99 3f d9 9d cc bf 61 0b d1 3e 5d 95 b7 3e
       1.1977701 -1.5985671 0.40828994 0.35856143
0002d0 82 6e d3 be cc cb e5 bd 7d 6d 9d 3e 22 4b ed bf
       -0.41295248 -0.11220512 0.30747595 -1.8538554
0002e0 11 cf 7c 3e 19 c3 8e 3e 10 44 9c 3f 21 4b 78 3f
       0.24688365 0.27883223 1.2208271 0.9698964
0002f0 c4 aa e3 bf fa 74 10 c0 7a d9 51 3f 16 3e 20 bf
       -1.7786489 -2.2571397 0.8197247 -0.62594736
000300 bc 0e 94 bf 4d 9d 23 3f ec 61 8b bf 8a dd a9 3f
       -1.1566997 0.63911897 -1.0889258 1.3270733
000310 38 53 2e bf 13 e4 9d bf 06 57 09 be 7a 89 87 3e
       -0.6809573 -1.2335228 -0.13412103 0.26472074
000320 86 6b 86 bf d9 69 c0 be 2f 46 03 bf 2d 40 24 3f
       -1.0501564 -0.37580755 -0.51278967 0.64160424
000330 e5 b1 25 3f c9 60 17 3f 17 40 45 3e 5e 39 85 3e
       0.6472457 0.5913206 0.1926273 0.2602033
000340 54 c0 17 3f 6b 73 71 bf 34 16 b8 3e 4f ab c0 3f
       0.59277844 -0.9431674 0.3595444 1.5052279
000350 4b 90 0e bd de ce b1 3e 7e 2f 9c 3d 9c ab 0e 3e
       -0.034805577 0.3472814 0.07626246 0.13932651
000360 c3 13 b1 be 95 b5 63 bf d6 b9 8a be 23 d5 29 3d
       -0.3458539 -0.8894895 -0.27094907 0.04146303
000370 54 81 29 bd 4c c8 c3 3e fc 51 ee 3f ef 13 72 3e
       -0.041383103 0.38238752 1.861877 0.23640417
000380 1e e9 98 bf 18 89 16 bf 95 ae 2c 3e e7 07 c8 bf
       -1.1946142 -0.5880294 0.16863473 -1.5627412
000390 3b 6f 0c be 3b 0e b6 be 71 c4 4a bf 9b de 40 bf
       -0.13714306 -0.35557732 -0.79205996 -0.7533967
0003a0 bb dc c3 be f9 54 32 3f af 87 08 3f cd c8 52 bd
       -0.3825434 0.6966091 0.53332037 -0.05146103
0003b0 1a 5f 3f 3e 8a a1 5c bf 9e 1f 93 3e 4c 11 39 3f
       0.18688622 -0.8618399 0.2873506 0.7229202
0003c0 d2 e1 d4 3e 77 2e 80 3e 6f 2e 6b bd d6 09 b3 be
       0.41578537 0.2503545 -0.05741733 -0.34968442
0003d0 2d 30 84 be b6 b5 9a bd f4 4d 96 3f 4a 07 a0 3e
       -0.25818005 -0.0755419 1.174254 0.3125556
0003e0 da 9a 0f bf 93 86 47 3e 82 ca a6 bf bd 5d ee be
       -0.5609566 0.1948493 -1.303055 -0.46555892
0003f0 4d 2b 68 be fe 2a 07 3e 48 62 dd 3e e2 9f 8d 3f
       -0.22672768 0.13199994 0.43239045 1.1064417

gru.weight_ih_l0 f4 [300, 164]
000000 9d c7 0c 3e 29 af 42 3e d3 8c d2 3c 1e d8 2d 3e
       0.13748021 0.19012131 0.025701916 0.16976973
000010 5d 75 c9 3b 42 80 41 be e1 0f b4 3d e1 9c 7d bc
       0.006148024 -0.18896583 0.08792091 -0.015479297
000020 85 24 6f 3d 43 57 41 be d5 91 b6 bd 56 db d2 3d
       0.058384437 -0.18880944 -0.08914534 0.10295741
000030 97 4c 90 3d d8 ea a9 3d 50 b4 d5 bd 63 a0 0b 3e
       0.07045858 0.08296746 -0.104347825 0.13635401
000040 0e a5 1a bb 63 06 1d bc 69 a5 a1 3c a0 6d 8c 3d
       -0.0023596915 -0.009584042 0.019732194 0.06856847
000050 b4 6d 65 bd 7a 4c 32 3d 46 f4 52 bd 8c 10 86 be
       -0.056012824 0.043529965 -0.05150249 -0.261845
000060 90 98 36 3d 4b 48 01 be 3c ce 82 3d 71 73 20 bc
       0.04457909 -0.12625234 0.06386992 -0.009793148
000070 6a ef 9a 3d 7f 93 55 3d 22 79 7d bd 88 af f8 3d
       0.07565196 0.052142616 -0.0618831 0.12142855
000080 2e b1 f3 bd a7 ae 5a b6 f9 8e 45 3d 6f 0a e1 bd
       -0.11899029 -3.2586192e-06 0.048232052 -0.10988318
000090 9f e3 35 be cf a8 1b 3e 54 c1 88 3d 5c eb 3f be
       -0.17762612 0.15201114 0.066774994 -0.18742126
0000a0 4d be 8f be 97 35 70 3c 09 f1 10 3d 6f e4 a0 bd
       -0.28074875 0.014661214 0.03538612 -0.0785607
0000b0 50 b6 ac 3d 86 19 f7 3c 58 a3 5f 3e a1 9c 45 be
       0.08433211 0.030163538 0.21839654 -0.1929803
0000c0 bc 36 aa 3c 1c 63 73 3d 3a 88 a3 be 63 41 9b be
       0.020778053 0.05942069 -0.3193987 -0.30323324
0000d0 66 51 d7 bd ab 77 b7 3d 67 fb 3c be b6 0e 14 bd
       -0.105135724 0.08958372 -0.18455277 -0.036146842
0000e0 4c be c2 bd 16 e6 6b be ad d2 73 bd c9 82 4c bd
       -0.095089525 -0.2303699 -0.059527088 -0.049929414
0000f0 8c 07 af bd bf 51 23 3e 3d 68 2e 3e e0 d9 05 bd
       -0.08546361 0.15949152 0.17031951 -0.032678485
000100 31 ce 6d be 8c d6 07 bd 39 55 b6 bd b6 80 92 3d
       -0.23223187 -0.033163592 -0.08902974 0.07153456
000110 86 3d 07 3e d8 bb 29 bd 8a 82 86 bd 1e 50 78 3e
       0.13207063 -0.041438907 -0.06567867 0.24249312
000120 62 b6 1e bd 60 90 af 3d 8a 05 29 be b6 bb a6 bc
       -0.038748153 0.08572459 -0.16506019 -0.02035318
000130 20 29 0d 3e 01 3f 35 be ae b0 10 3e 3e da 30 3d
       0.13785219 -0.17699815 0.14129898 0.043176882
000140 16 4c 0d 3e 28 63 2b be 81 19 94 bd 69 bb 36 bd
       0.13798556 -0.16737044 -0.07231427 -0.044612322
000150 fa 4a 67 bd f7 b7 97 bd 29 cb 5c 3e 7a 0e f6 3d
       -0.056467988 -0.074081354 0.21561874 0.1201448
000160 47 c4 5a 3d 26 16 59 3e d4 7f b2 bd 89 7e 07 3a
       0.05340984 0.21199855 -0.087157875 0.00051686965
000170 94 d8 b4 be d9 36 96 bd ed 42 40 3d d8 88 b1 bd
       -0.35321486 -0.0733468 0.046938825 -0.08668679
000180 96 f2 66 3e c2 16 59 bd a5 34 14 3e b4 00 86 bd
       0.22553477 -0.05300022 0.14473207 -0.06543103
000190 9e 18 85 bd 44 db 2d 3e 9f b1 a3 3d 71 d9 b6 bd
       -0.06498836 0.16978174 0.07992863 -0.089281924
0001a0 ec ae d7 3c cd 99 55 3e 20 ae 75 be 07 fd 1c be
       0.026328526 0.20859452 -0.23992205 -0.15330897
0001b0 5b 33 f4 3c 7b 28 64 bd a5 a1 d6 bd 9c 2a ef 3b
       0.029809644 -0.055702668 -0.1048005 0.0072987806
0001c0 b9 7e 65 bd 23 50 f5 bc 33 fd 16 3c 46 0b 5a 3d
       -0.056029055 -0.029945439 0.009215641 0.053233407
0001d0 c4 3a 2d be f3 e8 93 bd 1b 70 0f bc 89 ed 86 3d
       -0.16916949 -0.07222166 -0.008754755 0.06588275
0001e0 55 48 4c be 44 00 ad 3e d7 7f ec bc 63 3c 50 3c
       -0.19949467 0.33789265 -0.028869553 0.01270971
0001f0 02 24 95 3d 2f e4 64 3c 3b c7 1d 3e ec b8 26 be
       0.072822586 0.013970419 0.15408032 -0.1628148
000200 17 b7 af bd cb 1a dd bd 84 c7 23 3e e5 c8 9e 3b
       -0.085798435 -0.10796126 0.15994078 0.004845726
000210 4e f2 20 3e 97 32 27 3e e6 8f 26 be 86 cb 19 be
       0.15717432 0.16327892 -0.1626583 -0.15019044
000220 da b6 8b 3d a7 c6 7b 3a 7c 0b 19 3d 74 6f b0 bc
       0.068219855 0.00096044916 0.037364468 -0.02153752
000230 a0 aa 08 3d fd 67 68 3d d8 d2 e6 bd 31 13 4f 3d
       0.033365846 0.056739796 -0.11270684 0.05055541
000240 10 91 48 3d 1e f0 4a bd 37 67 c7 3d 8d 8a 31 3e
       0.048966467 -0.0495454 0.097364835 0.17338009
000250 e4 ef 03 3d eb f0 8f bd aa 23 7c 3a 54 09 67 be
       0.0322112 -0.07028373 0.00096183515 -0.22562152
000260 5b af 15 be 0a f6 95 bd 27 6b 27 3e f5 ac 04 bd
       -0.14617674 -0.07322319 0.16349469 -0.032391507
000270 26 c3 e1 3d 6b 20 92 bd 37 e1 04 be 17 3d 72 3c
       0.1102355 -0.071350895 -0.12976538 0.014785073
000280 34 5d af 3d 38 3c a1 3e 04 b9 ef bd 66 4c 64 be
       0.08562699 0.31491256 -0.11705211 -0.22294769
000290 3d d4 ca bd 0f 4e 51 be a6 e3 fe bd 26 af 8c 3d
       -0.099037625 -0.20439933 -0.12445764 0.068693444
0002a0 ff 75 0d be 3d 88 4e bd 60 e0 33 be 5f 6c 05 3e
       -0.13814543 -0.050422896 -0.17566061 0.13029622
0002b0 1a d3 93 3c 33 41 02 3e c7 b2 33 be ba 68 69 3e
       0.018044997 0.12720184 -0.17548667 0.22793856
0002c0 0f f5 64 3c f7 a9 c0 be ba 66 d9 3d 53 5a 1d bd
       0.013974442 -0.37629673 0.10615297 -0.038416218
0002d0 5c af b5 3d 0f 8c 47 3d d0 6b 7f 3e 36 95 96 3c
       0.08871338 0.048717555 0.24943471 0.018381696
0002e0 93 fb e0 3c 9f a0 85 be 57 a6 9c 3d 81 91 60 3e
       0.02746371 -0.26099107 0.07648914 0.21930505
0002f0 16 e6 4c 3e 16 4c d6 bc 0a 1a b5 bd 84 06 8c 3e
       0.20009646 -0.026159327 -0.08842857 0.2734872
000300 57 30 1c be ec ac 18 be 01 89 94 be 18 c2 eb bd
       -0.15252815 -0.14909714 -0.29010776 -0.1151163
000310 5f fa a2 bd 00 e8 21 3d 20 61 d4 3d 7d 5e b7 3e
       -0.07957911 0.039527893 0.103700876 0.35814276
000320 77 68 90 3e 92 e4 36 3d ad da 5d 3d 64 97 67 bc
       0.282047 0.044651575 0.054163624 -0.014135215
000330 63 42 18 3e da 18 68 3d 85 7e 29 be a5 22 e5 3d
       0.14869075 0.056664325 -0.1655217 0.111882485
000340 eb 75 8a 3c 69 f0 50 be da ae 1e bd 6a 38 22 be
       0.01690193 -0.20404209 -0.03874097 -0.15841833
000350 cd ec c0 3d 62 3a ac 3d 4f 97 15 3d d8 94 47 3e
       0.09420166 0.08409573 0.036521252 0.19490373
000360 59 53 ee 3d d0 89 c2 3d 15 94 24 be 47 b8 09 3d
       0.11636991 0.09498942 -0.16072114 0.033623006
000370 ce 43 c1 ba c5 c0 7c 3d 5c 0e d3 bd c2 a8 03 bd
       -0.0014744939 0.061707277 -0.10305473 -0.032143362
000380 92 5d 7d bc b2 5c 23 3d 47 66 91 be e9 eb f7 3b
       -0.015464203 0.039883323 -0.28398344 0.0075659645
000390 30 6f 59 bc 1b 5f 31 3d 08 83 f7 3d 86 f1 76 3d
       -0.013271138 0.04330359 0.12085539 0.06028893
0003a0 bf 54 02 3e b5 b3 8e 3d d1 2e c9 3c 94 55 2f be
       0.1272764 0.0696787 0.024558457 -0.17122489
0003b0 3a df 57 3e 0b 37 54 be 70 39 10 be 99 6f 97 3c
       0.21081248 -0.20724122 -0.1408441 0.018485831
0003c0 89 7d 06 3e 8e ab 83 bd d5 d0 89 3d 8b 2a 54 be
       0.13133825 -0.06429206 0.06729285 -0.20719354
0003d0 ec 8c b7 3b 69 36 73 3c d0 6c 4a bc 04 49 07 3e
       0.005601516 0.014844515 -0.0123550445 0.13211447
0003e0 e1 66 14 3e 50 d4 d8 bc b9 22 0e be 6f 66 98 bd
       0.1449237 -0.026468426 -0.13880433 -0.07441413
0003f0 fe bb f6 3d 71 ae 77 bd 32 0d 32 3b 9c a2 6d be
       0.120475754 -0.060469095 0.002716851 -0.23206562

gru.weight_hh_l0 f4 [300, 100]
000000 29 60 83 bd 75 0b 92 3d ab 54 7e be 65 a0 60 be
       -0.064148255 0.071310915 -0.24836986 -0.21936186
000010 64 13 1d be 39 de 98 be 65 36 52 3c 43 0c 1e 3d
       -0.15339428 -0.29857042 0.0128303515 0.038585912
000020 96 da 1f 3d 25 f9 3a bb f8 63 12 bd 4f 6f 91 be
       0.03902682 -0.002852985 -0.03573987 -0.28405234
000030 58 2c 82 3d 9d 8e 50 be 0f 43 19 3e 59 2f 0a be
       0.06356114 -0.20366903 0.14966987 -0.13494624
000040 fe 2c 16 be ce 92 5c 3e 33 71 5d be e6 01 d8 bd
       -0.146656 0.21540377 -0.21625213 -0.10547237
000050 ae ab 57 bd d2 ca c2 3d ad 16 db 3d 62 7a a4 be
       -0.05265396 0.09511341 0.106976844 -0.3212462
000060 55 c7 0a bd 85 de db bc 86 24 fb 3d 7b 90 2d 3e
       -0.033881504 -0.026839504 0.12262826 0.16949646
000070 a4 a6 0f be 3d c3 5e be a7 20 a9 be 84 8c 18 3d
       -0.14028412 -0.21754165 -0.33032724 0.03724338
000080 d8 4b d5 bd 4d c4 fa 3d a7 80 3c 3e ec f5 ab bd
       -0.10414857 0.12244473 0.18408452 -0.08396515
000090 94 5d 04 bd 88 64 3a be 3b bf 02 bd 51 6e 42 bd
       -0.032315806 -0.18202412 -0.031920653 -0.047468487
0000a0 c2 41 e5 bd ad 3e d3 bc ec 75 da bd 17 5a 95 bc
       -0.11194183 -0.025786722 -0.10667023 -0.018231435
0000b0 2a 8e f8 bc ea 78 ec bd 13 ee 56 3d 34 fe fc 3d
       -0.030341227 -0.115465 0.05247314 0.12353173
0000c0 0d 93 be 3d 8b e2 90 3d 3d 84 85 bd 10 f4 9e 3d
       0.093053915 0.0707446 -0.06519363 0.07761395
0000d0 c7 be 75 3d 2d 76 e5 3c 9e 6b 2b bd 76 4a a8 be
       0.059996393 0.028010452 -0.04185068 -0.3286931
0000e0 19 56 fc bd 4a a8 40 3e 87 60 aa 3d 63 87 90 3e
       -0.12321109 0.18814197 0.083191924 0.28228292
0000f0 ef d6 01 3e b7 0b 9e 3c 52 2a 03 be ac f4 bb 3b
       0.12679647 0.019292695 -0.12809113 0.0057359543
000100 3f 6b ad bd df 7c a8 3d 08 c2 2c 3e 47 0f fa 3c
       -0.08467721 0.08226942 0.16870892 0.030524863
000110 c2 7f 6c bd 3a 67 70 bd 0a c6 fd bd b2 af 8b bd
       -0.057739027 -0.058692195 -0.123912886 -0.068206206
000120 de 28 eb bc f9 e5 6e 3d 01 55 aa 3d 2b e7 25 3e
       -0.02870601 0.058324788 0.083169945 0.16201465
000130 19 ce 6b 3e 40 30 af bd d6 49 86 3c bc ea 0e 3d
       0.23027839 -0.08554125 0.01639263 0.03489183
000140 ab ec 7e be 23 f4 ac bb 6d f4 ed 3d 85 4e e2 bd
       -0.24894969 -0.005278127 0.11618886 -0.11050133
000150 55 f7 85 bd be d2 06 bd 69 b6 0f 3d 91 25 44 3e
       -0.065413155 -0.032915823 0.03508607 0.19154955
000160 d5 eb 1e 3c 30 a7 bc 3c a5 f2 49 bd 5c f6 74 3d
       0.009699781 0.02302894 -0.04930367 0.05980526
000170 9e 80 9d 3d 23 53 a5 bd a6 c8 b9 bd 9b 7d 9a 3e
       0.076905474 -0.08072498 -0.09071474 0.30173954
000180 ac 9a 72 3e 20 c1 1c bd a5 fb a5 bd 83 a4 ff 3d
       0.23691815 -0.038270116 -0.08104638 0.1248255
000190 1b 0c e6 3d 9f 25 12 3e 1c 9c 30 3d 1d 8e 7b 3e
       0.11232778 0.14272164 0.043117628 0.2456593
0001a0 94 ab d2 3c af a5 39 3e 00 50 9d 3e 94 f2 60 bc
       0.02571658 0.1812961 0.30725098 -0.01372971
0001b0 ca 69 9e 3d 2f 5e 1b 3e cf c1 a7 bd 0f b7 4c 3e
       0.077350214 0.15172647 -0.08191263 0.19991706
0001c0 61 9c 89 bd 92 9e 90 3d 7f 09 c2 3d b4 ac cb bd
       -0.0671928 0.07061495 0.094744675 -0.0994505
0001d0 55 26 bb 3d 40 8a 5e 3d 78 47 57 3c 09 12 3a 3d
       0.09138171 0.054331064 0.013139598 0.045427356
0001e0 46 c4 9a bc 7c d9 c8 bd 0b 07 35 be e7 45 3a be
       -0.018892419 -0.09807107 -0.17678468 -0.18190728
0001f0 b2 d2 43 3b 96 3c 4a 3d 13 08 df bd 47 75 46 bd
       0.0029880223 0.049374186 -0.10890212 -0.04845169
000200 8f 69 58 be bf 80 12 3e eb 29 f9 bc 0d 6f 1e bc
       -0.21134017 0.14306925 -0.030415496 -0.009670031
000210 4a 55 49 bd 89 17 b5 3d b2 bc 24 3c ef 31 25 bd
       -0.049153604 0.088423796 0.010054754 -0.040330824
000220 32 f4 57 ba 79 75 f4 3d fa 99 8f bd 5f 9f 89 be
       -0.0008237987 0.11936469 -0.070117906 -0.26879403
000230 10 dd ce bc 09 44 53 3d eb aa 86 3e a3 c4 e5 3d
       -0.025251895 0.051578555 0.26302275 0.11219146
000240 de e6 34 be 22 82 97 3c 50 0a b7 3d 3f 88 eb 3d
       -0.17666194 0.01849467 0.08937514 0.11500596
000250 f1 ad f0 3d 44 7d 43 be f9 95 a7 3d e0 89 29 3e
       0.11751927 -0.19090754 0.08182902 0.16556501
000260 4c 49 4b bd c7 f2 fc 3d 88 42 2b 3e 7f 05 b0 be
       -0.04963045 0.123509936 0.16724598 -0.34379193
000270 40 55 1b 3d dc 94 27 3d bc ee 79 bc f8 89 87 bd
       0.037923098 0.040913448 -0.015254673 -0.06618112
000280 00 d9 41 3d a8 cc aa 3d 2e 86 bd 3d 1c 82 ee 3c
       0.047326088 0.08339816 0.09254108 0.029114775
000290 57 1e 02 3d a8 be 98 3d d4 0f 61 bd 10 d8 64 3e
       0.031767216 0.0745824 -0.054946736 0.22348046
0002a0 d2 c2 cd bc c2 5e 35 bd 86 2e c5 3b 3f 62 ff bd
       -0.025117312 -0.04427982 0.006017509 -0.12469911
0002b0 14 ab 0d 3e 40 a8 53 3b ce 2d 9e 3d c7 04 92 3c
       0.13834792 0.003229633 0.0772358 0.017824544
0002c0 14 ec 2a 3c 1e 91 72 be 0a a0 87 bc 58 d0 24 be
       0.010432262 -0.2368817 -0.016555805 -0.16095102
0002d0 2b fa 1c 3d 04 ab 80 be e4 68 95 bd f4 36 1e 3e
       0.038324516 -0.25130475 -0.07295397 0.1545065
0002e0 c3 ea be 3d 82 b1 4a 3e 42 6c 5d 3e 02 fb 57 3b
       0.09322121 0.19794276 0.21623328 0.0032956009
0002f0 60 44 25 3d 81 c0 16 3e b6 3a 22 3d fc e4 03 3e
       0.04034841 0.14721872 0.039606772 0.1288032
000300 56 b1 cf 3c 43 f9 4e 3e 04 fb a2 3d 95 2e 46 be
       0.025353115 0.20212273 0.07958034 -0.19353707
000310 3f 72 4f 3d ce 88 77 3e 7d 64 b3 bb da ba b0 3d
       0.050646063 0.2417328 -0.0054746256 0.08629389
000320 a7 f2 48 3d ab 1a af bd 04 12 e9 3d b0 a3 bf bd
       0.049059536 -0.085500084 0.11380389 -0.09357393
000330 79 d4 f7 3d eb b9 a9 bb 24 b2 ca 3d f4 5c dd bd
       0.12101073 -0.005179634 0.09897259 -0.10808745
000340 27 3d 0f 3d 36 ff 02 3e bc c3 0c 3e 30 d7 f7 3d
       0.03497043 0.12792668 0.13746542 0.12101591
000350 d6 3c 2a be df 9e b3 bd be c2 27 3b e7 db a2 3d
       -0.1662477 -0.08770537 0.0025598253 0.07952099
000360 3e bc df bd d2 1f 1c 3e 81 14 21 bd 7e 50 4c 3e
       -0.10924576 0.15246513 -0.039326195 0.1995258
000370 f6 a8 60 3c 3c 4b 9d bc 92 c9 e3 3d 22 74 62 be
       0.013712158 -0.019200914 0.11122431 -0.22114614
000380 00 a0 38 3e 23 27 71 bd 5c c4 09 be 05 9e 93 be
       0.18029785 -0.058875214 -0.13453811 -0.28831497
000390 fa 4e 6a 3e 0e 25 5a bd a3 8a 26 3d f3 3b 75 3e
       0.2288169 -0.053257994 0.040659558 0.2394865
0003a0 88 0a 29 3d 22 a3 53 be ea 44 bc 3c ee d2 ad bd
       0.04126981 -0.20667699 0.02298208 -0.08487497
0003b0 03 85 1f be d9 37 8c be cd e9 9d be 25 df 4c be
       -0.15578084 -0.27386358 -0.30842438 -0.20006998
0003c0 16 27 77 bd d5 76 e8 bd 64 36 31 3e ec 73 85 3c
       -0.06034001 -0.113507904 0.17305905 0.016290627
0003d0 59 91 95 3d d7 23 2a be 46 de 2b 3d dd 03 2b bd
       0.073031135 -0.16615234 0.041960023 -0.04175173
0003e0 e9 07 70 3d a4 c3 2a 3e d6 de 1c be 04 ea 62 3e
       0.058601294 0.16676193 -0.1531938 0.22159582
0003f0 05 39 e1 bb cc af 97 3d b0 f0 7e 3e ef 95 39 be
       -0.0068732523 0.074065775 0.24896502 -0.18123601

gru.bias_ih_l0 f4 [300]
000000 38 68 88 bc ed ca dd 3d a8 f8 18 3e 70 ae 95 3d
       -0.016651258 0.10829721 0.14938605 0.07308662
000010 d7 32 fd 3d 79 cc 4e be 05 3c 62 bd 17 10 74 3d
       0.123632126 -0.20195188 -0.05523302 0.059585657
000020 95 f0 56 bd d3 f4 da bc a0 a0 32 bc 52 5e af bd
       -0.05247553 -0.02672807 -0.010902554 -0.08562912
000030 c6 5e 02 be b4 23 3b 3d 8d 44 bf 3d e6 26 0f bd
       -0.12731466 0.045688346 0.09339247 -0.034949206
000040 4c 9f 5f 3e cc 1d cd 3c 1f 63 b3 3d b1 8f 0e 3e
       0.2183811 0.025038622 0.0875914 0.13922001
000050 f1 17 48 3d ec b0 fc bc 18 63 f5 bd 39 ad 07 3e
       0.048850957 -0.030846082 -0.11981791 0.13249673
000060 b7 a7 7c 3d c7 7b 10 be a4 9a 93 3d 83 e6 b9 3c
       0.061683383 -0.14109717 0.0720723 0.022692924
000070 a0 3e 16 be b5 5e 37 be 34 7c 4d 3c 81 37 14 be
       -0.14672327 -0.17907222 0.012541819 -0.14474298
000080 5d 38 35 3e da 2a b4 3d 7f 10 c7 bd ee b2 a4 bb
       0.17697282 0.08797236 -0.09719943 -0.005026213
000090 34 e2 11 be ce 8b 3d bd 2f 77 93 bc 82 97 8e bd
       -0.14246446 -0.046275906 -0.018001167 -0.069624916
0000a0 ab 3f 3c 3e b8 a2 80 bd 05 c3 7e bd 75 47 a8 3a
       0.18383662 -0.06281036 -0.062197704 0.0012838679
0000b0 ac f0 41 3e 40 eb 3c bd 13 ef 0a bc 22 aa 90 bd
       0.18939465 -0.04612279 -0.008479851 -0.070637
0000c0 54 0f 66 bd 55 28 1f be ac 2b 4d be c3 e5 16 bd
       -0.05616696 -0.15542729 -0.20036191 -0.03684021
0000d0 23 36 1d 3e 0b 22 8e 3d c7 43 c2 3d 95 04 c1 3d
       0.15352683 0.06940087 0.09485584 0.09424702
0000e0 04 26 90 bd 68 52 c9 3c 92 c6 ae ba 91 93 20 3e
       -0.07038501 0.024575427 -0.0013334325 0.15681292
0000f0 d6 12 df bd 3d 12 82 3d 77 05 d7 3d 8d 36 2f 3e
       -0.108922645 0.06351135 0.10499089 0.17110653
000100 3a 4d 5d bc 06 16 4d 3d ac a4 f4 3d 7d a1 74 3d
       -0.013507182 0.05006983 0.11945471 0.05972432
000110 47 54 03 3d 5c d6 03 bd 77 24 6f bd 0e a6 95 3d
       0.032062795 -0.03218685 -0.058384385 0.07307063
000120 c5 66 0f 3d 52 4d 4b bd 33 cb 06 3d d7 61 21 bc
       0.035010118 -0.049634285 0.03290863 -0.009849987
000130 95 2e 24 3e 64 9b 94 bd 30 b3 f6 3d 0b 72 1a bc
       0.16033395 -0.07256201 0.12045896 -0.009426604
000140 b7 47 3a be 04 94 03 3d ee 75 16 3e 8a 7e 07 be
       -0.1819142 0.03212358 0.14693424 -0.13231865
000150 ee f4 da 3c 7e 2d 34 3e d0 ef 62 bd 02 34 e2 bd
       0.02672812 0.17595479 -0.055404484 -0.11045076
000160 d5 89 84 bd 2b 69 ef bc a6 75 90 3d ff d9 c6 3d
       -0.06471602 -0.029224953 0.0705369 0.09709548
000170 d4 f4 0d be 83 bb 8a 3e 2a 9e 87 3d d9 18 fd bc
       -0.13862926 0.27096185 0.06621964 -0.030895637
000180 8b 65 e7 3b b8 1b 24 3d 1b aa 24 be 96 4f 87 bd
       0.0070616654 0.040065497 -0.16080515 -0.06606977
000190 bd 90 33 3d 46 f5 89 bd 31 36 d0 3d b9 d9 6b be
       0.043839205 -0.06736235 0.10166586 -0.23032273
0001a0 e6 31 8f be 3b 55 45 be 6e 7d c3 bd 2a 51 2c bd
       -0.27967757 -0.19270794 -0.09545408 -0.04206959
0001b0 11 69 71 bd 0e c8 10 be d2 7b 18 b8 7b 0b cb ba
       -0.05893809 -0.14138815 -3.635494e-05 -0.0015491092
0001c0 49 07 63 bd 87 7e 03 3d ce 99 93 3e 5d 8e 18 be
       -0.05542687 0.032103088 0.2882828 -0.14898057
0001d0 6e 1b 40 be cf 6e 0b 3e a2 1c 83 be 4d 7b 05 be
       -0.18760464 0.13616489 -0.25607783 -0.13035317
0001e0 57 37 8d be 2f c9 1d be 4d ae d1 bd 01 d7 38 bd
       -0.27581283 -0.15408777 -0.10238323 -0.04512692
0001f0 07 e7 a2 3e f8 e5 d4 3d db bb 81 be 6f 2a cf 3d
       0.31816885 0.103954256 -0.25338635 0.101155154
000200 48 3e 8e be f7 c6 a8 be 2b 7e 2f be 98 76 bd bd
       -0.27781892 -0.32964298 -0.17137973 -0.092511356
000210 a1 88 95 bc ee 27 97 3d 93 c3 16 be 1c d6 3f bd
       -0.018253626 0.07380663 -0.14723043 -0.04683505
000220 e1 9c 62 be 5a 3d 91 be 96 22 22 3d 08 cd a1 be
       -0.22130157 -0.2836712 0.039583765 -0.3160174
000230 ca 2f ce bd 18 6b a0 be fc b3 80 bd 37 7f d8 3c
       -0.10067709 -0.31331706 -0.06284329 0.026427848
000240 8a ec 88 be aa 24 e0 be f7 a8 a0 39 04 eb 0b bd
       -0.26742965 -0.43777972 0.00030643467 -0.034159675
000250 9a ea f2 bd f6 a5 7d be c9 ee 4c 3e d3 52 8e 3c
       -0.11861153 -0.2477034 0.20012964 0.017373478
000260 5b 1b 32 bc 9b cd 38 be f4 6a 5b 3e a2 53 13 be
       -0.01087078 -0.18047182 0.21427518 -0.14387372
000270 4c 6e 24 3e 1f 81 06 be 2d ac 72 3e 70 3f 69 be
       0.160577 -0.13135193 0.23698492 -0.22778106
000280 a1 48 10 be 4d 88 17 3d 10 eb 1b 3e c4 ab 56 3d
       -0.14090206 0.03699522 0.15226388 0.052409902
000290 9d ee b8 bd 8c a4 20 be b9 9e 9d bd d3 62 12 be
       -0.09029887 -0.1568777 -0.076962896 -0.14295511
0002a0 86 22 d1 3d 32 f2 5e 3d 08 3d 4e 3d 5a d4 ac be
       0.10211663 0.054430194 0.050351173 -0.3375576
0002b0 5f 5d 64 be f4 1e b3 be 28 6f ef 3c cb 41 59 be
       -0.22301243 -0.34984553 0.029227808 -0.21216504
0002c0 17 f2 2b 3d 12 f4 78 3e 5d b1 e6 ba c6 11 5f 3e
       0.04197892 0.24311855 -0.0017600466 0.21784124
0002d0 6b 9a f7 bc e5 df f9 be 62 19 23 3d 45 8b 2b be
       -0.030225 -0.4880363 0.03981913 -0.16752346
0002e0 89 17 cb bc 9d 11 54 bd 38 1c 35 3d 11 a5 86 be
       -0.024791496 -0.05177461 0.044216365 -0.2629781
0002f0 68 8d 87 3d 1f b1 f2 3d 0a 64 c7 bd d5 57 8c bd
       0.06618768 0.118501894 -0.09735878 -0.0685269
000300 52 0d a4 be 16 5b 5c 3e bc 92 b4 3d f1 ba a3 be
       -0.32041413 0.21519122 0.0881705 -0.31978562
000310 37 4b 6d bd 2d 30 bc be 8b df 26 be 03 4e 44 bd
       -0.05793306 -0.36755505 -0.16296212 -0.04792596
000320 40 a2 0d bd 78 3d 85 3d fd 36 01 3d de 0c cb 3c
       -0.03457856 0.06505865 0.03154658 0.024786409
000330 e0 43 30 3e 5c 73 35 3b ad ca 83 3d 2d 5d bc bd
       0.17213392 0.0027687168 0.06435142 -0.09197459
000340 c0 f8 be bd c4 22 ed 3d 25 0d 7e 3d 49 de 83 bd
       -0.09324789 0.11578897 0.062024254 -0.06438882
000350 eb e8 d3 bd 02 3a 89 bd ec c4 aa 3d 76 c3 a4 3c
       -0.1034716 -0.06700517 0.08338341 0.020112734
000360 28 17 79 bd 75 c5 24 3e e0 e5 dd 3c 36 92 0f 3e
       -0.0608131 0.16090949 0.027087152 0.14020619
000370 cf 7f 90 3d ce 45 07 3a 4d 37 31 3d 21 30 14 3e
       0.070556276 0.0005160243 0.04326563 0.14471485
000380 e9 cb ed 3b a2 15 cb bc 61 b6 b7 3d e0 f7 c1 bd
       0.007256974 -0.024790589 0.08970333 -0.094711065
000390 fe 52 ef 3c 9f 83 36 bc 0d bf 92 3d 2b 7a 1e 3d
       0.029214378 -0.011139779 0.07165346 0.038690727
0003a0 e9 9d 6f 3b 33 84 64 bd 45 fd 0c bd 1f bf d3 bc
       0.0036562628 -0.055790137 -0.034421224 -0.02584797
0003b0 d4 54 a6 bd b7 01 37 be 41 25 18 3d a4 66 cb bb
       -0.081216484 -0.17871748 0.037144903 -0.006207304
0003c0 2f 55 e2 3d ed 04 ce bc 2c 5c b5 3c 33 6a 98 3d
       0.11051404 -0.025148833 0.022138678 0.07442131
0003d0 78 e7 a4 3d 5b bc e8 3a b9 91 8d bd 56 8c 8f bc
       0.08051962 0.001775633 -0.0691256 -0.017522972
0003e0 38 96 5b bd 5d 9f 38 3d 12 e0 40 3d 1e bf 88 3d
       -0.053610057 0.045073856 0.04708869 0.06677078
0003f0 e7 c4 94 3c f8 54 02 3e d5 93 8a 3d 6d da 6e 3d
       0.018160297 0.12727726 0.06766478 0.058313776

gru.bias_hh_l0 f4 [300]
000000 24 2d b6 3d 22 30 83 bd 32 01 a3 3d 05 07 3f 3d
       0.08895329 -0.06405665 0.07959212 0.046637554
000010 de bf 4d 3b e5 5c f5 bd 52 a3 b6 3d 28 4c b7 3d
       0.003139488 -0.11980609 0.0891787 0.089500725
000020 eb 9d 2e bd 03 9f 23 3b 4c b6 6a bd 64 33 34 be
       -0.04263107 0.0024966605 -0.057302758 -0.17597729
000030 cb 70 88 bd 41 00 b8 3d ba 1c af 3d 7c 26 d7 bd
       -0.066621386 0.089844234 0.08550401 -0.10505387
000040 67 35 2e 3e 7f 95 cb bc c8 fd cf bd d7 6b b7 3d
       0.17012559 -0.024851559 -0.10155827 0.08956116
000050 25 b6 40 bd 05 a9 a1 3c fd 7c 2d be c7 f5 4c 3e
       -0.047048707 0.019733915 -0.1694221 0.20015632
000060 a1 b9 6f 3c 0d 6a 17 be d1 cf 60 3e 40 8c ec 3d
       0.01463166 -0.14786549 0.21954276 0.11550188
000070 5a 44 12 be 0a 16 fb bd be 57 b1 bd 0d f1 0a be
       -0.14283887 -0.12260063 -0.086593136 -0.13568516
000080 99 a7 eb bb ab 38 1a bd 19 46 8a bd 81 62 ad bd
       -0.00719161 -0.0376517 -0.06751651 -0.08466054
000090 7a 48 5f 3c be 01 58 bd 90 21 d9 3d f3 d0 2a 3d
       0.01362812 -0.052736036 0.10602105 0.041703176
0000a0 4a 7e c3 3d 38 8b 62 3d 44 22 a3 bd b7 83 c8 3c
       0.09545572 0.05530855 -0.0796552 0.024476869
0000b0 a0 b6 61 3c 33 6f 42 bd 62 71 d3 bd fd 41 6b bd
       0.013776451 -0.04746933 -0.103243604 -0.05743598
0000c0 61 18 f5 3c 1b d9 1e be 46 7f 74 be ca db 23 be
       0.029918851 -0.15512507 -0.23876676 -0.16001812
0000d0 d1 0f 0a 3e e8 5c a7 3d 51 fa 1d bd fb 67 59 3d
       0.13482596 0.08172017 -0.0385688 0.05307768
0000e0 72 17 be bd 48 bb 3c bd 8c d9 79 bd 4f a7 46 3e
       -0.092818156 -0.046077043 -0.060998484 0.1939976
0000f0 40 11 9a 3d 86 f6 25 3c d4 0f 3a 3e d8 e4 d8 3d
       0.075228214 0.010129577 0.181701 0.105905235
000100 3b 65 39 bc a0 8f 98 3d f6 94 f3 3d 0c e8 8d bd
       -0.011315639 0.07449269 0.118936464 -0.06929025
000110 24 7a 17 3e d0 43 84 3c 7c 61 4d bd 7c 77 fe 3d
       0.14792687 0.016145617 -0.050141796 0.124251336
000120 4f c1 07 3c 48 e2 57 bd bf f8 d4 bd 6a 29 3c 3d
       0.008285834 -0.052706033 -0.10399007 0.045937933
000130 c9 34 24 3e f9 dc 82 bd a5 28 27 bc 4a cf a9 3d
       0.16035761 -0.063898034 -0.0102025615 0.082914904
000140 89 28 40 be a7 f2 b3 3c 72 1a e3 3d 01 41 61 bd
       -0.18765463 0.021966292 0.110890284 -0.054993633
000150 ad a7 e6 3d b2 b6 5b 3e cb e3 0a be 6f e7 55 ba
       0.1126245 0.21456411 -0.13563459 -0.00081597915
000160 8f 6a 37 bd 49 95 7f 3d 9a 04 a0 3d a0 f7 2d 3d
       -0.044779357 0.06239823 0.07813378 0.04247248
000170 be 27 f0 bd 01 e7 7a 3e 46 a2 f2 ba 03 c6 e8 3b
       -0.1172633 0.24502183 -0.0018511496 0.007103683
000180 89 54 4f 3d 73 f5 39 bd c7 48 92 bd ec 30 2d 3d
       0.05061773 -0.045400094 -0.071427874 0.042282984
000190 8c 2a 56 bd 82 4e ec 3a cc c3 cf 3d 43 c8 02 be
       -0.05228667 0.0018028768 0.10144767 -0.12771706
0001a0 0e 6e df be c5 bd b8 bd ad 47 1e 3b 1f 4c 93 bd
       -0.43638653 -0.09020571 0.0024151609 -0.07192253
0001b0 bc 6f 8e ba 04 b8 ab bd e2 d9 43 bb 76 10 dc 3b
       -0.001086704 -0.083847076 -0.0029884507 0.0067158295
0001c0 c9 2c af 3d b2 6b 62 bd 3c 5f 6a 3e 07 97 37 be
       0.08553464 -0.055278488 0.22887892 -0.17928706
0001d0 b8 59 3c be 18 c0 df 3d 7b f0 87 be 01 f3 08 be
       -0.183936 0.10925311 -0.2655066 -0.13373949
0001e0 13 e4 b0 be 75 97 82 be 21 3f 83 be 14 8e ae 3d
       -0.34549007 -0.25506178 -0.256341 0.08523193
0001f0 1a ea 87 3e be bd 44 3e a4 07 c1 be e5 be 08 bc
       0.26545793 0.19213006 -0.37701142 -0.008346294
000200 d6 0f 68 be b2 03 b5 be 36 64 49 be 88 a7 8d be
       -0.22662291 -0.35354382 -0.19667134 -0.2766688
000210 cd 83 47 bc 76 e6 44 bc 93 13 a1 bd 28 86 59 bd
       -0.01217742 -0.012017837 -0.078650616 -0.053106457
000220 03 a5 8b bd 1c f3 88 be 8e 08 8d 3d 7a 97 b1 be
       -0.06818583 -0.26747978 0.06886397 -0.3468588
000230 63 02 7a bd 31 02 dd be 0a 8e e5 bc af 65 eb bd
       -0.061037432 -0.43165734 -0.028021831 -0.11494004
000240 a9 93 68 be 7f e5 b4 be 0e e6 dd 3d 05 c1 07 3e
       -0.22712578 -0.35331342 0.10834895 0.13257225
000250 d0 f0 01 be 67 4b ba bd 11 1e 15 3e d0 39 02 3e
       -0.12689519 -0.09096413 0.1456225 0.12717366
000260 9c 47 e2 bd 5f b9 48 be f3 a3 49 3e a3 69 5a be
       -0.11048815 -0.19601963 0.19691448 -0.2132936
000270 94 4e 72 3e 4d 34 e5 bc 36 f9 12 3e 35 65 0a be
       0.23662788 -0.02797904 0.14352879 -0.1351517
000280 d5 70 4e bd 58 e0 04 bd d2 10 01 3e c3 61 2b 3e
       -0.050400574 -0.032440513 0.12604073 0.16736512
000290 50 9d 6b be ab 06 de bd b6 79 e6 bd b3 c2 5a bd
       -0.23009229 -0.108411156 -0.11253683 -0.053408336
0002a0 1e 9d ef 3d d9 a8 29 bd b1 53 94 3d 80 3b c1 be
       0.116998896 -0.04142079 0.07242525 -0.37740707
0002b0 95 16 d6 bd 3a bf 61 be 61 a1 cd 3d da 5a b9 be
       -0.10453526 -0.22045603 0.10040546 -0.36202127
0002c0 e9 6b 17 bd e5 93 70 3e ab 75 39 3d a5 74 66 3e
       -0.036968146 0.23493917 0.045278233 0.22505434
0002d0 03 8e e9 ba 15 91 ff be cc 3d 1b 3d ff d2 26 be
       -0.0017818812 -0.49915376 0.03790073 -0.16291426
0002e0 44 cf 2d 3c 0e c1 be bd e8 7f 41 3e ae 89 f2 bd
       0.010608498 -0.09314166 0.18896449 -0.118426666
0002f0 af bc d2 3d c4 ef 43 3d 3f a2 16 bd e0 48 bc bc
       0.10289895 0.04783608 -0.036775824 -0.022983968
000300 bf 1d cd be c6 98 0e 3e 4e 1a 2c 3d 88 15 7e be
       -0.40061757 0.13925466 0.042017274 -0.24812901
000310 89 2b 3e bd 37 8f 3f be 00 a6 1c be 82 a5 91 bd
       -0.046428237 -0.18706976 -0.15297699 -0.07111646
000320 8b 05 0b 3d c8 a0 af bd b3 ab cc bd 6a f1 bf bb
       0.033940833 -0.085755885 -0.099936865 -0.005857636
000330 7d f8 c2 3d 75 b5 83 bb b4 13 99 3d 05 de 14 be
       0.09520052 -0.004019434 0.07474461 -0.14537819
000340 5a 83 0a 3e ac 12 17 3b e2 34 6c bd e0 b6 00 be
       0.13526669 0.00230519 -0.05766762 -0.12569761
000350 e1 38 2b 3d 97 a9 85 bb 6e 6a 7f 3d d7 62 05 3e
       0.04180229 -0.0040790546 0.06235736 0.13025986
000360 0f 6f ec 3d e1 7f c8 3d b3 de d7 bc a3 ad 0c 3e
       0.1154462 0.09790016 -0.026351308 0.13738112
000370 6c e2 1b 3e 3c d4 3c be 60 b8 15 3e ca 73 2a 3d
       0.15223092 -0.18440336 0.14621115 0.04161433
000380 5b f9 16 3e c6 97 0c 3e 7d 66 0f 3d fc 29 1f 3e
       0.14743559 0.13729772 0.03500985 0.1554336
000390 4a fe cf bd 0a 34 20 be 33 64 3b bd f6 0f dc bc
       -0.10155924 -0.15644851 -0.045749854 -0.02686308
0003a0 fc d7 a7 3d da b7 04 bd 14 e6 02 be ec a5 13 3d
       0.081954926 -0.032401897 -0.1278308 0.036046907
0003b0 c3 f8 8f 3c 1e 0d f6 bd d9 91 17 bd 25 7c 05 3e
       0.017574674 -0.12014221 -0.037004326 0.13035639
0003c0 5d 64 1a 3e e2 cf 23 be ea 7a 67 3d f8 05 45 bd
       0.15077348 -0.1599727 0.056513704 -0.048101395
0003d0 9d 60 43 be 05 75 c8 3d 97 b3 1f bd d8 ca 18 3e
       -0.19079824 0.09787945 -0.03898963 0.14921129
0003e0 fe 56 ef bc 90 70 e5 bd f2 2a 07 bd 52 43 99 bd
       -0.029216286 -0.1120311 -0.03299994 -0.074835435
0003f0 37 4e c9 bd 88 81 0c 3a 68 20 c5 3d ac 66 ad 3d
       -0.098293714 0.0005359878 0.096253216 0.08466849

out.weight f4 [36, 200]
000000 a6 4c 0d be a0 5d 93 bd 3e dc 14 3f 15 f2 80 3e
       -0.1379877 -0.07195592 0.5814856 0.25184694
000010 91 1d ca be d2 81 78 3e 08 c9 e9 be 1d b1 d2 3e
       -0.39475682 0.24268273 -0.45661187 0.41150752
000020 19 d6 1f be 1d d5 a8 be 89 eb 72 be 81 12 dc 3e
       -0.15609016 -0.32975093 -0.23722662 0.42982867
000030 41 0b ad be f2 23 f2 3e cd 5c d6 be b4 2e 2a be
       -0.3379765 0.4729305 -0.41867676 -0.16619378
000040 9a a9 d7 3e fc 5b 41 bf 13 a6 bd 3e 6f ee bd be
       0.42121583 -0.7553098 0.37040767 -0.37095973
000050 f0 be ae be 7d 7c 18 be 41 b4 f5 be 97 db da bd
       -0.3413005 -0.14891239 -0.47989085 -0.10686415
000060 31 10 49 bf 77 7c 63 be 78 a1 f6 bd 0b 45 7f 3e
       -0.7854033 -0.22215448 -0.120425165 0.24928682
000070 84 a1 41 3e fd ed fb 3e d2 f6 c6 bd f1 a2 16 bf
       0.1890927 0.49205008 -0.09715046 -0.5884238
000080 5e 95 4c bd 95 0a 4a 3e 66 99 ac 3e 51 db 34 bd
       -0.049947135 0.19730599 0.33710784 -0.04415447
000090 17 d0 6a 3d 49 a8 da 3e c4 16 21 bd 98 98 aa be
       0.057327356 0.42706516 -0.03932835 -0.33319545
0000a0 47 0f c9 bd d9 55 05 3e e1 94 b7 3d 25 c5 83 be
       -0.09817367 0.1302103 0.08963943 -0.25736347
0000b0 7f 80 f2 bd c1 2e 1a 3e 8e 5c 3a 3e 9f e9 fd be
       -0.11840915 0.15056898 0.1819937 -0.495923
0000c0 d9 03 37 bd e8 38 2b 3e a0 d7 dc 3e 82 36 b5 bf
       -0.044681404 0.16720927 0.4313326 -1.415726
0000d0 27 cf a9 bd ab 13 1e be 70 fe a0 3c d8 f1 88 bd
       -0.08291464 -0.1543719 0.019652575 -0.06686753
0000e0 74 10 20 bf 8b c0 f6 bd ca 87 f2 3c 11 5f d1 be
       -0.62525105 -0.120484434 0.029605765 -0.40892842
0000f0 ca d6 80 3e ea 40 e7 bd 3b 45 e4 bc fd 7c a7 3e
       0.2516387 -0.11291678 -0.027865043 0.32712546
000100 fc 55 f6 be fb 68 af bd 27 64 03 3d 33 fc 53 3e
       -0.48112476 -0.08564945 0.032077935 0.20701675
000110 a3 67 04 be d8 27 d8 3d 82 2e dc 3d 35 a6 cc 3d
       -0.1293016 0.105544746 0.10751058 0.09992639
000120 15 29 1e bd 3a 25 0a be e7 02 20 be f8 99 70 3e
       -0.038613398 -0.13490763 -0.15626107 0.23496234
000130 40 4c 15 3c de 43 ee 3e e6 61 12 bf da 48 55 be
       0.009112418 0.46536154 -0.5718063 -0.20828572
000140 52 97 8a 3e d1 0a 6a 3e 87 62 ae be e3 61 93 3e
       0.27068573 0.22855689 -0.34059545 0.2878562
000150 dd 86 64 3e da 7d 15 bd 31 f3 19 3e 52 68 21 be
       0.22317071 -0.036496975 0.15034176 -0.15762451
000160 56 d0 aa 3d 34 2f 81 be 03 77 be 3e f4 9f 04 3e
       0.08340518 -0.25231326 0.37200174 0.12951642
000170 ef 31 16 bf 5f 73 29 3f 44 2e 84 bc a2 27 17 3d
       -0.5866994 0.6619167 -0.016135342 0.03690303
000180 e6 a6 aa be 28 2c 65 3d 59 55 eb 3e ae 3f 40 be
       -0.33330458 0.055950314 0.45963553 -0.18774292
000190 d1 ec d2 3e b4 1d 5a 3d 55 01 db be cc eb ce be
       0.41196302 0.053250983 -0.42774454 -0.40414274
0001a0 65 65 8f bf 36 b8 f2 be cf 0c 3f 3d 8f aa 93 bd
       -1.1202818 -0.47406167 0.046643075 -0.07210266
0001b0 e3 c1 90 bd b7 7e 0a be 2a cb 7c be bc 11 06 3e
       -0.07068231 -0.135249 -0.24686876 0.13092703
0001c0 3c 97 43 be 92 7b 5f bd 6b 6e 97 3d 43 58 0d bd
       -0.1910066 -0.054561205 0.073941074 -0.034508
0001d0 dd ed ef be 90 27 7a be 9a 10 77 3d c9 fd df 3e
       -0.46861163 -0.24429154 0.060318567 0.4374831
0001e0 38 59 2b bd ea 8c 07 3e f2 71 fe be 84 7f 09 bd
       -0.041833133 0.13237348 -0.49696308 -0.033568874
0001f0 a2 c9 dd be 7f 9d 20 be 1f 7c cc bd 52 02 4f be
       -0.43317896 -0.1568508 -0.09984612 -0.20215729
000200 35 de 28 3d 28 c2 94 be 11 cf bf bd 63 d5 06 bd
       0.04122754 -0.2905438 -0.09365667 -0.032918345
000210 da d8 c5 be 88 eb 49 3d 13 c4 40 3e ff 0f 81 3e
       -0.38642007 0.049296886 0.18824796 0.25207517
000220 c4 d4 c0 bc af 37 2e 3e 2e 0a f4 3d 18 1a 21 3f
       -0.023538955 0.17013429 0.11916004 0.6293044
000230 81 f1 cb be 63 9c c7 be e7 af 0c 3d 07 0d d0 3e
       -0.3983269 -0.389865 0.03434744 0.4063494
000240 36 a2 1b 3f 81 a0 72 bd 40 d5 1a 3f 1b a3 b5 3e
       0.6079439 -0.0592351 0.60481644 0.35476002
000250 07 3b 96 bd 6c c9 25 3f 1b b5 24 be 23 c3 59 bc
       -0.07335477 0.6476047 -0.16084711 -0.013291153
000260 58 c7 9d 3e 32 60 eb 3e 52 3b 98 3e 73 55 bf 3e
       0.3081615 0.4597183 0.29732758 0.3736988
000270 d2 2e e4 3d 32 4b 39 bd 4b 76 03 be e8 bd 68 be
       0.11141743 -0.045237727 -0.12838094 -0.22728693
000280 5c 3d f2 bd 22 71 87 bd a1 dd 50 3d ec eb 1c 3e
       -0.118281096 -0.06613375 0.05099261 0.15324372
000290 0d 88 06 3f c5 bf 40 3f 0d 87 aa be c5 37 70 3d
       0.52551347 0.7529262 -0.3330616 0.058646936
0002a0 10 c9 32 3e 7b 40 4e be ae 7d 03 3f 8d a9 4a be
       0.17459512 -0.20141785 0.51363647 -0.19791241
0002b0 23 de 04 bf 02 e0 47 be 84 06 30 be c8 d9 ca be
       -0.51901454 -0.19519046 -0.17189986 -0.3961928
0002c0 73 12 a9 3e 9f 5b de be 9c 53 b1 3e 47 18 94 3d
       0.33021888 -0.43429276 0.346341 0.07231193
0002d0 98 4b 16 bc 7b 9b 2c be df 76 6c 3e 5e e5 59 bf
       -0.009173296 -0.16856186 0.2309222 -0.8511561
0002e0 8c 8f 23 be 34 81 ee 3d 28 76 0b bd 85 df 7f 3e
       -0.15972728 0.11645737 -0.03404823 0.2498761
0002f0 65 45 22 bd 37 2a 00 3f 9d 34 88 3d 1f 86 89 3e
       -0.03961696 0.50064415 0.0665066 0.2686014
000300 b8 f2 92 bd bd 0f b1 3e c4 e0 78 bd 1d c6 22 3f
       -0.07175201 0.3458232 -0.06076123 0.63583547
000310 21 23 ca 3d df 0f 01 bf 04 b1 f9 be a1 5a 8f 3b
       0.098699816 -0.5041484 -0.48767865 0.0043748175
000320 93 2c 7f be f8 8f 0c 3d 2a 10 18 be f0 eb 2d 3e
       -0.24919347 0.034316987 -0.14849916 0.16984534
000330 35 50 7a 3e e3 e9 7c 3e fa 12 cc 3c b6 47 9a be
       0.24444659 0.24698596 0.024911392 -0.30132836
000340 b4 7d cc 3d 53 08 48 3e e8 91 da bd 24 1e 03 3f
       0.099849135 0.19534425 -0.10672361 0.51217866
000350 ce 46 6a be 93 9a 16 3f 93 c0 cd 3d 4e 60 43 3e
       -0.22878572 0.5882961 0.10046496 0.19079706
000360 d0 fe 7b be 28 c1 07 3e 7e 34 d0 3d 6a 22 a8 3e
       -0.24608922 0.13257277 0.10166262 0.32838756
000370 32 a3 aa 3d d4 05 cd 3d 33 ea 99 3e 17 e1 8c 3d
       0.08331908 0.10010877 0.30061492 0.0687887
000380 32 3e e5 3c a7 0d 3a 3e 74 e5 f0 bc 17 8a 9d 3d
       0.027983759 0.1816927 -0.029406287 0.07692354
000390 48 b6 dc bc c6 b9 93 3e d3 3e 84 be bd b1 95 bd
       -0.026942387 0.2885267 -0.2582918 -0.073092915
0003a0 84 c7 4e be da cc 0f 3d d7 85 64 be 97 ad 58 3e
       -0.20193297 0.03510747 -0.22316681 0.2115997
0003b0 56 20 0b 3e 42 67 18 bf be e5 d0 3e cc 0f 02 3e
       0.13586554 -0.5953256 0.4080028 0.12701339
0003c0 e1 fc 4a 3e b0 d4 87 3e 21 b4 ce be 07 d1 bc 3b
       0.19823028 0.26529455 -0.40371802 0.0057622227
0003d0 dc e4 53 3e bc 34 6c be 5b d1 7f 3e 02 0b c3 3d
       0.20692772 -0.23066992 0.24982207 0.09523584
0003e0 07 27 3c 3d b2 c3 2f 3e e6 27 a1 3d 62 9b 63 be
       0.045935657 0.17164496 0.07868938 -0.22227243
0003f0 86 d1 7b be 5b 61 a4 bd f5 27 d1 3e 80 68 45 be
       -0.24591646 -0.080263816 0.40850797 -0.19278145

out.bias f4 [36]
000000 bc 91 25 bf f4 06 d3 3d d3 ef 3f bf d7 91 52 bb
       -0.646755 0.103040606 -0.7497532 -0.0032130384
000010 07 a4 5c 3d 54 17 f9 be 33 0c 71 3d 13 a3 7d be
       0.053867366 -0.4865061 0.058849525 -0.24769239
000020 a6 b0 27 be 6a a3 5d be fa 5e d8 bd 14 23 86 bd
       -0.1637598 -0.21644369 -0.1056499 -0.06549659
000030 80 aa 72 bd c9 03 3e be 02 b8 55 be ea be 2b be
       -0.059244633 -0.18556131 -0.20870975 -0.16772047
000040 ae dc 81 3e 2d 88 cc bd 81 14 b5 3d 04 e8 c4 3c
       0.25363678 -0.09986911 0.088418014 0.024036415
000050 f4 ef 9a be 08 9a d1 3d 3b fb 81 bd 11 99 b5 be
       -0.30261195 0.10234457 -0.063467465 -0.35468343
000060 01 e7 a8 be 02 09 b6 be c9 b6 26 bc dc 9a d5 3d
       -0.32988742 -0.35553747 -0.010175415 0.10429928
000070 2e a4 f5 3c f2 f4 06 be ad e0 1c 3d 82 8d 38 be
       0.029985514 -0.13179377 0.038300205 -0.18022731
000080 2f 15 80 be de 24 4b bd 06 ea 72 be ea 29 88 3d
       -0.25016162 -0.049595706 -0.23722085 0.066486195
