modules/prn-gen/exp/en_id/models/bigram/decoder-attn_dot-emb_128-hddn_100-layers_1-epoch_29.pth (torch, 446256 bytes, 7 tensors)

embedding.weight f4 [36, 128]
0	0x3ed40aea	0.41414577
1	0xbeeb4ea7	-0.45958444
2	0x3e943f2f	0.28954455
3	0x3e2b5bc5	0.16734226
4	0xbfd904ea	-1.6954625
5	0x3fbaf430	1.460577
6	0x3d26e1cc	0.04074268
7	0x3ed2ab94	0.4114653
8	0xbe9ba4b3	-0.30399093
9	0x3d901ba5	0.07036523
10	0xbe7fd475	-0.2498339
11	0x3f9a8110	1.2070637
12	0x4012520d	2.286258
13	0xbf8231f0	-1.017149
14	0x3f68f060	0.90991783
15	0xbe829a4e	-0.2550835
16	0xbebbf141	-0.367075
17	0xbf93d203	-1.1548465
18	0x3f9cea6e	1.2259042
19	0x3f07c003	0.5302736
20	0xbf55365e	-0.8328608
21	0xbdd36deb	-0.103236996
22	0xbe784d4a	-0.24248233
23	0x3e6e25b9	0.23256578
24	0xbeac7c89	-0.33688763
25	0xbffa9621	-1.9577066
26	0xbfab4184	-1.3379369
27	0xbed7e4d0	-0.42166758
28	0xbf9de906	-1.2336738
29	0x3e085737	0.1331452
30	0xbf24b639	-0.6434055
31	0x3f11e55a	0.5699059
32	0xc01bb16a	-2.4327035
33	0xbfe2b6ed	-1.7712075
34	0xbfb25821	-1.3933145
35	0xbf095290	-0.53641605
36	0xbe9d34d7	-0.30704376
37	0xbe0c2d43	-0.13689141
38	0xbee29ff8	-0.4426267
39	0x3fa09efe	1.254852
40	0xbec1b97a	-0.3783682
41	0x3f13ba5c	0.57706237
42	0xbebe0a6e	-0.37117332
43	0x3f47dda9	0.780726
44	0xbf1dbe45	-0.61618453
45	0xbef7dfb8	-0.4841287
46	0xbf0d0301	-0.5508271
47	0x3fc8df21	1.5693094
48	0x3f9ee55d	1.2413746
49	0xbdef73ad	-0.11691985
50	0xbf28a5e8	-0.6587815
51	0xbd2951ae	-0.04133766
52	0x3e07b578	0.13252819
53	0xbed0e7a6	-0.40801734
54	0x3f2b2a7c	0.668617
55	0xbf35486e	-0.70813644
56	0x3f7f7bd1	0.99798304
57	0xbe81f836	-0.25384682
58	0xbf7f342e	-0.99688995
59	0x3ed8a3d8	0.42312503
60	0xbe8278c1	-0.25482753
61	0xbefc67a4	-0.49297822
62	0xbefa7bd9	-0.48922613
63	0xbe36bcfc	-0.1784553
64	0x3fc4e3e1	1.5382043
65	0xbdd82718	-0.105543315
66	0x3e861ed1	0.26195386
67	0xbe73e609	-0.2381822
68	0xbc407239	-0.011745983
69	0x3f92b976	1.1462848
70	0x3e30d1cc	0.17267531
71	0xbda75075	-0.08169643
72	0xbeac2230	-0.33619833
73	0x3f48e4b0	0.7847395
74	0xbf88ce7b	-1.0688013
75	0x3e011e76	0.12609276
76	0x3d28662c	0.041113064
77	0x3ef65b50	0.4811654
78	0x3e6e3e57	0.23265968
79	0x3fd8154b	1.6881498
80	0xbe115aa3	-0.14194731
81	0x3e012cc3	0.12614731
82	0xbfe43df0	-1.7831402
83	0xbdd10c20	-0.10207391
84	0xbefc25f8	-0.49247718
85	0x3f1cffb0	0.6132765
86	0xbf0812ec	-0.5315387
87	0xbf05cc19	-0.52264553
88	0xbfb1e9f4	-1.3899522
89	0xbe196f84	-0.14983946
90	0xbeb1a1f0	-0.3469386
91	0xbf016cce	-0.5055665
92	0x3f3d71bf	0.7400169
93	0x3ea865a3	0.32890043
94	0xbfaa5a65	-1.3308836
95	0xbc7ea2da	-0.0155417565
96	0x3fa0be7b	1.255813
97	0x3fa35b4b	1.2762235
98	0xbf36b589	-0.7137075
99	0xbee4edfb	-0.44712815
100	0xbf105de9	-0.56393296
101	0xbd171db6	-0.03689357
102	0xbe7beb6e	-0.24601528
103	0xbf81bbf0	-1.0135479
104	0xbf5e97a9	-0.86950165
105	0xbe82aed2	-0.25524002
106	0x3f4d5fce	0.8022431
107	0x3f77bfc8	0.9677701
108	0xbdd30aeb	-0.10304817
109	0xbe834317	-0.25637123
110	0xbf7548d1	-0.95814234
111	0xbea55c0f	-0.32296798
112	0xc01a6ec6	-2.413011
113	0x3fded989	1.7410136
114	0xbeb1a0dd	-0.3469304
115	0xbfe0bd83	-1.7557834
116	0xbf2ce7ef	-0.675414
117	0xbf87f523	-1.0621685
118	0xbed91665	-0.42399898
119	0x3fbb2223	1.4619793
120	0x3e65af2c	0.22430104
121	0xbeb030c0	-0.34412193
122	0xbf5d05e2	-0.863371
123	0xbec72294	-0.3889357
124	0xbeb709fc	-0.35749805
125	0x3ecfd1de	0.40589803
126	0x3ed0e7d5	0.40801874
127	0x3e04b2c0	0.12958813
128	0x3fd723e8	1.6807833
129	0x3faa355d	1.3297535
130	0x3de8c452	0.1136557
131	0x3e8a8310	0.27053118
132	0xbd48e3b9	-0.0490453
133	0x3ecf0d26	0.4043972
134	0xbf68b4af	-0.909007
135	0x3f44a062	0.76807225
136	0xbf4b9b9a	-0.79534304
137	0x3f2d15e8	0.6761155
138	0x3e6fd671	0.23421647
139	0x4012073c	2.2816916
140	0xbee977dc	-0.45599258
141	0xbcfb6677	-0.030688507
142	0xbf204f85	-0.6262134
143	0x3e00ac93	0.12565832
144	0x401aec8b	2.4206874
145	0x3f01c5a9	0.5069223
146	0x3f86816e	1.0508249
147	0x3eaa0e2e	0.33213943
148	0x3f095233	0.5364105
149	0xbe6e1c01	-0.2325287
150	0x3e1a3e93	0.15062933
151	0xbef96141	-0.4870701
152	0x3fc32415	1.5245386
153	0x3fa3bf4e	1.2792757
154	0x3f45614e	0.771016
155	0xbecd81c7	-0.40138075
156	0xc023b4df	-2.5579145
157	0xbf31cfd8	-0.6945777
158	0xbec299dd	-0.38008013
159	0xbef5e5be	-0.48026842
160	0x3f50564f	0.81381696
161	0x3e27f14f	0.16400646
162	0x3fc9dd8d	1.5770737
163	0xbec8c20f	-0.39210555
164	0xbe394d94	-0.18096
165	0x3f9f24f4	1.2433152
166	0x3f01529b	0.5051667
167	0xbfba48e7	-1.4553498
168	0x3da9fad1	0.082997926
169	0x3e0b8f69	0.13628925
170	0x3fc854f6	1.5650928
171	0xbf764872	-0.9620429
172	0xbeefc4f7	-0.4682996
173	0x3f3485e5	0.70516807
174	0x3f8d3abe	1.1033552
175	0x3fd638a2	1.6736033
176	0xbe8d0625	-0.2754375
177	0xbfed6389	-1.8546001
178	0xbf1c9199	-0.61159664
179	0x3f0dcfb6	0.55395067
180	0xbfa706e1	-1.3048974
181	0x3e9c2328	0.30495572
182	0xbee59f70	-0.44848204
183	0xbdf9a449	-0.12189538
184	0xbedfbe60	-0.43699932
185	0xbf5e3b49	-0.8680921
186	0xbf882e55	-1.063914
187	0xbf767bb6	-0.9628252
188	0x3fad231f	1.3526343
189	0x3fddb87d	1.7321926
190	0x3f35cdec	0.71017337
191	0xbf1258e0	-0.5716686
192	0xbef57e16	-0.47947758
193	0xbe262e21	-0.16228534
194	0xbf2747ae	-0.6534375
195	0xbfd2d13c	-1.6470103
196	0x3e49f4d5	0.19722302
197	0x3fb5051b	1.4142183
198	0xbebb81a7	-0.36622354
199	0xbec0f1d1	-0.3768449
200	0x3e43ef3a	0.19134226
201	0x3f77dd49	0.9682203
202	0xbff9110a	-1.9458325
203	0x3f8ffe15	1.1249415
204	0xbe7a7d4d	-0.24461861
205	0xbd5cabf1	-0.053874914
206	0x3d74df2c	0.059783146
207	0x3f01c8e9	0.5069719
208	0x3f8303d1	1.023554
209	0x3e8f6879	0.28009394
210	0x3f916a62	1.136059
211	0x3f3bc622	0.733492
212	0x3f5dc6c2	0.86631405
213	0xbe079e5a	-0.13244
214	0xbf6aea80	-0.9176407
215	0xbfc859a2	-1.5652354
216	0x3f9450c4	1.1587148
217	0x3fd01add	1.6258198
218	0xbf4397d9	-0.76403576
219	0xbf691098	-0.91040945
220	0xbf3991da	-0.72488177
221	0xc00a4cca	-2.1609368
222	0x3ef010b6	0.4688775
223	0xbe636ce1	-0.22209503
224	0xbf47e7d2	-0.78088105
225	0x3f27e1eb	0.655791
226	0xbfeb0d95	-1.836352
227	0xbf86ba48	-1.0525599
228	0xbf00f37d	-0.50371534
229	0xbfda2d5e	-1.7045095
230	0x3f5bc714	0.85850644
231	0x3f2ddd6a	0.67915976
232	0x3fb25f48	1.3935328
233	0x3e45ae80	0.19304848
234	0xbf925bca	-1.1434262
235	0xbed4171c	-0.4142388
236	0xc007b1d6	-2.1202292
237	0xbfeeff07	-1.8671578
238	0xbdc4babb	-0.096059285
239	0x3f7a40b9	0.9775501
240	0x3fb3f440	1.4058914
241	0xbf29e341	-0.66362387
242	0x3eb8a9b4	0.36066973
243	0xbf2b602b	-0.66943616
244	0xbd53ca12	-0.05170638
245	0x3f25e874	0.6480782
246	0x3f77bedd	0.9677561
247	0xbf562ef8	-0.8366542
248	0xc00310e3	-2.0479057
249	0x3edcabbd	0.43099776
250	0x3ef0bd4a	0.47019416
251	0xbf40b4a0	-0.7527561
252	0x3f8e69b0	1.1126003
253	0x3f0dc90b	0.5538489
254	0xbe6ecc73	-0.23320179
255	0xbfd11683	-1.6334995

gru.weight_ih_l0 f4 [300, 228]
0	0x3bd23442	0.006414921
1	0xbdac57c4	-0.084151775
2	0x3c7405d9	0.014893972
3	0x3dc61848	0.096726
4	0x3cc0c658	0.023532078
5	0x3eb9af7f	0.36266705
6	0x3e119070	0.14215255
7	0x3e275476	0.16340813
8	0xbdab5344	-0.08365491
9	0xbc935c7e	-0.01798844
10	0xbe656cba	-0.22404757
11	0xbe377240	-0.17914677
12	0xbddd5822	-0.108078256
13	0x3dd9ff6a	0.106444195
14	0xbc29864e	-0.010346962
15	0x3dd05553	0.10172524
16	0xbb3bc244	-0.0028649727
17	0x3e7e0421	0.24806263
18	0xbdd9b78b	-0.10630711
19	0x3d6ade84	0.057341114
20	0xbcdbcf95	-0.026832381
21	0xbdba17f3	-0.09086599
22	0x3e04fdb2	0.12987402
23	0x3d2a0ed5	0.04151805
24	0x3e0d9aea	0.13828626
25	0x3d96f047	0.07370048
26	0xbe618c72	-0.22026232
27	0xbdb4cbdd	-0.08827946
28	0xbe066d0d	-0.13127537
29	0x3e67162a	0.22567049
30	0x3e1a652d	0.15077658
31	0x3e208e11	0.15679194
32	0x3d1dae5d	0.038496364
33	0x3e4e2460	0.20131063
34	0xbceb4137	-0.02871762
35	0xbd999fc7	-0.07501178
36	0xbd5f91fe	-0.05458259
37	0x3d677363	0.056506526
38	0x3e32d05d	0.17462297
39	0xbcca1833	-0.024669742
40	0x3c9549a5	0.018223593
41	0x3e2dd117	0.16974293
42	0x3e53e148	0.20691407
43	0xbc8f363b	-0.017481914
44	0xbd0758e5	-0.03304376
45	0xbd2976eb	-0.041373175
46	0x3dafc1a1	0.08581854
47	0x3d2f3c79	0.04278228
48	0xbde60d3a	-0.112329915
49	0xbda413a8	-0.08011562
50	0x3e154759	0.14577998
51	0xbda564da	-0.080758765
52	0x3dcb0537	0.09913104
53	0xbbbf0563	-0.0058294996
54	0xbe5d8e1a	-0.21636239
55	0xbb9e6b70	-0.004834585
56	0x3e2895bb	0.16463368
57	0xbe8451e7	-0.25843737
58	0x3e346623	0.17617087
59	0x3adbc595	0.0016767258
60	0xbdb69415	-0.08914963
61	0x3cb46673	0.022021508
62	0x3e186dc6	0.14885625
63	0xbd32d66f	-0.04366153
64	0xbd86f1d1	-0.065890916
65	0xbd7860a5	-0.060639042
66	0xbeb06856	-0.34454602
67	0x3dc6381e	0.09678672
68	0xbe5fd4b9	-0.21858491
69	0x3db5ef04	0.08883479
70	0x3da1fff8	0.0791015
71	0xbe6f7fd7	-0.23388611
72	0x3e38f5fd	0.18062587
73	0xbd3bc9e3	-0.04584683
74	0x3e36f18b	0.17865579
75	0xbe54e268	-0.20789492
76	0xbde00593	-0.10938563
77	0xbe140767	-0.14455949
78	0xbba39075	-0.004991586
79	0xbde8ee66	-0.11373596
80	0x3e144c3e	0.14482209
81	0xbc44969e	-0.011998801
82	0x3da1a7f4	0.07893363
83	0x3dd52f93	0.10409465
84	0x3e69f7bd	0.22848411
85	0xbde85e19	-0.11346073
86	0xbda5fe2d	-0.08105121
87	0x3e11eb9f	0.14250039
88	0x3e1e1791	0.15438677
89	0xbd4782f4	-0.04870887
90	0xbd2fe7bb	-0.042945605
91	0x3d843968	0.06456262
92	0xbde0b98b	-0.109728895
93	0xbdb386fc	-0.087659806
94	0x3ce904a1	0.02844459
95	0x3dad8b56	0.08473842
96	0x3dc0e46d	0.09418569
97	0xbdcc0950	-0.09962714
98	0xbe2e4f39	-0.17022409
99	0xbbe88c86	-0.00709683
100	0xbdaddd5b	-0.08489486
101	0xbde723bb	-0.11286112
102	0xbddee837	-0.10884135
103	0x3dd385bd	0.10328243
104	0xbdab8713	-0.08375373
105	0x3e3e866c	0.18605965
106	0x3e3d045f	0.18458699
107	0xbc399e26	-0.011329209
108	0xbd753c9d	-0.05987226
109	0xbdf4b9ff	-0.119495384
110	0x3e6c3dfe	0.23070523
111	0x3df99121	0.12185884
112	0x3d903dc1	0.070430286
113	0xbda084fc	-0.07837865
114	0xbcb6f856	-0.022335213
115	0xbe01eaee	-0.12687275
116	0xbcb364c2	-0.021898631
117	0x3b86e9b5	0.0041172155
118	0x3d1d1094	0.03834589
119	0x3d922b5a	0.07137175
120	0x3d4a1eb5	0.04934569
121	0x3d6ef5e2	0.05833996
122	0xbc3f8924	-0.011690412
123	0xbc9e90ec	-0.019356214
124	0x3d0da7bf	0.034583803
125	0xbcd78cb7	-0.026312215
126	0xbb4eebc5	-0.0031573635
127	0xbe557116	-0.2084392
128	0x3e20806a	0.15673986
129	0xbce71d4c	-0.028212212
130	0x3df4c971	0.119524844
131	0xbe220092	-0.1582053
132	0x3e9611f9	0.29310587
133	0xbde6cc52	-0.1126944
134	0xbd4c7b72	-0.049922414
135	0xbd84dfa9	-0.06487972
136	0x3e28b6f6	0.16476044
137	0x3d619d74	0.0550818
138	0x3c86ed67	0.016470624
139	0xbcbdb6f6	-0.023158532
140	0x3c563161	0.013073296
141	0xbcbd9816	-0.02314381
142	0x3e664c90	0.22490144
143	0x3e1cf2da	0.15327016
144	0xbdec4938	-0.11537403
145	0x3e42d1bb	0.19025318
146	0xbc155bd0	-0.009116128
147	0x3ce06ba9	0.027395086
148	0x3e6fce53	0.2341855
149	0x3d26a1a2	0.04068149
150	0x3c74b271	0.014935122
151	0xbb7ba01d	-0.0038394995
152	0x3dbc743c	0.092018574
153	0x3ddc809d	0.107667185
154	0xbcb8e50d	-0.022570157
155	0xbe43415a	-0.19067898
156	0xbd2af301	-0.041735653
157	0x3daa6a0d	0.08321009
158	0xbdaaf081	-0.08346654
159	0xbccae67d	-0.024768109
160	0xbe606eb9	-0.21917237
161	0x3e01c043	0.12670998
162	0x3e075a43	0.13218026
163	0x3e99e84d	0.30060044
164	0xbe97da72	-0.29658848
165	0x3e00b597	0.12569271
166	0xbe74f7bf	-0.23922633
167	0x3e0ee42b	0.13954227
168	0xbc8a659f	-0.01689416
169	0x3dc83136	0.09775011
170	0xbe670370	-0.22559905
171	0x3da355f7	0.07975381
172	0x3c34d4ad	0.011037034
173	0x3d8139d9	0.06309862
174	0xbe59fec7	-0.21288596
175	0x3e98d2d8	0.2984836
176	0xbe1cd66e	-0.15316173
177	0xbe04d26d	-0.12970896
178	0x3c9e08c7	0.019291295
179	0xbdd36ddc	-0.103236884
180	0xbd5cba03	-0.053888332
181	0xbc229d46	-0.009925192
182	0xbe0bd044	-0.13653666
183	0xbd2c8dd8	-0.04212746
184	0x3d0ba2b0	0.034090698
185	0xbe3f72c2	-0.1869612
186	0x3b13f670	0.0022577308
187	0x39e0467b	0.0004277712
188	0x3de67530	0.112528205
189	0x3e580874	0.21096975
190	0x3d8a39d1	0.06749309
191	0xbc8c416e	-0.017121043
192	0x3d6fe70f	0.058569964
193	0xbe149c9a	-0.14512864
194	0xbde7e158	-0.11322278
195	0x3e015811	0.12631251
196	0xbd18d0c5	-0.037308473
197	0x3e4641a2	0.19360974
198	0xbe0c08ed	-0.1367528
199	0x3e7822c1	0.24232008
200	0xbd006fb1	-0.031356517
201	0xbd963670	-0.07334602
202	0x3d4d3998	0.050103754
203	0xbe61c2a4	-0.22046906
204	0x3df0addd	0.11751912
205	0xbe1c3415	-0.15254243
206	0x3e786b7c	0.24259752
207	0x3e08203b	0.13293545
208	0x3e18bfac	0.14916867
209	0x3eb89f10	0.36058855
210	0x3e49904a	0.19683948
211	0xbe4fed4f	-0.2030537
212	0x3df3cb8f	0.1190406
213	0xbddda1b2	-0.108218566
214	0xbe2a88bf	-0.16653727
215	0x3dd59f02	0.10430719
216	0x3e19a61b	0.1500477
217	0x3b245880	0.0025077164
218	0xbeac92e4	-0.3370582
219	0xbd7688a4	-0.060188904
220	0x3ede6ada	0.43440896
221	0xbd7904b2	-0.060795493
222	0x3da7be2e	0.08190571
223	0x3c55812f	0.013031288
224	0xbe934207	-0.28761312
225	0x3e3902da	0.18067494
226	0x3cfa6264	0.030564494
227	0xbe8c8f97	-0.274533
228	0x3d905b00	0.07048607
229	0xbead7678	-0.33879447
230	0x3e028a0f	0.12747978
231	0x3e2b28bf	0.16714762
232	0xbd523aaa	-0.051325478
233	0xbdf67bdf	-0.12035345
234	0x3c8cdd55	0.017195383
235	0xbcec5063	-0.028846925
236	0x3c861ff9	0.016372668
237	0x3d682d8a	0.056684054
238	0xbe883820	-0.2660532
239	0x3d297967	0.041375544
240	0x3d9d6255	0.07684771
241	0xbde5d498	-0.1122219
242	0xbd610927	-0.05494037
243	0x3e2023fc	0.15638727
244	0x3cc02773	0.02345631
245	0x3caa591d	0.020794446
246	0xbd8b1d77	-0.06792729
247	0x3e400657	0.18752418
248	0x3e322146	0.17395505
249	0xbcdebe10	-0.027190238
250	0x3c286fc4	0.010280553
251	0x3d99a668	0.075024426
252	0x3dc6f0cc	0.09713897
253	0xbe15adba	-0.14617053
254	0xbe083bc0	-0.13304043
255	0x3dea8a58	0.11452168

gru.weight_hh_l0 f4 [300, 100]
0	0xbd418787	-0.04724839
1	0xbc26f24e	-0.010189606
2	0x3db4254f	0.087961785
3	0xbe83715f	-0.25672433
4	0xbe05ddcd	-0.13072892
5	0x3cd7eee9	0.026359038
6	0xbe197614	-0.1498645
7	0x3e05313f	0.13007067
8	0x3d87e932	0.06636275
9	0xbc61a00c	-0.013771068
10	0x3d17bee1	0.03704727
11	0x3de0971b	0.10966321
12	0xbc8d4a8d	-0.017247463
13	0x3e21f49d	0.15815969
14	0x3d42c173	0.04754777
15	0x3c72cc56	0.014819225
16	0xbe3d3276	-0.1847628
17	0x3e13ff41	0.1445284
18	0x3e4104a9	0.18849434
19	0xbe40c92e	-0.18826744
20	0x3e9952e5	0.29946056
21	0xbdd8ed49	-0.105921336
22	0xbe05b397	-0.1305679
23	0xbdcb6f5f	-0.09933352
24	0xbd85017f	-0.06494426
25	0x3e1baeb6	0.15203366
26	0xbdd584d1	-0.10425723
27	0xbda681e7	-0.08130246
28	0xbd6fb8e6	-0.058525942
29	0x3d658358	0.056033462
30	0xbda25ada	-0.07927485
31	0xbd86b231	-0.06576956
32	0xbe45b747	-0.19308196
33	0x3ea9a3a5	0.33132663
34	0xbb2d09d6	-0.0026403568
35	0x3a931bc4	0.0011223485
36	0x3d499a7c	0.049219593
37	0xbd977c04	-0.07396701
38	0x3d12c30c	0.035830542
39	0x3e38ad03	0.18034749
40	0xbc11d961	-0.008901925
41	0x3dacdf20	0.08440995
42	0xbe92f75a	-0.2870434
43	0x3baa9c88	0.0052066483
44	0xbcd36b61	-0.025808038
45	0xbe18864f	-0.14894985
46	0xbd319583	-0.043355476
47	0x3d91c320	0.07117295
48	0xbeb59e64	-0.35472405
49	0x3df016a9	0.11723072
50	0xbd58f901	-0.052971844
51	0xbecd4e10	-0.4009862
52	0xbe27fe09	-0.164055
53	0xbe340351	-0.1757939
54	0x3e04b31c	0.1295895
55	0x3ec0751d	0.3758935
56	0xbdd92358	-0.106024444
57	0xbbb349be	-0.0054714372
58	0xbc7890c5	-0.0151712345
59	0xbcf66a3b	-0.030079952
60	0x3e4b8b33	0.19877319
61	0xbda45e6c	-0.08025822
62	0x3dadcdd1	0.08486522
63	0x3d72298d	0.059121657
64	0xbdfd4648	-0.12366921
65	0xbc263eb6	-0.010146787
66	0x3cdcfb7e	0.02697539
67	0xbe568955	-0.20950826
68	0x3d7d9ec3	0.061918985
69	0x3e6b59a1	0.2298341
70	0xbe112d88	-0.14177525
71	0xbd44553b	-0.047932845
72	0x3e015f93	0.12634115
73	0xbe588ec3	-0.2114821
74	0x3dc7a8a1	0.0974896
75	0xbddf99cf	-0.109180085
76	0x3dc71d1a	0.097223476
77	0xbe3e1417	-0.18562351
78	0xbd635309	-0.05549911
79	0xbdce9f41	-0.10088969
80	0xbe39c6b0	-0.181422
81	0x3df91e4d	0.121639825
82	0x3e5afab4	0.21384698
83	0xbe0d6baf	-0.1381061
84	0x3c5d5dd3	0.013511139
85	0x3c2bf72d	0.010495943
86	0xbcf46d23	-0.029837197
87	0xbe423c44	-0.18968302
88	0x3dbb9fc4	0.09161332
89	0xbb749ebf	-0.0037326065
90	0xbe0b536d	-0.13606043
91	0xbbbfa90b	-0.005849009
92	0x3df57892	0.119858876
93	0x3e716b3c	0.23576063
94	0x3e1013b2	0.14070013
95	0xbd57785f	-0.05260503
96	0xbe29ed7f	-0.16594504
97	0x3e4a32ae	0.19745895
98	0xbd22f44a	-0.039783753
99	0xbdd6bca5	-0.104852
100	0xbe2a8547	-0.16652404
101	0x3e1fb51a	0.15596429
102	0xbcf9fb7a	-0.030515421
103	0x3d901687	0.07035547
104	0xbe30ee25	-0.17278345
105	0x3d168ee4	0.036757365
106	0x3e4a5028	0.1975714
107	0x3cc6bc94	0.024259843
108	0xbc9916d5	-0.018687645
109	0xbda6e6b1	-0.0814947
110	0x3e028482	0.1274586
111	0x3d25e382	0.04050017
112	0x3cbdeacc	0.023183249
113	0xbe6d806c	-0.2319352
114	0xbd1ba1d6	-0.037996136
115	0x3deb9e09	0.11504752
116	0xbd07e107	-0.033173587
117	0x3da79e5e	0.08184503
118	0x3e807ff1	0.25097612
119	0x3bab0e45	0.005220207
120	0xbd30f208	-0.04319957
121	0xbc1b74b7	-0.009488276
122	0xbd3cf88a	-0.046135463
123	0x3c695a22	0.014242681
124	0x3d1b7996	0.03795775
125	0x3d07d39e	0.0331608
126	0x3d3cdb3b	0.046107512
127	0xbd8c7921	-0.06859041
128	0xbd7e3099	-0.062058065
129	0x3e497da7	0.19676839
130	0xbd034494	-0.032047823
131	0xbdff95fe	-0.124797806
132	0x3dec16cf	0.11527788
133	0xbdc02146	-0.093813464
134	0x3c24d2be	0.0100600105
135	0x3bb28988	0.005448524
136	0xbd03c9b7	-0.032174792
137	0x3db2b3b4	0.08725682
138	0xbdff5fed	-0.12469468
139	0xbd773cad	-0.0603606
140	0xbd5220d5	-0.051300842
141	0x3dc09114	0.094026715
142	0x3ca1bd41	0.019743564
143	0x3b6c183b	0.0036025185
144	0xbd49a97f	-0.04923391
145	0x3dc6b5b6	0.09702627
146	0x3d42cfef	0.047561582
147	0x3c597abd	0.013273892
148	0x3d46a363	0.04849566
149	0xbd822a31	-0.063557036
150	0xbe5b9311	-0.2144282
151	0xbe32ff9c	-0.1748032
152	0x3e1144e3	0.14186434
153	0xbea5d164	-0.32386315
154	0xbcdd18bf	-0.026989339
155	0xbcfafe7a	-0.030638922
156	0x3dac00ac	0.08398566
157	0x3db152bc	0.086583585
158	0x3ce261cb	0.027634522
159	0xbe1e7ef6	-0.15478119
160	0xba56644b	-0.0008178397
161	0x3ddfada5	0.10921792
162	0xbd40e7f1	-0.047096197
163	0x3e09c19b	0.13452761
164	0xbb2eac90	-0.0026653148
165	0x3d3c2608	0.045934707
166	0x3d92d089	0.07168681
167	0x3c013880	0.007887006
168	0x3e32fd4f	0.17479442
169	0x3d932073	0.071839236
170	0xbdc8bafa	-0.09801288
171	0xbda04d72	-0.078272715
172	0x3dc58110	0.09643757
173	0x3dbbd53f	0.09171533
174	0xbba9b6cf	-0.005179263
175	0x3d3f98e0	0.046776652
176	0xbe816b64	-0.25277245
177	0x3e8e2a53	0.27766666
178	0x3da74f8c	0.08169469
179	0xbd00e84b	-0.03147153
180	0x3e771606	0.24129495
181	0xbd951665	-0.07279662
182	0x3d93cd7b	0.07216927
183	0x3dd1decf	0.102475755
184	0xbdbc46ab	-0.09193166
185	0x3e889141	0.2667332
186	0x3dc2f720	0.095197916
187	0x3e13473e	0.14382645
188	0xbd63bd40	-0.055600405
189	0xbd6e9d40	-0.058255434
190	0xbe68ad13	-0.22722273
191	0x3e103b0b	0.14085023
192	0xbcf82274	-0.030289866
193	0x3da4a3e5	0.08039073
194	0x3e97d715	0.29656282
195	0xbcf608b0	-0.03003344
196	0xbc7ac9d8	-0.015306912
197	0xbd51b06d	-0.051193643
198	0xbc173be0	-0.009230584
199	0x3d87714a	0.06613405
200	0x3c22c0ba	0.009933645
201	0x3d025a8b	0.03182463
202	0xbdff6223	-0.1246989
203	0xbe17f8e3	-0.14841036
204	0xbdd4f8fc	-0.103990525
205	0x3ca628f1	0.020283194
206	0x3df238ea	0.11827262
207	0x3e0509b3	0.12991981
208	0x3d534a17	0.05158433
209	0x3dfd2a37	0.123615675
210	0xbdb42978	-0.08796972
211	0xbd6aa960	-0.057290435
212	0x3d936b94	0.07198253
213	0x3e0b7d4f	0.1362202
214	0x3e14d1cb	0.14533155
215	0x3d8d8ce5	0.06911639
216	0xbdd1bf85	-0.102416076
217	0x3df1dc7e	0.11809634
218	0xbda7c633	-0.081921004
219	0xbe02763d	-0.12740417
220	0xbe23999d	-0.15976568
221	0x3c1dca4a	0.009630749
222	0xba9b0772	-0.001182778
223	0xbc5365a5	-0.012902652
224	0xbd6632c6	-0.056200765
225	0xbd756aea	-0.059916414
226	0xbe1c4687	-0.15261279
227	0x3c9a420d	0.018830324
228	0x3db2930d	0.08719454
229	0xbe346a20	-0.17618608
230	0xbdb494e7	-0.08817463
231	0x3cd90596	0.026491921
232	0xbde715c3	-0.112834476
233	0x3e17f015	0.14837678
234	0xbdb1f90f	-0.08690082
235	0x3dbc1978	0.09184545
236	0xbdb76c89	-0.08956248
237	0x3d049694	0.032370165
238	0x3c839015	0.016059915
239	0x3dbcef73	0.09225359
240	0xbe1a8e96	-0.15093455
241	0xbd71f1e4	-0.059068576
242	0x3caf3c56	0.021391075
243	0xbdccf992	-0.10008539
244	0xbdf472f3	-0.11935987
245	0xbe18887d	-0.14895816
246	0xbc12879d	-0.008943466
247	0x3d381e6b	0.044950884
248	0xbe040e6d	-0.12896128
249	0x3d544c87	0.051830795
250	0x3d7a61e5	0.061128516
251	0xbe3762c9	-0.17908777
252	0xbcbc8921	-0.023014607
253	0xbcaf68bc	-0.021412246
254	0x3dfec413	0.12439742
255	0x3dea1215	0.1142923

gru.bias_ih_l0 f4 [300]
0	0x3d969f3c	0.0735459
1	0xbd851b35	-0.0649933
2	0xbdc05aab	-0.093922935
3	0xbd004262	-0.031313308
4	0x3d61c393	0.055118155
5	0x3e16c083	0.14721875
6	0xbea33b6e	-0.3188128
7	0x3e1a0234	0.15039903
8	0x3d860da6	0.06545572
9	0x3d6413ff	0.055683132
10	0x3dd45af2	0.10368909
11	0xbd1949dc	-0.037423953
12	0x3d129863	0.03578986
13	0x3d03fae2	0.032221682
14	0x3ea32af6	0.31868714
15	0x3bb50776	0.005524571
16	0x3e304220	0.17212725
17	0x3e1eab28	0.15494978
18	0xbd0d3240	-0.03447175
19	0x3d46d5d7	0.048543777
20	0xbe3557e9	-0.17709316
21	0x3d0c354b	0.03423051
22	0x3dc3975c	0.09550354
23	0xbce81f6e	-0.0283353
24	0x3cb1841a	0.021669436
25	0xbd033658	-0.032034248
26	0x3e00274d	0.12514992
27	0xbba1a22f	-0.004932664
28	0x3cbbdd30	0.022932619
29	0xbc8fe159	-0.017563509
30	0x3e0d9d7a	0.13829604
31	0x3d2ab047	0.041672017
32	0xbdc34528	-0.09534675
33	0xbc5737f5	-0.0131359
34	0xbdb35b62	-0.08757664
35	0x3e140221	0.14453937
36	0x3e19db2b	0.15025012
37	0x3c35a409	0.011086472
38	0xbd2efeb6	-0.04272338
39	0xbe030ff3	-0.12799053
40	0x3d870d1a	0.06594296
41	0xbd8916eb	-0.066938244
42	0x3d4ec1ff	0.050477978
43	0x3d010866	0.03150215
44	0xbcd65d66	-0.026167583
45	0x3ce36d32	0.02776203
46	0x3e2e1a7e	0.17002293
47	0x3e1f2545	0.15541561
48	0x3d5e9496	0.05434092
49	0x3df506d9	0.11964197
50	0xbd0d6bc2	-0.034526594
51	0x3ca30c8c	0.019903444
52	0x3c9ec0dd	0.019379074
53	0x3a7ae921	0.0009571482
54	0x3e21d0af	0.15802263
55	0x3db3d6af	0.08781182
56	0xbde6e28f	-0.11273681
57	0x3e7c0860	0.2461257
58	0xbcc765bd	-0.024340505
59	0xbd535300	-0.051592827
60	0x3dc5c301	0.09656335
61	0x3e1f2c31	0.15544201
62	0x3d669cce	0.056301884
63	0x3dc9cff1	0.09854115
64	0xbe4d44e4	-0.20045811
65	0xbd648ea6	-0.055800103
66	0x3e5862bb	0.21131413
67	0x3da70c1c	0.081566066
68	0xbdc95d2d	-0.09832225
69	0xbe7296f9	-0.23690404
70	0x3e2ef314	0.17084914
71	0xbe468259	-0.19385661
72	0x3e442144	0.19153315
73	0x3e45cbf7	0.19316088
74	0xbe0aca07	-0.1355363
75	0x3dfb668d	0.122754194
76	0x3dfcf211	0.12350858
77	0xbd03d925	-0.032189507
78	0x3d64ff55	0.055907566
79	0x3b2e14f3	0.002656278
80	0x3c81b226	0.015832018
81	0x3d31e6f1	0.043433134
82	0x3d3c3180	0.045945644
83	0xbca35e37	-0.019942386
84	0xbd940f11	-0.07229436
85	0xbd57ef4f	-0.052718457
86	0x3d457729	0.048209343
87	0x3cf9f3e8	0.030511811
88	0x3bf32ce1	0.0074211215
89	0xbd9560a8	-0.07293826
90	0xbe1cd162	-0.15314248
91	0x3c130bc8	0.008974977
92	0xbdef9f68	-0.11700326
93	0x3dd156cb	0.102216326
94	0x3dd5b094	0.1043407
95	0xbd7dcb4d	-0.06196146
96	0x3d751929	0.059838448
97	0x3ce2441d	0.02762037
98	0x3e20f596	0.15718684
99	0xb8be3259	-9.069284e-05
100	0xbe04b11d	-0.12958188
101	0xbd53e5a4	-0.051732674
102	0x3dc5eb8e	0.09664069
103	0xbe20fc38	-0.15721214
104	0xbe694ead	-0.22783919
105	0xbda68468	-0.08130723
106	0xbec34c37	-0.38144085
107	0xbd0ce2e4	-0.034396067
108	0xbe763a18	-0.24045599
109	0x3e559158	0.20856225
110	0x3bbe6d14	0.005811343
111	0x3b6171ab	0.0034400027
112	0xbdbb4449	-0.09143884
113	0xbda47653	-0.08030381
114	0xbe8c6d4f	-0.27427146
115	0x3e3cfad3	0.18455057
116	0xbca97e7d	-0.020690197
117	0x3c06a063	0.00821695
118	0x3d8c6ac6	0.06856303
119	0xbe6daeb5	-0.23211177
120	0x3d1e3b4e	0.038630776
121	0x3cadf842	0.021236543
122	0x3dcd3142	0.10019161
123	0xbec28d54	-0.3799845
124	0xbed7d730	-0.42156363
125	0x3c35cc69	0.011096098
126	0xbce0163d	-0.027354354
127	0x3c70be3f	0.014693796
128	0x3da6226a	0.08112033
129	0x3dd01300	0.10159874
130	0x3c8fb2d4	0.017541327
131	0x3d91b44b	0.07114466
132	0x3d341cd9	0.043972824
133	0xbe6920c2	-0.22766402
134	0xbbbdd142	-0.0057927677
135	0x3e026d01	0.12736894
136	0x3d9ad595	0.07560269
137	0xbe45fb2c	-0.19334096
138	0xbe5d6bde	-0.2162318
139	0xbe09fc3f	-0.1347513
140	0xbd39dace	-0.045374684
141	0xbe6d28cb	-0.23160093
142	0xbea21291	-0.3165479
143	0xbdb3cdda	-0.087794974
144	0xbdc56691	-0.096387036
145	0xbe1457ad	-0.1448657
146	0x3de3cb6a	0.111227825
147	0xbd0393c5	-0.032123346
148	0xbcb9b9f8	-0.022671685
149	0x3e3299a1	0.17441417
150	0x3d45b57e	0.048268788
151	0xbe14cd9c	-0.14531559
152	0xbed1c724	-0.40972245
153	0xbe75f646	-0.24019727
154	0x3c6b42f3	0.014359224
155	0x3e3b86be	0.18313119
156	0x3d4f0ecf	0.050551232
157	0x3d6d0693	0.057867598
158	0xbe625821	-0.22103931
159	0xbe74aaae	-0.23893234
160	0xbd2a690d	-0.04160409
161	0x3ec3ecc2	0.3826657
162	0xbe371875	-0.17880423
163	0xbe16055d	-0.14650483
164	0x3d92d9b6	0.07170431
165	0x3e260297	0.16211925
166	0xbe02edc5	-0.12786014
167	0xbd9c801a	-0.07641621
168	0xbe39b4ff	-0.18135451
169	0x3d827baa	0.06371243
170	0x3a1a6604	0.00058898353
171	0x3d183117	0.03715619
172	0xbd85090d	-0.06495867
173	0xbe8b5c33	-0.2721878
174	0xbe007def	-0.1254804
175	0xbe6f888c	-0.23391932
176	0xbcf01db9	-0.029311048
177	0xbe78aa03	-0.24283604
178	0xbbb4bbdc	-0.0055155586
179	0x3dc807ff	0.0976715
180	0xbe620073	-0.22070484
181	0xbe9c7d91	-0.3056455
182	0xbdb6f633	-0.089336775
183	0xbe0c034d	-0.13673134
184	0xbe61a143	-0.22034173
185	0xbe3196b6	-0.17342648
186	0xbc09d0f7	-0.0084116375
187	0xbe1c1d0a	-0.15245453
188	0xbd8b35d3	-0.067973755
189	0x3c909667	0.017649842
190	0x3d979167	0.0740078
191	0xbd83812f	-0.06421124
192	0xbd024395	-0.031802732
193	0xbe90b4ec	-0.28263032
194	0x3dc6928d	0.09695921
195	0x3d83939d	0.064246394
196	0x3e024950	0.12723279
197	0x3e4b0272	0.19825152
198	0xbd4f582d	-0.0506212
199	0xbdbdfac9	-0.09276349
200	0xbc9d4c5b	-0.019201448
201	0x3d01a063	0.031647097
202	0x3db3db88	0.08782107
203	0x3db0a08a	0.086243704
204	0xbddf9e5c	-0.109188765
205	0xbdfac880	-0.122452736
206	0x3dae5e93	0.08514132
207	0xbc9ba449	-0.018999236
208	0x3dcfdbae	0.101493225
209	0xbd59014b	-0.05297975
210	0xbe021a14	-0.1270526
211	0x3d20c29f	0.039248105
212	0x3d060c3a	0.032726504
213	0xbe3638f8	-0.1779517
214	0x3d5647a9	0.052314434
215	0xbce9d783	-0.028545147
216	0x3c9ad7f2	0.018901799
217	0xbbb8040f	-0.005615718
218	0xbd345bd0	-0.04403287
219	0x3d5ad1ed	0.053422857
220	0xbd98c412	-0.074592724
221	0xbbdc0a35	-0.006715084
222	0x3e2edb7b	0.17075913
223	0xbc96a07b	-0.01838707
224	0xbd879712	-0.06620611
225	0xbd145c41	-0.036220793
226	0x3e822ac6	0.2542326
227	0x3e072a79	0.13199796
228	0x3d5d9f7a	0.054107167
229	0x3d985569	0.07438166
230	0x3e28ddd5	0.16490872
231	0xbcab51cb	-0.020913025
232	0xbcbd8f2e	-0.023139562
233	0xbe37d3ca	-0.17951885
234	0xbd2c4cc8	-0.04206541
235	0xbe3154bf	-0.17317484
236	0x3cf7f3a8	0.030267552
237	0x3dbdd3c7	0.09268909
238	0xbe2f5873	-0.17123584
239	0x3d681493	0.056660246
240	0x3dbc83e7	0.09204846
241	0x3d90bf6a	0.07067759
242	0xbd4b545b	-0.049640995
243	0xbd2bbfac	-0.04193084
244	0x3e2415d7	0.16023956
245	0xbd6c77af	-0.057731327
246	0xbe1c9468	-0.15290987
247	0xbd4a86db	-0.049445014
248	0x3d2e622f	0.042574104
249	0x3d991a7c	0.074757546
250	0xbd33bdd4	-0.043882206
251	0xbd5126ce	-0.051062398
252	0xba14b6b6	-0.0005672978
253	0x3dc80263	0.0976608
254	0xbd70f670	-0.05882877
255	0xbda3b680	-0.079937935

gru.bias_hh_l0 f4 [300]
0	0xbcbb13a9	-0.022836523
1	0x3d952df0	0.072841525
2	0xbe1f24a0	-0.15541315
3	0xbd1cf794	-0.038322046
4	0x3da6ad3e	0.08138512
5	0x3d2f0466	0.042728804
6	0xbe7e825f	-0.2485442
7	0x3ceb8fae	0.028755035
8	0x3bfa158b	0.0076319627
9	0xbdee111c	-0.11624357
10	0x3dfa5545	0.12223295
11	0xbda47a0c	-0.08031091
12	0xbdfe015c	-0.12402603
13	0xbc151eae	-0.009101553
14	0x3e79133c	0.24323744
15	0x3cdf49b0	0.027256817
16	0x3d956f1b	0.07296582
17	0x3dc373f0	0.09543598
18	0xbccdc2f3	-0.025117373
19	0xbbd72b59	-0.0065664467
20	0xbd84ed5e	-0.06490587
21	0x3df26ab1	0.11836756
22	0xbd00af96	-0.03141745
23	0x3db73575	0.08945743
24	0x3ce911b3	0.028450822
25	0xbe125452	-0.14289978
26	0xbd07fce0	-0.033200145
27	0x3d7012af	0.058611568
28	0xbb297d04	-0.0025861869
29	0xbc76a766	-0.015054559
30	0xb9f34509	-0.00046400007
31	0xbc8dd682	-0.0173142
32	0xbe1759a5	-0.1478029
33	0xbd65b271	-0.056078378
34	0x3bf39680	0.0074337125
35	0x3cabe422	0.020982806
36	0x3ca3ddc5	0.020003209
37	0x3ba864d3	0.0051389723
38	0x3a32c34d	0.0006819263
39	0xbde2915d	-0.11062882
40	0x3da37f3c	0.079832524
41	0xbda16928	-0.07881385
42	0xbd425887	-0.047447708
43	0x3d10342a	0.035205998
44	0x3d6be5eb	0.057592314
45	0x3df45600	0.11930466
46	0x3dcb4073	0.09924402
47	0x3dc7cf66	0.09756355
48	0x3b024317	0.0019876414
49	0x3da1de52	0.07903732
50	0xbd397b18	-0.045283407
51	0x3d9f9f0c	0.07794008
52	0x3dd821ce	0.10553323
53	0xbda00dc2	-0.07815124
54	0x3e705b12	0.2347224
55	0x3ce2c4fc	0.02768182
56	0xbdf6ca50	-0.12050307
57	0x3d93750f	0.072000615
58	0xbda052ba	-0.07828279
59	0x3b81a4aa	0.003956397
60	0xbd4128b7	-0.04715797
61	0xbc97d6d9	-0.018535065
62	0x3dcb2e3f	0.0992093
63	0x3dca5c66	0.09880905
64	0xbe535dd6	-0.20641264
65	0xbd35e313	-0.044406008
66	0x3e630f31	0.22173764
67	0xbcf3c9bc	-0.02975928
68	0xbe37c275	-0.17945273
69	0xbe0bbd28	-0.13646376
70	0x3d2a64a8	0.0415999
71	0xbd5bb3c7	-0.053638246
72	0x3dd90453	0.10596528
73	0x3d3d3414	0.046192244
74	0xbc708738	-0.014680676
75	0x3e1c12f8	0.15241611
76	0x3db02c34	0.08602181
77	0x3ce46121	0.027878346
78	0xbdacb0e9	-0.084321804
79	0x3d8a662e	0.067577705
80	0xbc9e0d2e	-0.019293394
81	0xbd977226	-0.07394819
82	0xbdc72d44	-0.097254306
83	0x3e29bf61	0.16576912
84	0x3dc6b3ff	0.097023
85	0xbdd57dcc	-0.104243845
86	0x3dcfe9d3	0.1015202
87	0x3de07462	0.10959698
88	0x3e0c9d30	0.13731837
89	0x3be9b7c3	0.007132502
90	0xbe08390c	-0.13303012
91	0xbd657db6	-0.05602809
92	0xbe59d8ce	-0.2127411
93	0x3d59ce12	0.05317504
94	0x3e152488	0.14564717
95	0xbc71957e	-0.014745114
96	0x3e1e6103	0.15466695
97	0xbdc9b741	-0.09849406
98	0x3e4019d9	0.1875986
99	0x3dfd5afa	0.12370868
100	0xbdae45ac	-0.085093826
101	0x3c264f39	0.010150724
102	0xbd9adef1	-0.07562054
103	0xbe78ce59	-0.24297465
104	0xbe4d9809	-0.20077528
105	0x3dad9bdd	0.08476994
106	0xbe9d9c4f	-0.30783316
107	0xbdbeddd1	-0.09319652
108	0xbd811870	-0.06303489
109	0x3dbc40cf	0.09192049
110	0x3d1ec877	0.038765397
111	0x3c7af753	0.015317756
112	0xbaff10bd	-0.0019459944
113	0xbd19eaa0	-0.03757727
114	0xbdd1302b	-0.102142654
115	0x3de6f48c	0.11277112
116	0xbca89c15	-0.020582238
117	0x3dc4664b	0.09589823
118	0x3db9a1b4	0.090640455
119	0xbec388cd	-0.38190308
120	0x3d363fa9	0.044494305
121	0xbd3046b6	-0.043036185
122	0x3e164ffd	0.1467895
123	0xbea88119	-0.32910994
124	0xbecdd3c7	-0.40200636
125	0xbcd600ad	-0.02612337
126	0xbe341e5c	-0.17589706
127	0x3cb8d996	0.02256469
128	0xbd492055	-0.0491031
129	0x3d0696aa	0.03285853
130	0x3b444b11	0.002995197
131	0x3c7dd4f6	0.015492668
132	0x3e02eb9c	0.1278519
133	0xbe4f29fe	-0.20230862
134	0x3d71f8c0	0.059075117
135	0x3d790b7d	0.06080197
136	0x3dd92d42	0.10604335
137	0xbe4c9acd	-0.19980927
138	0xbe1bd26b	-0.15216987
139	0xbe70ce5f	-0.23516224
140	0x3d354691	0.04425675
141	0xbd3b9e0a	-0.045805015
142	0xbea741a1	-0.32667258
143	0xbe02ada9	-0.12761559
144	0xbdbab3c6	-0.0911632
145	0xbe533313	-0.20624952
146	0x3e0dfd6d	0.13866206
147	0xbd8a66f8	-0.06757921
148	0xbe52d4a2	-0.20588925
149	0x3c952fdf	0.018211303
150	0x3cf1814a	0.029480595
151	0xbe4b0e85	-0.19829758
152	0xbece4181	-0.4028435
153	0xbe7ad35a	-0.24494687
154	0xbd3fbe7a	-0.046812512
155	0x3de2f774	0.11082354
156	0x3d820940	0.063494205
157	0x3d799359	0.060931537
158	0xbe88ca5e	-0.26716894
159	0xbe89c5f4	-0.2690884
160	0xbe0a0d15	-0.13481553
161	0x3e7ee7c3	0.24893098
162	0xbe80759e	-0.25089735
163	0xbe31a714	-0.17348891
164	0x3e6e4ece	0.23272249
165	0x3e7966f7	0.24355684
166	0xbe19b9ee	-0.15012333
167	0xbe0b44c2	-0.13600448
168	0xbe636cdf	-0.222095
169	0x3dc5329a	0.09628792
170	0xbe036c12	-0.12834194
171	0x3dabb97b	0.08384987
172	0xbd421f40	-0.047393084
173	0xbe6b938e	-0.23005506
174	0xbd3a0180	-0.045411587
175	0xbe18a09b	-0.14905016
176	0xbd9db23a	-0.0770001
177	0xbe94e8ca	-0.29083854
178	0xbcb07fd6	-0.021545332
179	0x3d736bf2	0.059429117
180	0xbe17ea37	-0.1483544
181	0xbe9b8820	-0.30377293
182	0xbc4d426b	-0.012528042
183	0xbe3138b6	-0.1730679
184	0xbe9e660d	-0.30937234
185	0xbe69fb5c	-0.22849792
186	0x3dbf635b	0.093451224
187	0xbd1426b1	-0.03616971
188	0xbd0ce9bc	-0.034402594
189	0xbd0533a6	-0.03251996
190	0x3ca52d36	0.02016316
191	0x3db9292a	0.090410545
192	0x3c088e43	0.008334699
193	0xbe46e8be	-0.19424722
194	0x3dacc616	0.084362194
195	0x3e3162dc	0.17322868
196	0x3e2c9696	0.16854319
197	0x3eb1c0ae	0.34717315
198	0xbd749b73	-0.05971856
199	0x3d5c55b5	0.053792674
200	0x3e1048c0	0.14090252
201	0x3c1723bd	0.009224829
202	0x3da42b69	0.08016092
203	0xbd5a5c50	-0.053310692
204	0x3c069114	0.0082133
205	0xbc030fd7	-0.007999382
206	0x3dcedeb0	0.10101068
207	0xbe0c9594	-0.13728935
208	0x3e270a8a	0.16312614
209	0x3d5142d9	0.05108914
210	0xbc838c25	-0.016058037
211	0xbd105009	-0.035232577
212	0x3c13de99	0.009025239
213	0xbe27c68d	-0.16384335
214	0x3c47a581	0.012185455
215	0xbe037620	-0.1283803
216	0x3e40c05f	0.18823384
217	0xbddf58ae	-0.10905586
218	0x3dc99696	0.09843175
219	0xbdd22821	-0.1026156
220	0xbd4a2161	-0.04934824
221	0x3e1d5ad5	0.15366681
222	0xbdb7c15b	-0.089724265
223	0x3d9f5338	0.077795446
224	0xbdb5be8b	-0.08874234
225	0x3d150451	0.03638107
226	0x3dafa84f	0.08577024
227	0xbccecfd9	-0.025245594
228	0x3cfb7a7e	0.030698057
229	0xbd8c8800	-0.068618774
230	0x3dfa17fe	0.122116074
231	0xbe0086f8	-0.12551486
232	0xbcec6343	-0.028855925
233	0xbd758ab0	-0.059946716
234	0xbdba819e	-0.09106754
235	0xbe18d9a6	-0.14926776
236	0x3e1a7f46	0.15087613
237	0xbc9087b7	-0.017642839
238	0xbd1c18b2	-0.03810949
239	0x3db3c684	0.08778098
240	0xbdd098d7	-0.10185402
241	0xbc3fec87	-0.011714107
242	0xbd9dc0d2	-0.07702793
243	0x3dc3de9c	0.09563944
244	0x3d8fd067	0.070221715
245	0xbdb065e2	-0.086131826
246	0xbd799909	-0.06093696
247	0xbe19ea1a	-0.15030709
248	0x3d41a541	0.04727674
249	0x3dc24cd6	0.094873115
250	0x3db3cb92	0.08779062
251	0x3d3e101b	0.046402078
252	0x3d63d54b	0.055623334
253	0x3db25535	0.08707658
254	0xbd84ff7e	-0.06494044
255	0xbc74b76c	-0.014936309

out.weight f4 [36, 200]
0	0xbdd32f3b	-0.10311743
1	0xbd852ccd	-0.06502686
2	0x3f1319c1	0.5746117
3	0xbe2f4613	-0.17116575
4	0xbcd96594	-0.026537694
5	0x3d38504e	0.04499846
6	0xbeb635bc	-0.3558787
7	0xbd905fa7	-0.07049494
8	0x3df40cab	0.11916479
9	0x3edf0772	0.43560368
10	0xbe6402d7	-0.22266708
11	0xbe8b7901	-0.27240756
12	0xbe0adfc3	-0.13561921
13	0x3e5d8f6c	0.21636742
14	0xbe8b36c9	-0.27190235
15	0xbdef40ef	-0.11682307
16	0xbe0f8f1a	-0.14019433
17	0x3e9d7693	0.30754527
18	0xbece211e	-0.4025964
19	0xbd32559e	-0.043538682
20	0xbee2f800	-0.44329834
21	0x3e8332c9	0.25624683
22	0xbf29406e	-0.66113937
23	0x3e74e989	0.23917212
24	0x3ebac9a2	0.3648196
25	0x3f4b4e41	0.7941628
26	0xbcea0db0	-0.02857098
27	0xbe38fc5b	-0.18065016
28	0xbe908250	-0.2822442
29	0xbf2b0649	-0.66806465
30	0xbc9b7aef	-0.018979518
31	0x3ef35828	0.47528195
32	0x3eab9fab	0.33520254
33	0xbd50145b	-0.050800662
34	0xbe8103e4	-0.2519828
35	0x3f74bf87	0.9560475
36	0xbf199da0	-0.6000614
37	0xbe3e47c0	-0.18582058
38	0x3e9c1b46	0.30489558
39	0xbf0109cd	-0.5040558
40	0x3e541e02	0.20714572
41	0x3e05ed51	0.1307881
42	0x3bf10ddf	0.00735639
43	0x3db28681	0.08717061
44	0xbd8ddadb	-0.06926509
45	0x3e46db15	0.1941951
46	0xbea5aff0	-0.32360792
47	0x3e0acb0e	0.13554022
48	0xbf0daf1e	-0.5534533
49	0xbe04cb2a	-0.12968126
50	0x3e9e191e	0.30878538
51	0xbd1ed323	-0.038775574
52	0x3d2d8bf9	0.042369816
53	0x3d210c61	0.039318446
54	0xbd0fd162	-0.035111792
55	0x3ebd3f34	0.36962283
56	0x3e45885d	0.192903
57	0x3d8ebe34	0.06969872
58	0x3e23757e	0.15962788
59	0x3ea8be89	0.32957867
60	0xbd5af468	-0.05345574
61	0x3ef506b9	0.4785669
62	0xbc34db57	-0.011038623
63	0xbe824450	-0.25442743
64	0x3e95eb86	0.29281253
65	0x3d5e98bf	0.05434489
66	0xbdc488a5	-0.095963754
67	0xbe1f6715	-0.15566666
68	0xbd9c4048	-0.07629448
69	0xbe8c53ba	-0.27407628
70	0xbed472fd	-0.4149398
71	0x3ea67c89	0.32516888
72	0x3e02afbd	0.12762351
73	0xbea19aab	-0.31563315
74	0x3e34cfc7	0.17657386
75	0x3e9aaa1a	0.30207902
76	0x3ed688e9	0.4190133
77	0xbea109a5	-0.3145267
78	0x3f0e97a5	0.5570014
79	0x3eaa3ae9	0.3324807
80	0x3e537d39	0.20653237
81	0xbea58d31	-0.32334283
82	0xbeda7120	-0.42664433
83	0xbeaa3716	-0.33245152
84	0xbe9a82f7	-0.30178043
85	0x3e340b46	0.17582425
86	0x3d41c56a	0.04730741
87	0x3df35bd0	0.11882746
88	0x3ddd84fb	0.1081638
89	0xbe7333b7	-0.23750196
90	0x3ef3e34d	0.47634354
91	0xbf589db7	-0.84615654
92	0xbda9ad54	-0.08285013
93	0xbdf3a5b3	-0.11896839
94	0xbe19f176	-0.15033516
95	0xbe746b06	-0.23868951
96	0xbf8678cb	-1.0505613
97	0xbe761320	-0.24030733
98	0x3e21198b	0.157324
99	0x3eb6949d	0.35660258
100	0xbe5437ce	-0.20724413
101	0x3d61a288	0.055086643
102	0xbe67a116	-0.22620043
103	0xbe46621e	-0.19373366
104	0xbeb05e7f	-0.34447095
105	0x3ea8c22d	0.32960644
106	0x3dc77293	0.0973865
107	0x3e5fb67b	0.21846955
108	0xbde8516e	-0.113436565
109	0x3e2f744b	0.17134206
110	0x3e5a6ab5	0.21329768
111	0xbea0b8b2	-0.3139091
112	0x3dd34ec1	0.103177555
113	0x3ed55d78	0.41672873
114	0xbe51f692	-0.20504215
115	0x3ec189ef	0.37800547
116	0x3da2a9fd	0.07942579
117	0x3f096dfd	0.53683454
118	0xbe5e0b71	-0.21684052
119	0x3c74f0da	0.014950002
120	0xbe1e4ee7	-0.15459786
121	0xbe6eeb04	-0.23331839
122	0x3f1abf96	0.60448587
123	0x3e1ffe51	0.15624358
124	0x3e71a4b2	0.23597983
125	0xbe6c2b66	-0.2306343
126	0xbebf59ad	-0.37373105
127	0x3e71a02a	0.23596254
128	0xbe08111d	-0.13287778
129	0x3e780b7a	0.24223128
130	0xbed1eae8	-0.40999532
131	0xbeca4ea6	-0.3951313
132	0x3e85eed3	0.2615877
133	0x3e52ea6e	0.2059724
134	0x3e4ae4ec	0.1981389
135	0x3eca0830	0.39459372
136	0x3d933922	0.071886316
137	0x3e11105a	0.14166394
138	0xbeb0a3b0	-0.34499884
139	0x3e9c8426	0.3056957
140	0xbeb05d4d	-0.34446183
141	0xbe5bcb79	-0.21464337
142	0x3d8eac94	0.069665104
143	0xbf1ab875	-0.6043771
144	0xbe5289c3	-0.20560364
145	0xbe3fc440	-0.18727207
146	0x3e6c881c	0.23098797
147	0x3e36d362	0.17854074
148	0x3dc560b2	0.09637584
149	0xbe272761	-0.16323616
150	0xbe7d6d7d	-0.24748798
151	0xbcba5d0b	-0.022749444
152	0x3cfa1814	0.03052906
153	0xbe5311d3	-0.20612268
154	0xbdca056d	-0.09864316
155	0x3e6f9ef9	0.23400487
156	0xbd375681	-0.04476023
157	0xbec952ef	-0.39321086
158	0xbdbfb738	-0.09361118
159	0xbea30a0a	-0.31843597
160	0x3e676d07	0.22600184
161	0xbe9fbcaf	-0.31198642
162	0x3e4ecc7d	0.20195194
163	0x3dc5e686	0.096631095
164	0x3e99cd43	0.30039415
165	0xbea2d3bf	-0.31802174
166	0xbe93391a	-0.28754503
167	0x3d0bb409	0.03410724
168	0xbe04b55c	-0.12959808
169	0x3e0cbf21	0.13744785
170	0xbe3fd6f3	-0.1873434
171	0xbe978cdc	-0.29599655
172	0xbeb77047	-0.35827848
173	0xbe9c386c	-0.30511796
174	0x3ee985e7	0.45609972
175	0xbeaae2a6	-0.33376044
176	0xbe8fc20d	-0.28077736
177	0x3de782d7	0.113042526
178	0xbdd1ee2d	-0.102505066
179	0xbd31cd52	-0.0434087
180	0x3dd03ee9	0.10168249
181	0x3d038fc2	0.03211952
182	0x3e90233c	0.28151882
183	0xbec80c06	-0.39071673
184	0x3d6aa5de	0.05728709
185	0x3e181a74	0.14853841
186	0x3e97f787	0.29681036
187	0xbe4bce9f	-0.19903038
188	0x3ef437af	0.47698733
189	0xbda94df2	-0.0826682
190	0x3e4d1c40	0.20030308
191	0x3e4ff635	0.20308764
192	0x3dc4c871	0.09608544
193	0xbe7efaa1	-0.24900295
194	0x3e7b73e0	0.24555922
195	0xbeda3bfa	-0.42623883
196	0x3e8e2477	0.27762195
197	0x3f06bc18	0.5263076
198	0x3f3a2b51	0.72722346
199	0xbe7f3c91	-0.24925448
200	0xbd04b14b	-0.032395642
201	0xbe8e7928	-0.2782681
202	0xbdb2a0e2	-0.08722092
203	0x3e4d881f	0.20071457
204	0xbcd5ec80	-0.026113749
205	0xbe24e28c	-0.16102046
206	0x3e8e9fb5	0.27856222
207	0xbe84c373	-0.25930366
208	0x3f197a01	0.5995179
209	0x3e3a358b	0.18184488
210	0xbe32e34d	-0.17469521
211	0xbe4902d8	-0.19629991
212	0xbdf9bff3	-0.121948145
213	0xbe50c38c	-0.20387095
214	0x3d2fc1ee	0.042909555
215	0x3dbcdf9d	0.09222338
216	0xbc9bd2b1	-0.019021364
217	0xbd100a21	-0.03516591
218	0x3e5198e2	0.20468476
219	0x3da1f70b	0.07908448
220	0xbe12e082	-0.14343455
221	0xbd55fe5a	-0.05224452
222	0x3d3849d6	0.04499229
223	0xbd913b08	-0.070913374
224	0x3ee13bc6	0.43990916
225	0xbdb5209b	-0.088441096
226	0x3e65f647	0.22457229
227	0x3e48cd69	0.19609608
228	0x3de4db9c	0.111747
229	0xbeadbc38	-0.33932662
230	0x3e1d0054	0.15332156
231	0x3f34e4a7	0.70661396
232	0xbe4f69dc	-0.20255226
233	0x3e2a3b0a	0.16624084
234	0xbe1e1c5b	-0.15440504
235	0xbd8bb7b0	-0.06822145
236	0x3dccbfa1	0.09997488
237	0xbe8b4495	-0.2720076
238	0xbe4f6854	-0.20254642
239	0x3d903a05	0.07042316
240	0x3e9534cd	0.29141846
241	0x3eae92f4	0.3409649
242	0x3d726c2b	0.05918519
243	0xbd3fa41e	-0.046787374
244	0x3e30daca	0.17270961
245	0x3e64d7a5	0.22347887
246	0xbe2a4c58	-0.16630685
247	0xbd28318f	-0.041062888
248	0x3c805bec	0.015668832
249	0x3d944e19	0.072414584
250	0x3eea249a	0.4573105
251	0xbd21cf12	-0.03950412
252	0xbde4304e	-0.11142026
253	0x3dd1f759	0.10252256
254	0xbda40f02	-0.08010675
255	0xbd689382	-0.0567813

out.bias f4 [36]
0	0xbeeb3e73	-0.45946082
1	0x3db699e6	0.089160725
2	0xbef92c14	-0.4866644
3	0x3dbf3bae	0.09337555
4	0xbddaf83d	-0.10691879
5	0xbeab86fd	-0.33501425
6	0x3d9002b0	0.070317626
7	0xbea0ad23	-0.31382093
8	0xbe10e03e	-0.14148042
9	0xbeb30e91	-0.3497205
10	0xbd5efc55	-0.05443986
11	0xbd8660c8	-0.06561428
12	0xbe3dc091	-0.1853049
13	0xbe610b46	-0.21976957
14	0xbde202b9	-0.110356756
15	0xbe9abf05	-0.3022386
16	0x3e1b0d18	0.15141714
17	0xbde54772	-0.11195268
18	0xbd434998	-0.047677606
19	0xbdabc1cf	-0.083865754
20	0xbb26c350	-0.0025446005
21	0x3e0ba2cc	0.13636321
22	0xbde593e7	-0.11209851
23	0xbef76d41	-0.48325542
24	0xbe711ace	-0.23545381
25	0xbdb9fef3	-0.09081831
26	0xbc9fe6ff	-0.019519327
27	0x3e375712	0.17904308
28	0x3dcd0568	0.10010797
29	0xbe37f5db	-0.1796488
30	0x3e260a7d	0.16214938
31	0xbd33d3cb	-0.043903153
32	0xbe8ad310	-0.27114153
33	0xbd091581	-0.033467773
34	0xbe7571d7	-0.23969208
35	0xbda314ec	-0.07962975
