modules/prn-gen/exp/en_id/models/bigram/encoder-attn_dot-emb_128-hddn_100-layers_1-epoch_29.pth (torch, 641760 bytes, 5 tensors)

embedding.weight f4 [710, 128]
00000000: 38a4 3fbf 7c4c 57bf 946e 84bf dd18 9d3f
00000010: 3d5e 473d 5314 41bf 2a99 a0be 2187 f7be
00000020: 8513 a53e e427 b43e c84b 8b3e b517 923e
00000030: 5adb b3bd cf88 f3bf 7fc2 08bf 6a55 4cbf
00000040: fcc6 b83f f33a 40bf 048a 0dc0 5438 953c
00000050: 4fa1 afbf da01 c43f 1ba2 8c3f f711 123f
00000060: 2bcb d2be cfa0 73bf 51eb 0e40 9c39 80be
00000070: f348 edbe c14a 97bf a6eb 813f b832 4f3f
00000080: 1b9d 40bf 8495 12be f43d 5f3f 4c36 9ebf
00000090: 380b 30be da4e 37bf d6f5 a7bf 4572 20be
000000a0: 1477 2d3e c1c2 47be 8720 97be c115 553f
000000b0: 92d8 133f a806 7e3f ffd6 e9be 8ae2 bebf
000000c0: 2757 36bf cb6c 563d 7633 683c 1aa4 163f
000000d0: 7c29 683d ed6c 9b3f 68aa 49bf f0f2 4fbc
000000e0: 0645 563f 9836 a3bf e4c7 21be 1a16 aebe
000000f0: 4090 ab3f a3d3 dbbd 4b4b b3be d466 cd3f
00000100: 2704 f53f 6373 73be 9b29 c1bd 52d5 513f
00000110: 80b5 d33e ab2b 5a3e ca03 af3e dcdd 8a3e
00000120: 0c58 2240 f7e5 bf3f c164 cbbf 6506 d9be
00000130: 54f9 3b3f deef 263d 50cd 00bf e9ab a6bf
00000140: 3add b93f 4805 49be 660e c23f 94ec 543f
00000150: 8cad dbbc f8eb 26bf 0ae6 bdbd 8f40 a1bf
00000160: e504 f8bc 09bc 8cbe c722 0e3f 0b95 933f
00000170: 96a0 743f f40d 4dbe 5b1f b0bf 0b7a 863f
00000180: d35b ac3d b47b 033f 749e b2bf e740 f53c
00000190: 75cf 9e3f 8968 993d c53c 313f 63e9 ca3e
000001a0: 7684 853f 1748 0fbf 4a5c 973f 08e4 3d3e
000001b0: dd35 c5be 2896 b8bf 2384 82bf c6b8 8a3f
000001c0: ab02 253f cdfa 03be 3370 8cbf 28bc 16bf
000001d0: 9f60 183d e9af a2be 97d1 89bc 6de2 d43f
000001e0: c151 e1bf 934e 93be 7519 f23e 313a e8bf
000001f0: 7425 51bf 12b7 78bf 67f2 503f 4459 5fbf
00000200: 18e8 b6bf 859e 803f 3ca1 6c3f 816e 8fbc
00000210: fa20 2e3f b04e 863f 7c10 4dbe 8ad6 3a3f
00000220: 4d53 f8be c0a7 41be be76 083e 5493 b03e
00000230: 6c13 aebf 87da efbf 1a68 223f 4264 43be
00000240: 443a 3a3f b6cc e6be d1c1 973f b723 95bf
00000250: 9839 013d 8487 aabf 0163 1b3c b99b 303c
00000260: 85b9 72bf 98d0 3abf 477c 7e3f 4dec 90be
00000270: 7bbc 71bf 0acc 423f 37c6 9bbf 2b66 f53e
00000280: 7b2b f5bd f3c1 1fbf 5e30 58bf 1bd4 1f3d
00000290: 68d5 45bf 419b 93bd b372 683f f3cc 9b3f
000002a0: 1adc e4bf f310 1d3e 803f dc38 4ef1 343f
000002b0: a343 6ebe 05a4 b83d bf13 bbbe 9c0b c13f
000002c0: e829 88bf 8e66 163f 6a0f a33f 3575 383f
000002d0: 6bfd 27bf f791 29bc 86af 203f 8d89 0fbe
000002e0: 7f75 65bf a03c aebe a463 943f 5003 eb3d
000002f0: 6bb7 3f3e 5ec5 b3bf 95d5 d4be f362 8b3f
00000300: 5545 dfbd 80b9 863f a345 58bf 56fb 40bf
00000310: fe02 64bf 94cb cf3f b0d3 01bf ac45 0c40
00000320: 189a e53e e609 57bf 9675 ee3d 47e1 ef3e
00000330: 6899 813d 081e 5f3f 7cde 81bf 7dea 72be
00000340: 09e5 96be 0f38 1fbf f821 643e 80d1 19bf
00000350: 0c22 8fbf dc22 8bbe 49e9 023f f2fb 823f
00000360: f263 533f 7e16 cfbe 366b 733f 5ca6 0a3f
00000370: 807c 53be 6a26 e83e 627f b43d bc69 aabf
00000380: d0aa 14bf dd1f 56bf fa5f 843f 89a5 01c0
00000390: 5137 a33d c7c5 fbbe f923 a0be 745c 7ebf
000003a0: 506d f13e 3c7c 2bbf 8520 f83e 2f29 1fbf
000003b0: 3ffe ba3e 5fd2 5b3d 4293 03bf d40a 11be
000003c0: 68ae fb3e 70cf 2fbd 89ba 323f 8a9b 1ebf
000003d0: e23b 6b3e 910f c63e 4669 3abf c39e bf3f
000003e0: f8e7 00be 58a1 a8be b91e 46bd de7f 743f
000003f0: 4eef a0be b1da 0b3f 4867 69be eec3 e4bf
-0.7485995 -0.8410108 -1.0346246 1.2273213 0.048673857 -0.7542164 -0.31366855 -0.48345283
0.32241455 0.35186684 0.27206254 0.28533712 -0.08782072 -1.9026126 -0.5342178 -0.7981783
1.4435725 -0.7508995 -2.2115488 0.018215336 -1.3721102 1.5313065 1.0986971 0.5705866
-0.4117063 -0.9516725 2.2331126 -0.25043952 -0.46344718 -1.1819688 1.0150039 0.80936766
-0.75239724 -0.14314848 0.8720391 -1.236032 -0.1719178 -0.7160469 -1.3121898 -0.1566859
0.16939956 -0.19507886 -0.29517004 0.8323632 0.57752335 0.99228907 -0.45671842 -1.4912884
-0.71226734 0.052349847 0.0141724255 0.5884415 0.056680188 1.2142617 -0.78775644 -0.012692198
0.8369907 -1.2751036 -0.15798908 -0.34001237 1.3403397 -0.10733726 -0.3501838 1.6047006
1.9141892 -0.23774485 -0.09431764 0.81966126 0.4134941 0.2130572 0.34182578 0.2712239
2.536624 1.4992055 -1.5890123 -0.4238769 0.7342732 0.0407561 -0.5031328 -1.3021213
1.4520638 -0.19630921 1.5160644 0.8317349 -0.026816152 -0.6520381 -0.09272392 -1.2597827
-0.030275771 -0.2748721 0.55521816 1.1529859 0.95557535 -0.20024854 -1.3759569 1.0505995
0.084159516 0.5136063 -1.3954606 0.029938174 1.2407061 0.074906416 0.6923335 0.39631185
1.0431049 -0.55969375 1.1825039 0.18544018 -0.38517657 -1.4420824 -1.0196575 1.0837638
0.64457196 -0.12888642 -1.097174 -0.58880854 0.03720152 -0.31774834 -0.016823573 1.66316
-1.7603074 -0.28770885 0.47285047 -1.8142759 -0.81697774 -0.97154343 0.81619877 -0.87245584
-1.4289579 1.0048376 0.92433524 -0.017508747 0.6801907 1.0492764 -0.2002582 0.7298361
-0.48501053 -0.18911648 0.13326547 0.34487402 -1.3599677 -1.8738564 0.63440096 -0.19081214
0.72745156 -0.45078057 1.1856023 -1.1651524 0.031549066 -1.3322606 0.009484054 0.010779315
-0.9481433 -0.7297454 0.9940838 -0.28305283 -0.94428223 0.7609259 -1.2169865 0.4792951
-0.11971184 -0.6240532 -0.844488 0.03902064 -0.7727876 -0.07207347 0.9080002 1.217192
-1.787967 0.15338497 0.00010502245 0.706807 -0.23267989 0.09015659 -0.36538503 1.5081668
-1.0637789 0.58750236 1.2739079 0.72053844 -0.6562106 -0.010349742 0.6276783 -0.14017315
-0.8963241 -0.34030628 1.1592908 0.11475241 0.18722312 -1.4044607 -0.415692 1.0889572
-0.10901896 1.052536 -0.8448126 -0.7538351 -0.89067066 1.6234002 -0.50713634 2.1917524
0.44844127 -0.8399948 0.116435215 0.4685156 0.06328088 0.871552 -1.0146022 -0.23722263
-0.29471615 -0.62194914 0.22278583 -0.60085297 -1.1182265 -0.27175033 0.51137215 1.0233138
0.8257438 -0.40446848 0.95085466 0.54160094 -0.20652962 0.45341808 0.08813359 -1.3313518
-0.5807314 -0.8364237 1.034179 -2.0257285 0.07969535 -0.4917433 -0.31277445 -0.9935982
0.4715371 -0.6698644 0.4846231 -0.62172216 0.365221 0.053667422 -0.5139657 -0.14164287
0.491565 -0.042922437 0.6981588 -0.61956084 0.22972062 0.3868375 -0.72816885 1.4970325
-0.12588489 -0.32935596 -0.048369143 0.9550761 -0.31432575 0.5463057 -0.22793305 -1.7872293

gru.weight_ih_l0 f4 [300, 128]
00000000: db31 10bd 3e75 de3d d08c 393d a820 dd3d
00000010: 48f4 4cbd 4c7b 81bd 29fe 64bd bed1 5f3d
00000020: 1c70 103e d344 b0bb 2a05 3d3d 7774 933e
00000030: cd61 9fbe 3be3 f5bd 6e87 0d3e c96d 8c3d
00000040: 743b 4c3d 580f 8f39 a926 863e bc86 8bbd
00000050: 12c7 753c abae 893e 50a9 143e 9dcb 0b3d
00000060: 8b94 8abd cdbf 9abd 2b6b 83be b54e 70be
00000070: f727 0f3e a0c8 f6bd c2e1 213d f1b5 f33d
00000080: 03da b8bc dd43 e53c 4950 dabe 3b7f 7e3d
00000090: 769b 48be f5b1 3dbc 4ea2 2fbd a6cc b7be
000000a0: ab2b 2ebe 5891 36bd 3f28 3fbe afa1 193e
000000b0: 48cc 40bc a6a5 debd 1e5a 3dbe ff79 f83d
000000c0: 8a7c de3c 9c2c ab3d 31c6 593a 25bf df3d
000000d0: a270 bebc 6962 1a3e 3693 3dbd 406e 953a
000000e0: 3547 6f3d 7811 6c3e d557 743d ceb4 b13d
000000f0: fe7a 6a3e bef0 4b3e bc9f 803e 1330 543c
00000100: 781a 0bbe 7e75 053e 572c bf3c f9b6 ddbd
00000110: deb4 b0bc 53a5 e53d 5416 edba 6560 bd3d
00000120: 4893 87bd a9c0 2ebd ae0d 943e 648c 29bd
00000130: 99a7 1a3e 1e20 e8bc 741f 4abd 9289 07be
00000140: e98d 6c3d 17b5 47be 0e3b c4bd c132 97bd
00000150: bc58 933e 0e03 bebd 6ec3 3fbc 0c33 9d3d
00000160: 77e7 e13c 5b6d fabd 1beb c93d 06bb 2d3e
00000170: 725d 0d3e 20d1 efbd 8c47 2b3d dd64 4f3c
00000180: c651 ecbd 16c4 833d 4dce 03be 7106 0b3d
00000190: 5d99 d3bd bebd 093d f837 8cbe 2a29 f9bd
000001a0: 652a d93d aa09 153e 0440 ad3d a092 5ebd
000001b0: 286a 9cbe b384 29bd 8b13 523e 9251 3abe
000001c0: 5b9f 3c3c be2c f33d 04ad 673e 6dca af3c
000001d0: c76a 5e3e e889 66bd fcd8 2cbe d771 0bbe
000001e0: eebd 87be ddfd 47bc 238b 0cbe 4d75 93bd
000001f0: 2101 a13c 431c 2d3e a2e4 76be 471d e63b
00000200: 3886 a13d 33d2 623e 898c b33e 6473 7d3d
00000210: 2678 77bd bd18 bc3e 434a 423d 70c0 5fbe
00000220: 54c3 0abe 2236 e1bc 7dec 8dbe b5ce f63d
00000230: 7590 aa3e 6da8 e8bd e9d0 473e 8eac e4bd
00000240: 5aa1 963e b239 2e3d 0034 38be 7f6e 6a3e
00000250: 3a91 ccbd e311 bebd 4185 4f3e bb93 b73c
00000260: 8188 b9bd 07ff 733e 5b67 4b3e f4bf 1d3e
00000270: 48ee ff3d 7d6c debd 9751 c0bc 390d 24be
00000280: 5a89 963d 8c38 ea3b 07e0 24be 6e9f 9d3d
00000290: 38c0 87bc afa7 0b3d c10e a03e 7982 f13d
000002a0: 2ab8 54bd c839 12be 69e9 0d3e d25c c7bd
000002b0: 0a26 e33d ffc7 9fbd 16a8 04be 649e 49be
000002c0: 524a be3d b9d1 6dbd 21a4 613b f94d 9e3d
000002d0: f05c 673d c3d5 4cbd 18ef f23c bdaf 05be
000002e0: 337b d53d 1e08 61bd 21dc f9bd 539c 26be
000002f0: 9dbe ff3d 26b1 adbd ad57 aebd 779e 1b3e
00000300: 86b7 c4bb 8465 18be 7f9c 6d3d fbaf c4bc
00000310: 4268 7b3e f4d3 8c3d 8397 12be f6cf 1d3e
00000320: b89a bebb e3d2 c8bd f59f eabc 6d07 0f3e
00000330: ead4 0bbe 48f0 013d 9b97 2dbe d5e8 853d
00000340: e732 87be b083 ff3d edcc f9ba ae77 893e
00000350: e692 193c a8c4 44bd b1ae 663e f9c5 ce3d
00000360: c494 cdbd 1093 d83d 4a6b 343e d00f 26be
00000370: 0208 323d 3712 4ebd 5406 4dbd eeee 85be
00000380: eb35 5f3d 1271 0e3d e851 cabc 30df d4bd
00000390: a506 7d3d dd7f c63e 1fe2 74bd 1e9a da3c
000003a0: 6318 d2bd 20a3 f93d b32d ec3d 0ba8 63bd
000003b0: c249 4fbd fe8e 9abe 680f 06bd c7c7 27be
000003c0: 427e 6fbd b2db f6bd bf64 8bbe e665 383e
000003d0: c73e 283e ab82 843d 6a0b 1f3b d6ca 853d
000003e0: a36e b1be 2c8f 43be 1179 07be ad3d c13d
000003f0: 3785 12bb b490 8d3c 60b4 4f3d df17 b1be
-0.035203796 0.10862206 0.045300305 0.10797244 -0.050037652 -0.06322345 -0.05590645 0.054643385
0.14105266 -0.0053792982 0.046147503 0.28799793 -0.31129304 -0.120062314 0.13821194 0.06856877
0.049861386 0.00027286517 0.2620137 -0.06812808 0.015001075 0.26891074 0.14517713 0.034129728
-0.067666136 -0.07556114 -0.256677 -0.23467524 0.13980089 -0.12049985 0.03952194 0.11899937
-0.022564894 0.027986461 -0.42639378 0.062133055 -0.19590554 -0.011578073 -0.042879395 -0.35898322
-0.17008846 -0.044572204 -0.18667696 0.15003084 -0.011767454 -0.10871439 -0.18491408 0.12132644
0.027158994 0.08358118 0.0008307426 0.1092513 -0.023247067 0.15076603 -0.04628297 0.0011400655
0.058417518 0.23053539 0.059654076 0.08677064 0.2289848 0.19916055 0.25121868 0.012950915
-0.13584316 0.13033101 0.023336573 -0.10825915 -0.02157062 0.11213174 -0.0018088319 0.092469014
-0.066198885 -0.042664204 0.28916687 -0.041393653 0.15102996 -0.028335627 -0.049346402 -0.13236073
0.057752524 -0.19502674 -0.09581576 -0.073827274 0.28778636 -0.092779264 -0.011704309 0.07675752
0.027576191 -0.12227889 0.09859296 0.16965875 0.13805178 -0.11709809 0.04181628 0.012658325
-0.115390345 0.06433885 -0.12871666 0.03394169 -0.10331986 0.033628218 -0.2738645 -0.121660545
0.10603789 0.14554468 0.08459476 -0.05433905 -0.3054974 -0.041386317 0.20515268 -0.18195179
0.011512603 0.11873768 0.22624594 0.021458829 0.2172042 -0.05628386 -0.16879648 -0.13617645
-0.26512092 -0.012206522 -0.13724951 -0.07200108 0.019653859 0.16905312 -0.24110654 0.007022533
0.07886928 0.22150497 0.35068157 0.061877623 -0.060417317 0.36737624 0.047434103 -0.21850753
-0.13551074 -0.027491633 -0.2771949 0.12051145 0.33313337 -0.1136025 0.19513287 -0.11165725
0.29419976 0.04253549 -0.17988586 0.22893713 -0.09988637 -0.09280755 0.20265676 0.02240931
-0.09059239 0.23827754 0.19863646 0.15405256 0.124966204 -0.10860536 -0.023476405 -0.16020669
0.073504165 0.007147854 -0.16101085 0.076964244 -0.01657115 0.034095462 0.31261256 0.11792464
-0.051933445 -0.14279854 0.1385857 -0.09734501 0.1109124 -0.07801818 -0.12954745 -0.19689327
0.09291519 -0.058061335 0.0034430104 0.07729716 0.056485116 -0.050008547 0.029655024 -0.1305532
0.10423889 -0.05493938 -0.122001894 -0.1627057 0.124875285 -0.08481054 -0.085128166 0.15197168
-0.006003323 -0.14882475 0.058010574 -0.024009695 0.2455149 0.06876364 -0.1431561 0.15411362
-0.0058167838 -0.098058484 -0.028640727 0.13967676 -0.13655439 0.03172329 -0.16952364 0.0653855
-0.26406023 0.12476289 -0.0019058265 0.2684912 0.009373402 -0.04803911 0.22527577 0.10096354
-0.100381404 0.10574925 0.17619053 -0.1621697 0.043464668 -0.05031034 -0.050054863 -0.2615885
0.05449478 0.0347758 -0.024697259 -0.10394132 0.061773915 0.38769427 -0.05978596 0.026684817
-0.10258558 0.12189317 0.11532154 -0.05558018 -0.05060745 -0.3018722 -0.032729536 -0.16384803
-0.05847002 -0.12053622 -0.272253 0.18007621 0.16430198 0.064702354 0.0024268278 0.065328285
-0.34654722 -0.19097584 -0.13229777 0.09435592 -0.0022357234 0.017280914 0.05070913 -0.34588525

gru.weight_hh_l0 f4 [300, 100]
00000000: cb1c 1a3e 960f 603e 846c 103e 1f00 8bbd
00000010: 45b1 793d c0d5 babe 954e 98bd 628f e23c
00000020: 60da 763d deae 09bd 7f64 43bc 6326 ac3c
00000030: 5751 85be 7fd0 a5be 7eb4 f33d c783 853d
00000040: 49a0 943d 7735 81bc 3e7f acbc ce14 61be
00000050: 0741 f23d d447 253f a9ed 1cbe dec1 123e
00000060: 483a 43bd 7830 cd3d f472 703e b3ac 8bbe
00000070: cf8f 083d 8eab 0e3e af5a 2b3e ff94 3d3d
00000080: a3bc 30bd 084a 84be 3c22 cf3d da17 00bf
00000090: d58f 96be 764a 1b3e dfdb 1c3e edf4 6dbe
000000a0: 0f09 f03e 9409 b03d 10c1 48be 4a43 853e
000000b0: 9367 fb3c d20b ef3d d11f 2abe bfa3 643d
000000c0: a5e2 04be 19ba 36bc fa1c b2bd 83a2 a33b
000000d0: 96f7 fd3c f36a 223d 756e 24be 12ef 773d
000000e0: ccbb 09bc bb3e 933d 5a4d 5e3e cffd 343d
000000f0: bf55 debd a319 b73e 6508 103d 98df 45be
00000100: 7609 96be cf5d 003e 3193 c83e bed7 78be
00000110: a323 963d ec04 d9ba c664 e7bd b5f2 953e
00000120: 5bbb b73e 46ce 313e 2bf0 f5be 4b02 8a3e
00000130: 1aa8 4a3d cc43 5fbd 353a 63be 8de0 aabd
00000140: 7695 95be e981 debb 3e03 11be e2ae a33e
00000150: 8750 2dbd 91f2 81be bbbb d5bc 01aa 5fbc
00000160: b6d6 163d 2e7e 933e 4066 0ebe f2d6 bfbd
00000170: 8670 563e 7010 4f3d a2ca 91be 51c7 5c3e
00000180: 57bf ec3d df91 21be c5e8 21be 82bf 2d3e
00000190: af42 e23d 7e38 ad3c d848 4a3e 16a1 1e3d
000001a0: 28df 51bc 7c98 85be 8f84 933d a03f a2be
000001b0: 6508 35be 549f 6fbd c5d8 34be 5fa8 b63c
000001c0: 7bbf e93d e411 5b3d f444 143e ecb7 0ebd
000001d0: c62a 21be 7cfd 513d 3f5f c33d 57d6 53bb
000001e0: f2f2 7b3c 1389 00bd 47b1 65be 0951 9fbe
000001f0: 4eca efbd 26d5 733e b58e d93d 1421 76bc
00000200: 092f 273d db09 a2bd a09d 5f3e 716c 62bc
00000210: 9a11 6abd 6743 aa3d d67d 06be 53e6 813d
00000220: 4685 ed3d 252c 11be 2dc7 90be d8fd 8cbe
00000230: f35d 3c3d 63c5 b43d cde5 babd 6d8c 903d
00000240: dc3c ee3d e702 93bd 1ced afbc b820 043e
00000250: b175 ec3b f1d6 3b3e 76b6 af3d 4152 183d
00000260: f368 95be f5eb 8a3b e1d0 12be e3d3 51bd
00000270: 2ca5 633e 9944 0a3e bf63 00bd 92c0 9abd
00000280: 822b 32be a66c e73d 7dc8 9bbc 8d7e cebc
00000290: 8c7d 303e a0b7 ff3d a702 68bd 6831 33bd
000002a0: 75b1 3fbe 76c6 8cbd 82c6 83bd f2f9 3bbe
000002b0: 0ff6 fb3d 4059 403e cc3a 803b 56f2 1b3d
000002c0: a0fa 9b3d 18ec 9ebe d09f c03d ecd5 803e
000002d0: 2447 c5be 3311 ae3e d755 26bd 26a0 4abd
000002e0: 7f36 773e fa36 52be 846e 4cbe 3229 d83b
000002f0: 5533 0fbd 4457 60be 6539 1c3e 67d1 0dbe
00000300: 219f 3cbe 12c7 f13c de26 333e c234 8ebc
00000310: 0d2c 0abd 6647 803e 2138 17bd ee6c 6a3c
00000320: c05d 74bc 5693 fd3d 1083 a13e f4ab 133c
00000330: 44f7 f73d 9b5a f4be 1ca7 583d 0c56 a0be
00000340: be5b 36be 664a 2abe 1772 b5be eaa4 8b3e
00000350: ab68 3d3e efc5 b0bd e327 b23e c339 00be
00000360: eeca 2b3e 1005 f9bc ffb7 33be c72e 91bd
00000370: ec54 0bbe 2a49 2a3e 7233 58be cec7 86bd
00000380: 20a9 a8be 042d 5d3e ddab 103e eb25 2fbd
00000390: 3864 6c3d 7f7f 463d 30ee 7f3e 2d1e 213e
000003a0: 5220 e5bd 44e3 0cbe c933 ddbd bf62 7cbd
000003b0: b399 013e 72d5 163b c58a 9e3e d951 33be
000003c0: ec61 453e a3fb febd 0a81 cabc 903c 2b3e
000003d0: 6698 7b3e f21a ac3d 3610 4bbd 9c96 ef3d
000003e0: 61d6 8bbd 7ff0 5f3e c2d8 4d3e 74fe 02be
000003f0: 08be e3bc da04 38be 0a4f 8fbe 9917 903e
0.15050046 0.21880946 0.14103895 -0.067871325 0.060960073 -0.36491203 -0.07436863 0.02765626
0.060266852 -0.033614032 -0.011925816 0.021014398 -0.2603862 -0.32385632 0.118996605 0.06519275
0.072571345 -0.015772564 -0.021056768 -0.21980593 0.11828809 0.64562726 -0.15325035 0.14331767
-0.047663003 0.1001901 0.23481351 -0.27280197 0.03334027 0.1393263 0.16733812 0.046284672
-0.043148648 -0.2583773 0.101139516 -0.50036395 -0.2940661 0.15165123 0.15318249 -0.23237963
0.4688191 0.08595577 -0.19604897 0.260279 0.030689036 0.116721764 -0.166137 0.055820223
-0.12977083 -0.011152768 -0.08696933 0.004993738 0.031001847 0.039652776 -0.16057761 0.06053073
-0.008406591 0.07189699 0.21709195 0.044187363 -0.108561985 0.35761747 0.035164256 -0.19323575
-0.29304093 0.12535785 0.39174798 -0.24301049 0.07331016 -0.0016557253 -0.11298518 0.29286733
0.35885128 0.17363843 -0.48034796 0.26954874 0.04947672 -0.054508016 -0.22190173 -0.08343611
-0.29215592 -0.006790389 -0.14161393 0.31969362 -0.042313125 -0.25380376 -0.026090493 -0.013651372
0.036825858 0.28807205 -0.13906193 -0.093671694 0.20941362 0.050552785 -0.2847491 0.21560408
0.11559933 -0.15778302 -0.15811451 0.16967586 0.11047875 0.021145102 0.1975435 0.038727842
-0.012809552 -0.260929 0.07203018 -0.31689167 -0.17678984 -0.058501557 -0.17660816 0.022297082
0.11413475 0.05348386 0.14479429 -0.03484337 -0.15738973 0.051267132 0.09539651 -0.0032323801
0.015377747 -0.031380724 -0.22430907 -0.31116512 -0.117085084 0.23811778 0.10622922 -0.015022535
0.04081634 -0.07912036 0.21837473 -0.0138198 -0.057145692 0.08313637 -0.1313394 0.06342759
0.115976855 -0.14176996 -0.2827696 -0.27537417 0.045988034 0.08826711 -0.09125862 0.07058034
0.11632702 -0.07178288 -0.021475367 0.12903106 0.0072161783 0.18343712 0.085797235 0.03718782
-0.29181632 0.004239554 -0.14337493 -0.05122746 0.22230977 0.1350273 -0.031345125 -0.07556261
-0.1739941 0.1130002 -0.019016499 -0.025206828 0.17235392 0.124861956 -0.056643154 -0.04374829
-0.18720038 -0.06873791 -0.06434347 -0.18357065 0.12302791 0.18784046 0.003913259 0.038072906
0.07616162 -0.310395 0.09405482 0.2516321 -0.38530838 0.33997497 -0.040609207 -0.049469136
0.24141882 -0.20528784 -0.19964033 0.0065967077 -0.034961063 -0.21908289 0.1525627 -0.13849412
-0.18420078 0.02951387 0.17495295 -0.017359141 -0.033733416 0.25054473 -0.036918763 0.014308197
-0.01491493 0.12381618 0.31545305 0.009013165 0.12107709 -0.47725376 0.052893743 -0.3131565
-0.17808434 -0.16629943 -0.35438606 0.27274257 0.18496959 -0.08631503 0.34796056 -0.12522034
0.1677663 -0.030397922 -0.17550658 -0.07089 -0.13606614 0.16629472 -0.21113375 -0.065810785
-0.32941532 0.21599203 0.1412806 -0.04276077 0.057712764 0.048461434 0.24993205 0.15734167
-0.11187805 -0.1375857 -0.10800893 -0.06161761 0.12656288 0.0023015407 0.30965248 -0.17511691
0.19275635 -0.1245034 -0.024719734 0.16722322 0.24569854 0.08403577 -0.049576007 0.11698648
-0.06827999 0.21869086 0.20102218 -0.12792379 -0.027800575 -0.179706 -0.2798999 0.28143004

gru.bias_ih_l0 f4 [300]
00000000: fe3e f63e 7a1d 453e 8a3c 5c3e d927 c2bd
00000010: 7edd 8f3e 7d99 e13e 2392 843e 2594 d63e
00000020: ae80 183e 9de4 093e 65d3 c03d 5ecb 863e
00000030: 48be ad3b b77c 8d3e e1f4 d13e 7974 d03c
00000040: eaf7 afbd ba55 b03d c34d 633e 97b3 1f3e
00000050: 2727 90bd 919b 8c3e 7243 803e 30d0 f43e
00000060: 51d1 d13e 4add 8cbc 736e a13e 3b9a e43d
00000070: a46d f13d 94d7 283e 83e6 2b3e 10b9 263e
00000080: ae41 e2bc a172 073e 45c2 25bd 5d18 723e
00000090: 0dc6 c03c 9c88 72bc 7375 703e 3bfc 013e
000000a0: a37f f73d cd2b 993d e594 e83e 12af 7d3e
000000b0: 2c9a 9e3e ec4a 1d3e a489 86bd 6bdb b93d
000000c0: 97d2 bcbc e664 a03e 14a3 3f3d bb3e c23e
000000d0: cda1 5d3e 1a58 0d3e 6352 f13e f7ea 2b3b
000000e0: 4c36 ccbc 7509 913e b941 d63e 94a9 92bd
000000f0: 6abc d33e 5587 353e 8bdf a93e 681b f23d
00000100: 570a 80bd 8b1c 9d3e 7350 ef3e a0ae b63e
00000110: 2ff7 b6bd 4a23 493c 736a 983e 131c ec3b
00000120: 13cf 703e 86d5 4c3e 9b08 773e c1ce 313e
00000130: 220f 813e 9622 ab3c 7347 803d 85ba e63e
00000140: 19fd 8f3e 9be6 023e a133 783e a21d ab3e
00000150: 7d9f a03e 2955 793e 18fc 9e3e bb33 913e
00000160: 3513 c23d e460 f8bd efd1 f73d 2b21 2e3e
00000170: 3d6a a43a 2fd6 783e 5b19 163e 8495 8f3e
00000180: 4fc0 043d ba38 1d3c 4677 c83e 9579 b33d
00000190: 71c8 78be 093d a0be 992c 1bbe 4a94 96bd
000001a0: 6dc2 7fbd 8dc4 fbbd 1cb6 f3be 2034 8ebe
000001b0: d9a1 a3be 2526 e6be f952 83be 8f6c 5ebe
000001c0: 3e3a 80be 739e fd3d 1d87 5cbe 71b0 30be
000001d0: 7f60 ecbe 9c89 b5be 7691 25be 5e25 64be
000001e0: 9c0a 66be 0978 b43d 58d4 b8be b293 5ebf
000001f0: c014 1abf 47a6 79be a453 43be 8b37 f2be
00000200: 3f50 90be f8e6 b3be 4575 6dbe cdfb 45be
00000210: 1c12 4ebe b076 a2bd 65ab 65be 35d4 94be
00000220: 4825 adbe 0ffd 3cbe d2e0 65be d6a4 a8be
00000230: cb66 9bbe c64f 25be f4dd 19bf 0c2f 80bd
00000240: a1cd 49be e0b0 29be 71bb c0be c8ed 9cbe
00000250: d10f 95be 86bb 5abe 6dfa b8be fd19 adbe
00000260: 8086 18bf 7b0e 26bd 74d5 bcbe 698e 15be
00000270: 8626 a7be 1a29 8abe 262a 0ebf ff52 07be
00000280: 31c6 9fbe 8cf1 e43c 4e44 f8be b0a9 b7bd
00000290: 8c77 dcbe 78bd f1be 508b bfbe c89c aebe
000002a0: df95 01bf c4f3 afbe 0920 50be aa82 a7be
000002b0: 0f55 1bbe 4960 f7be b9d2 babe 09a1 81be
000002c0: fbd5 82bb 9be7 2fbe 5bc9 d8be d0ae 92be
000002d0: 5149 0abf 74ef 64be 3d80 53be fcc0 b8be
000002e0: 9cdb e7be 7bba a1be e2cb 24be d861 b0be
000002f0: 24f1 c5be 0443 37be 7c2b 0fbe f4d1 a8be
00000300: d86c 9ebe c679 d3be a8e9 b9bd 457f f5bd
00000310: 8444 b6be 7fb5 72bd fea8 bcbd 0dfe 91be
00000320: 8eb7 013f 4166 613e 681e 18be 6d39 7c3d
00000330: 50ef 123e f71c b33e cbd4 003c 0496 b53e
00000340: 04b7 22bb ce76 03be 77df cc3e be6b b73e
00000350: cbf7 30be be4e 7ebe 3635 5bbd 1b8b 4b3c
00000360: febf 8fbd 9dc5 aa3d c360 b33e 4337 81bd
00000370: ee7b fbbc a5ce 153e 782b edbe 8870 8bbd
00000380: 5bbd 78be 1290 89bc a0ad 8cbe 4840 a7be
00000390: be31 adbe 5e81 c13d e65c fd3c 655b 9f3e
000003a0: b8bd 71bc bb6e 5a3d 2220 b2bd 7de3 6cbe
000003b0: 4167 d83d e252 87be bb10 2abd f9c8 55bc
000003c0: 7363 cfbe df24 d7bd d08d 31be 4deb 1e3e
000003d0: 4e82 02bf 961b 063e c206 233e f9ff f9bd
000003e0: 5d99 cb3d 0562 2bbe 6f9d 1f3e de5d cfbc
000003f0: 844b 60bd 697b 8a3b e986 443f c17e 1c3e
0.48094934 0.19249526 0.21507469 -0.094802566 0.28098673 0.44062415 0.25892743 0.419099
0.14892837 0.13466115 0.0941532 0.26327032 0.0053022243 0.27634212 0.4100714 0.025446163
-0.08592208 0.08610101 0.22197632 0.15595852 -0.07038718 0.27462438 0.25051457 0.47815084
0.40980008 -0.017195363 0.3152958 0.111622296 0.117884904 0.16488487 0.16787152 0.16281533
-0.02761921 0.13227321 -0.040468473 0.23642106 0.023531938 -0.014803078 0.23482303 0.12693875
0.12084892 0.074790575 0.45426098 0.24773815 0.30977 0.15360612 -0.065692216 0.09075054
-0.023049636 0.3132698 0.046786383 0.37938485 0.21643753 0.1380314 0.4713317 0.002623258
-0.024928235 0.28327528 0.41847017 -0.07161251 0.41354686 0.17727406 0.33178362 0.118216336
-0.06251972 0.3068584 0.46741065 0.35680103 -0.08933865 0.01227648 0.29768714 0.007205495
0.23516493 0.20003328 0.24124376 0.17364027 0.25206858 0.020890515 0.06263628 0.45064178
0.28122786 0.12783282 0.24238445 0.33421046 0.3137168 0.24348892 0.31051707 0.2835978
0.0947632 -0.121278554 0.121005885 0.1700484 0.0012543869 0.24300455 0.1465811 0.2804376
0.032409962 0.009596044 0.39153498 0.08763424 -0.24295212 -0.31296566 -0.15153731 -0.07352503
-0.06244128 -0.122933485 -0.47599876 -0.27774143 -0.31959417 -0.44950977 -0.2564924 -0.217211
-0.25044435 0.123837374 -0.21535917 -0.17254807 -0.4616737 -0.3545655 -0.1616877 -0.2227988
-0.22464985 0.088119574 -0.36099505 -0.86944115 -0.6018791 -0.24379836 -0.19074875 -0.47308
-0.28186223 -0.35137153 -0.23189266 -0.19334336 -0.20124096 -0.07932794 -0.22428663 -0.2906815
-0.33817506 -0.18455909 -0.22449043 -0.3293826 -0.30351862 -0.16143712 -0.601043 -0.062589735
-0.19707347 -0.16571379 -0.37643006 -0.30650163 -0.2911363 -0.21360597 -0.3612856 -0.3380889
-0.5958023 -0.040541153 -0.36881602 -0.14605106 -0.3264658 -0.26984483 -0.55533063 -0.13215254
-0.31205896 0.02794721 -0.48489612 -0.08967912 -0.43059957 -0.47214866 -0.37410975 -0.3410399
-0.5061931 -0.34365666 -0.2032472 -0.32716876 -0.15169166 -0.48315647 -0.36488894 -0.25318173
-0.0039927936 -0.17178194 -0.42341122 -0.28648996 -0.5401812 -0.22356969 -0.20654388 -0.36084735
-0.45284736 -0.31587586 -0.160934 -0.3444965 -0.38660538 -0.17896658 -0.13981432 -0.32972682
-0.30942416 -0.41303843 -0.090777695 -0.11987165 -0.35599148 -0.05925512 -0.0921192 -0.28514138
0.5067071 0.22011663 -0.14855349 0.061578203 0.14349103 0.34983036 0.007863234 0.35466015
-0.0024828324 -0.12838289 0.4001424 0.35824388 -0.17282026 -0.24834725 -0.053517543 0.012423302
-0.070190415 0.08338473 0.3503476 -0.063093685 -0.030698743 0.1462961 -0.46322227 -0.06808573
-0.24290983 -0.01679233 -0.27476215 -0.3266623 -0.33827013 0.09448503 0.030928086 0.31124416
-0.014754705 0.053328257 -0.08697535 -0.23133655 0.10566569 -0.26430422 -0.04151986 -0.013048404
-0.4050556 -0.105050795 -0.17339253 0.15519448 -0.5098008 0.1309646 0.15920547 -0.12207026
0.09941361 -0.1673661 0.155874 -0.025313314 -0.054759517 0.0042261374 0.76768357 0.15282728

gru.bias_hh_l0 f4 [300]
00000000: 928e fe3e 272b 473e ef02 c83d 652a e8bd
00000010: 0671 c13e 5a1a f73e 8d71 a63e 1e7c a93e
00000020: fdaa 7c3d ef39 973d 364c 4a3e db82 bf3d
00000030: 0636 c33d c035 6c3e 5fd6 d83e 0cea 473d
00000040: b644 dbbd 6093 333e 17a5 e23d 0756 553e
00000050: 468c 12be 5732 483e c7cc 813e 22fe 103f
00000060: cc3e b03e 2937 febc e487 aa3e 12d9 9c3d
00000070: 5f7b 403e dda4 193e d063 363e 9b49 6f3d
00000080: 3855 04bd a0a1 503e e153 c43d 028c da3d
00000090: 94ce 0abe 32b0 c03c e962 a53e d651 923e
000000a0: 0e32 453e 4388 193e 7925 da3e 17d6 5f3e
000000b0: 1857 3f3e 6cc5 333d a9a4 03be b3fe 783e
000000c0: a4c3 b83c 1d96 5a3e 3e04 f33d 6a73 803e
000000d0: b099 7c3e ae28 833e f413 bc3e ed62 1e3d
000000e0: 449f ebbd a5a0 a73e 7c67 bb3e 66af aabd
000000f0: 694e 6a3e 755c 1e3e ca31 493e b01b 1f3e
00000100: 7a44 633d cdf2 bc3e 0aa8 043f 5945 cd3e
00000110: 370e b3bd 2dc6 a3bd 49c5 683e 49a5 36bd
00000120: 61b5 2b3e 44fe 833e 13a9 ac3e fede 403e
00000130: ac67 ef3d 00c9 dcbc a3a6 fbbc 22a2 013f
00000140: 33dc da3e 2a82 f83d be9a 733e 7806 e73e
00000150: b3cf 863e 325e 8e3e 4476 9e3e d6f9 b93e
00000160: 95ee 363e 9a08 dbbd d4f9 623d 528b 233e
00000170: 5c15 ef3d b165 033e ac12 123e 170c 843e
00000180: 23b0 a93c f0b8 183d 2938 993e 1c3c 473d
00000190: 97b4 80be 8c5b a4be 82e4 11be e6e7 84be
000001a0: 6941 70be b2f5 91bd fb30 e3be 1eee 17be
000001b0: d918 90be 6f1a aebe 534e 7cbe 7cc1 8cbd
000001c0: 79bc 89be d7df e43d e9c7 93be 9609 5ebe
000001d0: f0ca a9be 8c2b 02bf 16a9 73be f028 69be
000001e0: b512 9fbe 8618 e93d 1f4f b3be 179e 5bbf
000001f0: b89e 14bf 1c10 63be fa76 39be d0b7 b8be
00000200: 2db6 d9be ab30 c2be c1c8 4ebe 7ae4 7dbe
00000210: 56ed 40be 0bcf 5fbe abd5 94be 3eac c8be
00000220: 582f 00bf 07af 5fbe 0b60 13be 499f 23be
00000230: 0a26 0abe e974 acbe b8e7 28bf abe3 79bd
00000240: ef70 7fbe 8d66 33be 99a6 eebe 4fbd 3abe
00000250: 8155 70be f1fe a5be 8cec 6abe 8b75 f2be
00000260: 5039 f6be 6d41 06be 7b56 b8be dc2c 81bb
00000270: f959 92be 4a4d b2be 6d6e 0cbf c8ae 00be
00000280: d5de 41be dfa1 1d3d 2445 adbe d409 1fbe
00000290: cd24 c9be 8a6d d4be 7ae4 0dbf dac0 a2be
000002a0: 6475 05bf 2f73 b3be 101d 8abe c8ae a8be
000002b0: 99dd 17bd 2591 cfbe 4d8c d9be e566 8abe
000002c0: c41c 41bd cbcf 4fbc f077 aebe a0e7 65be
000002d0: 4e26 eabe 4b68 8cbd 08d8 1cbe 8047 b2be
000002e0: 9647 c1be ad9e 94be 4bd6 83be 5b28 c1be
000002f0: 6be9 f5be 3591 4bbe dd5d 78be 026e 6dbe
00000300: b2a2 b9be de0d d8be 3d65 cbbd 2dbe c5bd
00000310: 1dde d9be 27fd 823d 39f4 9e3d ade4 b0be
00000320: 34c7 c73e 5686 853e 3555 55be df75 413d
00000330: 4b44 bc3b 32aa 8b3e 3b27 5cbd ab88 bd3e
00000340: 4fcd 8a3d df8a cabe 790b 053e c5f6 ad3e
00000350: 5ca6 193e 0563 86be e484 b2bd a5b1 673c
00000360: 3ca1 03be 14c1 653e f260 bf3e 2021 1e3d
00000370: e60c 593e e177 6f3e 52e8 16be 6fcb 04be
00000380: 139d 8abd 4e1e bcbd f7ce 23be 3fdf 8fbe
00000390: 5b1a 75be b1d8 173b 8fb3 16be f5b8 ab3e
000003a0: 9a6e 7dbc c921 cc3d d2ea c33e 5513 26be
000003b0: e3f0 493d c9f5 0abe 1e1a 533d da31 a2bc
000003c0: 3b7a 6abe 36f1 263b 6083 0abe 87c2 6d3e
000003d0: fdae 91be 9cd1 dd3c ddd5 483e 8206 26be
000003e0: 6aa4 9cbc a09b 0ebe ed0d 533e f3ef 933d
000003f0: 67c0 cbbd 0564 263e 51ff 0e3f 2e0e b53e
0.49718148 0.19450055 0.097661845 -0.11336211 0.37781543 0.48262292 0.32508507 0.33102506
0.061686505 0.07384097 0.19755635 0.093511306 0.095317885 0.23067379 0.42351052 0.04880719
-0.10706465 0.17536688 0.11066645 0.20833598 -0.14311323 0.19550453 0.25351545 0.56637776
0.3442291 -0.031032162 0.333068 0.076585904 0.18797062 0.15004297 0.17811513 0.058419805
-0.032307833 0.20374155 0.09586311 0.106712356 -0.13555366 0.023521516 0.32302025 0.2857806
0.19257376 0.14993386 0.42606714 0.21859013 0.18685567 0.043889448 -0.12855782 0.2431591
0.022554226 0.21346326 0.118660435 0.25088054 0.24668002 0.25616974 0.36733973 0.03866856
-0.11504987 0.3273975 0.3660239 -0.08334236 0.22881474 0.15464957 0.196479 0.15537906
0.055485226 0.36903992 0.5181891 0.4009197 -0.08742946 -0.079967834 0.22731508 -0.044591222
0.1676841 0.25779927 0.33722743 0.18835065 0.11689696 -0.026951313 -0.030719107 0.5063802
0.42746124 0.12134202 0.23789498 0.45122123 0.26330337 0.2780624 0.30949605 0.36323422
0.1786445 -0.10695 0.055414036 0.15971115 0.11673996 0.12831761 0.14264935 0.25790474
0.020713871 0.037285745 0.2992566 0.04864131 -0.2513778 -0.32101095 -0.14247325 -0.25958174
-0.23462452 -0.07126941 -0.44373307 -0.14836928 -0.28143957 -0.34004542 -0.24639253 -0.06872842
-0.26901606 0.111755066 -0.28863457 -0.21683344 -0.33162642 -0.508477 -0.2379497 -0.22769523
-0.3106896 0.113816306 -0.35021302 -0.857881 -0.58054686 -0.22174114 -0.18111792 -0.36077738
-0.42521802 -0.37927756 -0.20193769 -0.24794188 -0.18840536 -0.21856324 -0.29069266 -0.3919391
-0.5007224 -0.21844111 -0.14392106 -0.15978731 -0.13491073 -0.33682945 -0.65978575 -0.061008137
-0.24945424 -0.17519589 -0.4661148 -0.18236278 -0.23470117 -0.32421067 -0.22941798 -0.47355303
-0.480906 -0.13110895 -0.3600348 -0.003942115 -0.2858427 -0.34824592 -0.54855996 -0.12566674
-0.1893266 0.03848445 -0.33841813 -0.15531093 -0.3928589 -0.41489822 -0.5542675 -0.3178776
-0.5213225 -0.35048816 -0.26975298 -0.32945848 -0.037076566 -0.40540424 -0.42489854 -0.27031627
-0.047146574 -0.012683819 -0.3407588 -0.22451639 -0.4573235 -0.0685583 -0.15316784 -0.34820175
-0.37749928 -0.2902731 -0.2574943 -0.377261 -0.48029646 -0.19879611 -0.24254556 -0.23186496
-0.3625694 -0.4219808 -0.09931419 -0.09655414 -0.4255227 0.06395941 0.077614255 -0.34549466
0.39019167 0.26079053 -0.20833285 0.04723155 0.005745446 0.27278286 -0.05374835 0.37018332
0.06777441 -0.39559075 0.12992658 0.33977333 0.15004867 -0.2624742 -0.08716753 0.014141475
-0.12854475 0.22436935 0.3737865 0.03860581 0.21196327 0.23385574 -0.1473706 -0.12968229
-0.06768241 -0.09185468 -0.1599692 -0.2810001 -0.23935835 0.002316993 -0.14716934 0.3353955
-0.015468264 0.099673815 0.3826509 -0.16218312 0.049301993 -0.13570322 0.05153858 -0.019799162
-0.2289819 0.0025473363 -0.13526678 0.23218738 -0.28453818 0.027077489 0.19612832 -0.1621342
-0.019121367 -0.13926554 0.20610781 0.07223501 -0.09948807 0.16249092 0.5585833 0.3536238
