modules/prn_gen/exp/en_id/models/trigram/train-decoder-wdecay_1e_5-attn_dot-emb_512-hddn_64-layers_1-epoch_59.pth (torch, 588536 bytes, 7 tensors)

embedding.weight f4 [36, 512]
000000 2f 31 a6 3b dc 62 cf b9 6d b3 a4 3a 5c 8a 70 3e
       0.005071781 -0.00039555773 0.001256568 0.2349028
000010 b2 78 1e 3b d6 35 8b bb 1e 00 e6 bb 59 60 90 bb
       0.0024180827 -0.004248361 -0.007019057 -0.004406017
000020 f4 07 dc 3b 22 54 2b bc 45 d6 8d 3c bf ef 17 3c
       0.0067148153 -0.010457071 0.017314086 0.0092734685
000030 10 f9 09 3c 5b 9e f2 3c 58 cd c5 bb 32 5a 80 b8
       0.0084211975 0.029616525 -0.006036442 -6.120316e-05
000040 a6 27 b2 bb 29 8a 8c bb a1 a0 2e bc 21 a9 82 3d
       -0.0054368554 -0.004288931 -0.010658414 0.06379915
000050 b9 9c 4f bc ba 2f c6 3b b2 53 36 3b 2d 55 0e bc
       -0.012671643 0.00604817 0.0027820882 -0.0086873
000060 5c bb 8d bb 04 61 46 3b 17 16 f4 bb fc 15 2d 3a
       -0.0043253135 0.0030270228 -0.0074489224 0.0006602702
000070 43 ae c9 bb 09 6d 02 be d8 8b e4 3b c4 7b 47 3c
       -0.006154807 -0.12736906 0.0069746785 0.012175504
000080 57 58 06 bc 31 a9 17 be e7 3c 9b bc 77 a6 94 bd
       -0.008199773 -0.14810635 -0.018949939 -0.07258313
000090 58 46 1a 3b 1e 4f a6 3b 70 0e 9d bb c5 36 fc 3b
       0.0023540463 0.0050753495 -0.004792981 0.0076969587
0000a0 8c 56 35 3c fa 0a 86 3b 46 79 11 3e 43 44 03 be
       0.011067998 0.004090664 0.14206418 -0.12819009
0000b0 01 6d 35 3b e4 4e 9d ba fb 74 8e 3e c7 6f 38 3c
       0.002768338 -0.0012001661 0.27823624 0.011257119
0000c0 05 4a d0 3d 5a f7 4d bb 0c 3b 37 bb 44 7a d0 3a
       0.10170368 -0.003142795 -0.0027958779 0.0015905579
0000d0 01 26 c5 3b e7 91 81 3a 36 cb b4 3b 87 67 0a 3c
       0.0060164933 0.0009885401 0.0055173887 0.008447534
0000e0 05 e6 22 3b 53 74 ec be 5a 52 2f 39 d3 ed aa 3e
       0.002485634 -0.46182498 0.00016719979 0.3338457
0000f0 a8 8f 1a bc 33 a8 49 bc e8 fd 35 3c 0a 1d c6 3b
       -0.009433664 -0.012308168 0.011107899 0.006045942
000100 59 18 e5 bc fa f9 6d be 78 08 91 bc 44 95 8c bb
       -0.027965711 -0.2323989 -0.017704234 -0.004290255
000110 a3 b6 8b 39 0b 49 ca 3d 13 a9 6b be e1 22 28 bb
       0.0002664822 0.09877213 -0.23013715 -0.0025655555
000120 f4 e6 00 ba 8e a8 a4 3b 66 df 54 3c e1 c3 e3 bb
       -0.0004917227 0.005024976 0.012992715 -0.006950841
000130 c3 64 00 bd 6d 7e f9 3a 6e 25 52 3b c2 ce af bd
       -0.031346094 0.001903487 0.0032065767 -0.08584358
000140 16 84 56 bc a2 44 88 bb 2b 2b ed 3b 04 c8 e8 3e
       -0.013093015 -0.0041585723 0.007237812 0.454651
000150 8e c0 0a 3f ad fc 16 3b 7c 0d b3 3a 2d 45 c5 b8
       0.54200065 0.002303879 0.0013660635 -9.406577e-05
000160 74 a1 d2 ba 83 64 ce 3a 79 ba 18 bc 00 b9 1f 3c
       -0.0016069845 0.0015746508 -0.009321802 0.009748697
000170 70 e9 a7 bd 52 0b ef ba 55 53 13 bc df af 1a bc
       -0.081988215 -0.0018237627 -0.008992036 -0.009441345
000180 c6 9a 09 3c 30 a4 94 39 a1 65 5c bb f9 1b a7 3c
       0.008398717 0.0002835109 -0.0033629911 0.02039908
000190 12 c3 5f bc 16 f6 9e 3b 91 44 14 3c ea f6 dc bb
       -0.013657348 0.004851113 0.009049551 -0.0067433016
0001a0 34 81 c5 3b b5 be 10 3c be a0 db ba 40 6d 44 bc
       0.006027365 0.008834531 -0.0016756279 -0.011988938
0001b0 fb 25 b3 bb b3 93 6b bd df 1b 66 ba 35 64 6f 3b
       -0.005467174 -0.057513904 -0.0008777957 0.0036528234
0001c0 22 4b 66 bd 70 6f 90 3b ce c1 d5 3b 07 44 b0 3c
       -0.056223996 0.0044078156 0.0065233475 0.021516813
0001d0 3d 6b 13 3c 42 45 97 3d bf f7 a7 bb d1 ab 65 ba
       0.008997736 0.07386257 -0.005125969 -0.00087612594
0001e0 fa 7a a3 3b 3e f1 1e bc 58 4b a8 bd b8 86 34 bb
       0.004989025 -0.009701071 -0.08217496 -0.002754612
0001f0 07 eb e5 ba 5f 32 b4 bb 34 12 c3 bb 97 62 b0 3c
       -0.0017541357 -0.0054991688 -0.0059530977 0.021531386
000200 92 1e 90 3e d0 85 e7 3c 75 59 cd 3b 7c 14 f1 be
       0.28148323 0.028262049 0.0062667676 -0.4708594
000210 39 9f c3 3b 64 94 73 bb d8 7c dc bc 54 63 50 bd
       0.0059699086 -0.0037167305 -0.026914999 -0.050875977
000220 36 e4 e8 b9 4d fb 90 bb 86 81 07 bd 2d a9 64 bc
       -0.0004442052 -0.0044244886 -0.033082508 -0.01395635
000230 a3 32 b7 be 65 95 42 bd 68 cf 9f 3d 17 e4 6c bd
       -0.3578082 -0.047505755 0.078032315 -0.05783471
000240 f9 08 3a bc e3 0d 1f 3c c3 7f a2 3b 16 16 de 3c
       -0.011354678 0.009707901 0.004959078 0.02711014
000250 4b 32 8a 3b 98 5b 2a 3c 76 88 59 3e a3 a2 89 bb
       0.004217421 0.010397814 0.21243462 -0.004200296
000260 46 3d da 3b 62 f2 ab 3d 83 fe 85 3b 21 c5 9d bc
       0.0066601364 0.0839584 0.004089178 -0.019259037
000270 cf 48 fc 3b b6 6f 01 be 17 8c 87 ba b4 03 e1 bb
       0.007699109 -0.1264027 -0.0010341433 -0.0068668965
000280 fe 89 92 3a cf 1d 13 bc ac b8 fd bb 3c 47 00 bc
       0.0011180041 -0.008979275 -0.007742962 -0.007829484
000290 1a 89 af ba 2e a5 38 3b df 49 65 ba fa 86 aa 3b
       -0.00133923 0.0028174627 -0.00087466644 0.0052040787
0002a0 17 a1 13 bb e7 e8 d2 bb 6b 7e e7 bc af ae 36 bc
       -0.0022526437 -0.0064364555 -0.028258523 -0.011150046
0002b0 43 cc d7 3a 53 2c a4 3b cc 07 b7 be 8a 12 4f 3e
       0.0016464073 0.0050101667 -0.35748136 0.20221916
0002c0 dc 43 44 ba a3 a3 b5 3c c4 6f 30 3b 2d 97 eb 3b
       -0.00074869185 0.022172755 0.0026922086 0.0071896524
0002d0 f2 f5 3d bb 5d b9 0f bb 91 8d 0c bc 68 59 2b 3c
       -0.0028985706 -0.0021930553 -0.008578674 0.010458328
0002e0 71 8d 8b b9 87 75 a3 3b ce 43 b7 be f9 e3 ba bb
       -0.00026617528 0.0049883756 -0.35793918 -0.005703446
0002f0 7c 4e 3e ba a5 24 1e 3c c0 e5 b4 bb 48 a6 fe bb
       -0.000725962 0.009652291 -0.0055205524 -0.007771287
000300 2e df b9 bd 2c 55 0c bd a1 df 06 bb e1 55 9c bd
       -0.09075771 -0.034260914 -0.002058007 -0.076335676
000310 37 43 bb 3b 6b 22 15 be 8f c5 1d 3c 31 61 3c 3b
       0.0057147997 -0.1456391 0.009629621 0.0028744454
000320 ad 7b 83 bd 11 a6 13 3c 27 a1 cb 3d 4b 5e f4 bb
       -0.06420074 0.009011761 0.09942847 -0.0074575297
000330 58 bb ea 3e c9 8a a3 bb 77 99 fd 3b ad df f4 3b
       0.45846057 -0.0049909097 0.0077392417 0.0074729533
000340 f5 a2 a5 3a bd bd ea bb d2 41 ad 3d c0 60 c9 39
       0.0012637066 -0.007163732 0.0845982 0.00038409792
000350 1b 2a 4e 3d cb e8 65 bf 50 61 da bc 33 7a 23 3b
       0.050333124 -0.8980834 -0.02665773 0.0024944663
000360 90 45 b8 39 d1 f4 46 bc 6c 3b 81 3d 6c cb e9 bb
       0.00035147043 -0.01214333 0.06310162 -0.0071348455
000370 45 ad 34 bb f6 f2 3c bb 74 cf 84 3b f5 e2 9e 3a
       -0.0027569097 -0.002883134 0.0040530507 0.0012122082
000380 7f 40 19 3f e0 71 5c be 5f db 0c 3c 4c ce b3 3b
       0.5986404 -0.21527815 0.008597224 0.005487239
000390 79 74 54 3b ad bb 15 bc b2 3a 5e 3d a2 75 c5 3b
       0.0032418056 -0.009138984 0.054255195 0.006025986
0003a0 c3 ea 33 bc 16 85 d0 3a 31 d8 3e bc 2e 5d 38 3e
       -0.0109812645 0.0015908803 -0.011648224 0.18004295
0003b0 3e 5b 83 3c 62 aa 25 3b 37 c1 98 3a dc 78 05 bb
       0.016034719 0.0025278558 0.0011654262 -0.0020366227
0003c0 48 e2 4e 3a 30 55 2e 3c 72 b1 54 3a 69 8e 48 bc
       0.0007891995 0.0106404275 0.00081135996 -0.0122409845
0003d0 8f 5c ae bd 7a 8f 25 3a c7 25 02 bb df 74 35 3d
       -0.08513748 0.000631563 -0.0019858943 0.04430091
0003e0 ab b1 7d 3b 78 3c a9 bb e4 3b ed 3a 27 fd 18 bb
       0.0038710635 -0.005164679 0.0018099514 -0.002334425
0003f0 cc 61 12 ba e8 1a d3 3b 6b ed 62 3a 25 51 71 3b
       -0.0005584031 0.0064424165 0.0008656594 0.0036822048

gru.weight_ih_l0 f4 [192, 576]
000000 e1 36 1c bb e3 2a ea 3a a2 a5 94 bb e8 61 20 bd
       -0.0023836421 0.0017865564 -0.0045363465 -0.03915587
000010 8f b8 94 3a 38 8b 0c b8 19 77 d0 bb cb 45 ac 3b
       0.0011346507 -3.350826e-05 -0.006361854 0.0052573434
000020 98 98 1b bc 0d 09 56 3c 83 87 20 3c e0 d0 ad 3c
       -0.00949683 0.013063681 0.0097979335 0.021217763
000030 33 fb e9 3b 8c 72 25 bb df 30 db bb ca aa a9 bb
       0.007140541 -0.0025245277 -0.0066891755 -0.0051778303
000040 ea ef 87 3b 72 97 5c bb ab d2 14 bc 1d f6 9d 3c
       0.004148473 -0.0033659604 -0.00908343 0.019282395
000050 50 b7 09 bb 07 bf 9e bb 4e dc fc 3b 75 e2 b6 3b
       -0.0021013804 -0.0048445496 0.007716692 0.005581195
000060 10 9d 8c bb 4f 56 f2 3b 2e 40 b6 3b eb 26 f8 3b
       -0.0042911842 0.0073955427 0.00556185 0.0075729988
000070 9e fe 10 bc 88 bd dd 3c 78 64 db 3a 14 ba 82 3c
       -0.008849768 0.027067915 0.0016738316 0.01595787
000080 d1 25 1e bc 2e 8f 53 3c d1 3c 24 bc 79 98 e8 bc
       -0.009652571 0.012912555 -0.010024265 -0.028393017
000090 5c a1 95 bb 9a b0 95 3b ca 06 c9 3a bd 57 88 3b
       -0.0045663547 0.0045681717 0.0015337106 0.00416085
0000a0 77 84 5c bc 64 6a 82 b9 6e d6 a8 bc af 03 5a 37
       -0.013459316 -0.000248748 -0.02061006 1.299467e-05
0000b0 14 4c 92 bb aa f1 70 3b 71 c5 36 bd 4a c8 ca 3b
       -0.0044646356 0.0036765137 -0.04462189 0.006188427
0000c0 e8 f6 e7 bc 47 78 ea bb 7d a7 d4 3b c9 47 3f ba
       -0.028315976 -0.0071554515 0.0064896927 -0.00072967686
0000d0 f3 1a d6 3b 43 fe a5 3b 10 24 1f 3c 05 37 d0 3b
       0.0065339743 0.0050657107 0.009713188 0.006354215
0000e0 49 2b 07 3c fb ca 55 3d 71 50 db b9 26 ee 22 bd
       0.008250066 0.05219553 -0.0004183087 -0.039777897
0000f0 9e 42 45 bc 35 30 8a 3c de 8c 68 bb 60 40 bb bc
       -0.012039809 0.01686869 -0.0035484354 -0.022857845
000100 f7 bb ad ba 9c ac 8b 3c 60 97 e9 3b 66 a1 78 ba
       -0.001325487 0.01705008 0.007128641 -0.00094844995
000110 28 7d d1 3a 58 03 7b bc 08 cf 3a 3d 56 e5 af bb
       0.0015982734 -0.015320621 0.045607597 -0.005367915
000120 d9 3d d1 3a 18 05 14 3c 47 7d ad 3b 84 cc 5c bb
       0.0015963867 0.009034418 0.0052944752 -0.0033691237
000130 3d 64 1e bd 33 3f cd bb 76 ea 8f 3b 0f 68 e9 3c
       -0.038669813 -0.0062636374 0.0043919636 0.028492002
000140 de a4 ac 37 bd b2 e4 3b d9 43 b8 bb 30 79 41 bd
       2.058077e-05 0.006979315 -0.0056233224 -0.047234714
000150 e5 c4 af bd 77 2d e2 3b f4 0d 88 bb c1 99 80 bb
       -0.085824765 0.0069023925 -0.004152054 -0.003924579
000160 a5 cb 6f bb 8d 0c 4a bb d2 aa 97 3b 90 62 87 3b
       -0.0036589887 -0.0030830235 0.0046285177 0.0041316226
000170 2e d0 a7 3c 05 5b 24 bc ab b9 6a 3a ad 71 0f bc
       0.02048501 -0.010031466 0.0008954058 -0.00875513
000180 d9 00 f4 3b fe 83 a9 bb 68 28 ce ba 34 79 a0 bc
       0.00744639 -0.0051732054 -0.0015728595 -0.019589044
000190 b7 66 9b ba e3 bb 91 3b d4 72 03 3b 26 2c a2 bb
       -0.0011856173 0.0044474467 0.0020057457 -0.0049491106
0001a0 ac f0 69 bb 13 a1 6c bc ef 92 83 bb 3d 3a 2b 3b
       -0.003569643 -0.0144427 -0.0040153186 0.0026127242
0001b0 0e f9 da bb e9 ad be bb 58 5b 91 bc aa ef ed 3b
       -0.0066825217 -0.0058190715 -0.017743751 0.007261236
0001c0 6e e5 2f 3c db fd 1b 3c 7d b3 55 bb 9f 65 81 bc
       0.010735853 0.009520973 -0.0032608204 -0.015795527
0001d0 81 fd 10 3b 29 bc 03 bc 3e 8e 81 ba ca ad 25 3c
       0.0022123756 -0.008040466 -0.000988431 0.010112235
0001e0 7d e3 3f 3a 99 6c 3a bb 0f 5d 46 bc 8a 2e b1 bb
       0.000731997 -0.0028446077 -0.012107148 -0.005407159
0001f0 cf 53 99 3b 1e 78 6b 3b 30 91 33 bc cb 06 12 bd
       0.00467918 0.003592975 -0.010959908 -0.03565101
000200 14 ce 5f bd 93 69 96 bc df c4 a5 3b 65 74 38 3d
       -0.05463989 -0.018360889 0.0050588693 0.045032877
000210 81 f8 13 3a d1 19 03 3c 82 c6 cf bc c1 c8 0e 3c
       0.0005644635 0.008001761 -0.02536321 0.008714856
000220 76 d3 0f 3b ed a7 08 b9 4b 01 2f 3c 74 5f c1 bb
       0.002194611 -0.00013032528 0.010681461 -0.0059012715
000230 ba 1d 84 3d 48 df cd bb b9 ba 7e 3b 45 ad f3 bc
       0.064509824 -0.0062827207 0.003886862 -0.029745707
000240 90 01 bb b8 87 44 96 3b f6 0e d3 3a 24 ae 76 bc
       -8.917146e-05 0.004585806 0.0016102481 -0.015056167
000250 83 8d d3 b8 9e 1b 22 3c 11 82 91 bc e6 5c 93 3b
       -0.00010087623 0.00989428 -0.017762216 0.0044971583
000260 77 71 96 3b 78 67 49 bc 68 13 36 bc 7a 76 38 3c
       0.004591163 -0.012292735 -0.011113025 0.011258716
000270 ef c8 af 3c 3b 5c bc 3c 18 77 3b bb 65 41 e4 39
       0.021458117 0.022993198 -0.002860492 0.00043536272
000280 5d 70 7c bb 8b 1b df ba 08 43 36 bc 3e eb e0 bb
       -0.0038519122 -0.0017021758 -0.01112438 -0.0068639806
000290 fc 63 42 3b 69 bb 81 3a ec 27 52 bc 6c 42 35 3c
       0.0029661646 0.0009897772 -0.012826901 0.0110631995
0002a0 d0 48 ac 3c 0a 3c 85 3c 7a 39 c5 3b d1 0d 00 bc
       0.021030813 0.01626398 0.0060188146 -0.007815794
0002b0 35 93 c7 bb 75 4a d5 bb 79 d2 8c 3d 52 ad 82 bd
       -0.0060905465 -0.00650912 0.06876082 -0.063807145
0002c0 73 90 49 3c 94 0e 8c ba 43 38 ee 3b 47 f0 02 bb
       0.012302506 -0.0010685497 0.0072698905 -0.0019979642
0002d0 af 82 2c bb 0b e4 71 ba b9 27 82 bc 97 a0 bf 3b
       -0.002632301 -0.00092274015 -0.015888082 0.005848001
0002e0 ea 43 c0 bb 3d 89 c2 3b 83 e7 79 3d c9 90 99 3a
       -0.005867471 0.0059367702 0.061011802 0.0011716123
0002f0 ef 6d 3e bb 7b 13 fd bb 5c 67 d3 bb 71 b0 2a bb
       -0.0029057225 -0.0077232695 -0.0064515304 -0.0026045109
000300 f0 31 71 ba f9 7d d5 3b 7d d2 0c 3c 9a bb 12 3b
       -0.00092008617 0.0065152613 0.008595106 0.0022389651
000310 bb 09 b8 3b 5a cc 66 bc 0d c2 cd 3b cd d6 f1 3b
       0.0056163943 -0.014086807 0.006279236 0.0073803426
000320 ab 8a 0b 3d e9 bd f2 3b de 00 a5 3c ff 3b 9e ba
       0.03406779 0.007407893 0.020142015 -0.0012072324
000330 f4 67 8f bd 23 c5 d6 3b ff f7 ad 3b 35 3d 86 bc
       -0.07002249 0.0065542622 0.0053091045 -0.016386608
000340 a7 59 b2 b8 6f 62 99 3b 8a 26 60 bc 1d b3 ac 3c
       -8.5044005e-05 0.0046809237 -0.013681063 0.021081502
000350 91 ec 26 bd 3f 0f b9 3d f2 c6 c9 3b 98 34 af bb
       -0.04075295 0.09036111 0.0061577493 -0.005346846
000360 a1 e0 88 bb 03 89 7c 3c e3 d1 1a bd 8c 71 1e bc
       -0.0041771685 0.0154135255 -0.03779782 -0.009670626
000370 d9 1c f7 b8 d5 53 2d bb 6e fd 0a 3c e5 0f b5 bb
       -0.00011783251 -0.0026447673 0.008483274 -0.0055255764
000380 98 d6 77 bd 34 01 7e 3d be 5b f3 3b 85 61 f1 3a
       -0.060507387 0.062012866 0.007426708 0.0018415904
000390 dc a5 5e bb ce 89 0f 3b 39 50 1a bc 4b 6a 8a bb
       -0.0033973372 0.0021902206 -0.009418541 -0.004224097
0003a0 a1 85 29 3b 47 8b a1 3b 12 cc 09 bc d4 1f 2a bd
       0.0025867003 0.004929933 -0.008410471 -0.04153426
0003b0 5c 9a f5 bb f6 aa 68 bb f4 a0 e0 3b a0 2b 30 bc
       -0.0074952077 -0.0035502291 0.0068551246 -0.0107525885
0003c0 68 85 e0 39 50 bc 5b 3b 4f fd ef 39 ff 9b 35 bb
       0.00042824005 0.003352899 0.00045774362 -0.002771139
0003d0 c6 28 95 ba 0e 48 ce bb 85 5e b1 bb 8d e1 1d 3c
       -0.0011379949 -0.0062952107 -0.005412879 0.009636295
0003e0 f7 2c 28 bc 7e 26 37 3c e2 2e 93 ba 04 b0 46 3b
       -0.010264627 0.011178611 -0.0011229182 0.0030317316
0003f0 cb 71 d2 3b 30 bc 5a bc 7d cc 66 b9 3a da c6 3b
       0.0064222566 -0.013350531 -0.00022010687 0.006068495

gru.weight_hh_l0 f4 [192, 64]
000000 56 2d c7 3d 0a 27 5d 3c 6e 2a 60 3c ac 15 f6 bd
       0.09725444 0.013498077 0.013681991 -0.12015852
000010 00 0a 09 be 48 38 63 be 15 30 58 bd 05 e5 95 bc
       -0.13382721 -0.22189438 -0.05278023 -0.018297682
000020 6e 06 81 ba be 58 db bc 64 de d7 3d 5c b2 bd bd
       -0.0009843835 -0.026775714 0.105404645 -0.09262535
000030 7a 5c 16 bb 23 5e 87 bc f5 8f ae 3a ce 7e be 3d
       -0.0022943304 -0.01652438 0.0013318049 0.0930153
000040 ba 0f b3 3b 30 d4 01 bc 51 6d 2f be f6 ec 06 3d
       0.0054645212 -0.007924125 -0.17131545 0.032940827
000050 e4 7d 4f bc d4 36 89 bc dd f4 1c bb 26 0f 76 3d
       -0.012664292 -0.016749777 -0.002394966 0.06007304
000060 2c d8 04 3d 07 4f ce 3d eb 44 c1 bc 7b 66 fb 3b
       0.03243272 0.10073667 -0.023592433 0.0076721287
000070 7b 7f e3 3c 23 cb 1c bd 5a e6 f0 bd ea 17 90 bd
       0.027770748 -0.038279664 -0.11762686 -0.07035811
000080 ae 84 a6 bd 51 de 60 3c 48 1a 95 bd 73 b5 cb 3d
       -0.081307754 0.013724879 -0.072804034 0.09946718
000090 4d 16 72 3e 47 2d 95 3d e5 d2 dc bc 3f 69 72 3d
       0.2364132 0.072840266 -0.026956031 0.0591824
0000a0 8c 69 dd bd 9d b2 f2 3d c9 31 20 bc a8 4f 13 3d
       -0.10811147 0.11850474 -0.009777495 0.035964638
0000b0 56 58 ac bd 36 4f 96 3d 09 04 65 be a0 7c 40 bd
       -0.08415286 0.07339327 -0.2236482 -0.04699385
0000c0 31 8d ba ba 4a c8 b9 3d 3f ae de 3d 3f 2e 8e bd
       -0.0014232752 0.09071405 0.108730786 -0.069424145
0000d0 0d ef e3 3b ad 73 bb 3d 8e c6 e1 3d c3 b0 eb 3b
       0.0069559873 0.09152923 0.110241994 0.0071927025
0000e0 ca 50 a8 bc fd d0 4b bc 4d ac dc bb ea 2c de bd
       -0.020546336 -0.012439963 -0.006734407 -0.108484104
0000f0 93 a9 55 bd 57 e6 46 3d cb 3b 00 3c ef 46 7b bc
       -0.05216367 0.048559513 0.007826756 -0.015336736
000100 af 5e 3f bc 3e 61 a6 bc 82 10 a9 bd ba 85 4b bc
       -0.011680289 -0.02031004 -0.08255102 -0.01242202
000110 b5 27 4d 3d e2 fb 30 3b 4a cf 7d bd bc c2 77 3d
       0.050086696 0.0027005603 -0.061965264 0.060488448
000120 34 22 10 bd 0d d2 da 3d 11 eb 12 bb e9 fc f6 bb
       -0.03518887 0.10684595 -0.0022417943 -0.0075374735
000130 df d6 f0 bd 9c 8c fb 3b ce 7b cf 3c fb b5 b6 3d
       -0.117597334 0.007676674 0.02532759 0.08921429
000140 7a 56 9b 3d 30 df f3 3d 3e df 34 bd 63 de 16 be
       0.075848535 0.11907804 -0.044158213 -0.14733271
000150 00 2d f0 bd 84 57 33 3e d2 a7 59 3d 47 da 91 bd
       -0.11727333 0.17513853 0.05313856 -0.07121711
000160 b8 cd c7 bd 4b 1b 21 bd ef 6c b8 bd 8e a2 40 3e
       -0.097560346 -0.03933267 -0.090051524 0.1881201
000170 dc 4a fb bc 41 f7 c5 bd 27 f9 8f bc 34 29 60 3d
       -0.030675344 -0.096663006 -0.01757486 0.054726794
000180 bb b1 d8 3c 72 c6 bf bd 03 ef 11 3d f1 77 b9 3d
       0.026451936 -0.09364022 0.03562833 0.0905608
000190 b6 a0 a7 bd 2c 2e 94 3b ab 84 aa 3d 2c 88 df ba
       -0.0818495 0.0045221057 0.08326086 -0.0017054132
0001a0 57 bb 18 3e 04 d7 a1 3d ea 25 5f 3d 20 58 ae 3c
       0.14915214 0.07902339 0.054479517 0.021282256
0001b0 e5 12 1b 3d cf 3b a4 bc 1a 30 60 3d 5f 9b 02 bd
       0.037859816 -0.02004805 0.054733373 -0.031886455
0001c0 f8 64 0c bd 97 f3 64 bb 5d 56 16 3c 7e 05 2e 3d
       -0.03427598 -0.003493523 0.009175864 0.042485707
0001d0 67 29 90 b9 eb 6a 4c 3c 4c fa 3e be 84 0b a1 3d
       -0.00027496667 0.012476663 -0.18650168 0.078635246
0001e0 ce 15 01 be 13 1b c5 3d fe 71 9c bc 22 fc 60 3c
       -0.12605974 0.096243046 -0.019097324 0.013731988
0001f0 b0 25 03 be 7d 6c 01 3c ae 37 ec bd 3a a0 b3 bd
       -0.12807345 0.007899401 -0.115340576 -0.08770795
000200 ff 4f 73 3c a8 72 01 3c 27 d5 5d 3d bf db f7 bb
       0.0148506155 0.007900871 0.054158356 -0.0075640376
000210 77 ef d5 bb fc 7c 54 3c 04 7f 80 3c 2e b0 c9 bc
       -0.0065287906 0.012969252 0.015685566 -0.024620142
000220 92 19 12 3d b9 10 45 bd 37 49 a9 3c 73 23 e8 bc
       0.035668917 -0.04811165 0.020664794 -0.028337216
000230 96 ab 8b 3c 72 70 cb 3c 6c 81 5a bd 6a 4d 8e b9
       0.017049592 0.024833892 -0.053346083 -0.0002714203
000240 db 9a c0 3b 40 1e 88 bd 98 9d 21 bc 5e 00 13 3d
       0.005877835 -0.06646395 -0.009864233 0.035889022
000250 da a4 87 3d 72 62 be 3c 4b c2 2d bd 4d d2 c9 bb
       0.0662324 0.023240302 -0.04242162 -0.006159103
000260 27 b0 80 3d be 31 54 3d 53 2c 9c 3d 54 b0 c6 bc
       0.062835984 0.05180525 0.07625642 -0.024254002
000270 7f 53 cc bc 19 94 57 3d 8d 65 c1 bc bd 7a 17 3d
       -0.024942158 0.05263147 -0.023607993 0.036982287
000280 20 ef b8 bc db 03 87 3d 76 9b f5 bc e5 67 27 bc
       -0.022574961 0.06592532 -0.029981356 -0.0102176415
000290 2a 0e d0 bc 63 86 d3 bc 88 48 a0 bc 35 f4 1e bc
       -0.025397379 -0.025820917 -0.019565836 -0.009701778
0002a0 50 59 a2 bb 94 e4 b9 3c e6 ef 59 bd 43 fc ae 3c
       -0.0049544945 0.022692002 -0.0532073 0.021360522
0002b0 26 30 1e 3d 52 25 b5 bc e8 9f 10 3d 0a f5 99 3c
       0.038620137 -0.022112522 0.03530875 0.018793602
0002c0 38 db 31 bd b7 16 9f 3a 15 8a 8d 3c 73 f0 92 bb
       -0.043421954 0.0012137507 0.017277757 -0.00448423
0002d0 aa 65 c8 3b 87 7f 50 3d 53 69 ea bb 4b 7e 2a bd
       0.006115635 0.05090287 -0.007153669 -0.04162435
0002e0 f2 b1 91 3c 8d d5 f5 3b 9f 7b 8a 3d 01 56 e6 bc
       0.017785046 0.007502264 0.0676186 -0.028117182
0002f0 db 39 27 3c 46 63 40 ba 0a a4 95 3d 77 cf aa 3b
       0.010206665 -0.00073390116 0.073066786 0.00521272
000300 51 0e 37 3d e2 f7 59 3e 13 97 19 3c 93 4c 14 3e
       0.044691388 0.21285966 0.009374398 0.14482336
000310 ef eb 2b be f9 d1 42 3e 94 23 80 3e ad 09 30 be
       -0.1678922 0.1902541 0.25027144 -0.17191191
000320 0d 3c 55 3d 67 ee 57 3e d9 7d 36 be 33 af 9d 3d
       0.052059222 0.21087037 -0.17821445 0.07699432
000330 bb 7f 1b 3e 7b 90 b3 bd 3d 88 ee bd c0 6f a8 bd
       0.15185444 -0.08767792 -0.11647079 -0.082244396
000340 31 28 93 3e 48 7c de bd 2f 2e ef 3d 0f 50 91 3d
       0.287416 -0.108635485 0.11678731 0.07095348
000350 68 52 04 bd e6 45 a6 be 2c e4 3a bd 43 a0 90 3c
       -0.03230515 -0.32475203 -0.045627758 0.017654544
000360 80 90 19 be 88 11 b7 3d 93 00 8e 3d 94 34 9a 3d
       -0.14996529 0.08938891 0.06933703 0.0752956
000370 d1 f5 65 bc 58 f5 62 3e 75 1e 16 3c 7e 99 13 3c
       -0.014035658 0.22163904 0.009162535 0.009008763
000380 cb a6 a9 3d 7a 4f d1 3d 65 c2 c4 bd 27 1b a7 be
       0.08283766 0.10220237 -0.0960739 -0.32637903
000390 70 06 b2 3d f8 75 80 bd 3d 90 13 bd c9 0c 98 bc
       0.08692634 -0.06272501 -0.03602623 -0.018560784
0003a0 30 56 09 3d 91 7d 1b 3d 8e 3a f2 bc 45 2f d5 bd
       0.03352946 0.037961546 -0.029568937 -0.104094066
0003b0 3c f1 28 3d 31 07 fa bd d3 48 a8 3d ab a1 15 3b
       0.041245684 -0.12208403 0.08217015 0.0022831957
0003c0 89 90 5f 3d 9f 92 51 3e 30 51 bb 3d 2e c1 66 bb
       0.0545812 0.20466088 0.09146345 -0.003521036
0003d0 d2 19 06 be 18 42 85 3b 76 a9 61 bb a9 85 88 bd
       -0.13095787 0.004066717 -0.0034433282 -0.06666119
0003e0 7c a7 5f be b1 bb 31 be b6 7c 67 3d 56 f4 97 3c
       -0.21841234 -0.17356755 0.056515418 0.018549126
0003f0 2c 4f c6 3d 34 a0 4d be 9c 2e d9 3b d5 62 5d 3d
       0.096830696 -0.20080644 0.0066278707 0.05404933

gru.bias_ih_l0 f4 [192]
000000 9e 9d f6 3a 8f d7 ed bc 88 25 85 3d 58 29 a0 3d
       0.0018815284 -0.02903345 0.06501299 0.07820386
000010 f4 be 0c bc 9a 97 86 3c 13 f5 c2 bd 6a b3 c8 bd
       -0.008590449 0.016429711 -0.095194004 -0.097998455
000020 24 c6 a7 bd 4f 1b 92 bc 2d d6 57 bd 1c 46 71 bc
       -0.08192089 -0.017835287 -0.05269449 -0.014726188
000030 7d 25 8a bb ea 11 ec 3c a0 c5 92 3b f4 fe ef bc
       -0.0042158947 0.028817136 0.004479125 -0.029296376
000040 b2 15 00 3d c5 01 f8 3b ac fd 85 bd 67 37 52 bc
       0.03127069 0.0075685703 -0.06542525 -0.012830592
000050 48 73 37 bd 2e 99 65 bd 6d 42 29 be 72 da 1c bd
       -0.044787675 -0.056054287 -0.16529246 -0.038294263
000060 66 8b 8f bd cd 79 fa bd 52 8a 73 bd a7 08 62 3d
       -0.0700901 -0.12230263 -0.059458084 0.055184033
000070 5a 52 1f bd 64 c0 02 be 0c 46 9d bc 1e f1 18 bc
       -0.038896896 -0.12768704 -0.01919844 -0.009334831
000080 f6 0d 11 bd d1 5c 53 3d 02 7c 3f 3d 51 fc 46 3d
       -0.035413705 0.05160219 0.046749122 0.04858047
000090 b2 d1 e9 bb 48 f2 94 3c ea db e2 bc 86 c8 5a 3d
       -0.0071355933 0.018181935 -0.027692754 0.05341389
0000a0 48 f0 08 bc 16 3a c0 bd f2 8d ea 38 a3 41 8b bd
       -0.008358069 -0.09386079 0.00011184429 -0.067996286
0000b0 31 78 7b bc bd 7e cb bd d4 e4 52 3c 68 05 72 bd
       -0.01534848 -0.09936283 0.01287194 -0.059087187
0000c0 fe 0d 14 be 78 f3 38 bd ab 0f 2f be 9c a7 b6 bd
       -0.14458463 -0.045154065 -0.1709582 -0.08918688
0000d0 14 c9 f0 bc 70 91 37 3d 87 7b 0b bd 46 65 4f 3c
       -0.029392757 0.044816434 -0.03405335 0.012658423
0000e0 7f 9f 08 bd 64 1d 71 bc c2 7f 60 3c b7 c1 43 bd
       -0.033355232 -0.01471648 0.013702335 -0.047792163
0000f0 e5 b7 ae bd 25 7d d9 bc 6a ab 02 3d 03 08 0b be
       -0.08531169 -0.026548931 0.031901754 -0.13577275
000100 ca b9 97 3d de 8a 48 be f5 f7 25 3e 65 ea 44 be
       0.07408483 -0.19584224 0.1620787 -0.1923004
000110 44 2c c4 be bf da 23 be 26 81 44 be ff 92 8e be
       -0.38315022 -0.16001414 -0.19189891 -0.27846524
000120 5b 59 61 3e 37 d7 f5 3c 32 34 e5 3c 46 cf 0a 3d
       0.22006743 0.030009849 0.02797899 0.033889078
000130 b0 7d 4d be 87 9a 84 be 00 af 11 3e 18 48 c5 3d
       -0.20067477 -0.25899145 0.14226913 0.096328914
000140 18 24 97 be 4e 18 e9 3d a8 b2 50 3d a6 38 1a 3e
       -0.29519725 0.11381589 0.05095163 0.15060672
000150 95 7d b2 bd 1d 7e 3b be 99 86 38 3e 01 f3 b2 bd
       -0.08715359 -0.18309827 0.18020095 -0.087377556
000160 e6 b0 84 be c3 97 13 3e cf 85 b2 be 6d 3a a6 3b
       -0.25916213 0.14413361 -0.34867713 0.005072883
000170 96 20 a4 3d 2a d4 9c bd 92 a4 dd 3d 0c 6a 43 be
       0.08014028 -0.076576546 0.10822405 -0.19083422
000180 e3 f7 d7 3d aa 53 2d 3e a6 0b 61 3e 96 7f 27 3e
       0.105453275 0.16926447 0.219771 0.16357264
000190 f3 0e 38 3e b9 c8 47 be 8f eb 15 be 4a 9c 3f be
       0.17974453 -0.19510163 -0.1464064 -0.18711963
0001a0 e1 a2 10 be 2c f7 2e be 91 02 4a be cc 26 29 be
       -0.14124633 -0.17086476 -0.19727542 -0.16518706
0001b0 ac 36 23 be 77 1c c8 bd c3 2b b0 be 2c ea b6 be
       -0.15938824 -0.09771054 -0.34408388 -0.35725534
0001c0 dd 84 ad be 2d 2d bf be ff 81 4f bd 49 77 88 3d
       -0.3389043 -0.37339154 -0.050661083 0.06663377
0001d0 d0 30 46 bd 6a 0d 5d 3e 99 b5 8f be 7c b8 13 3e
       -0.048386395 0.21587148 -0.28068236 0.14425844
0001e0 cd 51 56 3d 9b 70 1c bd b7 f0 21 be 04 71 7d be
       0.052324105 -0.038193326 -0.15814482 -0.24750143
0001f0 13 8b ae be 0a 39 a6 be 72 df 0b 3e 69 5f 54 3e
       -0.3409048 -0.32465392 0.13659456 0.20739521
000200 aa d9 23 3e 56 9a 57 3e e9 8a 43 3d 05 7a 28 3d
       0.16001001 0.21054968 0.047739897 0.041131992
000210 2b c6 52 be af b7 2d 3e 2f 5f fd bd 85 4a 85 be
       -0.20583408 0.16964601 -0.123716705 -0.26033416
000220 14 1b 67 3d 95 99 22 be 8b 02 cf bd ea bf 80 bd
       0.056422308 -0.158789 -0.10107907 -0.06286605
000230 32 55 73 3d 9f 76 3f be ec e3 4d be 10 98 96 bd
       0.05940742 -0.18697594 -0.20106477 -0.07353222
000240 d7 9b 5e 3e 0f ea f6 bc 94 20 72 bd 8a 99 29 3e
       0.21739136 -0.030140905 -0.0591131 0.16562477
000250 40 a8 77 3e 91 07 95 be 8f cb 1f be 14 61 56 3e
       0.24185276 -0.29107335 -0.15604995 0.2093547
000260 a8 c8 f5 3d d4 fd 33 bd 5e b0 fa 3e 4a 03 74 be
       0.12001163 -0.04394324 0.48962682 -0.2382938
000270 15 5e 11 3e cf 17 fc 3d 20 1f a6 bd 8f e1 23 3e
       0.14196046 0.12309229 -0.081114054 0.16004013
000280 72 df 20 be ae 79 10 3e e0 3a 7a be 73 d1 95 bc
       -0.15710238 0.14108917 -0.24436522 -0.01828835
000290 51 da c4 3d 2f 94 86 3e 5b a2 2d bf f4 c9 74 bd
       0.09611953 0.2628493 -0.6782586 -0.05976291
0002a0 5a 24 bc be 70 ab 2d 3e c6 a4 0d bf 50 ca 8e 3b
       -0.36746484 0.1695993 -0.5532955 0.0043576136
0002b0 b5 8b 24 be c4 a2 63 bd a1 da 53 be 4f 2e b9 3e
       -0.16068919 -0.055575147 -0.20688869 0.36168143
0002c0 1a 1f 38 3e 8c 31 e5 3d 24 27 bd 3c c3 4a 93 be
       0.17980614 0.11191091 0.023089953 -0.28767976
0002d0 18 92 d1 bd 61 88 aa 3d 36 76 0e 3e bc 65 a4 be
       -0.10232943 0.083267935 0.13912281 -0.32108867
0002e0 52 ee 1f 3d 96 0e 31 be 6e c1 ec 3d d9 65 e6 bd
       0.03904564 -0.1729072 0.11560331 -0.11249895
0002f0 e8 8e 89 3e 6d 93 9b bd 07 c9 c9 3c a9 b5 62 3e
       0.2686684 -0.075964786 0.02463199 0.2213961

gru.bias_hh_l0 f4 [192]
000000 a6 c0 91 3a 27 fb ec bc 88 25 85 3d 0f ce b7 3d
       0.0011120036 -0.028928353 0.06501299 0.089748494
000010 c9 df 92 3b f8 9c 87 3c cd 79 bb bd a7 88 a7 bd
       0.0044822437 0.01655434 -0.09154091 -0.08180361
000020 24 c6 a7 bd 2f d9 a0 bc 2d d6 57 bd dd 46 71 bc
       -0.08192089 -0.019634811 -0.05269449 -0.014726368
000030 5b b5 ad bb 64 77 ee 3c 21 f9 dc bb 0f 21 f0 bc
       -0.0053011603 0.029109664 -0.0067435657 -0.029312639
000040 f1 0c fa 3c cd 01 f8 3b db e5 81 bd 67 37 52 bc
       0.030523749 0.007568574 -0.063426696 -0.012830592
000050 56 73 37 bd 5d f8 63 bd 5b d4 28 be 58 8d 18 bd
       -0.044787727 -0.05565678 -0.16487257 -0.03724417
000060 82 11 41 bd fd 79 fa bd a7 a6 70 bd a3 08 62 3d
       -0.047135837 -0.12230299 -0.058752682 0.055184018
000070 ad a5 1f bd 25 16 02 be 74 9a bb bc b4 2f 25 bc
       -0.03897636 -0.1270376 -0.022900797 -0.010082174
000080 d0 6c 17 bd d1 5c 53 3d 02 7c 3f 3d 51 fc 46 3d
       -0.036969006 0.05160219 0.046749122 0.04858047
000090 b2 d1 e9 bb ea f8 c8 3c d4 dc e2 bc 9f ef 48 3d
       -0.0071355933 0.024532754 -0.02769319 0.049056645
0000a0 2f a9 09 bc bb 26 c1 bd 36 ce 0d 39 72 06 8c bd
       -0.008402153 -0.094312154 0.00013523627 -0.06837167
0000b0 7e cf 7c bc c6 17 cc bd d9 e5 5f 3c fe 57 45 bd
       -0.015430329 -0.09965472 0.01366564 -0.04817962
0000c0 99 21 ed bd d0 f0 3a bd 22 0f 2f be 9c a7 b6 bd
       -0.11578674 -0.045639813 -0.17095616 -0.08918688
0000d0 ec 7f f2 bc 58 92 37 3d 89 af 19 bd 96 66 4f 3c
       -0.029602014 0.0448173 -0.03752092 0.012658736
0000e0 50 c7 35 bd 5e 20 6d bc 8d bc 62 3c 4d 49 4e bd
       -0.044379532 -0.014473049 0.013838899 -0.050362874
0000f0 d1 7b 97 bd 7a bf e9 bb 6a ab 02 3d 46 05 0b be
       -0.07396663 -0.0071334215 0.031901754 -0.1357623
000100 aa 5a 1e 3e 14 5b ea bd dc e3 05 3d 16 e8 44 be
       0.15464273 -0.11443153 0.032688007 -0.19229159
000110 52 36 ce be 8e ad 83 be 03 1b 6d be 41 9c 6b be
       -0.40275818 -0.2571835 -0.23154835 -0.23008825
000120 81 0a 4c 3e 59 01 32 bd 26 bb b0 3d 7e 77 05 3e
       0.19925882 -0.043458316 0.08629446 0.13033864
000130 19 5b 67 be 5f 6b 89 be 73 b8 f2 3d 93 63 03 3e
       -0.22593345 -0.2683973 0.11851587 0.12830953
000140 ff fe ca be d5 e4 8e 3d d8 0f dd 3c 1b 6b b2 3d
       -0.39647672 0.0697724 0.026985094 0.08711835
000150 5b 07 9a bc 16 39 8b be eb 32 1c 3e 1c 85 b1 bd
       -0.018802335 -0.2719199 0.15253799 -0.08667967
000160 b1 03 60 be 9a ed 72 3d 0b 70 9f be 14 1a a2 bc
       -0.21876408 0.059308626 -0.3114017 -0.019787826
000170 c4 f7 52 bd ba a6 04 bd 3b 1a 89 3d 12 41 39 be
       -0.05150582 -0.032385565 0.06694456 -0.18091229
000180 d2 5f 9b 3d 09 40 0c 3e 16 ca 55 3e 0e 78 59 3e
       0.07586636 0.13696302 0.20877871 0.21237203
000190 25 93 64 3e 71 57 8c be 59 ba 11 be fa 82 7c be
       0.22321756 -0.27410462 -0.14231242 -0.24659339
0001a0 5a be f8 bd a9 7e e7 bd c2 ac 14 be c6 8f 27 be
       -0.12145682 -0.113034554 -0.14519027 -0.16363439
0001b0 66 b0 2f be bb af 9d bd 42 f6 a3 be 33 fe 91 be
       -0.17157134 -0.076995336 -0.32023817 -0.2851425
0001c0 95 97 74 be 91 ce c9 be c2 ed 1e bd e8 81 4e 3d
       -0.23885949 -0.3941541 -0.038800962 0.050416857
0001d0 83 6b 0b 3d 86 d4 9c 3e a3 29 b9 be f0 f6 1a 3e
       0.034038078 0.30630893 -0.3616458 0.15133262
0001e0 df 93 ac bc 4b 64 c3 3a d3 89 23 be b3 d3 1c be
       -0.021066604 0.0014907209 -0.15970545 -0.15315132
0001f0 df b0 c0 be bc 15 a8 be 06 56 5c 3e b5 b3 ed 3d
       -0.37634942 -0.32829082 0.2151719 0.11606542
000200 33 49 f5 3c d2 e6 35 3d 91 6a f1 bb 24 7f 28 3e
       0.02994213 0.04440958 -0.00736744 0.1645475
000210 5b 43 bc bd bb 02 77 3d b2 cc 7a bd 32 ec 94 3d
       -0.091925345 0.06030534 -0.06123037 0.07271613
000220 a0 97 37 3d 89 dc 64 3c 0e 42 29 bd b5 71 63 bd
       0.044822335 0.013968595 -0.04132276 -0.05552836
000230 1f 74 06 3e 0c be a0 bc d4 97 11 be 1c e4 5b bd
       0.13130234 -0.019621871 -0.14218074 -0.05368434
000240 03 97 82 3c 84 dd a1 3d b2 98 f8 bb 10 5b 4f 3c
       0.015941149 0.07903579 -0.007586562 0.012655988
000250 af e7 6e 3c 2b 5b be bd 7f 23 6f 3c 7a f0 af 3d
       0.014581605 -0.09294733 0.014595865 0.08590789
000260 44 29 26 3d 12 c9 0e bd 18 31 1b bc fa 27 1b bd
       0.040566698 -0.034859724 -0.009472154 -0.03787992
000270 2c 64 72 3c cc 5a f7 3b ef b7 f6 bc d9 5b a7 3d
       0.014794391 0.0075486656 -0.030117003 0.081718154
000280 c4 ac 91 bd 91 ee b9 3b 63 f4 1a bd b2 f0 e6 3b
       -0.071130306 0.0056741913 -0.03783072 0.007047736
000290 6e 57 0a 3c ed 98 11 3e a6 4c ca 3c 9e 42 b2 bb
       0.008443696 0.14218493 0.024694752 -0.0054400703
0002a0 05 b0 de 3d 98 c5 81 3d 75 25 af 3c df 96 ce bd
       0.10873417 0.06336516 0.021380166 -0.1008737
0002b0 8d 38 d2 3d 07 de 45 3d 35 9b 48 bd 87 f4 3c 3c
       0.102646925 0.048307445 -0.048976142 0.011532909
0002c0 29 ca 5d bc bc b8 08 3d e8 04 f3 3c c5 5f c1 3c
       -0.013536968 0.0333793 0.029665425 0.023605237
0002d0 63 91 02 bd 42 ac f2 bc 70 bb ad 3d 3c d0 0e be
       -0.031876933 -0.029623155 0.084830165 -0.13946623
0002e0 f2 95 fc 3b f9 bb 18 be 6f 4e 1e 3c 94 09 65 bd
       0.0077083046 -0.14915456 0.009662255 -0.055917338
0002f0 88 36 6e bd 6c 65 3f 3e 48 29 13 ba 3f 60 ce bc
       -0.058157474 0.18691033 -0.00056137564 -0.025192378

out.weight f4 [36, 128]
000000 c7 9e 40 bd 37 f6 32 3b ec 31 e6 3d e7 bf a5 3c
       -0.047026422 0.00273074 0.112399906 0.020233108
000010 45 d3 05 3d 27 65 70 3d ce 7a 18 3d ba c9 de 39
       0.032672185 0.058690216 0.03722649 0.00042493438
000020 4a 24 0b be 6d 6d 7f bd e9 0e c3 bd 4c 26 18 3e
       -0.13588062 -0.062360216 -0.09524328 0.14858359
000030 26 12 2e bd 75 fb 55 3d 6d 6e 20 3e a2 bf 66 bd
       -0.042497776 0.05224176 0.15667124 -0.0563351
000040 65 9c 40 bd 1b e7 9d bd 05 f0 01 3e 7d fc 8c 3d
       -0.04702415 -0.077100955 0.12689216 0.06884096
000050 89 1b 50 3c 74 03 cd 3c c0 54 e4 3d 4d c2 a6 bd
       0.012701877 0.02502606 0.11148977 -0.08142529
000060 df c5 39 bc 19 58 13 be 39 8e 4e 3c 37 78 f8 3c
       -0.01133868 -0.14389075 0.012607151 0.03033076
000070 5c 15 bc 3c e3 22 f1 3c 76 af f0 3d d0 fc b2 bd
       0.022959404 0.02943558 0.117522165 -0.087396264
000080 68 0f 4e 3d f7 0f 38 3d 6e 42 14 3e 65 95 a8 3b
       0.05030766 0.0449371 0.14478466 0.0051447623
000090 2e 89 36 be 7a 47 c7 bd cd 3e c1 3d df 30 b3 3a
       -0.17825767 -0.0973043 0.094358064 0.0013671181
0000a0 95 85 a5 3d 6f d6 9b bc 8c 7d 55 3d e7 c6 cd 3c
       0.080821194 -0.019023148 0.052121684 0.025119258
0000b0 d5 f6 30 bc 99 50 91 3c 03 8c 2e 3d 04 ce d1 bd
       -0.010801037 0.017738627 0.042613994 -0.102443725
0000c0 02 ba 7b 3d 46 92 53 bc d0 d2 cd bd ed d5 a8 3d
       0.061456688 -0.012913292 -0.10049975 0.08243928
0000d0 40 bf a6 bd be 99 19 be de 70 22 bd 87 eb d0 3d
       -0.08141947 -0.15000054 -0.03965842 0.10201173
0000e0 59 f3 c9 3c fe 65 8d 3d 09 ad 62 3b 1e e1 84 3d
       0.02465217 0.06904219 0.0034588 0.0648825
0000f0 28 55 b4 bd cc 4b 80 bd 05 1d b1 3d d6 0f 32 3d
       -0.08805305 -0.06264457 0.08648113 0.043472134
000100 33 89 09 bd 6e 0d 06 bc 72 4f 74 3d 8d 20 b9 3d
       -0.03357811 -0.008181913 0.059646077 0.09039412
000110 63 60 15 3c 6b 67 2a 3c 24 fb 80 3c 43 93 99 3b
       0.009117219 0.010400633 0.015744753 0.0046867444
000120 98 2f b5 bd 87 0a 0b 3d c5 16 28 bd 18 e9 18 3d
       -0.088469684 0.033945587 -0.04103734 0.03733167
000130 78 08 2c bb 9b 5f 7c bc ab 9a bb 3d 54 0f e6 bc
       -0.0026250165 -0.0154036535 0.0916036 -0.02808348
000140 05 b7 68 3c 8f ce bc 3c 69 5e bc 3c 96 3b 17 3d
       0.0142037915 0.023047714 0.022994237 0.03692206
000150 7f 46 70 bd 12 e1 b1 bc 79 8e f2 3c 34 e4 44 bc
       -0.05866098 -0.021713767 0.029608952 -0.0120172985
000160 c6 5a d8 bd c4 b4 8d 3c 9a c8 68 bd ad 89 c7 3d
       -0.10564189 0.01729811 -0.056831934 0.097430564
000170 fa 8a 88 3b dc a7 fb bb cb 4b 9e 3b 5f f9 99 bd
       0.004166958 -0.0076799225 0.0048308126 -0.07518267
000180 d2 58 7c 3b ec bb 7b 3c ee be 63 3c 76 65 b6 bc
       0.003850509 0.015364628 0.013900502 -0.022265177
000190 0c 07 0f 3c 96 12 60 bb 2e b4 58 bd 6c 9e 43 bc
       0.008729707 -0.0034190766 -0.052906208 -0.011939626
0001a0 e4 f2 dd 3c 1c 02 d9 bc 13 42 d4 3d e1 8b db bc
       0.027093358 -0.026490264 0.10364165 -0.026800098
0001b0 22 c3 94 bb ec 15 60 3c f9 09 3d bd 86 11 8e bd
       -0.004539863 0.013677102 -0.04615209 -0.06936936
0001c0 e8 33 19 3d dd 7f 86 bc 58 7b 8c bc 5d e8 99 3c
       0.037403017 -0.016418392 -0.017148659 0.018787557
0001d0 a1 c9 1e bd f8 4f 2e bc 70 2e 6e 3b 14 78 5c 3d
       -0.038766507 -0.010639183 0.0036343597 0.053825453
0001e0 54 9f 50 bc e1 2f 84 3c 74 0c 34 bd 45 93 60 3c
       -0.012733299 0.016136112 -0.04395719 0.013706987
0001f0 2b 4e d1 3b 25 2e ae 3c 8f 91 a9 3d 29 a1 1c 3a
       0.006387492 0.021262238 0.08279716 0.00059749425
000200 82 44 79 3d 16 9b 5d be 5a 61 ab 3e 73 7c 47 3e
       0.06085635 -0.21641192 0.3347271 0.19481067
000210 5f b5 8e be c8 2d 6f 3e 86 74 9a bd 92 59 dd be
       -0.2787275 0.23357308 -0.07541756 -0.432324
000220 5c cd 21 be 98 3e 91 bc 45 5b 09 be 6f 0b 18 be
       -0.15800995 -0.017730042 -0.13413723 -0.14848112
000230 f8 14 8c be ec a8 9f be 56 ef a9 3f d6 5c 35 be
       -0.27359748 -0.31183565 1.3276165 -0.17711195
000240 bd 37 aa 3e 38 c5 39 be 0b 60 f6 3b 36 f3 d5 3e
       0.3324565 -0.18141639 0.0075187734 0.41787118
000250 68 0c 9e 3e 42 e3 90 be e3 dd 4c 3d a8 ed a3 3e
       0.3086884 -0.28298384 0.050016295 0.32017255
000260 d8 f8 05 be 62 87 5a be df 4e 96 3d 1c 3c 92 be
       -0.13083208 -0.21340707 0.07339262 -0.28561485
000270 a2 94 61 3e 72 0e 0f 3e b6 e5 cc 3c 1f 56 a0 3c
       0.22029355 0.13970354 0.025011878 0.019572316
000280 e7 06 54 3e 24 85 e9 3e 1d e2 93 be 0e cc 61 be
       0.20705758 0.4560939 -0.28883448 -0.22050497
000290 53 0f 9e bd 22 ae 08 bf 20 63 04 bf 00 9c 34 3f
       -0.077177666 -0.53390706 -0.5171375 0.7055054
0002a0 ca af ef be ab 15 e9 3e 87 cd a1 be 91 db 79 be
       -0.46813804 0.45524344 -0.31602117 -0.24400164
0002b0 8f 5e e2 bd b8 fb 75 be 3f eb b0 3d 4a 2e b9 3e
       -0.11053192 -0.24021804 0.0863862 0.36168128
0002c0 fe ac a1 3f b8 4a d6 be 9f fe 8a be 8a 53 5e be
       1.2630918 -0.4185388 -0.27147385 -0.21711555
0002d0 5f 22 88 bf 40 06 bb bd 62 1b 78 bf d3 db 45 be
       -1.0635489 -0.091320515 -0.9691678 -0.19322138
0002e0 10 e9 b5 3e e6 a3 b1 be 16 d9 86 3e f2 09 3c bf
       0.35529375 -0.34695357 0.26337498 -0.73452675
0002f0 40 79 96 3e 26 8d 23 be f2 d3 b0 3e 7c 32 93 3e
       0.2938938 -0.15971813 0.345367 0.28749454
000300 63 0c e4 3e a2 71 50 be 19 3f 74 be 27 8b 29 bf
       0.445407 -0.20355847 -0.23852195 -0.66227955
000310 7f 4a 9a 3e f7 9c 2a 3f ca b1 38 3f e4 f6 91 3d
       0.3013496 0.6664576 0.72146285 0.07127169
000320 f2 99 1b 3f fd 7b 8d 3e 66 61 09 3f 0e 46 11 bf
       0.60781777 0.27633658 0.53664243 -0.5674752
000330 24 6a 9a be 43 29 46 3e e0 3a a2 be bf 0e 7a bd
       -0.30159104 0.19351678 -0.31685543 -0.06104922
000340 dc 1e ad bc b8 dc 10 3c ad 97 c4 3d 23 e3 8a be
       -0.021132879 0.008841686 0.09599242 -0.27126417
000350 9e a5 82 3d 08 f3 f0 3d 27 ff 08 ba 2f 35 84 3e
       0.06379245 0.117651045 -0.0005226009 0.25821826
000360 e6 e1 87 3d 69 6c 02 be 7f e4 2f 3e 91 d2 cc be
       0.066348836 -0.12736668 0.17177008 -0.400044
000370 57 90 b1 be 82 e5 bd be 5f c3 c3 bd 4b 69 0c 3f
       -0.34680435 -0.37089163 -0.095587485 0.54848164
000380 b3 06 75 bd 81 e9 88 bd 65 be 95 3e 7e 7e e9 3d
       -0.059820842 -0.06685162 0.29246822 0.114010796
000390 5e 32 c4 be a8 e9 04 be e6 19 f7 be 71 ec 73 be
       -0.38319677 -0.12979758 -0.48261946 -0.23820664
0003a0 26 6c 07 3f ef 96 f4 3d 11 f8 df be 55 e7 fb be
       0.52899396 0.11942851 -0.43743947 -0.4919993
0003b0 c0 ac 9c 3e 9d f5 d7 bd a1 2f 1c be 5c de 05 3e
       0.30600548 -0.10544894 -0.15252544 0.13073105
0003c0 c5 56 e5 be e5 46 1c be ca 3e ce 3e cf aa b9 bd
       -0.44792762 -0.15261419 0.4028228 -0.09065782
0003d0 b0 8e a1 3e 92 18 25 3f c9 15 c4 be d0 70 39 be
       0.31554174 0.64490616 -0.3829787 -0.18109441
0003e0 20 c5 0f bf 6d 14 a2 3e f4 d7 9b 3e 29 9f bc 3e
       -0.56160164 0.3165621 0.30438197 0.3684018
0003f0 ae 5c bf bd 0b 7e 84 be bc 41 15 bf f0 c0 42 bf
       -0.09343849 -0.25877413 -0.5830343 -0.7607565

out.bias f4 [36]
000000 f2 bc 47 be 0c d2 dd 3e f2 bc 47 be 27 b1 2d 3d
       -0.1950567 0.43324316 -0.1950567 0.042405274
000010 e9 d8 f6 be cf a1 de be eb 71 93 3e d6 24 e2 be
       -0.48212364 -0.43482825 0.2879785 -0.4416873
000020 de 82 e8 be 72 a1 c0 be 6c 66 6f be 6b a0 ac bc
       -0.45412344 -0.37623173 -0.23378915 -0.021072587
000030 45 e4 a5 be fd 27 a3 be 1a 82 ec bd da 27 91 bd
       -0.32400718 -0.31866446 -0.115482524 -0.07087679
000040 2d 15 bd 3e 84 9e a1 be 38 49 83 bd 85 fc a9 3e
       0.36930218 -0.3156625 -0.0641045 0.3320047
000050 a4 51 d1 3d c8 0e 17 3f 6d e0 31 bb 69 de c8 bd
       0.1022065 0.5900693 -0.0027141825 -0.09808046
000060 6c a7 99 be d9 8b e5 be a7 a9 b6 be f7 84 6f be
       -0.30010545 -0.44833258 -0.3567631 -0.23390566
000070 e3 04 19 3e 33 77 aa be 35 bf 27 3e c7 e4 49 be
       0.1494327 -0.33294067 0.16381533 -0.19716178
000080 ab 4f 49 be 9e 6c 3f 3e b4 c0 c0 be 8b 71 9a 3c
       -0.19659297 0.18693778 -0.3764702 0.01885297
