modules/prn_gen/exp/en/models/bigram/FIN-encoder-wdecay_1e_5-attn_dot-emb_128-hddn_50-layers_1-epoch_92.pth (torch, 477050 bytes, 5 tensors)

embedding.weight f4 [716, 128]
00000000: fc58 0580 1558 0580 2160 0580 855c 0580
00000010: ee57 0580 3b77 0500 8c60 0500 3f6a 0500
00000020: e259 0500 e15e 0500 b857 0580 1d5f 0580
00000030: 9462 0580 afc2 0500 a45b 0580 e85e 0580
00000040: cf57 0580 f85c 0580 2dc4 0580 f363 0580
00000050: c35f 0500 ea5c 0500 0f5f 0500 9567 0580
00000060: a759 0500 935a 0500 aa64 0500 d85d 0500
00000070: 465d 0580 4560 0500 5ea6 0580 fe59 0500
00000080: 1b63 0580 c157 0500 f758 0500 8b5a 0580
00000090: b165 0580 6258 0500 3661 0580 9e57 0500
000000a0: 255d 0500 2b58 0580 a35d 0500 735a 0580
000000b0: 475a 0500 655b 0500 2c5f 0580 0f62 0500
000000c0: bc5a 0500 b95f 0500 aa64 0500 f464 0500
000000d0: 8b5e 0500 8557 0500 145d 0500 7cd9 0500
000000e0: f563 0580 fc74 0580 415e 0500 e380 0580
000000f0: 125a 0580 d162 0500 a963 0580 6959 0580
00000100: 3c8a 0500 3b61 0580 4458 0500 3d63 0500
00000110: 2c7e 0580 0463 0580 6261 0580 5e58 0500
00000120: 915b 0580 fa5e 0500 1e94 0580 4063 0500
00000130: 1462 0500 fb5b 0580 fd5f 0500 1b62 0580
00000140: e58c 0500 0d5d 0500 435b 0580 9e58 0580
00000150: e363 0500 f769 0580 105f 0580 ab80 0580
00000160: 355a 0500 c75d 0580 b45d 0580 b95f 0580
00000170: 8562 0500 8559 0500 1b62 0500 865d 0580
00000180: bc5e 0580 0665 0580 d061 0500 845c 0500
00000190: dd32 0600 8b5e 0500 c964 0580 905a 0580
000001a0: 845c 0580 e35e 0500 2564 0580 035a 0580
000001b0: 6361 0580 c486 0680 ea5b 0500 4c6d 0500
000001c0: 335e 0580 60cf 0500 8d60 0500 ca69 0500
000001d0: 015b 0580 1857 0600 6461 0580 455d 0580
000001e0: 6a5e 0500 a15f 0500 ac5c 0580 3e5c 0500
000001f0: 085f 0580 e661 0500 c260 0580 8c59 0500
00000200: d7c7 a4bc 6993 4e3f ee3d 683e 81a4 c53d
00000210: a965 d53e d3f1 fb3d f2a1 b5bd 5687 da3e
00000220: fdce 40be 8d20 db3e 222c 4f3e c7d2 28be
00000230: f2d5 3f3c a4ea bebe d554 b6bb 0cb0 2c3e
00000240: a44d a63c 626d 363d 3a56 063e 773c 9ebd
00000250: cf78 d33d 8556 a63c 65ac 66bc 334b 4a3d
00000260: 5153 b1be d20d b4bd 7c38 57bd 3e97 cb3d
00000270: 642c 16be e6b0 483e db2a 943e 1dab e2bc
00000280: 6c3a 593c 51f9 b3be 57a3 723e f6e6 17be
00000290: fc61 0bbe 5ddf 823e 7476 5f3e f395 6f3e
000002a0: 5c44 87be 2320 00be b88b a63e 2aa5 463c
000002b0: 56c9 013e 11b9 74be 50e4 bd3e 56c0 803e
000002c0: ff92 e93d 806b b4bd 127d 303e c115 9d3e
000002d0: b5d7 073e e270 44bd 5088 c43b e60c 8f3e
000002e0: 71ff 82bd cb8e a73e 8d58 3ebe 2de8 99bc
000002f0: 2cb2 26be 10df b1bd 47e3 e0bd 0a39 6dbd
00000300: 7c5e 993e f2a4 583e 354c debd 1a52 443d
00000310: c4a3 2abe 5bbf fbbe 9196 b13c 1afc 2d3f
00000320: b55c cabe f3c9 a6bd 7eac b3bc 48ac 4c3e
00000330: 0ac7 c4be d8a9 9a3e e068 0bbe 5eb1 563d
00000340: af5d f03d 4ba1 163e 59b7 f4be bb9b 533d
00000350: f0a6 2cbd d57b 64be bb33 7ebe 18c0 56bc
00000360: 3891 d3be 4ec1 703d 114e 163a 2c06 c5be
00000370: 3e40 193e 913d adbb e750 373e 080c dcbe
00000380: aeef fe3d 872b 7abe f4b5 aebe 6684 c33d
00000390: 73e9 abbe 2fb7 3e3d fb12 573e 90e6 2cbe
000003a0: 852e 133d f554 003f 8282 843d d646 78bb
000003b0: 691b 80bd 87aa ae3d 1f5d 5d3f 2b54 4cbe
000003c0: 7fbb 36bf b12e 0e3e f6cf 96be a425 e63d
000003d0: a8ea 27be 44b2 dc3d b447 d43d 95ce 693e
000003e0: 5679 f23d 2532 b93e 44fb 183e c702 2dbe
000003f0: c2fa 43bf ad98 39bd 6152 0bbf 169d 8b3e
-4.91099e-40 -4.90775e-40 -4.93662e-40 -4.92367e-40 -4.90721e-40 5.0195e-40 4.93812e-40 4.97291e-40
4.91421e-40 4.93214e-40 -4.90645e-40 -4.93298e-40 -4.9454e-40 5.29017e-40 -4.92052e-40 -4.93223e-40
-4.90677e-40 -4.92528e-40 -5.29552e-40 -4.95033e-40 4.9353e-40 4.92509e-40 4.93278e-40 -4.96336e-40
4.91339e-40 4.9167e-40 4.95289e-40 4.92842e-40 -4.92638e-40 4.93712e-40 -5.18859e-40 4.9146e-40
-4.9473e-40 4.90658e-40 4.91092e-40 -4.91658e-40 -4.95657e-40 4.90883e-40 -4.9405e-40 4.90609e-40
4.92591e-40 -4.90806e-40 4.92768e-40 -4.91625e-40 4.91563e-40 4.91964e-40 -4.93319e-40 4.94354e-40
4.91727e-40 4.93516e-40 4.95289e-40 4.95393e-40 4.93093e-40 4.90574e-40 4.92568e-40 5.37196e-40
-4.95035e-40 -5.01144e-40 4.9299e-40 -5.05413e-40 -4.91489e-40 4.94626e-40 -4.94929e-40 -4.91252e-40
5.08767e-40 -4.94057e-40 4.90841e-40 4.94777e-40 -5.0444e-40 -4.94698e-40 -4.94112e-40 4.90878e-40
-4.92025e-40 4.93249e-40 -5.12312e-40 4.94782e-40 4.94361e-40 -4.92174e-40 4.93612e-40 -4.94371e-40
5.09721e-40 4.92558e-40 -4.91916e-40 -4.90967e-40 4.9501e-40 -4.9719e-40 -4.9328e-40 -5.05335e-40
4.91538e-40 -4.92818e-40 -4.92792e-40 -4.93516e-40 4.9452e-40 4.91291e-40 4.94371e-40 -4.92727e-40
-4.93162e-40 -4.95418e-40 4.94266e-40 4.92366e-40 5.69259e-40 4.93093e-40 -4.95332e-40 -4.91665e-40
-4.92366e-40 4.93216e-40 -4.95103e-40 -4.91468e-40 -4.94113e-40 -5.99358e-40 4.9215e-40 4.98386e-40
-4.9297e-40 5.3357e-40 4.93813e-40 4.97127e-40 -4.91824e-40 5.82256e-40 -4.94115e-40 -4.92636e-40
4.93047e-40 4.93483e-40 -4.92422e-40 4.92268e-40 -4.93268e-40 4.94297e-40 -4.93888e-40 4.91301e-40
-0.020114822 0.8069368 0.22679874 0.09650517 0.41679123 0.12301984 -0.08868779 0.42681378
-0.1882896 0.42798272 0.20231679 -0.16486655 0.011708723 -0.37288392 -0.005564312 0.16864032
0.020300694 0.04453791 0.1311883 -0.077263765 0.10325777 0.020304928 -0.014079188 0.04938812
-0.34633878 -0.087916985 -0.052544102 0.099409565 -0.14665371 0.19598731 0.28938946 -0.027669484
0.013258558 -0.3515115 0.23695122 -0.14834198 -0.13611597 0.25561038 0.2182253 0.23397045
-0.26419342 -0.12512259 0.32528472 0.012124339 0.1267446 -0.23898722 0.3708825 0.2514674
0.114049904 -0.088095665 0.1723521 0.3068066 0.1326588 -0.047959216 0.005997695 0.27939528
-0.06396378 0.3272613 -0.18588467 -0.018787468 -0.16278905 -0.08685124 -0.1098085 -0.057915725
0.29954898 0.21156672 -0.10854379 0.04792986 -0.16664034 -0.4916943 0.021678241 0.679628
-0.39523855 -0.081439875 -0.021932837 0.19987595 -0.38433105 0.30207705 -0.13614225 0.052415244
0.11736619 0.14709966 -0.47796133 0.051662188 -0.04215139 -0.22312863 -0.24824421 -0.013107322
-0.4132173 0.0587781 0.00057336787 -0.3848127 0.14965913 -0.0052868803 0.17901956 -0.4297793
0.12448059 -0.24430667 -0.34123194 0.095467374 -0.33576545 0.046561416 0.21003334 -0.16884828
0.035933036 0.50129634 0.06470205 -0.0037884018 -0.06255228 0.08528619 0.86470217 -0.19953983
-0.71379846 0.13884999 -0.29455537 0.11237648 -0.16398108 0.10776189 0.10365239 0.22832711
0.11839549 0.3617107 0.149396 -0.1689559 -0.765545 -0.04531162 -0.54422575 0.27268285

gru.weight_ih_l0 f4 [150, 128]
00000000: 852c 063e 37d6 e93d 9c11 acbe 3a6e 2bbe
00000010: ed5e c5bd 0434 183e cfb1 e73e eb9c 713d
00000020: 1c13 a9be 52fa 983e d885 583d 9eb1 9cbd
00000030: f4b8 96be c30d bbbd 5d9d 77be a511 c73e
00000040: 07d8 aabe b47a 923e 7752 b53e 0a06 57be
00000050: 5f26 85be 8c64 823b f02a 8cbe e480 0ebe
00000060: ec05 a5be d1af c33d f738 6f3e 35b3 b0bc
00000070: 17b4 df3e 5646 de3e da86 77bc 599b 24bf
00000080: 21d0 f6bd 3189 083e ea18 00be 7b50 bb3d
00000090: 77cc 11be 7cbf 843e f037 fb3e 2f94 0bbe
000000a0: f89c bd3e 9fae df3d 79c1 2e3e a531 89bd
000000b0: 43b0 b3bc fbe9 a1bd fd8d a8be ca7a 663d
000000c0: 80e1 5fbe 8c49 403e 384d 68bd 0b30 d8be
000000d0: ad20 e73d c31e 753d 8fcb 873e 52e8 2abe
000000e0: 9672 a0bd 832d 28be 91bc 7dbd fd7e 29be
000000f0: 9628 fb3d f133 363e 4621 203e e630 c33e
00000100: 5847 4b3e d886 643e 5aa0 16be 4974 01bd
00000110: e9cb 633d bc58 09bd 5c0e 68be 2281 d1be
00000120: eb72 29bd cc62 6dbe 8439 243e d45c 1ebf
00000130: 0501 513d 1d93 8e3d 9882 15bf bbb7 aabe
00000140: a7cc 373e b66c 5b3e 76bc 073e 4932 b0be
00000150: 5d33 83be 355f 88bd 8dce 093e 7032 0dbf
00000160: 611b 043f 45e9 483e 3423 433e b6d2 a9be
00000170: f6c9 f63d 7aa5 7fbe db50 41be dfca 72be
00000180: 2c70 1dbf 1f5e 8a3e bd8a 5a3e a4bf 823e
00000190: 86fa e03e 1b3a e93e 6ace 473e 7ec2 913e
000001a0: da01 b5bc e125 c8bd c4ee 44be c968 edbc
000001b0: a2bd 0a3e 16c8 a7bd 44c9 edbd 7f3b eabe
000001c0: 1318 043e 10d2 173d 839c e5bd 4bb3 c43d
000001d0: 73dd 773e 6b5c 593e aea8 b6be 420c f03e
000001e0: 2058 05bf fd79 a7bd 559c 83be f226 03bf
000001f0: 88aa 13be acfe fbbd 3779 16bf 2b74 87bd
00000200: 95e4 263e 0ae8 0a3f 5c31 bebe f837 843e
00000210: 616b cf3e 86da af3d a0a5 983e 2ad4 523d
00000220: 333d 07bf b973 983d b932 05bd 02b5 8cbe
00000230: af90 62be ecab a83d 5e07 a33d e330 a1bc
00000240: 3948 cabe a8ce 583e ceb9 bd3e 66a7 82be
00000250: 0850 7abd 58c9 a0be d891 3cbe 113e ce3d
00000260: caa0 513e a9f4 373e 8649 bd3c dfd9 b1be
00000270: a74d 37be d3bb 81be 9021 5abe 73e8 8f3d
00000280: c01d 253e 79b8 6cbe f160 1ebe 089a cabd
00000290: fff9 2fbe df6d ab3e c5ec 5a3e b5d2 a53e
000002a0: 5bf3 403e 97a1 40be 8a33 e6be 3277 b93e
000002b0: 2bd2 5dbe 139e 253e c2eb 8f3d 47bb 07be
000002c0: 5630 5f3e 84f1 27be e0b6 1dbf 44eb 2e3e
000002d0: e76e 14bf 4d01 79bd dad2 31bd a507 15bf
000002e0: 96b5 92bd 72de dc3e 04f0 e9bd bd8b c3bd
000002f0: c8b4 31be 5816 c73c 1290 9a3d afca fa3e
00000300: 6dbb 5dbd 5dff e3be a2b3 adbe 3f93 2a3c
00000310: 8f82 04bd f9c1 04bf 35f1 fa3e fe30 b83e
00000320: d1eb 983e 22ef 78bd 6aa7 5b3e c5bd 673b
00000330: ed04 383e 15c4 66be 8c08 073e ac30 493d
00000340: af5f 8c3e 062a af3e 74d6 1bbe 5420 2d3e
00000350: 13cd 4f3e e0df 3e3e dc50 3bbe 8318 49be
00000360: 979a 8c3d bf48 38be 17cf d2be e4ef 20be
00000370: 7ad8 4ebd 9765 b43e 1804 6dbd 3742 a73c
00000380: 8eb0 d93e 0dc7 073f 8db5 01be 91cd 1b3f
00000390: 4d55 f4bc fc8f 243d 7877 36be 7d5c bfbe
000003a0: 6126 b43e 5968 c93c d771 213d 9c5e 9fbd
000003b0: 856d fabb 76dc 3abe 6156 2abe 3eab 4ebe
000003c0: 724a 84bc fd83 c83d f162 633d f7a2 cd3d
000003d0: e859 9e3e c62b 02be e83f f53d 6913 39be
000003e0: a29e 05bf b6e1 8f3e d151 cfbe fb18 c5be
000003f0: 1b4b ccbe 807c 27be 5146 69bd 090f d13e
0.1310292 0.11417811 -0.33607185 -0.16741267 -0.09637246 0.14863592 0.45252845 0.05898754
-0.33022392 0.2987848 0.05286202 -0.07651065 -0.29437983 -0.09133484 -0.24181123 0.3888065
-0.3336794 0.2860924 0.35414478 -0.20998397 -0.26005837 0.0039792713 -0.2737651 -0.13916355
-0.3223108 0.09555019 0.23361574 -0.021569828 0.43692085 0.43413037 -0.015107835 -0.6429954
-0.12051416 0.13333584 -0.12509504 0.0914621 -0.14238153 0.2592734 0.49066114 -0.13630746
0.3703382 0.10921978 0.17065991 -0.06698922 -0.021934634 -0.07905956 -0.32920828 0.056269445
-0.21863365 0.18778056 -0.056714267 -0.42224154 0.11285529 0.05984379 0.2652249 -0.16690186
-0.078343555 -0.16423611 -0.06194741 -0.16552348 0.122636005 0.17793252 0.15637693 0.38123244
0.19851434 0.22317064 -0.14709607 -0.03160504 0.055614386 -0.03353189 -0.22661728 -0.40918833
-0.04136936 -0.2318222 0.16037565 -0.61860394 0.051026363 0.069616534 -0.58402395 -0.333433
0.17949162 0.21428189 0.13255486 -0.34413365 -0.25625125 -0.06658784 0.13457699 -0.55155087
0.51604277 0.19620235 0.19056398 -0.33168572 0.1205024 -0.24965468 -0.188785 -0.23710202
-0.61499286 0.27024934 0.21341987 0.25536835 0.43941134 0.45552143 0.19512334 0.28468698
-0.02209561 -0.0977285 -0.19231707 -0.02898063 0.13548902 -0.0819246 -0.11610654 -0.45748517
0.12899809 0.037065566 -0.11211493 0.0960451 0.2420557 0.21226661 -0.35675567 0.46884352
-0.52087593 -0.08177564 -0.2570521 -0.512313 -0.14420521 -0.12304434 -0.5877871 -0.06613954
0.16298135 0.54260314 -0.37147033 0.2582395 0.4051161 0.08586602 0.29813862 0.051471867
-0.5282776 0.07443947 -0.032519076 -0.27481848 -0.22125505 0.082359165 0.079603896 -0.019676631
-0.39508227 0.21172583 0.3705582 -0.2551834 -0.06111148 -0.31403613 -0.1841501 0.10070432
0.20471492 0.17964424 0.023106348 -0.34736535 -0.17900716 -0.2533861 -0.21301866 0.07026758
0.1612463 -0.23117246 -0.15466668 -0.098926604 -0.1718521 0.33482262 0.21379383 0.3238732
0.18842833 -0.18811642 -0.44961196 0.3622375 -0.21662204 0.16173582 0.07027389 -0.13255034
0.21795782 -0.16400725 -0.6160717 0.17081934 -0.57981724 -0.060792256 -0.043413974 -0.5821479
-0.07163541 0.43138462 -0.114227325 -0.09548137 -0.17354119 0.024302647 0.075470105 0.4898276
-0.05413382 -0.44530764 -0.3392611 0.010411083 -0.032351073 -0.5185848 0.4901215 0.35974878
0.29867414 -0.06077493 0.21450582 0.0035360914 0.17970629 -0.22535737 0.13186854 0.049118683
0.2741675 0.3421175 -0.15218526 0.16906863 0.20293073 0.18640089 -0.18292564 -0.19638257
0.06865423 -0.179965 -0.41173622 -0.15716511 -0.050499417 0.35233757 -0.057865232 0.020417316
0.42517513 0.530381 -0.12666912 0.60860544 -0.02982583 0.040176377 -0.17819011 -0.3737525
0.3518553 0.02458589 0.039415207 -0.07781717 -0.0076424503 -0.18248162 -0.16634513 -0.20182511
-0.01614878 0.097908 0.05551428 0.10040849 0.30927968 -0.1271201 0.1197508 -0.1807381
-0.5219518 0.2810189 -0.40492108 -0.3849562 -0.3990105 -0.16356087 -0.056951825 0.40831783

gru.weight_hh_l0 f4 [150, 50]
00000000: adc8 ab3e 6c85 b33e a404 9cbc 9ed2 c33d
00000010: 8078 70be 77d0 893e 2053 e5bb b2e1 483e
00000020: ea75 bc3e f9ff 123f 78ac 28be 323f 7f3d
00000030: 6141 073d 4044 babe 89d2 3a3e fbaf 5b3e
00000040: 7946 043e 60a0 8ebd 9687 bb3c b79e 87be
00000050: cfe2 9bbc cc3b 5dbd eb7f f3bd 647a b73e
00000060: ae51 80bd 29a7 c5be 1981 11be 26ac 53be
00000070: ef63 423e 1b71 73bc f486 87bd 7dd6 01be
00000080: 892a 71be 4fb1 583d e57c f5bc 8270 a83d
00000090: f36b 8bbe 1dbb ea3c d45b 2cbe 9559 643e
000000a0: 316c 15be 2734 163e 2108 66be 9010 2e3e
000000b0: e9d2 33be da20 163e cee9 873d 9edf 203e
000000c0: 3910 f1bd d051 cc3e 37e1 35bd 60bd e93e
000000d0: 1cc0 d83e 4e78 8a3e 14bf ffbd b0f6 8f3d
000000e0: a17b d6be 2f2b 33bd 01f4 1abf 6e12 fb3e
000000f0: 5d28 363e 8822 5d3e c19b ee3e 5ee3 a1bd
00000100: b524 5a3e a253 a63e 2271 cdbd 2c27 92be
00000110: b370 87be 3dc5 363e 397a 143e 4977 523e
00000120: fa50 2fbe 6e8c edbe a5b2 c4bd 43cf 03be
00000130: 6492 8a3d 0410 bd3e f1ab 06be 6e3b bd3e
00000140: 419e a23b 8495 693e ac5d 81bd 290b dfbe
00000150: 41a5 303e 6a94 b63e 5fad 57be 92e0 94be
00000160: 12f6 d03e 1c3b 54be 04eb a9bb b159 e3bd
00000170: 52f5 96be bd8e 243d 29b9 003e 9015 213e
00000180: 7be6 203f 9924 7ebd 4a44 d03d e147 bc3e
00000190: b4e7 7dbe 36fb ee3c 218f ba3e defa 3c3e
000001a0: ea29 55be 1af3 d43d 6942 2ebd 44c8 a63e
000001b0: 9e51 06bf f9aa f33d dcbd 363d 625d cc3e
000001c0: 9cc6 9d3d a52f 30be 34ca e63d 29e3 2d3e
000001d0: b630 96be 4e51 e53c e712 153e b1e9 e4bd
000001e0: 73a0 103e db17 5f3e ea35 823d 97ef 883d
000001f0: c735 23bd a428 eebd 8f18 da3d e3d0 983d
00000200: 5418 7d3d d5c8 9ebd ef63 67bb 7a88 d43c
00000210: 02b7 883e c0c8 98bd bfa8 d9be 336c 52bd
00000220: 69c9 a33d 9b80 843d c381 46bd 9bdb ac3e
00000230: 916e 7abd 7c70 bfbd 7a42 263d 96c6 c7be
00000240: 5d7e dabe 6a0a cab9 c42c cfbe 0b3b 12be
00000250: 8632 363c 50ce 8a3d ec21 0b3f dd85 113d
00000260: aa32 f93e b829 32be e12c 96be 8bc9 d83b
00000270: b815 413d 2ca3 b9be 5bd1 03be f326 4c3e
00000280: 64ff 9b3e e172 8fbe 23cb 263e 9312 25be
00000290: 632e ee3e e965 d4be c4ac 9ebd 6b1a 3ebd
000002a0: 71a8 a9bd dfdb 7f3e 5843 9fbe bef3 f73e
000002b0: c724 283e ed6c e03d 85f6 e5bd 760f 893d
000002c0: 2d8d 52be 1b69 a43b 5f1e d83e 2616 1cbf
000002d0: c6e4 bc3d 3e0b 1ebe e012 4dbd d446 9bbe
000002e0: 45b1 b4be 6f31 89bd 9630 03bd 09a5 1b3f
000002f0: 5963 b4be e4a8 063d 74ad 6abe f8e6 e13d
00000300: aaab 953e c931 a3bf f526 0bbe d1de 8ebe
00000310: c77d 5fbe 98b1 053e 91ea fabe ff28 fbbd
00000320: 7c6e 4b3e eece 563d 3f84 98bd 8494 90be
00000330: 3771 c4be 8f50 c3bd da6a a93c 3b8a 2d3e
00000340: 241a 8bbe f0e5 a93d 23ef 94bd f160 4b3e
00000350: 7cd4 013e c38f 95be 883b 883e 1e1c a73e
00000360: 75d6 ac3e f99f f0be 5389 bb3e 4467 093d
00000370: 481e fcbd c59b 893e fa46 5c3e 678e 953e
00000380: 3f7e 8abe 6c85 b4bd 5f9e f43d d501 1bbe
00000390: eb91 623d aba3 28be 9f9f 8a3e 65a6 54be
000003a0: 37a5 6abe 7046 d93c f2ed 96be b149 113d
000003b0: 401c b2be 1999 43be b1d3 1dbe df1c 443e
000003c0: 86b9 08be b049 7dbe 3dd7 95be 652f 553e
000003d0: 5dd8 2f3e d014 8c3e b0e7 0abd 16bc 5e3e
000003e0: 6090 30be 546e 92bd a70e 35be 12da 843e
000003f0: 06a9 af3c ca9f 523c bd79 dd3e 76c5 54be
0.3355154 0.3506273 -0.019045182 0.095616564 -0.23483467 0.2691686 -0.0069984347 0.19617346
0.3680871 0.57421833 -0.16472042 0.062316127 0.033021335 -0.36380196 0.18244375 0.2145385
0.12917508 -0.06964183 0.0228918 -0.26488277 -0.01902905 -0.054012105 -0.11889633 0.35835564
-0.06265579 -0.38604096 -0.14209403 -0.20671138 0.18983434 -0.014858509 -0.06617537 -0.12679477
-0.23551382 0.05290347 -0.02996678 0.08224584 -0.27230796 0.028653676 -0.16831905 0.22299798
-0.14592053 0.14668332 -0.22464038 0.16998506 -0.17560925 0.1466097 0.066363916 0.15710303
-0.11770672 0.39906168 -0.044404235 0.45652294 0.42334068 0.2704491 -0.12487617 0.07029474
-0.41891196 -0.043742355 -0.6052857 0.49037498 0.17788835 0.21595204 0.46603206 -0.07904695
0.21303065 0.32485682 -0.10031344 -0.2854551 -0.2645317 0.17848678 0.14499749 0.20553316
-0.17120734 -0.46396202 -0.09604386 -0.12872033 0.06766203 0.3692628 -0.13151528 0.36959404
0.004962713 0.22810942 -0.063166946 -0.43563202 0.1725054 0.35660106 -0.2106223 -0.29077584
0.40812737 -0.20725673 -0.0051854867 -0.11101092 -0.2948404 0.04017519 0.12570633 0.15730882
0.62851685 -0.06204662 0.10169275 0.3677359 -0.24795419 0.029172521 0.36437324 0.18455073
-0.2081677 0.103979304 -0.042543802 0.32574666 -0.5246829 0.11897845 0.044614658 0.39914995
0.07703897 -0.17205675 0.11269036 0.16981186 -0.29334038 0.02799287 0.14557992 -0.111773856
0.14123707 0.21786444 0.063579395 0.06686323 -0.039846208 -0.11628845 0.106492154 0.07461717
0.06179078 -0.077531494 -0.0035307368 0.025943983 0.26702124 -0.07460165 -0.42511556 -0.051372718
0.079974 0.06469842 -0.048463594 0.33761296 -0.0611406 -0.093476266 0.04059074 -0.39018697
-0.42674533 -0.00038536201 -0.4046384 -0.14280336 0.011120444 0.06777632 0.54348636 0.035528053
0.48671466 -0.17398727 -0.29331115 0.0066158227 0.047139853 -0.36257303 -0.12872832 0.19936733
0.30468285 -0.28017333 0.16288428 -0.16120367 0.46519765 -0.41484 -0.07747796 -0.046411913
-0.08284081 0.24986218 -0.31106067 0.48428148 0.1642028 0.10958276 -0.112286605 0.06692402
-0.20561667 0.0050174124 0.4221067 -0.60971296 0.092233226 -0.15433976 -0.05006683 -0.30327475
-0.35291496 -0.06698882 -0.032028757 0.607987 -0.35232046 0.03287591 -0.2291773 0.11030382
0.29232532 -1.2749568 -0.1358908 -0.2790437 -0.21825324 0.13056028 -0.49007085 -0.12263679
0.19866365 0.052443437 -0.07447099 -0.28238308 -0.38367626 -0.0953685 0.020680834 0.16947262
-0.2716838 0.0829581 -0.07272174 0.19861199 0.12678713 -0.29211244 0.2660792 0.3263864
0.33757368 -0.4699705 0.36628208 0.033545747 -0.12310463 0.26876655 0.2151145 0.29210207
-0.27049443 -0.08814511 0.119442694 -0.15137418 0.05531494 -0.16468684 0.27074906 -0.207666
-0.22914587 0.026522845 -0.29478413 0.03547067 -0.34787178 -0.19101371 -0.15412785 0.19151638
-0.13352022 -0.24735141 -0.29265776 0.20818861 0.1717238 0.2735963 -0.03391236 0.21751437
-0.17242575 -0.0714995 -0.1768137 0.25947624 0.021442901 0.0128554795 0.4325694 -0.2077845

gru.bias_ih_l0 f4 [150]
00000000: 2690 9d3b e208 24be e624 2dbe c8ce 723e
00000010: 5f01 183f e5d3 653e 254b d5bd 33b0 b83e
00000020: 1d03 41be 603b d6bd 02ca 953e 2f6c 87be
00000030: 6950 4fbe 7178 1eba 1649 47be 656c bfbe
00000040: 7424 0fbf 992e c9be 5dfa 7b3e 8fc0 89be
00000050: c0c2 d13c 90b9 22be 944c f5be 68b4 a7be
00000060: cf01 12bd 7d87 6ebe 481d 093f fe13 8cbe
00000070: 8807 5dbe 4c55 a13c 9ae4 313a 83b1 ccbe
00000080: 37dd cebe 587c a4bd 57b3 5c3c 4b5e cd3e
00000090: b7fd d0be dd99 65be 40e0 5f3e 28e8 0bbe
000000a0: f46c 953e 5e7b 233f c4ae 973d 0794 3ebd
000000b0: 2cfd 71be b364 cebe 1ec2 c23d 0b80 3a3d
000000c0: bdee 983d cf1b 903e cd06 22bf fcdf 05bf
000000d0: 9db0 bfbe 1f11 2dbf 02cd 3dbf 6816 80bf
000000e0: e1a8 71be 1e2a f5be 6c7a 2ebf 1195 31bf
000000f0: 49a3 22bf 42f7 53bf 155d 62bf a75d 15bf
00000100: f507 42bf 9eba 38bf bb2a c1be 5e61 f3be
00000110: 6b2c d1be ce14 05bf 2f38 37bf 6a37 07bf
00000120: fbbe f8be e2a2 4fbf ce9d bdbe 557d 69bf
00000130: 02af 25bf 2f68 bcbe d9b5 dfbe f731 6cbf
00000140: dd9d 13bf cb29 d7be 6cc8 fabe c8f8 acbe
00000150: 5631 0bbe 37ad 0cbf 676b 17bf 4794 5fbf
00000160: 2e12 5bbf 9f7d 51bf 2212 28bf 68ba e2be
00000170: aa79 a0be a0d0 dcbe 4df3 f7be 78d6 3ebf
00000180: c106 1cbf 2ad5 3ebf 733f 24bf 8bdc f3be
00000190: dbe9 3e3d 168d d6bc 0df2 49bd 0823 40bf
000001a0: 89d5 6dbe e821 92be 7177 1ebe 6b19 ec3e
000001b0: 8525 e3bd cf8d 84be f999 c5be 0c00 d23d
000001c0: 33b5 de3e d683 aebd d807 363d 06b9 90bd
000001d0: 83ac f5bd dfa1 4bbe 0ec2 aabd eb59 a33e
000001e0: 33cd a23e 5b1d 69be 89b1 d8bd 3ead f2bb
000001f0: 0599 643d 1b4d a73e 0da4 2cbf e691 98be
00000200: 907d cb3b e7c1 a73e 509f 1c3d a7e8 c6bd
00000210: 9160 d6bd 78a9 5bbe 567c 663e 11c8 02bf
00000220: dfdd c03c cf37 5f3e eb36 f23d 79f1 9c3d
00000230: 5646 fa3d e3b7 cebe 0f3d b73e f85c febd
00000240: 5499 6bbd bd0b 4f3e 4fe1 ad3e e9c4 543e
00000250: 258f b4bc 9473 33be
0.0048084436 -0.16019014 -0.16908607 0.23711693 0.5937709 0.22444113 -0.10414723 0.3607193
-0.18848844 -0.10460544 0.29255682 -0.26449725 -0.20245518 -0.0006045169 -0.19461474 -0.37387386
-0.55915 -0.39293364 0.24607225 -0.26904723 0.02560556 -0.15891099 -0.47909987 -0.32754827
-0.035646256 -0.23293872 0.53560305 -0.27359003 -0.21584904 0.019693993 0.00067860784 -0.3997918
-0.4040315 -0.08031529 0.013470492 0.40111002 -0.4081857 -0.22421975 0.21862888 -0.1366278
0.29184687 0.6386012 0.07406381 -0.04652789 -0.23631734 -0.40311202 0.09509681 0.045532268
0.07467411 0.28146216 -0.6329163 -0.522949 -0.37439433 -0.6760425 -0.7414094 -1.0006838
-0.23599578 -0.47883695 -0.6815555 -0.6936808 -0.63530403 -0.8279916 -0.8842328 -0.5834603
-0.7579339 -0.72159755 -0.37727913 -0.47535223 -0.408542 -0.5198487 -0.71570104 -0.5281893
-0.48583207 -0.81107914 -0.37034458 -0.91206867 -0.64720166 -0.36798236 -0.43693426 -0.9226374
-0.57662755 -0.42024073 -0.48981035 -0.33783555 -0.13593039 -0.54951805 -0.5914826 -0.8733563
-0.85574615 -0.8183231 -0.6565267 -0.44282842 -0.31342822 -0.43127918 -0.4842781 -0.74546003
-0.60947806 -0.7454401 -0.64159316 -0.47629198 0.04660974 -0.026190322 -0.049303103 -0.75053453
-0.23225988 -0.28541493 -0.15475251 0.46113142 -0.11091141 -0.2588944 -0.38594034 0.10253915
0.4349762 -0.085212395 0.044441074 -0.070665404 -0.119957946 -0.19885968 -0.08337794 0.3190454
0.3179718 -0.22765104 -0.10580737 -0.007405906 0.055809993 0.32676014 -0.6743782 -0.29798812
0.0062100366 0.32765123 0.03823787 -0.09712344 -0.10467637 -0.21451366 0.22508368 -0.5108653
0.023543296 0.21798633 0.11826881 0.07663245 0.12220447 -0.4037467 0.35788772 -0.12420076
-0.057519272 0.20219322 0.3396096 0.2077824 -0.022040913 -0.17524558

gru.bias_hh_l0 f4 [150]
00000000: 2bc0 63bd 1f9f 12be ec5d 36be e650 8a3e
00000010: 5669 f23e 388c 273e d104 eebc 9d73 c53e
00000020: 7172 34be d53a 53be 686a 8d3e c594 83be
00000030: 4f4a 50be aedc 24bd fd3b 24be ac0a d6be
00000040: 3c0c 1bbf b891 cdbe 599e bb3e 21f6 aabe
00000050: 7753 af3c 364e 06be 7fc3 ddbe ff39 9dbe
00000060: fb20 dabd 5294 8fbe 51dd f63e 3024 95be
00000070: a26f 8ebe d397 003e 6949 95bb d69c d6be
00000080: a21d bfbe b25a 05be f60c 63bd 6c9e b63e
00000090: 3a59 e8be 0588 83be b51e 313e 3bbf f8bd
000000a0: 7962 9f3e c2ad 223f 2bd9 9d3d 9dfd a6bd
000000b0: 83c5 68be 76a2 aabe 01c4 843c 326b 603d
000000c0: 29f3 bd3d 6d08 8a3e d79f 17bf 98c7 d6be
000000d0: 5b3c bdbe abf9 33bf 151e 2bbf 3622 75bf
000000e0: 0f48 50be 7587 d7be 529c 2ebf 4129 42bf
000000f0: 77ea ffbe 6e00 47bf 6132 76bf aaf3 dcbe
00000100: 786b 5fbf 1afb 28bf 1bbf e4be c32e d9be
00000110: 1e0c 0cbf 5c1b e4be 5056 4fbf 5f48 08bf
00000120: 8425 debe 27f0 4ebf 7039 92be 39b9 6bbf
00000130: 5138 30bf 98ca bcbe 4f05 00bf c28f 80bf
00000140: 7956 f1be cd0a afbe c4d7 ebbe 5460 94be
00000150: b584 1cbe 3c57 18bf b76f 20bf 84a3 38bf
00000160: 3bda 68bf 6941 2cbf 7e41 4bbf 6760 ebbe
00000170: 27eb 69be 4b0d 0bbf b9ad 00bf c07b 33bf
00000180: 6620 1abf 18c7 50bf 6196 1bbf a037 0bbf
00000190: a858 453f d6f5 063e 2d7e b6be 3402 b1be
000001a0: bfde f9be 54b1 b8be 3785 1dbf e031 383e
000001b0: c56d fd3e 5c3d 86bf a1d7 24be 897a 143f
000001c0: 86c9 873b 8850 b63e 3371 83bd e564 3ebf
000001d0: 138c a9be 2e6b 8e3e 1636 9dbe 4bff 1a3f
000001e0: 9142 9b3e f408 0e3e 93bb b9be 12b4 833d
000001f0: 267f 8c3d dac6 c03e c960 6abe c647 0fbf
00000200: 83dd 5bbc 1916 d1be 258f 213f 528c 10bf
00000210: a3f8 74bf 0b4f afbe 8069 0f3e 75a7 09bf
00000220: 1a00 073f ffd7 40be 94f2 0abe 1b98 d03e
00000230: ec1f 31bd 91e2 dfbe c010 353f b73d 8c3e
00000240: de67 923f b5d5 9fbd a86f dc3e 0077 6a3e
00000250: ef72 283e 40f3 c3be
-0.055603188 -0.14318512 -0.17809266 0.27014846 0.4734599 0.16362083 -0.029055031 0.38564768
-0.17621781 -0.20627911 0.27620244 -0.2569944 -0.20340846 -0.04024952 -0.16038509 -0.41805017
-0.60565543 -0.40150237 0.36644247 -0.33390906 0.021402104 -0.13115773 -0.43313214 -0.3070831
-0.10650822 -0.28042847 0.48215726 -0.2912917 -0.27819544 0.12557916 -0.0045558703 -0.4191653
-0.37327296 -0.13022879 -0.055432282 0.3566774 -0.45380574 -0.25689712 0.1729687 -0.12145849
0.31129816 0.63546383 0.07707437 -0.08153842 -0.22731595 -0.33327073 0.016206743 0.05478973
0.09274895 0.26959553 -0.5922827 -0.41949153 -0.3696011 -0.7030284 -0.66842777 -0.95755327
-0.20339988 -0.42095533 -0.68207276 -0.758442 -0.4998357 -0.7773503 -0.9617062 -0.4315465
-0.8727336 -0.6600815 -0.44677052 -0.4241849 -0.5470599 -0.44552124 -0.8099108 -0.5323543
-0.43387997 -0.80835193 -0.28559446 -0.920795 -0.6883593 -0.36873317 -0.500081 -1.0043871
-0.47136286 -0.34187928 -0.46063054 -0.28979743 -0.15284999 -0.5950811 -0.62670463 -0.72124505
-0.90957993 -0.6728731 -0.7939681 -0.45971987 -0.2284361 -0.5431716 -0.5026508 -0.701107
-0.60205686 -0.8155379 -0.60776335 -0.5438175 0.77088404 0.13179716 -0.3564314 -0.34571993
-0.48802754 -0.3607279 -0.61531395 0.17987776 0.4949781 -1.0487475 -0.16097881 0.57999474
0.0041438965 0.35608315 -0.064180754 -0.743727 -0.3311468 0.27816147 -0.30705327 0.60545796
0.30324224 0.13870603 -0.3627592 0.0643083 0.06860189 0.37651712 -0.22888483 -0.5596889
-0.013419512 -0.40837172 0.63109046 -0.5646411 -0.9569189 -0.34239992 0.14005089 -0.53771144
0.5273453 -0.18832396 -0.13569099 0.40741047 -0.043243334 -0.43727544 0.70728683 0.27390835
1.1437948 -0.07804433 0.43053937 0.22896957 0.16450094 -0.38271523
