modules/prn_gen/exp/en/models/bigram/train+val-encoder-wdecay_1e_5-attn_dot-emb_128-hddn_50-layers_1-epoch_89.pth (torch, 478586 bytes, 5 tensors)

embedding.weight f4 [719, 128]
0	0x80055dd4	-4.92837e-40
1	0x0006b839	6.171e-40
2	0x00055912	4.9113e-40
3	0x80055eb4	-4.9315e-40
4	0x8005621c	-4.94372e-40
5	0x800561d1	-4.94267e-40
6	0x00055c4f	4.92292e-40
7	0x80055b9d	-4.92042e-40
8	0x000558df	4.91058e-40
9	0x8005590e	-4.91124e-40
10	0x0005606f	4.93771e-40
11	0x00055c85	4.92367e-40
12	0x80055a20	-4.91508e-40
13	0x80055d86	-4.92727e-40
14	0x80055ee2	-4.93215e-40
15	0x80055771	-4.90546e-40
16	0x00055a1f	4.91507e-40
17	0x80055c0d	-4.92199e-40
18	0x000562cc	4.94619e-40
19	0x00055ce0	4.92495e-40
20	0x80055a59	-4.91588e-40
21	0x80055894	-4.90953e-40
22	0x80055d38	-4.92618e-40
23	0x800562b4	-4.94585e-40
24	0x00056625	4.9582e-40
25	0x000559be	4.91371e-40
26	0x80055ae3	-4.91781e-40
27	0x00055af8	4.91811e-40
28	0x00056a6b	4.97353e-40
29	0x00055745	4.90484e-40
30	0x800563c2	-4.94964e-40
31	0x800558c3	-4.91019e-40
32	0x0005606b	4.93766e-40
33	0x800560cb	-4.939e-40
34	0x00056681	4.95949e-40
35	0x80056021	-4.93662e-40
36	0x80055be5	-4.92143e-40
37	0x800563a8	-4.94927e-40
38	0x00055758	4.9051e-40
39	0x800622bb	-5.63472e-40
40	0x800559e2	-4.91421e-40
41	0x0006a72a	6.1098e-40
42	0x0005589b	4.90963e-40
43	0x00055d37	4.92617e-40
44	0x8005582e	-4.9081e-40
45	0x80055dd0	-4.92831e-40
46	0x80055aa1	-4.91689e-40
47	0x8005631c	-4.94731e-40
48	0x0005d8d8	5.36966e-40
49	0x80059d30	-5.15566e-40
50	0x8006797d	-5.94595e-40
51	0x00055a9f	4.91686e-40
52	0x0005613f	4.94063e-40
53	0x80064147	-5.7443e-40
54	0x80055c06	-4.92189e-40
55	0x80055d3e	-4.92626e-40
56	0x00056813	4.96512e-40
57	0x800558a9	-4.90983e-40
58	0x0005599d	4.91325e-40
59	0x00055e6e	4.93052e-40
60	0x80057264	-5.00213e-40
61	0x00055843	4.9084e-40
62	0x000558db	4.91053e-40
63	0x80055e99	-4.93113e-40
64	0x80055f1b	-4.93295e-40
65	0x80056204	-4.94339e-40
66	0x00055c03	4.92185e-40
67	0x80056107	-4.93984e-40
68	0x80055fb5	-4.9351e-40
69	0x80055bc7	-4.92101e-40
70	0x00055f4b	4.93362e-40
71	0x0006575a	5.82349e-40
72	0x80056813	-4.96512e-40
73	0x000566f3	4.96109e-40
74	0x00056d42	4.98372e-40
75	0x0005653c	4.95494e-40
76	0x80069f3a	-6.08133e-40
77	0x00055e64	4.93038e-40
78	0x00056331	4.9476e-40
79	0x80055caf	-4.92426e-40
80	0x00055931	4.91173e-40
81	0x8005628a	-4.94527e-40
82	0x00055ffd	4.93612e-40
83	0x80055fab	-4.93497e-40
84	0x000560ca	4.93899e-40
85	0x80056875	-4.9665e-40
86	0x8006cd3b	-6.24636e-40
87	0x00055ede	4.9321e-40
88	0x80056491	-4.95254e-40
89	0x000557a0	4.90611e-40
90	0x000561da	4.9428e-40
91	0x80055c2c	-4.92243e-40
92	0x8005585f	-4.90879e-40
93	0x8005611b	-4.94012e-40
94	0x80055eb3	-4.93149e-40
95	0x000559fd	4.91459e-40
96	0x00055afc	4.91817e-40
97	0x80055db8	-4.92797e-40
98	0x00061d50	5.61528e-40
99	0x800591ed	-5.11526e-40
100	0x00055fa7	4.93491e-40
101	0x0006d409	6.27077e-40
102	0x00055c49	4.92283e-40
103	0x00055ce5	4.92502e-40
104	0x800559e0	-4.91419e-40
105	0x0005eca4	5.44068e-40
106	0x80058011	-5.05119e-40
107	0x00055774	4.9055e-40
108	0x80055cee	-4.92514e-40
109	0x000562f3	4.94674e-40
110	0x000565c6	4.95687e-40
111	0x80055d73	-4.92701e-40
112	0x80057650	-5.0162e-40
113	0x800558c6	-4.91023e-40
114	0x0005d94d	5.3713e-40
115	0x000562b7	4.9459e-40
116	0x800563fc	-4.95045e-40
117	0x00055c60	4.92315e-40
118	0x800594cf	-5.1256e-40
119	0x80055f56	-4.93378e-40
120	0x00055931	4.91173e-40
121	0x00055f6e	4.93411e-40
122	0x0005592c	4.91166e-40
123	0x0005730d	5.0045e-40
124	0x8005648c	-4.95247e-40
125	0x000565a5	4.9564e-40
126	0x800559c6	-4.91382e-40
127	0x00055c3d	4.92266e-40
128	0x3e0c26e1	0.13686706
129	0x3bbcebe9	0.0057654274
130	0x3e5f5495	0.21809609
131	0x3d554f04	0.05207731
132	0xbe9662b9	-0.29372194
133	0x3e0dc1f0	0.13843513
134	0x3c219ccd	0.009864044
135	0x3ee893fe	0.4542541
136	0xbd8d0168	-0.06885034
137	0x3e746ce0	0.23869658
138	0x3dbb6d46	0.09151702
139	0x3e067f58	0.13134515
140	0x3f0b27eb	0.54357785
141	0xbc839215	-0.016060868
142	0x3e0edc7d	0.13951297
143	0xbe0f6315	-0.1400264
144	0xbe342fc3	-0.17596345
145	0xbbae036a	-0.0053104656
146	0xbe70008a	-0.23437706
147	0xbd385f7d	-0.04501294
148	0xbd8142ed	-0.06311593
149	0xbdb56312	-0.08856787
150	0xbe06bb04	-0.13157278
151	0xbd846f76	-0.06466572
152	0x3c3cdf90	0.011527911
153	0x3e120395	0.14259179
154	0x3e032c0d	0.12809773
155	0x3ed8930b	0.42299685
156	0xbe9a28fb	-0.3010939
157	0xbeb9649d	-0.36209574
158	0x3dfaef74	0.12252703
159	0xbd396ae9	-0.045267973
160	0xbe83b61e	-0.25724882
161	0x3dc72e08	0.09725577
162	0xbd587232	-0.05284328
163	0x3e485b9d	0.19566198
164	0x3fb2cf71	1.3969556
165	0xbe8c9ccd	-0.2746338
166	0xbd596658	-0.05307612
167	0xbc0af618	-0.008481525
168	0x3ec9f02b	0.39441046
169	0xbd0d167f	-0.034445282
170	0x3e005e70	0.12536025
171	0x3f1b38ef	0.6063375
172	0xbe45e4da	-0.19325581
173	0x3c5dac92	0.0135299135
174	0xbddfa928	-0.10920936
175	0x3e1f1d24	0.1553846
176	0x3d954ceb	0.072900616
177	0xb903ae01	-0.00012557955
178	0x3ed459c3	0.41474733
179	0x3ea83866	0.3285553
180	0xbf221a9d	-0.6332186
181	0x3c72d418	0.014821075
182	0xbd4a5010	-0.04939276
183	0x3e830244	0.25587666
184	0x3d7d9ded	0.061918188
185	0x3ebbc6c4	0.36675084
186	0xbe5c2912	-0.21500042
187	0xbe0dc73b	-0.13845532
188	0xbc9e07a0	-0.019290745
189	0x3f18b238	0.5964694
190	0x3f2dc2f9	0.6787563
191	0x3dfa9b32	0.122366324
192	0xbe252e39	-0.16130914
193	0x3e956c74	0.29184306
194	0xbeaf6c9b	-0.34262547
195	0xbdb7a3d3	-0.08966794
196	0xbcea58b7	-0.028606756
197	0xbe21a6d5	-0.15786298
198	0x3db15fa4	0.0866082
199	0x3d9a3e40	0.075314045
200	0x3d755e4b	0.059904378
201	0x3e1d94f4	0.15388852
202	0xbdfcda85	-0.12346367
203	0xba1d091a	-0.0005990431
204	0x3e94a6cc	0.29033506
205	0xbdebf020	-0.115204096
206	0xbf04f65a	-0.519384
207	0x3e7d7fa3	0.24755721
208	0xbe0f09de	-0.13968608
209	0x3d40cc0c	0.047069594
210	0x3e694c04	0.22782904
211	0x3f0d31d0	0.5515413
212	0xbe1c8650	-0.15285611
213	0x3e560d42	0.20903495
214	0xbe06e0bb	-0.13171665
215	0x3d3fc14b	0.046815198
216	0x3ed42a86	0.41438693
217	0xbea0f678	-0.3143804
218	0x3f33e7f7	0.70275825
219	0x3eace274	0.3376652
220	0xbc69cc9a	-0.014269972
221	0x3df281c2	0.118411556
222	0xbccf8d38	-0.025335893
223	0x3dd410f8	0.10354799
224	0xbe1636f3	-0.14669399
225	0xbe890ba2	-0.26766688
226	0x3ec640a8	0.38721204
227	0x3e9c09ef	0.3047633
228	0xbce6994f	-0.028149275
229	0xbd6cfe97	-0.057859983
230	0x3ea81fcf	0.32836768
231	0x3d64ba16	0.055841528
232	0x3beafb3d	0.007171063
233	0x3e45ecc4	0.193286
234	0xbf113616	-0.56723154
235	0x3dfebf9e	0.12438892
236	0xbed74bad	-0.42049924
237	0xbea7efc4	-0.32800114
238	0x3dbcf9a3	0.09227302
239	0xbdd2a600	-0.10285568
240	0x3e9f9465	0.31167904
241	0x3dccfd04	0.100091964
242	0x3f534b23	0.82536525
243	0xbe14d19a	-0.14533082
244	0xbe57727d	-0.21039768
245	0x3e915400	0.283844
246	0xbdcf9e09	-0.10137565
247	0x3de9665f	0.11396479
248	0xbe43b2d5	-0.19111188
249	0xbeec854e	-0.46195453
250	0xbe479361	-0.19489814
251	0xbe5ba9f4	-0.2145155
252	0xbd8e261b	-0.06940862
253	0xbdfb476a	-0.122694805
254	0x3e8fde34	0.28099215
255	0x3dfbd2eb	0.12296089

gru.weight_ih_l0 f4 [150, 128]
0	0xbe463da5	-0.19359453
1	0x3ef54991	0.4790769
2	0x3be61874	0.007021958
3	0xbe25da60	-0.16196585
4	0xbe8686d9	-0.26274756
5	0x3ef68c04	0.48153698
6	0x3e2ba6ae	0.16762802
7	0x3e2b3191	0.16718127
8	0x3cf62b33	0.030049896
9	0x3ec2e2e6	0.38063735
10	0xbe04f1eb	-0.1298291
11	0x3d6b15ff	0.057394024
12	0x3ab795bd	0.0014006417
13	0x3e9b4fd9	0.30334356
14	0x3eb6f502	0.357338
15	0xbeb47c01	-0.35250857
16	0xbf14ef94	-0.5817807
17	0x3e9659de	0.29365438
18	0x3dac5865	0.084152974
19	0x3ee76db9	0.452009
20	0x3eb73953	0.35785922
21	0x3d5bca25	0.053659577
22	0xbdc99ce9	-0.09844381
23	0x3e5a4642	0.21315864
24	0xbeda0d84	-0.42588437
25	0xbf23128b	-0.6370017
26	0x3d9549c2	0.07289459
27	0xbe3da6f4	-0.18520719
28	0x3e1efc0d	0.15525837
29	0xbe61e3ac	-0.22059506
30	0x3e2557f2	0.1614683
31	0xbe824810	-0.25445604
32	0x3d0f00b9	0.0349128
33	0x3e155409	0.14582838
34	0x3e8b85e8	0.272506
35	0x3e926162	0.28589922
36	0xbe17f8a7	-0.14840947
37	0xbdbdf8c2	-0.092759624
38	0x3ee6a2ad	0.45045987
39	0xbdc2d851	-0.09513915
40	0xbd9e8eae	-0.07742058
41	0x3e7c2c3a	0.24626246
42	0x3dfafc76	0.12255184
43	0xbec70bff	-0.3887634
44	0x3db869d5	0.09004561
45	0x3e1fc0cb	0.15600888
46	0xbe6896b6	-0.22713742
47	0xbe2bbfc3	-0.1677237
48	0x3e2e3bf0	0.17015052
49	0x3ea1b630	0.3158431
50	0xbde3b050	-0.11117613
51	0xbe867300	-0.26259613
52	0xbf005f23	-0.5014517
53	0xbe0a2cfa	-0.1349372
54	0x3d3c84a7	0.046024945
55	0xbe02a4a1	-0.12758113
56	0x3dbd2484	0.092354804
57	0xbd82e6fa	-0.063917115
58	0xbdbc53f7	-0.091957025
59	0x3d88b761	0.06675602
60	0xbf09a034	-0.53760076
61	0xbe7de5ae	-0.24794647
62	0xbe6e2b2e	-0.23258659
63	0x3d524046	0.051330827
64	0x3e1bd9a7	0.15219747
65	0x3dc4fe73	0.09618845
66	0xbdb415f8	-0.08793253
67	0x3e0aae47	0.13543044
68	0x3ee0fd01	0.43943027
69	0xbca210de	-0.019783434
70	0xbdacb984	-0.08433822
71	0x3e58a49f	0.21156548
72	0x3dbb7e5a	0.09154959
73	0x3d903b6a	0.07042582
74	0xbe31de7b	-0.17370026
75	0xbe81113f	-0.2520847
76	0xbe00224b	-0.12513082
77	0xbdf78196	-0.120852634
78	0xbee3b15d	-0.44471255
79	0x3e626ee4	0.22112614
80	0x3f040a5c	0.5157831
81	0x3f0048a6	0.5011085
82	0xbe3e77de	-0.18600413
83	0x3e6bfa9c	0.23044819
84	0x3eb9e39b	0.36306462
85	0x3e2653ce	0.16242906
86	0x3f09778b	0.53698033
87	0xbd70f3bd	-0.058826197
88	0x3e391ff1	0.18078591
89	0x3ed6e3c1	0.41970637
90	0x3e8f6151	0.28003934
91	0x3e94de1c	0.29075706
92	0x3eae54dc	0.34049118
93	0xbcdc23bb	-0.026872506
94	0xbccefd1f	-0.025267182
95	0xbe0c9563	-0.13728862
96	0xbe8b30c9	-0.27185658
97	0x3e6fb311	0.23408152
98	0xbdb6f1f3	-0.08932867
99	0xbef6b881	-0.4818764
100	0x3c563091	0.013073103
101	0x3e73dba4	0.23814255
102	0xbe429625	-0.19002588
103	0xbeac73ed	-0.33682194
104	0xbe73bc4e	-0.23802301
105	0x3dad39eb	0.084583126
106	0xbd9fcb9a	-0.07802506
107	0x3da5afa1	0.08090139
108	0x3ddd84bf	0.10816335
109	0xbd19b993	-0.037530493
110	0xbd7b419a	-0.06134186
111	0xbe557749	-0.20846285
112	0xbd9c348c	-0.0762721
113	0x3e327f34	0.17431337
114	0xbe92c894	-0.28668654
115	0x3ea92754	0.33037817
116	0x3e3e77b0	0.18600345
117	0x3eaa2035	0.33227697
118	0x3f06ba15	0.5262769
119	0xbcc41147	-0.02393402
120	0xbcb8afc0	-0.022544742
121	0x3e5a93ef	0.21345495
122	0x3e8d1bb0	0.27560186
123	0xbeaacd35	-0.33359686
124	0xbe60a0a1	-0.21936275
125	0x3e8db7af	0.27679202
126	0x3e99cd78	0.30039573
127	0xbdc1dadd	-0.09465573
128	0x3dbae3aa	0.09125455
129	0xbd844b6a	-0.064596966
130	0xbd6f2e14	-0.058393553
131	0x3deb6fc6	0.114959285
132	0x3ea7db7c	0.3278464
133	0xbe6a38b1	-0.22873189
134	0x3d820a2a	0.06349595
135	0x3ea6d32d	0.3258299
136	0x3e26241d	0.16224714
137	0x3ec3edfc	0.38267505
138	0xbeaabbc7	-0.33346388
139	0xbdf40f50	-0.11916983
140	0xbea4cea4	-0.32188904
141	0xbeb2fd89	-0.34959057
142	0xbeaadb8e	-0.33370632
143	0xbc8aeefd	-0.016959662
144	0xbdaff36b	-0.0859135
145	0xbc1d112b	-0.009586613
146	0x3d22cda0	0.03974688
147	0xbe2bf7fb	-0.16793816
148	0x3d3674e0	0.044545054
149	0x3dc1fe82	0.09472372
150	0x3e54ce14	0.20781738
151	0xbe264a0d	-0.16239186
152	0x3f22281b	0.63342446
153	0xbeb34260	-0.35011578
154	0xbeed4780	-0.46343613
155	0xbd5ed3bb	-0.05440114
156	0xbeeda7cb	-0.46417078
157	0x3e55208f	0.20813201
158	0x3e41e13d	0.18933578
159	0xbe3dad6c	-0.18523186
160	0xbe8070e2	-0.25086123
161	0x3deaba6b	0.11461338
162	0x3f3b888e	0.7325524
163	0x3ed4cef8	0.41564155
164	0x3e60beb2	0.21947744
165	0x3df38632	0.1189083
166	0x3c358ade	0.011080472
167	0xbf0d968b	-0.55307835
168	0xbeba5df6	-0.36399812
169	0xbe30fba9	-0.172835
170	0x3d8e8579	0.06959052
171	0xbe1094be	-0.1411924
172	0x3d00511d	0.031327356
173	0xbf693ed4	-0.91111493
174	0xbe65a399	-0.22425689
175	0x3e0c8aae	0.13724777
176	0xbe132db6	-0.14372906
177	0xbf258837	-0.6466097
178	0x3d8b238d	0.0679389
179	0xbd608485	-0.05481388
180	0x3a86e1b8	0.0010290658
181	0xbe63b0de	-0.22235438
182	0x3e1836f4	0.14864713
183	0xba835ccf	-0.0010022166
184	0xbe8f0427	-0.27932855
185	0x3f3fed56	0.7497152
186	0x3eab2aeb	0.3343118
187	0xbeb77007	-0.35827658
188	0xbe98e770	-0.29864073
189	0x3e3cded2	0.18444374
190	0xbe510fb1	-0.20416142
191	0xbf1d76b6	-0.61509264
192	0xbdc08796	-0.09400861
193	0xbed64a44	-0.41853535
194	0xbe35a4c5	-0.17738636
195	0xbba3eab0	-0.005002342
196	0x3eee01d4	0.4648577
197	0xbe644c79	-0.22294797
198	0xbe36da0f	-0.1785662
199	0xbdfca4ea	-0.12336142
200	0xbd46a42a	-0.048496403
201	0xbf0b9d02	-0.5453645
202	0xbeaae869	-0.3338044
203	0x3dba7270	0.091038585
204	0x3eab5be2	0.3346854
205	0x3ddfadf0	0.10921848
206	0x3e693c61	0.22776939
207	0xbef4b0f6	-0.4779126
208	0x3b3b2290	0.0028554536
209	0xbc108c4c	-0.008822512
210	0xbe0f874b	-0.14016454
211	0x3e8317b9	0.25604036
212	0x3e4ed2c4	0.20197588
213	0xbe9748b1	-0.29547647
214	0xbe24ba58	-0.1608671
215	0x3ceef09e	0.02916747
216	0xbe697217	-0.22797428
217	0x3f171395	0.59014255
218	0x3dfef780	0.12449551
219	0xbe8641a7	-0.26221964
220	0x3da24548	0.079233706
221	0x3e93d886	0.28876132
222	0xbdfbd47e	-0.12296389
223	0x3dc89fa2	0.097960725
224	0x3e7440e6	0.23852882
225	0xbe425104	-0.18976218
226	0xbee89833	-0.4542862
227	0xbe968594	-0.29398787
228	0x3e16bdf5	0.147209
229	0xbcace8ed	-0.021107161
230	0xbd541b85	-0.051784057
231	0x3e58ab5d	0.2115912
232	0x3e3152da	0.17316762
233	0x3d358beb	0.04432289
234	0xbb44f902	-0.0030055647
235	0x3ea5d7d4	0.32391226
236	0xbd1fa126	-0.038972043
237	0xbeadc745	-0.33941093
238	0xbe76c70e	-0.24099371
239	0xbc86614b	-0.016403815
240	0xbd34ccf4	-0.04414077
241	0x3ecadac4	0.3962003
242	0x3e518f55	0.20464833
243	0x3aac407c	0.0013141776
244	0xbee08297	-0.43849632
245	0x3efbdbd4	0.49191153
246	0xbe920935	-0.2852265
247	0x3d895a1b	0.067066394
248	0x3eb064c5	0.3445188
249	0xbe4e59da	-0.20151463
250	0xbeb6bafd	-0.35689536
251	0x3d08692b	0.03330342
252	0x3ef0d0c2	0.4703427
253	0xbf0259fb	-0.5091855
254	0xbe6678b0	-0.22506976
255	0xbe94733a	-0.2899416

gru.weight_hh_l0 f4 [150, 50]
0	0xbe0acd22	-0.13554814
1	0xbe7f54e9	-0.24934734
2	0xbd4bcd37	-0.049756255
3	0xbf317aa7	-0.6932778
4	0xbe5c78af	-0.21530412
5	0x3ed6ac17	0.4192817
6	0x3ea7a7dd	0.32745257
7	0x3bea1c95	0.0071445205
8	0xbd8404de	-0.06446241
9	0xbde3b375	-0.11118213
10	0xbdaf2b17	-0.085531406
11	0xbde0dc6a	-0.10979541
12	0x3e681ec9	0.22667994
13	0x3e14cc74	0.14531118
14	0xbbae1bbc	-0.005313365
15	0x3ed6e3b0	0.41970587
16	0xbcd8b8f6	-0.026455384
17	0x3d9546f4	0.07288924
18	0xbdb84aaa	-0.08998616
19	0xbe74ff91	-0.23925616
20	0x3ead01a0	0.33790302
21	0x3de24cf1	0.11049832
22	0x3e4e8bfe	0.2017059
23	0x3ea00196	0.3125121
24	0x3e3854ac	0.1800105
25	0x3d010088	0.031494647
26	0x3edd4817	0.43219063
27	0xbed433ea	-0.41445857
28	0x3e878f68	0.26476598
29	0xbf39399a	-0.7235352
30	0x3dfa6fd7	0.12228363
31	0xbe8f65d2	-0.2800737
32	0x3d490840	0.049080133
33	0x3f569fad	0.83837396
34	0x3d83b3ea	0.064308
35	0x3ebfea11	0.37483266
36	0x3ef26197	0.4734008
37	0xbb869269	-0.004106809
38	0x3e3ddf61	0.18542244
39	0x3ea7244f	0.3264489
40	0x3d0d69b7	0.034524646
41	0xbdb074ef	-0.08616053
42	0x3d90f64b	0.07078227
43	0xbcce34f9	-0.025171744
44	0xbe3a426e	-0.18189403
45	0x3e1aba33	0.15110092
46	0x3e857969	0.2606919
47	0xbe40e8ec	-0.18838853
48	0xbe712659	-0.23549785
49	0x3d54788c	0.051872775
50	0xbe5ab6e6	-0.21358833
51	0x3ea5c3ed	0.32376042
52	0x3e43f1b3	0.1913517
53	0xbf274deb	-0.6535327
54	0xbebb2620	-0.36552525
55	0xbe6ac934	-0.22928315
56	0x3f0d8cb6	0.5529283
57	0x3ee428a7	0.44562265
58	0xbd1d80e0	-0.038452983
59	0xbe919b16	-0.28438634
60	0xbe30bee1	-0.17260315
61	0x3e7f2c80	0.24919319
62	0x3e959e6c	0.2922243
63	0x3e128f68	0.14312518
64	0x3cec7ea7	0.028868986
65	0xbe89fe9f	-0.26952073
66	0xbeaa7b75	-0.33297315
67	0xbe6a85e5	-0.22902639
68	0xbc53027f	-0.012879013
69	0xbe9ea8a8	-0.3098805
70	0x3dbdee18	0.092739284
71	0x3ee7cd01	0.45273593
72	0x3efd6a5b	0.49495205
73	0x3e727ef9	0.23681249
74	0xbe8b7d72	-0.27244145
75	0xbcff6d31	-0.031179996
76	0xbea614a1	-0.32437614
77	0xbeb478df	-0.35248467
78	0xbcc2ad3b	-0.023764243
79	0xbdef0e35	-0.11672632
80	0x3dfc5fba	0.12322946
81	0x3d439978	0.04775378
82	0xbe100727	-0.14065228
83	0xbe55b790	-0.20870805
84	0x3db317ef	0.08744799
85	0x3dd8f1a4	0.10592964
86	0x3ef90773	0.48638496
87	0xbe9ce886	-0.3064615
88	0x3eb23d71	0.348125
89	0x3e5d0104	0.21582419
90	0xbe1e173c	-0.1543855
91	0xbe3f1a08	-0.18662274
92	0xbc1942f6	-0.009354344
93	0xbe833bed	-0.25631657
94	0x3e4b9c20	0.19883776
95	0xbe880246	-0.26564234
96	0xbd5c2bfb	-0.05375288
97	0xbe9e86e0	-0.30962276
98	0xbef55563	-0.47916707
99	0x3cd39493	0.025827682
100	0xbe7d83ac	-0.2475726
101	0xbde32c1e	-0.11092399
102	0xbef93640	-0.48674202
103	0x3d73e15c	0.05954109
104	0xbe2610d7	-0.16217361
105	0x3db1c26e	0.08679663
106	0xbe8946a8	-0.2681172
107	0x3ded116e	0.1157559
108	0x3d8ddd24	0.06926945
109	0x3e2d3a90	0.16916871
110	0x3e3c0cb2	0.18364218
111	0xbe6e462f	-0.2326896
112	0x3e0533eb	0.13008086
113	0x3e603c3c	0.21897978
114	0xbd77454e	-0.06036883
115	0x3c68fc76	0.014220348
116	0xbdedacc1	-0.11605216
117	0xbedd7bc7	-0.43258497
118	0x3e28e71d	0.16494413
119	0x3dc8f711	0.09812749
120	0xbddb6ee9	-0.10714514
121	0xbea186e2	-0.3154822
122	0x3f1662c0	0.5874443
123	0xbc666d61	-0.014064164
124	0xbdf3270f	-0.11872684
125	0x3eed4088	0.46338296
126	0x3e7040d2	0.23462227
127	0xbe8a401d	-0.2700204
128	0xbc6222cb	-0.013802241
129	0xbdc2a15e	-0.095034346
130	0xbeb09d3b	-0.34494957
131	0x3d2b7cf0	0.041867197
132	0x3df08c7a	0.11745544
133	0xbbd0f1cd	-0.006376481
134	0x3ed2677e	0.41094583
135	0xbea620cc	-0.32446897
136	0xbd8083a7	-0.06275111
137	0x3e664ec9	0.22490992
138	0x3e28cceb	0.1648442
139	0xbe866266	-0.26246947
140	0xbee5cc8a	-0.44882613
141	0xbd89c811	-0.06727613
142	0xbdf2b37b	-0.118506394
143	0x3e5aac80	0.21354866
144	0xbdbc474b	-0.091932856
145	0xbd870546	-0.06592803
146	0x3e975f6c	0.2956499
147	0xbe10716d	-0.14105769
148	0x3bc9f945	0.0061637484
149	0xbdd52f42	-0.10409404
150	0xbd85bb88	-0.06529909
151	0xbc2842c9	-0.010269829
152	0x3cb26c88	0.021780267
153	0x3e7d9d41	0.24767019
154	0x3d8c01be	0.0683627
155	0x3d4229a4	0.047402993
156	0x3e8936d8	0.26799655
157	0x3d062956	0.032754265
158	0xbbb81739	-0.0056180027
159	0x3c09e66f	0.008416756
160	0xbe6ce57f	-0.23134421
161	0x3da4bd76	0.08043949
162	0x3d9cdaff	0.07658958
163	0xbdf302ca	-0.11865766
164	0x3e7e980f	0.24862693
165	0xbe81fdce	-0.2538895
166	0xbde4145f	-0.11136698
167	0x3e88582a	0.26629764
168	0x3e725711	0.23666026
169	0xbe241199	-0.16022338
170	0xbc8b99c7	-0.0170411
171	0xbde56706	-0.11201291
172	0x3e31be4b	0.17357747
173	0x3dc82e00	0.09774399
174	0xbd667a2a	-0.05626885
175	0xbb94ca80	-0.0045407414
176	0x3e66b2ab	0.22529094
177	0xbe9cf4b6	-0.3065545
178	0x3e561739	0.20907296
179	0xbed5d561	-0.41764358
180	0x3e7fb7d4	0.24972469
181	0xbe912003	-0.28344736
182	0x3d43a5ab	0.047765415
183	0xbebdd7b0	-0.3707862
184	0x3e86f31c	0.26357353
185	0x3d86d9ed	0.06584535
186	0x3e2ae854	0.16690189
187	0x3db876ab	0.09007009
188	0x3e01f535	0.12691195
189	0x3e4214cf	0.1895325
190	0xbae5d2b6	-0.001753411
191	0xbe866eed	-0.26256505
192	0xbe295906	-0.16537866
193	0x3d65942b	0.056049507
194	0x3de69190	0.112582326
195	0x3cb799b2	0.022412155
196	0xbdde9bd9	-0.10869569
197	0xbdafa848	-0.08577019
198	0xbe469d56	-0.19395956
199	0x3e111633	0.14168625
200	0x3e2b2815	0.16714509
201	0x3dd08e3f	0.10183381
202	0x3e343093	0.17596655
203	0xbd55d2f7	-0.052203145
204	0xbed19aec	-0.4093851
205	0xbd941568	-0.072306454
206	0x3e82a8c0	0.2551937
207	0x3e0cdfa6	0.1375719
208	0x3e202821	0.15640308
209	0xbe1768b4	-0.14786035
210	0xbdfdde88	-0.1239596
211	0x3e907fa0	0.2822237
212	0xbd08530b	-0.03328232
213	0x3e48fe13	0.19628172
214	0x3dc3eb15	0.09566323
215	0xbcd2e59e	-0.025744256
216	0x3cd9858c	0.026552938
217	0xbd849fe1	-0.06475807
218	0x3e19d87f	0.15023993
219	0xbdbff770	-0.09373367
220	0xbe4b5595	-0.19856866
221	0x3db95f25	0.090513505
222	0x3d174657	0.036932316
223	0x3e9f8ef3	0.3116375
224	0xbe88031d	-0.26564875
225	0x3ea057cf	0.31316993
226	0xbe6b9158	-0.23004663
227	0xbd08f4e8	-0.033436686
228	0x3d731e8d	0.059355307
229	0xbe4bffba	-0.1992177
230	0x3e0710fa	0.1319007
231	0x3eae7ca2	0.34079462
232	0xbecb972f	-0.3976378
233	0xbdcc5b39	-0.09978337
234	0x3e8fd007	0.280884
235	0x3ec7bfe7	0.39013597
236	0x3dc41a8a	0.095753744
237	0x3e0434c4	0.12910753
238	0x3e01d398	0.12678373
239	0x3d305040	0.043045282
240	0xbd98373b	-0.074324094
241	0xbe20bfe0	-0.15698195
242	0xbc8c0b7d	-0.017095322
243	0xbf35a11c	-0.7094896
244	0xbe9575a2	-0.2919131
245	0xbe179166	-0.14801559
246	0x3e6438aa	0.2228724
247	0x3e4b5dff	0.19860075
248	0xbf134b01	-0.5753632
249	0x3d91c238	0.071171224
250	0x3eb204ca	0.3476928
251	0xbe4c405e	-0.19946429
252	0xbe295116	-0.16534838
253	0xbeaccc07	-0.3374941
254	0x3ea0a79f	0.31377885
255	0x3ef07ab7	0.46968624

gru.bias_ih_l0 f4 [150]
0	0xbe1eb39c	-0.15498203
1	0xbe357165	-0.17719038
2	0xbd3ff2b5	-0.046862323
3	0xbe5e7b8e	-0.2172682
4	0xbde8157f	-0.11332225
5	0x3c585adf	0.013205259
6	0xbda8df3d	-0.08245704
7	0x3e2e103d	0.16998382
8	0xbe55ae88	-0.2086736
9	0xbec49962	-0.38398272
10	0xbe5fd466	-0.21858367
11	0x3f15775f	0.5838527
12	0x3ec002a0	0.37502003
13	0x3a51b411	0.0007999549
14	0x3db94d7e	0.090479836
15	0x3ebdc431	0.37063745
16	0x3f0d679b	0.55236214
17	0xbe1396eb	-0.1441304
18	0xbe672cb5	-0.22575648
19	0xbea4962a	-0.32145816
20	0xbe1bc266	-0.15210876
21	0xbebb0bae	-0.36532348
22	0xbea1be1f	-0.31590363
23	0xbec07ba6	-0.37594336
24	0xbeb640b8	-0.3559625
25	0xbe7415da	-0.2383646
26	0xbed13aa9	-0.40865067
27	0xbe3f94fb	-0.18709175
28	0xbeb25fce	-0.34838718
29	0xbe84f59c	-0.25968635
30	0x3ca86dcc	0.020560168
31	0xbe66d5a3	-0.22542433
32	0x3bfe3a0b	0.007758384
33	0xbe5e3beb	-0.21702544
34	0x3f39b116	0.72535837
35	0xbe3211ec	-0.17389649
36	0xbe989b7d	-0.29806128
37	0xbebcff5e	-0.3691358
38	0xbe70fa96	-0.23533091
39	0x3e7a43af	0.24439882
40	0x3ef08fe4	0.4698478
41	0xbec93b80	-0.39303207
42	0x3e0f9eb5	0.14025386
43	0x3d4366d9	0.047705505
44	0xbee4874b	-0.4463447
45	0x3ea542cd	0.32277527
46	0xbebfb16b	-0.37440047
47	0xbe980366	-0.29690093
48	0x3ec654ac	0.38736475
49	0x3ef0be38	0.47020125
50	0xbe6befdc	-0.23040718
51	0xbf363e23	-0.71188563
52	0xbe2071d9	-0.1566843
53	0xbeb089d4	-0.34480155
54	0xbefde1d4	-0.49586356
55	0xbf4d1f8a	-0.8012625
56	0xbf40095c	-0.7501428
57	0xbebc520d	-0.3678135
58	0xbed9f950	-0.42573023
59	0xbf6aab7f	-0.9166793
60	0xbf238beb	-0.6388537
61	0xbf0ed15a	-0.55788195
62	0xbeb7e630	-0.35917807
63	0xbf3e93e0	-0.7444439
64	0xbf61102b	-0.87915295
65	0xbf0fd897	-0.56189865
66	0xbf0e4d8c	-0.5558708
67	0xbf255948	-0.6458936
68	0xbf57920a	-0.8420721
69	0xbef41caa	-0.4767812
70	0xbf3b6836	-0.7320589
71	0xbf067b62	-0.5253202
72	0xbf109cec	-0.56489444
73	0xbf1ee5d1	-0.6206942
74	0xbf202b61	-0.6256619
75	0xbf1d74eb	-0.6150653
76	0xbed37bbe	-0.41305345
77	0xbf1c1714	-0.60972714
78	0xbee0d6fb	-0.43914017
79	0xbe22af0d	-0.15887089
80	0xbf45d780	-0.7728195
81	0xbf38cfb7	-0.7219195
82	0xbf076aad	-0.5289715
83	0xbf417fd9	-0.75585705
84	0xbf5bf2c9	-0.85917336
85	0xbf57e9b2	-0.84340966
86	0xbeef5c2d	-0.46750012
87	0xbe9e538d	-0.3092312
88	0xbe9c01eb	-0.30470213
89	0xbeb7b8da	-0.35883218
90	0xbf5c5eb1	-0.8608199
91	0xbf3ca9d9	-0.73696667
92	0xbf15e7e8	-0.58556986
93	0xbdc4be95	-0.09606663
94	0xbf31b448	-0.6941571
95	0xbeba58db	-0.36395916
96	0xbf7495b7	-0.95540947
97	0xbe79aaee	-0.24381611
98	0xbeb32094	-0.34985793
99	0xbfab0d6b	-1.336347
100	0xbc270c43	-0.0101957945
101	0x3beea407	0.007282737
102	0x3e85f14e	0.26160663
103	0x3da53f7c	0.08068749
104	0xbd57519a	-0.052568056
105	0x3db6bbd1	0.08922542
106	0x3e685364	0.22688061
107	0xbf1c5e43	-0.6108133
108	0xbddc18b9	-0.10746903
109	0x3b90efc6	0.0044231145
110	0x3e11fe73	0.14257221
111	0x3d711509	0.05885795
112	0xbdd88c9e	-0.105736956
113	0xbe4ddcca	-0.20103756
114	0x3e19ddbd	0.15025993
115	0x3e50ba45	0.20383556
116	0x3f3e535e	0.7434596
117	0xbd2f8f76	-0.042861424
118	0xbcf554d4	-0.029947676
119	0x3eac1370	0.3360858
120	0xbc81d0e2	-0.015846673
121	0xbdcf4ddd	-0.10122273
122	0xbdd2ea01	-0.10298539
123	0x3d8b3979	0.067980714
124	0x3e36586d	0.1780717
125	0x3d72f50f	0.059315737
126	0x3d0ef6ab	0.03490321
127	0xbd10e89a	-0.035378076
128	0x3e3080c6	0.17236623
129	0x3de8d6f6	0.113691255
130	0x3ec44eaa	0.38341266
131	0xbe33d124	-0.1756025
132	0x3dc983ad	0.09839568
133	0xbd2f5f04	-0.042815223
134	0xbf263f8d	-0.6494072
135	0xbe5e264d	-0.21694298
136	0xbe3a57e2	-0.18197587
137	0xbe002c2e	-0.12516853
138	0x3db80904	0.089860946
139	0xbf0336c1	-0.5125542
140	0x3f3dda85	0.7416156
141	0x3e4eb18b	0.20184915
142	0x3d97154f	0.07377111
143	0x3dd8ecae	0.10592018
144	0xbe368b54	-0.17826587
145	0xbe810ecb	-0.252066
146	0x3db6c7de	0.089248404
147	0x3ddfb708	0.10923582
148	0xbe4ed2c5	-0.2019759
149	0xbe94495a	-0.28962213

gru.bias_hh_l0 f4 [150]
0	0xbe1e3713	-0.15450697
1	0xbe57b6eb	-0.21065871
2	0x3d2ef5a7	0.04271474
3	0xbe79d62f	-0.24398111
4	0xbe159a18	-0.14609563
5	0x3ad41df6	0.0016183245
6	0xbdce9981	-0.10087872
7	0x3d5b68c4	0.05356671
8	0xbe595953	-0.2122548
9	0xbec03a70	-0.37544584
10	0xbe04465a	-0.12917462
11	0x3f1778cc	0.59168696
12	0x3eb2ecb7	0.34946224
13	0xbc486682	-0.012231471
14	0x3d3b9893	0.045799803
15	0x3ed50570	0.4160571
16	0x3f07be06	0.5302433
17	0xbd10dea7	-0.035368588
18	0xbe679a3a	-0.22617427
19	0xbecbbdc6	-0.39793223
20	0xbdb23dae	-0.08703171
21	0xbe890b65	-0.26766506
22	0xbe798416	-0.24366793
23	0xbee103f0	-0.43948317
24	0xbec269f5	-0.37971464
25	0xbe9cf211	-0.30653432
26	0xbeea8a71	-0.45808747
27	0xbe8166b3	-0.25273666
28	0xbea68198	-0.32520747
29	0xbeb1ce3e	-0.34727663
30	0x3cad05e4	0.021120973
31	0xbe6fae11	-0.23406245
32	0xbcf5ff1a	-0.030028868
33	0xbe80c76f	-0.25152156
34	0x3f3f446f	0.74713796
35	0xbe1579d0	-0.14597249
36	0xbe5504b5	-0.20802577
37	0xbeae99fe	-0.34101862
38	0xbe7188d0	-0.23587346
39	0x3e9ede58	0.3102901
40	0x3eee52f7	0.46547672
41	0xbf01cf67	-0.50707096
42	0x3e83063b	0.2559069
43	0x3d994458	0.07483739
44	0xbf084fcb	-0.53246754
45	0x3e7ebcf7	0.24876772
46	0xbeab7201	-0.33485416
47	0xbe88f3e1	-0.26748565
48	0x3edbde40	0.42943
49	0x3ed43be7	0.41451952
50	0xbea4762a	-0.32121402
51	0xbf333b35	-0.7001222
52	0xbe7062f3	-0.23475246
53	0xbeb803ac	-0.359403
54	0xbf059b65	-0.5219024
55	0xbf2e842e	-0.6817044
56	0xbf55e2bc	-0.83549094
57	0xbedb6b12	-0.42855126
58	0xbeb6d1bb	-0.35706887
59	0xbf7a3e27	-0.97751087
60	0xbf3128f8	-0.6920314
61	0xbf002689	-0.500588
62	0xbe862091	-0.2619672
63	0xbf437949	-0.7635694
64	0xbf6a6979	-0.9156719
65	0xbf20c551	-0.6280108
66	0xbf0c3dbf	-0.5478172
67	0xbf340bd2	-0.70330536
68	0xbf6a4c9c	-0.91523147
69	0xbf10dd1e	-0.565874
70	0xbf2645dc	-0.64950347
71	0xbf13851f	-0.57625
72	0xbf03aa78	-0.5143199
73	0xbf1266d1	-0.57188135
74	0xbf0cdee7	-0.5502762
75	0xbf25ea8f	-0.64811033
76	0xbee7ebf7	-0.45297214
77	0xbf2b6aa5	-0.669596
78	0xbeb1477f	-0.3462486
79	0xbe93c07f	-0.288578
80	0xbf34096b	-0.7032687
81	0xbf2dc91c	-0.67884994
82	0xbef60cc5	-0.48056617
83	0xbf226b98	-0.63445425
84	0xbf55c7dd	-0.8350809
85	0xbf4b7d93	-0.79488486
86	0xbf0ec309	-0.5576635
87	0xbe9db452	-0.30801636
88	0xbed7cb00	-0.42147064
89	0xbe9c0e0c	-0.30479467
90	0xbf3be312	-0.73393357
91	0xbf3bff61	-0.7343655
92	0xbf17f23b	-0.5935399
93	0xbe083b08	-0.13303769
94	0xbf19f8ac	-0.6014507
95	0xbeb71761	-0.35760024
96	0xbf6b8fc1	-0.92016226
97	0xbea3af43	-0.31969652
98	0xbe4caa7d	-0.19986911
99	0xbfaf023f	-1.367256
100	0xbe8e5a73	-0.27803382
101	0xbf000cdb	-0.50019616
102	0x3dd737b6	0.10508673
103	0xbe85bb04	-0.26119244
104	0x3f0d9b26	0.5531486
105	0x3f9d0b8b	1.2269148
106	0x3f973883	1.1814121
107	0xbf17303f	-0.5905799
108	0xbf384a4d	-0.71988374
109	0x3ee4dffa	0.4470213
110	0x3f388ffa	0.7209469
111	0x3d42d644	0.04756762
112	0xbe566c0e	-0.20939657
113	0x3ea4d3b5	0.3219277
114	0x3eebc5ee	0.46049446
115	0xbeab7c53	-0.3349329
116	0x3f3723c0	0.71538925
117	0x3e6c8efc	0.23101419
118	0xbeb51814	-0.35369933
119	0x3f673ac6	0.90324056
120	0xbee789ac	-0.45222223
121	0xbebde55f	-0.3708906
122	0xbe4af724	-0.19820839
123	0xbeb926ef	-0.36162516
124	0xbc6ed99a	-0.014578247
125	0xbee4a01a	-0.44653398
126	0xbf5bed80	-0.8590927
127	0x3d1a5352	0.037677117
128	0xbf458daf	-0.77169317
129	0xbe4163dd	-0.18885751
130	0x3f1fdaaa	0.6244303
131	0xbf10ea8c	-0.5660789
132	0x3ebff0c6	0.37488383
133	0xbf7516fa	-0.95738184
134	0xbf050767	-0.5196442
135	0xbf431880	-0.7620926
136	0xbf840bc8	-1.0316095
137	0x3f17138e	0.59014213
138	0x3ee85d12	0.45383507
139	0xbf5111e1	-0.81667906
140	0x3f0a5eb7	0.54050773
141	0x3eeed377	0.4664571
142	0x3e8039db	0.2504414
143	0x3e9718f7	0.29511234
144	0x3f1173b7	0.5681719
145	0x3eb0b308	0.3451159
146	0xbe78d3e8	-0.24299586
147	0x3f86ba86	1.0525672
148	0x3e05921a	0.13044015
149	0xbe168e95	-0.14702828
