modules/prn_gen/exp/id/models/trigram/FIN-decoder-wdecay_1e_5-attn_dot-emb_128-hddn_128-layers_1-epoch_85.pth (torch, 651504 bytes, 7 tensors)

embedding.weight f4 [36, 128]
0	0x3e1933b9	0.14961137
1	0xbedf3f40	-0.43602943
2	0x3f56a516	0.8384565
3	0x3ee35cc0	0.444067
4	0xbef046e3	-0.46929082
5	0xbcca41c7	-0.024689568
6	0x3df5b71a	0.119978145
7	0xbe690578	-0.22755992
8	0x3f6d2114	0.926286
9	0x3e8c2687	0.27373144
10	0x3cc2b7ae	0.023769226
11	0x3f1f7831	0.6229277
12	0xbd66eaf0	-0.056376398
13	0x3e0c571f	0.13705109
14	0x3e81e57e	0.253704
15	0x3f86af6f	1.0522288
16	0xbd30285f	-0.04300725
17	0x3e32e394	0.17469627
18	0x3f717a5f	0.9432735
19	0xbe2aab17	-0.16666828
20	0xbe1495a7	-0.14510213
21	0x3edae354	0.42751563
22	0xbf853ee0	-1.0409813
23	0x3f413508	0.75471544
24	0xbd4c1384	-0.0498233
25	0x3d090171	0.03344864
26	0x3e5096b3	0.20369987
27	0xbe70faed	-0.2353322
28	0x3f52f2b7	0.82401603
29	0xbf87eb9d	-1.0618778
30	0xbe213065	-0.15741117
31	0xbf2f64c6	-0.68513143
32	0xbf511aa5	-0.8168128
33	0xbe5df2c3	-0.21674637
34	0xbf2763ac	-0.6538646
35	0x3eea3c32	0.4574905
36	0xbf244f6e	-0.641837
37	0x3ebf4861	0.37359908
38	0x3e5705a6	0.20998248
39	0x3f258243	0.6465189
40	0x3d77b0ce	0.06047135
41	0xbf91f496	-1.1402767
42	0xbf157f0a	-0.5839697
43	0x3ed3d8ae	0.4137625
44	0x3f299565	0.6624358
45	0xbe0b17ba	-0.1358327
46	0x3f366409	0.7124639
47	0xbe1270d8	-0.14300859
48	0xbf6834bd	-0.9070547
49	0xbd7cd345	-0.06172492
50	0x3ebd9d4a	0.37034065
51	0xbfb35e59	-1.4013168
52	0x3e6143fa	0.21998587
53	0xbeb52d14	-0.35385954
54	0x3d9da923	0.07698276
55	0xbc972d64	-0.018454261
56	0xbed08d45	-0.4073278
57	0x3f62cd2f	0.88594335
58	0xbe641add	-0.22275873
59	0xbedb9577	-0.4288747
60	0xbd440a7f	-0.047861572
61	0xbd7ec838	-0.062202662
62	0xbe7cc453	-0.24684267
63	0x3f05ae84	0.52219415
64	0x3fac5b79	1.3465415
65	0xbe78f03f	-0.24310397
66	0x3f34b3de	0.70586956
67	0x3f2fd1f0	0.68679714
68	0x3fd4afaf	1.6616114
69	0x3f75fe15	0.96090823
70	0xbf0537a4	-0.52038026
71	0xbeec78e8	-0.46185994
72	0xbf348e73	-0.7052986
73	0xbe37c51b	-0.17946284
74	0x3db6aab6	0.08919279
75	0xbf841daf	-1.0321559
76	0xbe3021d6	-0.17200407
77	0x3f4b555f	0.7942714
78	0xbecc9001	-0.39953616
79	0x3dcc5b8d	0.099783994
80	0x3ecef5b1	0.40421823
81	0xbf2a4d2e	-0.66524017
82	0xbefc3557	-0.49259445
83	0x3f8caa3c	1.0989451
84	0xbda4dc9e	-0.08049892
85	0x3e1c6e6d	0.15276499
86	0x3e468ff0	0.19390845
87	0x3dc57b07	0.09642606
88	0xbf2db2dc	-0.6785104
89	0x3f490f97	0.78539413
90	0xbc05c381	-0.008164288
91	0x3e1d8f33	0.15386657
92	0xbecafd99	-0.39646605
93	0xbf22c07f	-0.63574976
94	0xbef671ec	-0.4813379
95	0x3f2f12d3	0.683881
96	0xbe926941	-0.28595927
97	0x3ea2d413	0.31802425
98	0xbe9c2e06	-0.30503863
99	0x3ccc416c	0.02493354
100	0x3e63afc1	0.22235014
101	0x3efc4216	0.4926917
102	0x3ec5dc0b	0.38644442
103	0x3ee470f8	0.44617438
104	0xbdc320e9	-0.095277615
105	0x3f3a12ed	0.7268513
106	0xbf4d6c88	-0.8024373
107	0x3f55d096	0.835214
108	0x3f708d11	0.9396525
109	0x3f42f5f0	0.7615652
110	0xbecc0c05	-0.3985292
111	0xbf69b2b8	-0.9128833
112	0xbe3cc9b2	-0.18436316
113	0x3f0caf1f	0.54954714
114	0xbe27bdf9	-0.16381063
115	0x3f3412af	0.7034101
116	0x3d9f5354	0.077795655
117	0x3e869288	0.2628367
118	0xbd74b21d	-0.059740175
119	0xbeeb1aa3	-0.4591876
120	0xbf94de11	-1.1630269
121	0x3dd392c4	0.10330728
122	0x3f951131	1.1645871
123	0x3dbeae89	0.09310634
124	0x3f305bc8	0.6889005
125	0xbf087f58	-0.5331931
126	0xbeba6a3a	-0.3640917
127	0xbf1fce3c	-0.62424064
128	0xbe25237e	-0.1612682
129	0xbe186259	-0.14881267
130	0x3e4ef559	0.2021078
131	0x3da35bba	0.0797648
132	0xbd98e566	-0.07465629
133	0x3e99c53d	0.30033293
134	0x399a8b1a	0.00029476808
135	0xbde63689	-0.112408705
136	0xbdf684b6	-0.12037031
137	0x3ea34a70	0.3189273
138	0xbf23923f	-0.6389503
139	0xbf8664e7	-1.0499543
140	0xbdcc9771	-0.09989823
141	0xbec3b9bd	-0.38227645
142	0x3e76e877	0.24112116
143	0xbf457bd6	-0.77142084
144	0xbe904b39	-0.2818239
145	0xbe6bd1eb	-0.23029296
146	0xbde98ffc	-0.11404416
147	0x3ebe1d36	0.3713166
148	0xbe1d8601	-0.1538315
149	0xbe5bdcb2	-0.21470907
150	0xbe5e027f	-0.2168064
151	0xbf28e33c	-0.6597173
152	0x3d1f6112	0.038910933
153	0x3e0edfa3	0.13952498
154	0xbe7840cc	-0.24243468
155	0x3e2f1ce1	0.1710086
156	0x3ea36f96	0.3192107
157	0xbea9cca0	-0.3316393
158	0x3eefd12b	0.4683927
159	0x3d98b360	0.07456088
160	0xbe245648	-0.16048539
161	0x3db9c64a	0.09071024
162	0x3e869925	0.26288715
163	0xbd85ad94	-0.06527248
164	0x3ddab4f8	0.10679048
165	0xbeacb310	-0.33730364
166	0xbe95c4f2	-0.2925182
167	0x3d294cb7	0.041332927
168	0x3e54a43f	0.2076578
169	0x3e7206e1	0.23635437
170	0xbd3ac92f	-0.04560202
171	0xbe63fb5f	-0.22263859
172	0x3f15b29a	0.5847565
173	0x3d2bff2a	0.04199139
174	0xbe59b11a	-0.21258965
175	0xbf0e96a1	-0.5569859
176	0xbe2db9a3	-0.16965346
177	0xbf0afb6e	-0.542899
178	0xbeeb1115	-0.4591147
179	0x3e6c105f	0.2305312
180	0xbe17d5ab	-0.14827602
181	0xbd99fa6f	-0.075184695
182	0x3e5c808f	0.21533416
183	0x3dd366c5	0.10322336
184	0xbd1223fb	-0.035678845
185	0x3e853bee	0.26022285
186	0xbe885088	-0.2662394
187	0xbe3d55f1	-0.18489815
188	0xbca111ad	-0.019661749
189	0x3e51ae22	0.20476583
190	0xbe1d7971	-0.15378357
191	0xbe313e8d	-0.17309017
192	0x3d522ee7	0.05131426
193	0xbe0727c0	-0.13198757
194	0x3d9ff7bf	0.07810926
195	0xbea1e36e	-0.31618828
196	0xbde71bb1	-0.112845786
197	0xbdede1bd	-0.11615322
198	0xbeac44fa	-0.33646375
199	0xbe118bb9	-0.14213456
200	0xbe89bac8	-0.26900315
201	0x3d6fdba2	0.058559068
202	0xbf118f88	-0.56859636
203	0x3e788f30	0.24273372
204	0x3de69713	0.11259284
205	0x3e854997	0.26032707
206	0xbe748684	-0.23879439
207	0xbcaca58f	-0.021075038
208	0xbe7ab741	-0.24483968
209	0x3e8216c6	0.25408
210	0x3ebe7c81	0.37204364
211	0x3cc623f6	0.02418707
212	0x3e8704ab	0.2637075
213	0x3ec12605	0.3772432
214	0x3d948e09	0.072536536
215	0xbd0d8e5b	-0.03455959
216	0x3e69a502	0.22816852
217	0x3d4c35f3	0.049856137
218	0xbe0ba88c	-0.13638514
219	0xbe813009	-0.2523196
220	0x3d8c15d1	0.06840099
221	0xbe7d2ba2	-0.24723676
222	0xbbccf3ba	-0.0062546404
223	0x3d50cc15	0.050975878
224	0xbeb5a36a	-0.35476238
225	0xbd871fdc	-0.065978736
226	0xbed26abc	-0.41097057
227	0xbc17df82	-0.009269597
228	0xbf0b2089	-0.5434652
229	0xbeaebe75	-0.34129682
230	0x3effa48b	0.49930224
231	0x3d898b0b	0.067159735
232	0xbf17eb3e	-0.59343326
233	0x3ebde670	0.37089872
234	0x3d95f52a	0.07322152
235	0x3e77f66f	0.242151
236	0x3f155596	0.5833372
237	0x3f216d57	0.63057464
238	0xbe9e5609	-0.30925015
239	0x3eba139a	0.3634308
240	0xbef76fc7	-0.48327467
241	0x3d72239e	0.059116
242	0xbe8e805d	-0.27832308
243	0xbe9dfa52	-0.30855042
244	0x3e51d9be	0.20493218
245	0xbe6d2549	-0.23158754
246	0xbb394e6d	-0.0028275505
247	0xbf414f36	-0.7551149
248	0x3dd85d99	0.10564727
249	0x3e648403	0.22315983
250	0xbe4428aa	-0.19156137
251	0xbf3f6339	-0.74760777
252	0x3d8b7454	0.06809297
253	0x3e170e32	0.14751509
254	0xbdd6157b	-0.10453316
255	0x3e70523b	0.23468868

gru.weight_ih_l0 f4 [384, 256]
0	0xbd66b1a7	-0.056321766
1	0xbde58581	-0.112071045
2	0xbd30d530	-0.04317206
3	0x3db8634f	0.090033166
4	0xbda325f0	-0.079662204
5	0x3b5a6175	0.003332225
6	0x3da1de05	0.07903675
7	0x3df9521e	0.12173866
8	0xbe4f6869	-0.20254673
9	0xbe412060	-0.18860006
10	0xbdbdb571	-0.09263123
11	0xbe3209ce	-0.17386553
12	0xbc1223a1	-0.008919627
13	0xbe51f2a7	-0.20502721
14	0x3b449803	0.0029997833
15	0xbd645c93	-0.05575235
16	0x3d5ceb05	0.05393507
17	0x3d6bc202	0.057558067
18	0xbdef2bab	-0.11678251
19	0x3c9a4b9a	0.018834878
20	0x3bc9b960	0.0061561316
21	0xbe7bb459	-0.24580516
22	0xbe4f5f02	-0.20251086
23	0x3d1346a7	0.03595605
24	0x3e1647d8	0.14675844
25	0x3d8b7e7d	0.06811235
26	0xbdcb52b3	-0.09927883
27	0xbd7b4048	-0.0613406
28	0xbe0d425b	-0.13794844
29	0xbc30b961	-0.010786385
30	0x3dd7f16b	0.10544094
31	0xbdcebebb	-0.10094973
32	0x3dda7e5c	0.106686324
33	0x3dd2f2c0	0.10300207
34	0x3ddc1d28	0.107477486
35	0x3d754770	0.05988258
36	0x3e5ac17c	0.21362871
37	0xbe8857ae	-0.26629394
38	0xbe5849d0	-0.21121907
39	0x3dbf5562	0.09342457
40	0x3cd469a3	0.025929278
41	0xbc600914	-0.013674039
42	0x3c57dec5	0.013175671
43	0x3d6f9f0c	0.05850129
44	0x3e1b707f	0.15179633
45	0xbd943fa8	-0.07238704
46	0xbdbe0b62	-0.09279515
47	0xbdccbf92	-0.09997477
48	0xbd08a501	-0.033360485
49	0xbdeeea79	-0.11665816
50	0x3ca0b1b8	0.019615993
51	0x3dacdfb4	0.084411055
52	0xbe3c5fac	-0.18395871
53	0x3de0ec4f	0.10982572
54	0x3d796e72	0.060896344
55	0x3da885d9	0.082286544
56	0xbcc7b4ea	-0.024378259
57	0xbdb5887f	-0.08863925
58	0xbd4c8808	-0.049934417
59	0xbd2488c4	-0.040169492
60	0x3d765b0f	0.060145434
61	0x3ddca632	0.10773887
62	0xbc4613a1	-0.012089641
63	0xbdfb7609	-0.12278373
64	0x3d90335c	0.07041046
65	0xbe45417d	-0.19263263
66	0xbdd3eb0e	-0.103475675
67	0x3cad6183	0.021164661
68	0xbe11c18d	-0.1423399
69	0xbb22843c	-0.0024798056
70	0xbb334f52	-0.002736051
71	0xbd35f740	-0.04442525
72	0x3d488892	0.04895837
73	0xbc88f53b	-0.016718497
74	0xbdcfaeee	-0.10140787
75	0x3e03bb5d	0.12864442
76	0x3def78a1	0.1169293
77	0x3ada2c31	0.001664525
78	0xbdf24789	-0.118300505
79	0x3d92d3c3	0.071692966
80	0xbdb336d8	-0.08750695
81	0x3d46415c	0.048402175
82	0x3ca12ced	0.019674743
83	0xbdd2e428	-0.102974236
84	0xbcceae46	-0.025229584
85	0x3d7af19d	0.061265577
86	0x3dbb5f4e	0.09149037
87	0x3c11f4d5	0.00890847
88	0x3e1859e6	0.14878044
89	0xbdcdc3a8	-0.10047084
90	0xbe178725	-0.14797647
91	0xbd495744	-0.04915549
92	0xbd7451fe	-0.059648506
93	0xbe0fe928	-0.14053786
94	0xbc0f832c	-0.008759301
95	0x3e5f9d78	0.21837413
96	0xbe545833	-0.2073677
97	0x3c8acc0c	0.016943
98	0xbb6bdf72	-0.0035991338
99	0xbb8995ee	-0.004198781
100	0x3e12eb55	0.14347585
101	0x3e0f5656	0.13997778
102	0xbd50589c	-0.050865754
103	0xbe33d426	-0.17561397
104	0xbda4aaf5	-0.0804042
105	0xbd86d469	-0.06583483
106	0xbdcb8c97	-0.09938925
107	0x3cb23e7a	0.021758307
108	0xbe113953	-0.14182024
109	0x3ddff244	0.109348804
110	0x3d60302c	0.05473344
111	0x3e1f509f	0.15558098
112	0x3dd61b3a	0.10454412
113	0xbdba3dfa	-0.09093852
114	0xbbf12fa7	-0.007360417
115	0xbdfb876b	-0.12281688
116	0x3d7dab71	0.061931077
117	0xbe2fe904	-0.17178732
118	0x3e1e8f0d	0.15484257
119	0xb904a8c7	-0.00012651375
120	0x3d317b1a	0.04333029
121	0x3df8cb7a	0.12148185
122	0xbd1d4b3a	-0.03840182
123	0xbd688ee2	-0.05677689
124	0x3d78d870	0.060753286
125	0x3d4187ae	0.047248535
126	0x3e0208f3	0.12698726
127	0xbdde89d1	-0.1086613
128	0xbd376a8f	-0.044779357
129	0xbbfb7a9f	-0.0076745297
130	0xbc87caf3	-0.016576266
131	0x3e99f710	0.30071306
132	0x3d4ad424	0.04951872
133	0x3d2436d0	0.040091336
134	0xbdf6d29d	-0.1205189
135	0x3e16cbfb	0.1472625
136	0x3d43ef14	0.047835425
137	0x3cc6e6b0	0.024279922
138	0xbe0db9bc	-0.13840383
139	0x3d326600	0.043554306
140	0xbe12ac35	-0.14323504
141	0x3d3e019b	0.04638825
142	0x3dbca984	0.0921202
143	0xbd87f956	-0.06639354
144	0x3d380e4d	0.044935513
145	0xbe27f06a	-0.16400304
146	0xbe5e955b	-0.21736662
147	0xbe15cfe6	-0.14630088
148	0xbda4f01c	-0.0805361
149	0xbcff59dc	-0.031170778
150	0x3e4431c2	0.19159606
151	0x3c967a41	0.018368842
152	0xbd896d2c	-0.06710276
153	0xbd59846a	-0.053104796
154	0x3d7f9e8b	0.062407058
155	0xbc988b4f	-0.018621115
156	0x3dee73df	0.116431944
157	0xbe2f09cb	-0.1709358
158	0x3e589af6	0.21152863
159	0xbe005756	-0.12533316
160	0xbd77507b	-0.060379487
161	0x3bcf3154	0.006323019
162	0x3c1d17f3	0.0095882295
163	0x3cd53084	0.02602411
164	0xbdbfa8c6	-0.09358363
165	0xbca72377	-0.020402653
166	0xbe63faa5	-0.22263582
167	0xbde27f02	-0.11059381
168	0x3c174a1e	0.0092339795
169	0xbcf4c2dd	-0.029878074
170	0x3d06dcef	0.032925542
171	0x3d54666e	0.051855497
172	0x3dad8707	0.0847302
173	0xbd99f61b	-0.07517644
174	0x3db1c8ec	0.08680901
175	0xbe1dd424	-0.15412956
176	0xbe58dead	-0.21178694
177	0x3d80d3d4	0.06290403
178	0x3b63111b	0.0034647647
179	0x3db02819	0.08601398
180	0xbe073caf	-0.13206743
181	0x397f33d1	0.00024337998
182	0x3cf20e36	0.029547792
183	0xbc26953d	-0.010167417
184	0xbd0ae868	-0.033913046
185	0x3bb5d120	0.0055486113
186	0xbdb4d019	-0.08828754
187	0x3dd75c1d	0.10515616
188	0xbc815557	-0.015787764
189	0xbcf5a4ed	-0.02998587
190	0xbd87174b	-0.0659624
191	0x3dd8878c	0.105727285
192	0xbe02c383	-0.12769894
193	0xbbcdb04b	-0.0062771193
194	0xbdaf2291	-0.08551515
195	0x3d835cd4	0.0641419
196	0x3ce116e4	0.027476735
197	0xbd0803f5	-0.0332069
198	0x3cf438e2	0.02981228
199	0x3dd9372b	0.106062256
200	0x3d35c033	0.04437275
201	0x3d78c289	0.0607324
202	0xbe2a18d2	-0.1661103
203	0xbdd1c446	-0.10242514
204	0xbe0c5b32	-0.13706663
205	0xbd26d53a	-0.040730692
206	0x3da63963	0.081164144
207	0xbcb67426	-0.02227218
208	0xbd93e7be	-0.07221936
209	0xbdd7a542	-0.10529567
210	0xbdab196d	-0.08354459
211	0xbddc4a92	-0.10756411
212	0xbd271a9e	-0.04079687
213	0x3dd5fa49	0.10448129
214	0xbd8c2dfe	-0.0684471
215	0x3db179b2	0.0866579
216	0x3d120bad	0.035655666
217	0x3ccedba3	0.025251215
218	0xbdb1bd4e	-0.08678685
219	0xbc3d0c46	-0.011538571
220	0xbdfa429e	-0.122197375
221	0x3d5159ba	0.05111096
222	0x3e04c1ba	0.12964526
223	0x3c301c47	0.010748929
224	0xbe092402	-0.13392642
225	0x3dfb9057	0.1228339
226	0x3daf0d48	0.08547455
227	0xbdd9865a	-0.10621329
228	0x3ce57dbb	0.028014055
229	0xbe58beee	-0.21166584
230	0xbe24cc89	-0.16093649
231	0x3e1ee000	0.15515137
232	0x3d33430d	0.043765116
233	0xbe22693f	-0.1586046
234	0x3e449a9e	0.19199607
235	0xbe62081a	-0.22073403
236	0x3d360e16	0.044447027
237	0x3ce5aabb	0.028035512
238	0xbc0b7411	-0.008511559
239	0xbdbb316a	-0.09140284
240	0x3d8627b9	0.06550545
241	0x3bab4ea1	0.005227879
242	0x3c1d5a50	0.009604052
243	0x3dc61415	0.09671799
244	0xbe38008f	-0.17968963
245	0x3de4b1b7	0.11166709
246	0xbc95ad11	-0.018271001
247	0xbda61650	-0.081097245
248	0x3df92428	0.121650994
249	0xbdac622d	-0.08417163
250	0x3a996c48	0.0011705244
251	0x3d428a05	0.047494907
252	0x3dcbb2fb	0.09946247
253	0x3e397b37	0.18113409
254	0xbc952212	-0.018204723
255	0x3b9a3ce3	0.0047069653

gru.weight_hh_l0 f4 [384, 128]
0	0x3e490e6c	0.19634408
1	0xbd5415ca	-0.051778592
2	0xbb08b666	-0.002086067
3	0xbcec72ae	-0.028863277
4	0x3c8176aa	0.015803654
5	0xbdf25219	-0.11832065
6	0xbda547d9	-0.080703445
7	0x3d1b8f70	0.03797859
8	0x3daa5f96	0.08319013
9	0x3d336582	0.043797977
10	0xbdf60072	-0.12011804
11	0xb98202cb	-0.00024797613
12	0xbd80df1f	-0.06292557
13	0xbb23a5b1	-0.0024970586
14	0xbe522d7f	-0.20525168
15	0x3ca40a14	0.020024337
16	0x3cde2e65	0.027121732
17	0xbdbdc5bf	-0.09266233
18	0xbd8f03a6	-0.06983118
19	0xbdc0d285	-0.094151534
20	0xbe829b05	-0.25508896
21	0xbe43e1ac	-0.19129056
22	0x3cbf5579	0.023356186
23	0x3d2fd58c	0.042928264
24	0xbda4db99	-0.080496974
25	0x3d4c8eea	0.04994098
26	0xbd9ea557	-0.0774638
27	0x3d92736f	0.071509235
28	0x3d5da93f	0.054116484
29	0xbd734b3d	-0.059397925
30	0xbc530667	-0.012879944
31	0xbe0e5672	-0.13900164
32	0xbc80c0f0	-0.015717
33	0xbd64f195	-0.055894453
34	0xbdf66f70	-0.12032974
35	0x3e181c3c	0.1485452
36	0xbcd9cec1	-0.026587846
37	0xbe24a080	-0.16076851
38	0xbde67203	-0.11252215
39	0xbd278b59	-0.040904377
40	0xbdc4e507	-0.09613996
41	0xbd5b10ea	-0.053482927
42	0x3e41f875	0.18942435
43	0x3d744946	0.05964019
44	0xbdb4bb83	-0.088248275
45	0xbda3ab7e	-0.07991694
46	0xbdd76ea1	-0.10519148
47	0x3b571301	0.0032817724
48	0x3d94c9b0	0.07265031
49	0x3ca7105f	0.020393549
50	0x3d667e29	0.05627266
51	0xbc9a9a1d	-0.018872315
52	0xbd0fca14	-0.035104826
53	0xbd1f2d2e	-0.038861446
54	0xbd6fd7d8	-0.058555454
55	0x3ce426af	0.027850477
56	0xbcfc9287	-0.030831588
57	0xbe5028cc	-0.20328063
58	0xbd7618b7	-0.060082164
59	0x3cb6542a	0.02225693
60	0xbe647919	-0.2231182
61	0xbd0cc16b	-0.034364145
62	0x3da1e641	0.079052456
63	0xbd88f4e1	-0.06687332
64	0xbe522ae3	-0.20524172
65	0x3c0ecadd	0.008715359
66	0xbe0c3fca	-0.13696209
67	0xbd551435	-0.052021224
68	0x3dbafb46	0.09129958
69	0xbe5c70cd	-0.21527405
70	0x3d97f8e8	0.07420522
71	0xbd5169d2	-0.05112631
72	0xbdf42e28	-0.11922866
73	0x3d8a63d6	0.067573234
74	0x3d938d6f	0.07204711
75	0x3df1700b	0.117889486
76	0x3e68d846	0.22738752
77	0xbd045d2f	-0.03231543
78	0x3d7081d2	0.058717556
79	0xbd737ecb	-0.05944709
80	0xbe1bd6e2	-0.1521869
81	0xbda33fae	-0.0797113
82	0xbcede8b6	-0.02904163
83	0xbd46db71	-0.04854912
84	0xbc8cd3a7	-0.017190767
85	0x3b96508d	0.004587239
86	0x3de9242c	0.11383852
87	0x3d9f2c6a	0.07772143
88	0x3dd3502d	0.10318027
89	0xbd863d62	-0.065546766
90	0xbe36362b	-0.17794101
91	0xbbd1050d	-0.006378776
92	0xbe4b3441	-0.19844152
93	0x3e4bb8f9	0.1989478
94	0x3d58c624	0.052923337
95	0x3d234a94	0.039866045
96	0xbdaea8d4	-0.08528295
97	0x3cd69f9d	0.026199156
98	0xbc895e75	-0.016768673
99	0xbd9c8c88	-0.07643992
100	0xbe4caf92	-0.1998885
101	0xbd91d2fd	-0.07120321
102	0x3d164596	0.036687456
103	0xbd3d1f4a	-0.046172418
104	0x3cca62d5	0.02470533
105	0xbe391e2a	-0.18077913
106	0x3c5baf25	0.013408457
107	0xbd17a3ed	-0.037021566
108	0xbcc8a3d2	-0.024492178
109	0x3dcc3276	0.09970562
110	0x3d81aa19	0.06331272
111	0x3cd85aea	0.026410539
112	0xbe7565f1	-0.23964669
113	0x3cd7d55f	0.02634686
114	0x3e101c9c	0.14073414
115	0x3cb60b7b	0.022222271
116	0xbd70563c	-0.05867599
117	0xbd9a7f7e	-0.075438485
118	0x3e14aefc	0.14519876
119	0xbd899a2a	-0.067188576
120	0x3dad9d7c	0.084773034
121	0x3e3e81f0	0.18604255
122	0x3c1ab9ea	0.009443739
123	0x3db878d5	0.09007422
124	0x3dd36bf3	0.10323324
125	0x3d7352f0	0.059405267
126	0xbcd7980e	-0.026317623
127	0x3df2a0a6	0.118470475
128	0xbd25d316	-0.04048451
129	0x3b520c64	0.0032050842
130	0x3ceef9fa	0.029171932
131	0x3ac5db93	0.0015095345
132	0xbc72f673	-0.014829266
133	0xbd235653	-0.039877247
134	0x3c1e4a5f	0.009661286
135	0x3bd7c469	0.006584693
136	0x3d867cd7	0.0656678
137	0x3c2a9147	0.010410613
138	0x3c6bdf1f	0.014396458
139	0x3d3bf234	0.04588528
140	0x3b9b9323	0.0047477647
141	0xbc9dc8fa	-0.019260872
142	0x3b55cab7	0.0032622048
143	0x3d4fd2d8	0.050738186
144	0x3bb2b130	0.0054532513
145	0x3ce68c05	0.028142938
146	0xbbcfff0a	-0.0063475417
147	0x3d20a52c	0.03922002
148	0xbcf94c71	-0.030431958
149	0xbd1d19f1	-0.038354818
150	0xbc46d4c5	-0.012135689
151	0x3a9a6371	0.0011778903
152	0xbc660852	-0.01404007
153	0x3c2fbe0a	0.010726461
154	0xbc779ee8	-0.01511357
155	0xba7d9020	-0.00096726604
156	0x3d34ab73	0.04410882
157	0xbc64cfad	-0.013965529
158	0x3c6817dd	0.014165846
159	0x3c6a0a8b	0.01428474
160	0xbd97ca93	-0.07411685
161	0x3c6010b9	0.013675862
162	0xbd0c41e7	-0.034242537
163	0x3cd14442	0.025545243
164	0x3d316bc6	0.04331567
165	0xbcc322ef	-0.023820369
166	0xbd420c21	-0.04737485
167	0xbc860ada	-0.016362596
168	0xbd5e7749	-0.054312978
169	0xbcd028de	-0.025410112
170	0x3d0560a3	0.032562863
171	0xbd2eae97	-0.04264697
172	0x3bce8a42	0.0063031027
173	0xbc721f65	-0.014777993
174	0xbbfaa5e8	-0.007649172
175	0xbd591e52	-0.05300743
176	0x3ae41fef	0.0017404536
177	0x3cb6a7de	0.022296842
178	0x3ac7b59c	0.0015236619
179	0x3c90bd0a	0.017668266
180	0xbc8a60d5	-0.016891876
181	0xbcd45e58	-0.025923893
182	0xbc6b354f	-0.0143559715
183	0x3bcef008	0.006315235
184	0xbca20196	-0.019776147
185	0xbd7f6a0f	-0.062357005
186	0xbc992f67	-0.018699361
187	0x3d8c8745	0.06861738
188	0xbb66a2d2	-0.0035192263
189	0xbc11d66d	-0.008901221
190	0xbcaba9e9	-0.020955043
191	0x3c8c6c53	0.017141497
192	0xbca1ac5d	-0.01973551
193	0x3d0adc11	0.033901278
194	0xbd01d189	-0.03169397
195	0xbd0a759e	-0.033803575
196	0x3c9b5a43	0.018963939
197	0x3d09a108	0.033600837
198	0x3c23f904	0.0100081
199	0x3ca02977	0.019551022
200	0x390cfd7f	0.00013445875
201	0x3d77c554	0.06049092
202	0xbdb95096	-0.09048574
203	0xbce05d15	-0.027388135
204	0x3d32da3c	0.043665156
205	0x3c1a589a	0.009420538
206	0xbc967316	-0.018365424
207	0xbd1b1942	-0.037865885
208	0x3d07bd76	0.03313967
209	0x3cab0530	0.020876497
210	0xbd79a89d	-0.060951818
211	0x3b544808	0.0032391567
212	0xbd517c9d	-0.05114423
213	0x3ba77c2a	0.005111237
214	0xbbe21a0a	-0.0069000768
215	0x3caa3213	0.02077583
216	0x3c3f769f	0.011685996
217	0xbd137dd0	-0.036008656
218	0x3c81bb1e	0.015836295
219	0xbc9c65fb	-0.019091597
220	0xbce68ead	-0.028144205
221	0x3baaf1ee	0.0052168285
222	0xbb3672ec	-0.0027839495
223	0x3d179247	0.037004735
224	0xbc49fe42	-0.012328686
225	0x3d299008	0.041397125
226	0xbd4aec73	-0.0495419
227	0xbcd706b0	-0.026248306
228	0xbb218087	-0.0024643259
229	0x3bd67a36	0.0065453304
230	0xbc82b739	-0.015956508
231	0xbce8bb4a	-0.028409619
232	0xbc28ba4c	-0.010298323
233	0x3bc5218e	0.006015963
234	0x3cd37920	0.025814593
235	0xbca54ec4	-0.02017916
236	0x3d3139e2	0.043268092
237	0xbcbe24e8	-0.023210958
238	0x3cc3be2c	0.023894392
239	0xbca1e484	-0.019762285
240	0xbc90824f	-0.017640261
241	0x3cdd4451	0.027010115
242	0xbc49f8b5	-0.012327363
243	0xbd29cc3d	-0.041454542
244	0xbd590142	-0.052979715
245	0xbcd0a227	-0.025467945
246	0x3c461b93	0.012091535
247	0xbcfd001c	-0.030883841
248	0x3c279d90	0.010230437
249	0x3b682d12	0.0035427255
250	0xbc8ebadf	-0.017423091
251	0x3b0a27c1	0.0021080824
252	0x3c10f9ba	0.008848602
253	0x3be54177	0.0069963294
254	0x3d261b5c	0.040553436
255	0x3d422e8e	0.04740768

gru.bias_ih_l0 f4 [384]
0	0xbd778a17	-0.060434427
1	0xbcbc67a5	-0.02299864
2	0x3d664128	0.05621448
3	0xbd0fe946	-0.035134576
4	0xbd505a09	-0.050867114
5	0x3d80ec6b	0.06295093
6	0xbd085525	-0.033284325
7	0xbd66e368	-0.056369215
8	0x3c2a57b9	0.010396891
9	0x3d85cd67	0.06533318
10	0x3d91058b	0.07081135
11	0xbbc21468	-0.005922843
12	0x3d60d1bc	0.05488752
13	0xbd36cbe9	-0.044628058
14	0xbd9ecd2a	-0.07753976
15	0x3c116e68	0.008876421
16	0x3d1801e4	0.037111178
17	0xbca56fd2	-0.020194922
18	0x3de7fdba	0.113276914
19	0x3e0b0707	0.135769
20	0x3cc380ee	0.02386519
21	0x3cd21e38	0.025649175
22	0xbbbde360	-0.0057949275
23	0xbd021430	-0.031757534
24	0x3e174826	0.14773616
25	0x3be5da77	0.0070145684
26	0xbd89714a	-0.06711061
27	0x3d650402	0.055912025
28	0xbd7d0fab	-0.06178252
29	0xbdb1c61d	-0.08680365
30	0xbcc052d1	-0.02347699
31	0xbda98794	-0.082778126
32	0xbda0168a	-0.07816799
33	0xbd77cd37	-0.060498443
34	0xbd2c0f08	-0.042006522
35	0x3cabd5b6	0.020975929
36	0xbd6dce0e	-0.058057837
37	0x3d1c9f87	0.038238075
38	0xbc98c0c9	-0.018646615
39	0xbc603bb1	-0.013686107
40	0x3d10271e	0.035193555
41	0x3da60427	0.08106261
42	0xbca3d36f	-0.01999828
43	0xbceaf156	-0.028679531
44	0x3b927083	0.004468979
45	0x3b2399e2	0.0024963547
46	0x3c504db5	0.012713839
47	0xbd2ea4c3	-0.042637598
48	0x3cd330d0	0.025780112
49	0xbd8a9f68	-0.067686856
50	0xbccc6eb8	-0.024955139
51	0x3de4f3f7	0.11179345
52	0x3cf061a3	0.029343432
53	0x3d7ed28c	0.062212512
54	0xbb860aa8	-0.004090626
55	0x3de4e7c6	0.1117702
56	0xbd60e50a	-0.05490593
57	0x3d786f28	0.06065288
58	0xbb0f0093	-0.002182041
59	0x3de17874	0.11009303
60	0xba369330	-0.00069646817
61	0x3c84e077	0.016220314
62	0xbce7326d	-0.028222287
63	0x3bf93910	0.0076056793
64	0x3c808a7d	0.015691036
65	0xbc3b41a0	-0.01142922
66	0xbdf53849	-0.11973626
67	0x3cbb870a	0.02289154
68	0xbcfcdee9	-0.03086801
69	0xbd9b7ac9	-0.07591779
70	0x3d2763d3	0.040866684
71	0x3c65602e	0.013999982
72	0x3cb4d56f	0.02207443
73	0x3d69c5db	0.057073455
74	0xbd1a14f7	-0.03761765
75	0x3ccff258	0.025384113
76	0x3d5ce590	0.053929865
77	0x3dc5fd13	0.09667411
78	0xbd6b311b	-0.057419877
79	0x3c922282	0.01783872
80	0x3cce0989	0.025151031
81	0xbdb7252a	-0.08942635
82	0x3bd8e776	0.006619389
83	0xbe06fb59	-0.13181819
84	0x3d1e15f8	0.03859517
85	0x3ce2fca7	0.027708365
86	0x3d2e7da9	0.042600308
87	0xbd25fc9c	-0.04052411
88	0xbd603adc	-0.054743633
89	0x3d00f485	0.031483192
90	0x3daed2d8	0.08536309
91	0x3ce05075	0.027382115
92	0x3e08a61d	0.13344617
93	0x3d0c4cab	0.034252804
94	0xbd9a20de	-0.075258
95	0x3d810b5a	0.06300993
96	0xbb224646	-0.0024761125
97	0x3c3fd781	0.011709095
98	0x3db2ac78	0.08724302
99	0xbbedbb52	-0.0072549963
100	0x3dc17c53	0.09447541
101	0x3cb691fc	0.022286408
102	0x3cb2045e	0.021730598
103	0x3c30d016	0.010791799
104	0x3c2abd2e	0.0104210805
105	0x3d81f7e3	0.06346109
106	0x3ab9a067	0.0014162184
107	0x3aa05082	0.0012231024
108	0x3cf815aa	0.030283768
109	0x3d90eb9c	0.07076189
110	0x3d8224b6	0.06354658
111	0xbcd61dcd	-0.026137257
112	0x3e0df646	0.13863477
113	0x3ca55705	0.020183096
114	0xbca2d0eb	-0.01987501
115	0xbdc644e0	-0.096811056
116	0xbd584b98	-0.052806467
117	0xbd015a2a	-0.031580128
118	0x39aa0599	0.00032429097
119	0x3cfdad0a	0.0309663
120	0xbd0caa23	-0.034341943
121	0x3dad615d	0.08465836
122	0xbc9dda06	-0.019269
123	0xbd27552d	-0.040852714
124	0xbd13d596	-0.036092363
125	0x3d0183fe	0.03162002
126	0xb8f94deb	-0.000118877586
127	0x3c3e1ca5	0.011603509
128	0xbe0cfd63	-0.13768534
129	0xbc8c6243	-0.017136699
130	0xbe0abe19	-0.13549079
131	0xbe7aa116	-0.24475512
132	0xbe51db92	-0.20493916
133	0xbd528a70	-0.051401556
134	0xbde6bc07	-0.11266332
135	0x3c3bc0e9	0.011459568
136	0xbdeadf73	-0.11468401
137	0xbe65d3e1	-0.22444107
138	0xbe31237d	-0.17298694
139	0x3ddf2d24	0.10897282
140	0x3d1d7654	0.038442925
141	0x3d1b79f4	0.0379581
142	0xbe8891d8	-0.2667377
143	0xbd3c6865	-0.045997996
144	0xbd53b127	-0.051682618
145	0x3cb33860	0.021877468
146	0x3b4ef42d	0.0031578646
147	0xbe3f1f9b	-0.186644
148	0xbd201134	-0.039078906
149	0x3b5a02ad	0.0033265755
150	0xbe2c3f27	-0.16820966
151	0x3bbb8e56	0.005723755
152	0xbe008dbb	-0.12554066
153	0x3c1bfca1	0.009520681
154	0xbd073510	-0.03300959
155	0xbe3af18a	-0.18256202
156	0xbe1a9db4	-0.15099221
157	0x3db60cf9	0.08889193
158	0x3d1a826f	0.037722047
159	0xbe5cdc45	-0.21568401
160	0xbe3fd146	-0.18732175
161	0xbe3f0ad6	-0.18656477
162	0xbe0a71da	-0.13519993
163	0xbddea047	-0.10870414
164	0x3d6a59c0	0.0572145
165	0xbbdbcfc9	-0.0067081195
166	0xbe2cad0c	-0.16862887
167	0x3d9aa0ec	0.07550225
168	0xbc0c073c	-0.008546647
169	0xbd5bc197	-0.05365142
170	0xbe27fbfc	-0.16404718
171	0xbe6dfade	-0.2324023
172	0x3ddc5440	0.10758257
173	0x3d512470	0.05106014
174	0xbdd072a6	-0.101781175
175	0xbdc71618	-0.09721011
176	0xbb31c671	-0.0027126337
177	0xbe7671fd	-0.2406692
178	0xbd9886b2	-0.07447566
179	0xbe23967a	-0.15975371
180	0x3da79df2	0.081844226
181	0xbcfc5a92	-0.030804906
182	0xbd86d22f	-0.06583058
183	0xbdb0cb59	-0.086325355
184	0x3ddac898	0.106827915
185	0xbe14b6e7	-0.14522897
186	0x3dfec190	0.12439263
187	0xbb1d2aab	-0.002398173
188	0xbc038ad5	-0.008028706
189	0x3d2bdd56	0.04195913
190	0xbdca8763	-0.09889104
191	0xbde8591e	-0.11345123
192	0xbdc6d7cf	-0.09709131
193	0x3e1e2cb0	0.15446734
194	0x3c100fc2	0.008792819
195	0x3b1c4e39	0.0023850335
196	0x3cdccd29	0.026953297
197	0x3bd36626	0.006451386
198	0x3d81766c	0.06321415
199	0xbd5494bd	-0.05189966
200	0x3d9ec6be	0.07752751
201	0xbcbff584	-0.0234325
202	0xbe5bc738	-0.21462715
203	0xbe51d34c	-0.2049076
204	0xbe02deb7	-0.12780271
205	0xbe24f2fa	-0.16108313
206	0x3c196cc5	0.009364312
207	0x3d97a296	0.07404058
208	0xbd9078b7	-0.070542745
209	0x3c11756b	0.008878092
210	0x3c6a5868	0.014303304
211	0xbe0f1035	-0.13971026
212	0x3d1ce351	0.038302723
213	0xbe4a221e	-0.19739577
214	0xbe641d68	-0.22276843
215	0x3db01d92	0.0859939
216	0x3dc01e79	0.09380812
217	0x3d958c46	0.07302146
218	0xbe5271b9	-0.20551194
219	0xbddda7da	-0.10823031
220	0x3dd89a22	0.105762735
221	0x3d06971e	0.03285896
222	0xbe561fb1	-0.20910527
223	0xbe3265cf	-0.1742165
224	0xbe402882	-0.18765453
225	0x3ccf36b2	0.025294635
226	0xbdc5cb81	-0.09657956
227	0x3e4be36b	0.19910972
228	0xbe14563f	-0.14486025
229	0x3b7a23f5	0.0038168405
230	0x3dad8deb	0.08474334
231	0xbe1b2a3d	-0.15152831
232	0xbd796a6c	-0.060892507
233	0xbe3d10fc	-0.1846351
234	0x3e045c71	0.12925889
235	0xbe53640d	-0.20643635
236	0x3bfaa973	0.0076495945
237	0xbe3892e2	-0.18024781
238	0xbdeabb5c	-0.11461517
239	0x3e1fed0d	0.15617771
240	0xbe30f1f6	-0.17279801
241	0x3c76f547	0.015073127
242	0x3d02594d	0.031823445
243	0xbe78ac14	-0.24284393
244	0xbdef928a	-0.11697872
245	0xbe2231b5	-0.15839274
246	0xbe2eeeca	-0.17083278
247	0x3d8ec829	0.06971771
248	0xbde4ac25	-0.111656465
249	0xbd98ccaf	-0.07460915
250	0x3dba46d7	0.09095543
251	0xbe625739	-0.22103585
252	0xbe258757	-0.1616491
253	0xbdf0ac3e	-0.117516026
254	0xbd331185	-0.04371788
255	0x3c00d62f	0.007863565

gru.bias_hh_l0 f4 [384]
0	0xbd7d4847	-0.061836507
1	0xbd1d869d	-0.038458455
2	0x3d9b6b29	0.075887986
3	0x3cff9bbc	0.03120219
4	0xbbc3b559	-0.005972546
5	0x3d719e91	0.05898911
6	0x3c927160	0.017876327
7	0xbd1318ee	-0.035912447
8	0xbcbba1cd	-0.022904301
9	0x3cadfa1c	0.021237426
10	0x3da87f99	0.08227462
11	0xbba4146e	-0.005007318
12	0x3c432a7c	0.0119119845
13	0xbd2a9404	-0.041645065
14	0xbd7f01f2	-0.062257715
15	0x3d7a734b	0.06114511
16	0x3d3ed0c1	0.046585802
17	0xbca7e1da	-0.020493437
18	0x3d13adaa	0.03605429
19	0x3d78bdb8	0.060727805
20	0x3da45dfe	0.0802574
21	0x3cd22030	0.025650114
22	0xbdbd535e	-0.09244417
23	0xbcb6c3b0	-0.022310108
24	0x3dbb5978	0.09147924
25	0x3be6254d	0.0070234896
26	0xbd38c68b	-0.04511122
27	0xbc9a6cd3	-0.01885072
28	0xbd783e00	-0.060606003
29	0xbd827720	-0.063703775
30	0x3c2a8237	0.010407022
31	0x3aab6180	0.0013075322
32	0xbcd56a60	-0.0260517
33	0xbdc6e470	-0.0971154
34	0xbd94d5c7	-0.07267337
35	0xbadb596a	-0.0016735021
36	0xbd9805b7	-0.07422965
37	0x3d202786	0.039100192
38	0xbd99ecbc	-0.075158566
39	0xbc5fd7a4	-0.013662253
40	0x3ccc8917	0.024967713
41	0x3d9f8663	0.07789304
42	0x3be03184	0.00684184
43	0x3cd42e34	0.025900938
44	0x3b926ab8	0.0044682883
45	0x3a300145	0.00067140564
46	0x3d62a324	0.055331364
47	0xbd19c918	-0.037545294
48	0x3d31ff79	0.04345653
49	0xbdfbd8ed	-0.12297235
50	0x3a1ad47c	0.00059062964
51	0x3e05e8ce	0.13077089
52	0x3d44d87c	0.048058018
53	0x3d7dd809	0.061973605
54	0x3d2f182c	0.04274766
55	0x3dc10cf8	0.09426302
56	0xbd48e375	-0.049045045
57	0x3d6c286f	0.057655748
58	0xbb0e2603	-0.0021690137
59	0x3ddd6a84	0.10811332
60	0x3d306306	0.043063186
61	0xbd081668	-0.033224493
62	0x3d424abf	0.047434565
63	0xbd219db7	-0.03945705
64	0xbc1b6985	-0.009485607
65	0x3b86c3e5	0.004112708
66	0xbda9269f	-0.082593195
67	0x3cb8e53f	0.02257025
68	0xbcb48925	-0.022038052
69	0xbcd9ddac	-0.02659496
70	0x3d4203f3	0.047367048
71	0x3bd56f96	0.006513546
72	0x3c1c2692	0.00953068
73	0x3d8c63c5	0.06854967
74	0xbdb3844d	-0.08765469
75	0x3d2e0e1b	0.04249392
76	0x3d0ac5dd	0.033880103
77	0x3d8ea498	0.069649875
78	0xbd82095f	-0.06349444
79	0x3cad0b03	0.021123415
80	0x3d62e05f	0.05538976
81	0xbdabb501	-0.08384133
82	0x3cf29a4d	0.029614592
83	0xbd7a5f87	-0.06112626
84	0x3d1be05b	0.03805576
85	0x3db68704	0.08912471
86	0xbcb1ff52	-0.021728192
87	0xbd01b9fa	-0.0316715
88	0xbd5d6857	-0.054054584
89	0x3cfefbbb	0.031125894
90	0x3d75af40	0.059981585
91	0x3d591045	0.05299403
92	0x3dd28aaa	0.10280354
93	0x3d11e27e	0.03561639
94	0xbcf770ac	-0.030205093
95	0x3d042475	0.03226133
96	0xbb44b38b	-0.0030014243
97	0x3c400a94	0.011721272
98	0x3c685582	0.014180543
99	0xbbedb82c	-0.007254621
100	0x3cdf7af4	0.027280308
101	0xbd7c6dd7	-0.06162819
102	0x3cc2d88a	0.023784894
103	0xbce25316	-0.02762751
104	0x3d21ff4a	0.039550103
105	0x3dc91ff2	0.09820546
106	0x3bdde953	0.006772199
107	0x3ce99126	0.028511595
108	0x3ce96a4a	0.028493065
109	0x3d65f882	0.0561452
110	0x3cbdad1e	0.023153838
111	0xbcd60e5d	-0.026129896
112	0x3dc617d6	0.09672515
113	0x3cc77e39	0.02435218
114	0xbb14e847	-0.0022721456
115	0xbd65132b	-0.055926483
116	0xbd8279b6	-0.06370871
117	0xbd046db9	-0.032331202
118	0x3cd6d33c	0.026223771
119	0xbbc8eb0e	-0.0061315363
120	0x3d3ac4f0	0.04559797
121	0x3db41c20	0.08794427
122	0xbc84294c	-0.016132973
123	0x3cde360c	0.027125381
124	0x3d28894b	0.041146558
125	0x3cddf59b	0.027094653
126	0xbd141c97	-0.036160078
127	0x3bab3789	0.005225126
128	0xbdf4d1be	-0.11954068
129	0xbc127982	-0.0089401025
130	0xbdb2bdd9	-0.08727617
131	0xbe465eb2	-0.19372061
132	0xbe2813df	-0.1641383
133	0xbca3e415	-0.020006219
134	0xbde5339b	-0.111914836
135	0x3dfab311	0.122411855
136	0xbe4c8197	-0.1997131
137	0xbe856a5c	-0.26057708
138	0xbe35bc16	-0.1774753
139	0x3cd9b1a9	0.026573973
140	0x3cf9ed01	0.03050852
141	0xbd891ba8	-0.06694728
142	0xbe527f6f	-0.20556425
143	0xbb8fbce7	-0.0043865326
144	0xbc3c0645	-0.011476104
145	0xbc80a2f3	-0.0157027
146	0xbcbed6db	-0.02329581
147	0xbe14853e	-0.14503953
148	0xbd182b7e	-0.037150852
149	0xbdea6037	-0.11444133
150	0xbe0ba9a5	-0.13638933
151	0x3da594b6	0.08085005
152	0xbe20091c	-0.15628475
153	0x3c1428c9	0.009042927
154	0x3d0e422f	0.034731086
155	0xbe5d01ca	-0.21582714
156	0xbd61ebfb	-0.05515669
157	0x3d25b60d	0.04045682
158	0xbd0d9081	-0.034561638
159	0xbe632de9	-0.22185482
160	0xbe58252f	-0.21107934
161	0xbe743057	-0.23846565
162	0xbbd2eb25	-0.006436723
163	0xbdabd15c	-0.083895415
164	0xbd439856	-0.0477527
165	0x3d55a196	0.052156053
166	0xbdfd4a19	-0.12367649
167	0x3da303ea	0.07959731
168	0xbda17eaa	-0.078854874
169	0xbd8e3118	-0.06942958
170	0xbe2dd41c	-0.16975445
171	0xbe651a95	-0.22373421
172	0x3db29eaa	0.08721669
173	0x3d72fc4f	0.05932265
174	0xbe04c81a	-0.12966958
175	0xbe046f1f	-0.12933014
176	0x3cff2748	0.03114666
177	0xbe5f14c5	-0.21785267
178	0xbcbb5a4d	-0.022870207
179	0xbdfdfd8e	-0.12401877
180	0x3d5f6334	0.054537967
181	0xbd62eda4	-0.055402413
182	0xbda32f04	-0.07967952
183	0xbd901bd0	-0.07036555
184	0x3d895ee5	0.06707553
185	0xbe09c93a	-0.13455668
186	0x3e185c22	0.14878896
187	0xbd930bc9	-0.07179982
188	0xbcf37619	-0.0297194
189	0x3d981ba2	0.074271455
190	0xbe4df4a3	-0.20112853
191	0xbdc0d161	-0.09414936
192	0xbdc53b7d	-0.09630487
193	0x3e20196e	0.156347
194	0x3d501a4a	0.05080632
195	0x3c9e74bb	0.01934277
196	0xbd7e6d10	-0.06211573
197	0x3b8f2a11	0.0043690284
198	0x3d6fc361	0.058535937
199	0xbe12da65	-0.14341123
200	0x3b4b1846	0.003098981
201	0x3d4ea562	0.05045069
202	0xbe1ea241	-0.15491582
203	0xbe283f07	-0.16430293
204	0xbe0a1de7	-0.1348797
205	0xbe18dbf4	-0.14927655
206	0x3d5ceced	0.053936888
207	0x3dcd01c2	0.10010101
208	0xbe02a711	-0.12759043
209	0xbcf04716	-0.029330771
210	0xbc8fa0a6	-0.017532658
211	0xbe1c0a75	-0.15238364
212	0xbd3faf9e	-0.04679834
213	0xbe4c9cee	-0.19981739
214	0xbe5cb281	-0.21552469
215	0xbcf362a8	-0.029710129
216	0x3d93685c	0.07197639
217	0x3d3e7c7f	0.046505447
218	0xbe3ba59c	-0.18324894
219	0xbda1d1b7	-0.07901328
220	0x3db9a025	0.09063748
221	0xbc513764	-0.012769554
222	0xbe441c9e	-0.19151542
223	0xbe2f07d8	-0.17092836
224	0xbdd07101	-0.10177804
225	0xbdb34dbc	-0.08755061
226	0xbd624523	-0.055241715
227	0x3df16aff	0.11787986
228	0xbde420f3	-0.11139097
229	0xbdb29484	-0.08719733
230	0x3d9f9c58	0.07793492
231	0xbe447a25	-0.1918722
232	0xbdbf6944	-0.0934625
233	0xbe4c5ac6	-0.19956502
234	0x3dce9141	0.10086299
235	0xbe52b90b	-0.20578401
236	0xbd9b634d	-0.075872995
237	0xbe3b2697	-0.1827644
238	0xbd765534	-0.06013985
239	0x3e40cd08	0.18828213
240	0xbe4e6bca	-0.20158306
241	0xbdc427c2	-0.09577896
242	0xbd2f1436	-0.042743884
243	0xbe1c8030	-0.15283275
244	0xbcab8022	-0.020935122
245	0xbddb0fea	-0.10696395
246	0xbe50a339	-0.20374765
247	0xbcbd647b	-0.023119202
248	0xbdb3ea2c	-0.08784899
249	0xbd3bcdb2	-0.045850463
250	0x3bf1da30	0.0073807463
251	0xbe89e3eb	-0.269317
252	0xbe0c9364	-0.137281
253	0xbe2135e2	-0.15743211
254	0xbcdf7828	-0.027278975
255	0x3cbc3a95	0.022977153

out.weight f4 [36, 256]
0	0xbce6ea3b	-0.028187862
1	0xbd35ab46	-0.044352792
2	0xbd124f7d	-0.035720337
3	0xbc020aca	-0.007937143
4	0xbbe4f180	-0.006986797
5	0xbd001a8f	-0.03127533
6	0xbc48a379	-0.012246006
7	0xbccb0a25	-0.02478511
8	0x3ca65427	0.020303799
9	0x3c98d593	0.018656528
10	0x3c08ff59	0.008361661
11	0x3b30e783	0.002699346
12	0xbd3d73e1	-0.04625309
13	0x3bee2893	0.0072680204
14	0xbc9c7b12	-0.019101653
15	0x3c4e7b76	0.012602678
16	0x3b5a72c2	0.003333256
17	0x3cb0be69	0.02157517
18	0xbcb4f73f	-0.022090552
19	0xbcc571b2	-0.024102066
20	0x3caf49c4	0.021397479
21	0xbc2daf35	-0.010600855
22	0x3bc13976	0.0058967425
23	0x3c512403	0.0127649335
24	0xbbd16e95	-0.0063913562
25	0x3cb33d0a	0.021879692
26	0x3d3cc2f4	0.04608436
27	0xbb85894d	-0.0040752054
28	0x3cb118b0	0.021618217
29	0xbcabba67	-0.020962907
30	0xba2687d5	-0.0006352638
31	0x3a63445b	0.00086695486
32	0x3bf290a2	0.0074024955
33	0x3cc4fb9b	0.024045756
34	0xbc14a3a0	-0.009072214
35	0x38c69c50	9.470491e-05
36	0xb80d8361	-3.3739376e-05
37	0xbd1a5126	-0.037675045
38	0xbcf1f5f5	-0.029536227
39	0xbb6bfb68	-0.0036008004
40	0xbb051c35	-0.0020311002
41	0xbb83a96c	-0.0040179994
42	0xbb5ed618	-0.0034002122
43	0xbd107289	-0.03526548
44	0xbd09ea09	-0.03367046
45	0x3c8e5659	0.017375158
46	0x3ce85530	0.028360933
47	0xbb5b56b2	-0.0033468422
48	0xbc11b05e	-0.008892147
49	0x3ce3a85c	0.027790241
50	0x3c5a5909	0.013326892
51	0xbcf9a85f	-0.030475793
52	0xbd12ca68	-0.03583756
53	0x3c42c247	0.01188714
54	0x3b2192b1	0.0024654085
55	0xbbf8444b	-0.0075765005
56	0xbd23524f	-0.039873417
57	0xbcbedff0	-0.023300141
58	0xbd66ea0b	-0.056375545
59	0xbcd25ac5	-0.025678048
60	0xbd2b20dc	-0.041779384
61	0x3cd612d1	0.02613202
62	0xbbf6cd21	-0.0075317775
63	0xbb1feef3	-0.00244039
64	0xbc3c9edb	-0.0115124835
65	0xbcf31260	-0.029671848
66	0xbccfce22	-0.025366846
67	0x3ce63ae2	0.02810425
68	0x3ca2d4a2	0.019876782
69	0xbb29afeb	-0.0025892209
70	0xbcf6de92	-0.030135427
71	0x3c44b9ac	0.012007158
72	0xbb659db8	-0.0035036635
73	0xbbc5c725	-0.006035703
74	0xbc538f3c	-0.012912568
75	0x3ced3831	0.028957458
76	0x3bda5c58	0.0066638403
77	0xbc33d563	-0.010976168
78	0x3c3cf9b0	0.0115341395
79	0xbc896e08	-0.0167761
80	0x3c013875	0.007886996
81	0xbcadfbbb	-0.021238199
82	0xbd1213e7	-0.03566351
83	0xbc73016e	-0.014831884
84	0x3ca8e8ee	0.020618882
85	0xbbdb52fd	-0.0066932426
86	0x3cb4c8d2	0.022068415
87	0x3d525743	0.05135275
88	0xba99d47c	-0.0011736299
89	0x3c4e0ca0	0.012576252
90	0xbc40729f	-0.011746078
91	0xbc1d85b7	-0.0096144
92	0xbcd3bc9d	-0.025846774
93	0xbc5443ad	-0.012955588
94	0xbc88eee7	-0.01671548
95	0x3c9e9191	0.01935652
96	0xbcbc631f	-0.022996483
97	0x3d045095	0.03230341
98	0x3cc99845	0.02460874
99	0x3d1193f1	0.03554148
100	0x3bdd9faf	0.0067634205
101	0xbbe66aa9	-0.007031758
102	0xbc389a24	-0.011267219
103	0xbce2c9ae	-0.027684059
104	0x3c90c720	0.017673075
105	0x3c8b4249	0.01699938
106	0xbd00cbb5	-0.03144427
107	0xbc956f4b	-0.018241545
108	0x3c3862d9	0.011254036
109	0x3b9d2b5b	0.004796428
110	0x3beca44b	0.0072217337
111	0x3ca4a225	0.020096848
112	0xbbaa8f18	-0.0052050464
113	0xbccf6a27	-0.025319172
114	0x3c8ca8d2	0.017170344
115	0xbc723cb5	-0.0147849815
116	0xbc85ec8a	-0.016348142
117	0xbb1e6ccb	-0.0024173732
118	0x3be6e58b	0.0070464066
119	0x3c825d81	0.015913727
120	0xbc191080	-0.009342313
121	0x3d12735a	0.03575454
122	0x3c2af5f6	0.010434618
123	0xbba45b4a	-0.0050157653
124	0x3b764b33	0.0037581443
125	0xbc8a9ae6	-0.016919564
126	0x3c19992d	0.009374899
127	0x3c8dbdaa	0.017302353
128	0xb983b64d	-0.00025122092
129	0xbc4d65a6	-0.012536442
130	0x3b8c1a62	0.004275606
131	0x3cca2f1d	0.024680668
132	0xbc94e9ba	-0.018177856
133	0xbca9318f	-0.020653514
134	0xbd17a8eb	-0.037026327
135	0xbc9d09a5	-0.019169638
136	0x3bab9d71	0.0052372743
137	0x3a2f9a3a	0.0006698702
138	0xbc61521a	-0.013752485
139	0x3c2f31ba	0.010693008
140	0xbc63d400	-0.013905525
141	0xbc4a924e	-0.012363983
142	0x3b99a931	0.0046893586
143	0xbd063735	-0.032767493
144	0x3b50cf62	0.003186189
145	0xbb911581	-0.0044276123
146	0xbca8a074	-0.020584323
147	0xbcb61dcf	-0.02223101
148	0x3c48ce3b	0.0122562
149	0xbcd94cc6	-0.026525866
150	0xba42c09c	-0.0007429214
151	0xbc2a4cc0	-0.010394275
152	0xbb61d68f	-0.0034460162
153	0x3cbdb9aa	0.02315982
154	0x3cecf00f	0.028923063
155	0xbb70186c	-0.003663565
156	0x3c79e3e3	0.015252086
157	0xbc7b567b	-0.015340443
158	0x3bf4d237	0.0074713486
159	0x3c0e0b12	0.008669632
160	0xbca126e0	-0.019671857
161	0x3c4a1118	0.012333177
162	0x3c5df910	0.013548151
163	0x3c711afb	0.014715905
164	0x3a17da20	0.0005792696
165	0xbc152784	-0.00910366
166	0x3b37cb03	0.0028044588
167	0x3acd8ccc	0.001568222
168	0xbcc4553d	-0.023966426
169	0x3a3a35b6	0.00071033405
170	0x3c4b6a37	0.01241546
171	0x3c82eb7a	0.015981425
172	0xbc8d55d7	-0.017252846
173	0x3c3353f9	0.010945314
174	0x3b6375e2	0.0034707715
175	0xbd3125bf	-0.043248888
176	0x3a92f924	0.0011213166
177	0x3a7bb314	0.0009601575
178	0x3b7f37bc	0.0038943132
179	0xbc89f5cd	-0.01684084
180	0xbc1f8a8e	-0.009737624
181	0x3be5fb27	0.007018465
182	0x3c06663e	0.008203087
183	0x3c5c4fa1	0.013446719
184	0xbb8efb87	-0.0043634805
185	0xbc9e9232	-0.01935682
186	0xbd4a62b1	-0.049410526
187	0xbd119546	-0.03554275
188	0xbcb1f03e	-0.021721002
189	0x3c8e6ea6	0.017386746
190	0xbc354f7a	-0.011066312
191	0xbc8e0741	-0.017337443
192	0x3c918e6e	0.017768111
193	0xbd20daba	-0.039271094
194	0x3b856ec6	0.004072043
195	0xbbe17ce9	-0.0068813455
196	0x3adf09ce	0.0017016472
197	0xbb556408	-0.0032560844
198	0xbb1e29fb	-0.002413391
199	0x3c5ac405	0.013352399
200	0x3c4db01e	0.012554197
201	0x3c9d2782	0.019183878
202	0xbbe73a50	-0.007056512
203	0x3c4f15b2	0.01263945
204	0x3bde0d99	0.0067765233
205	0x3d0ca73a	0.034339167
206	0xbb304ecc	-0.0026902435
207	0xbc8b2b23	-0.016988343
208	0x3c666587	0.014062292
209	0xbc2c9622	-0.010533841
210	0xbd767694	-0.06017168
211	0xb9ca64f9	-0.00038603673
212	0x3c06648f	0.008202686
213	0x3cb60048	0.022216931
214	0xbc91a7b1	-0.017780157
215	0x3cce98f0	0.02521941
216	0x3b22afb3	0.0024823963
217	0x3b296cca	0.0025852197
218	0x3c26827e	0.010162948
219	0x3c3d0b3e	0.011538325
220	0x3c32129f	0.010868697
221	0x3cf3a636	0.029742341
222	0xbcb5747c	-0.02215027
223	0x3cc48600	0.023989677
224	0x3c1d2ed0	0.0095936805
225	0x3d0c525e	0.03425824
226	0xbbbab9cc	-0.0056984182
227	0x3d111c10	0.035427153
228	0x3d177f6d	0.036986757
229	0xbb6fd199	-0.0036593436
230	0xbc804128	-0.015656069
231	0x3c1c3f15	0.009536524
232	0x3d041bdb	0.032253128
233	0xbb23cc20	-0.0024993494
234	0xbc6a309d	-0.014293817
235	0x3b1c3e42	0.002384082
236	0xb8439ff9	-4.664061e-05
237	0x3c33a203	0.01096392
238	0xbb654871	-0.0034985805
239	0x3bf10a98	0.007355999
240	0x3c784992	0.015154259
241	0xbc62e099	-0.013847494
242	0x3afeb505	0.001943261
243	0xbc0b84ff	-0.008515595
244	0xbb1ffc8d	-0.0024412007
245	0xbc916c2b	-0.017751774
246	0xba31f9a1	-0.0006789212
247	0xbce3e0ab	-0.027817091
248	0xbb6214b9	-0.0034497215
249	0xbb4a6c93	-0.003088747
250	0x3c9109a5	0.017704794
251	0xbc9830e6	-0.018578004
252	0xb96d15ea	-0.00022610245
253	0xbbbbf09c	-0.00573547
254	0xbc8fc515	-0.01755003
255	0x3d1af5dc	0.037832126

out.bias f4 [36]
0	0xbd933186	-0.0718718
1	0x3d250fca	0.04029826
2	0xbd933186	-0.0718718
3	0x3e1ea43b	0.15492336
4	0xbddefaac	-0.108876556
5	0xbe2b3ad5	-0.16721661
6	0xbc93c9d5	-0.018040577
7	0xbe93eb6c	-0.2889055
8	0xbcd4742f	-0.025934307
9	0xbe16b0a7	-0.14715825
10	0xbddd8b3f	-0.10817575
11	0xbdba728b	-0.091038786
12	0xbdaaa7d4	-0.08332792
13	0xbddbc96f	-0.1073178
14	0xbc9576c0	-0.018245101
15	0xbd2bcd03	-0.04194356
16	0x3dad5d68	0.084650815
17	0xbe2ce068	-0.16882479
18	0xbd630db5	-0.055432994
19	0xbdae4628	-0.08509475
20	0xbd2ae71d	-0.041724313
21	0x3e05aeb6	0.13054928
22	0xbd83b826	-0.06431608
23	0xbdb72809	-0.08943183
24	0xbd9cbb48	-0.076529086
25	0xbe3fcbc8	-0.1873008
26	0x3ddfbb1b	0.109243594
27	0x3d37fc0a	0.044918098
28	0xbcbe5070	-0.023231715
29	0xbd3d5f0f	-0.046233233
30	0xbc0241d7	-0.007950268
31	0xbcacdd53	-0.02110163
32	0xbe2407ec	-0.16018647
33	0xbda031ed	-0.078220226
34	0xbde8142a	-0.11331971
35	0xbe265984	-0.16245085
