modules/prn_gen/exp/id/models/trigram/train-decoder-wdecay_1e_5-attn_dot-emb_128-hddn_128-layers_1-epoch_56.pth (torch, 651520 bytes, 7 tensors)

embedding.weight f4 [36, 128]
00000000: 603f 873f 0cc4 58bf c2f5 61be b8d8 0dbe
00000010: 7b0f a93f e4b9 13bf 6cc9 6d3f bf83 f73d
00000020: 9e6b cc3f 9888 52bf d91d 75be 0eca 2b3f
00000030: 2ecb 3cbf d424 3b3d 55cb 933f 246b ac3f
00000040: 7865 2c3f 7fcf 0cbe 6df6 c3be ea0d 6fbf
00000050: f067 60bd d04f 50bf d264 76bf 4db1 323f
00000060: 2e87 cbbe a245 873f 3282 593e 73f6 873f
00000070: ef01 883f bb37 c03e 9c3d 103e d182 64be
00000080: 7c0b 20bf 9e7c 04bf 9684 0bbf 225a 23bf
00000090: 84b2 00bf cae3 8f3f eb04 713c 01e7 45bf
000000a0: 51bf 0c3f c7e9 2abf 3ac9 c2be 303e b8be
000000b0: e498 55bf eded e3bd 00c6 b03e 5253 c33f
000000c0: 9b88 3d3f 7cf0 8dbf 8ff6 1ebe d5d2 40be
000000d0: f098 e63f b4ba 8b3f 0b07 303e dc8b 593f
000000e0: 6094 1cbf bb47 3abf 61ea db3c 7f64 01bf
000000f0: 7c64 c1be 90f2 8dbe 0466 b2bf c1e7 8c3f
00000100: 3228 673d b108 b73f 4d79 803e 7f63 b5bd
00000110: 12cf 8d3f f5e3 1f3f 8650 823f 270d debd
00000120: 223d 9b3e ba5c 16bf 6905 e83e 002c 99bf
00000130: 6697 06bd e508 fcbe 679e 653e 724f 58bd
00000140: b735 d3bf f3e5 183f 42af 863e 06a1 6bbc
00000150: 5542 143f 5810 a6be ac8b 1dbe 7fe6 03bf
00000160: bb9b a9bd d3e5 4a3e e73e bd3f db16 5d3e
00000170: 0874 823f 04bb 2a3f 178d 0a3e a1b7 07bf
00000180: c756 0a3d 396a a1be b160 b9be 0336 bf3f
00000190: d9ce 85be 15a9 d3bf a432 d83e af50 2d3e
000001a0: b188 51be 931c a7be ff42 babf 9726 1e3f
000001b0: 5dd1 8d3e 53e5 9abf a236 03bf c058 58bf
000001c0: 7e27 0ebd 9132 183f 4471 adbd f1c2 fe3e
000001d0: 5975 d93e 0767 44be 0731 95bf 63d1 21bf
000001e0: 5e64 ef3e 05a6 efbe cbf7 203e ff1c b0bc
000001f0: 781b 9e3e 42a7 b4be 1ed7 8d3f e020 593f
00000200: d38a 72bf d447 b33d d02d ed3e a7df 243f
00000210: 1eab 653e cdff 633f 7df3 973e c808 cf3d
00000220: d524 443f ea38 bf3d b3ec 18bf 968a eb3e
00000230: cc7e a1be d688 43bf ed88 abbe 7d0e 04bf
00000240: f574 d7be 7004 ff3e 3cc5 da3d 3879 003f
00000250: 0da5 83be f9a6 063f 5365 67be 4360 203f
00000260: dde6 2cbf 8a6a 42bf 73c9 753f e0c4 c03e
00000270: 6738 6dbe 362a 2cbd 2ffc a4be 01c2 bbbe
00000280: 6104 22be 97fa 1cbd f719 443f 95f2 743e
00000290: 5b87 113f 0ace 16bf 0203 0cbf 9d5c bbbe
000002a0: b7d5 afbe 67dd 8e3f ac46 c7be 4824 0bbf
000002b0: b175 2fbe 897b 39bf e2f2 d2be 6c88 733e
000002c0: 09be b8be e08d c6bb 0401 2d3f 649a e3be
000002d0: de7e 4c3e deee e13d 92e8 bb3e 7ae2 35be
000002e0: 1bc5 c3be 1865 ac3d 9bb9 c5bf e0ec ae3e
000002f0: bfda 873c 5c9c 83be 6a6b acbe 3e22 aa3d
00000300: 8fa2 dabe 7f29 1b3e b63c 593f a156 993e
00000310: 071b 263d d436 bdbe 9874 0b3f 1c56 00bf
00000320: 255d d1be df71 22bf a3a5 253e 8170 bdbc
00000330: 18bd 06bf cebf 7abd b5b6 b9bd acf1 13be
00000340: cf8f ef3e cfb1 b6bd bd66 dfbe 5d9e 75be
00000350: 6583 88be 10e8 553f 2631 b83e 11cb 93bd
00000360: 4d8a 0cbf 438f 08bf 02ee 8cbe ab44 77be
00000370: 6a26 4b3f dd89 84be 6c71 c13e f48b 90be
00000380: 39ee f5be ac32 9fbe b520 43be 7b36 99be
00000390: 8261 c4be 645f 473f fe56 e93d e564 0c3d
000003a0: c6d0 74bc c1f3 f0bd 39d3 fc3e ec81 7a3f
000003b0: d42b 3e3f 8189 cbbe 074e 1abf eb39 2ebe
000003c0: 06c1 1abf ca4f 42bf d94c 443f e752 95be
000003d0: 45a4 373c 0abc fa3e 9882 383e fdc4 e83e
000003e0: 7367 bfbe 95f5 b5be 9231 0b3f 9ecc 6abe
000003f0: 5850 cabe dc1a 26bf dafa c73d 9220 16bf
1.0566216 -0.84674144 -0.22066405 -0.13852203 1.3207849 -0.5770552 0.9288547 0.120856754
1.5970342 -0.82239676 -0.23937167 0.67105186 -0.7374753 0.04568942 1.1546427 1.3470197
0.6734233 -0.13751028 -0.38273945 -0.93380606 -0.054786623 -0.81371784 -0.9624759 0.6980179
-0.3975157 1.0568125 0.21241072 1.0622085 1.062559 0.3754252 0.14086002 -0.22315527
-0.62517524 -0.5175265 -0.54499185 -0.63809407 -0.50272393 1.1241391 0.014710645 -0.7730561
0.54979426 -0.66762966 -0.3804415 -0.35984945 -0.8343642 -0.11129365 0.34526062 1.5259802
0.7403657 -1.1089015 -0.15523742 -0.18830426 1.8015423 1.0916352 0.17190187 0.84979033
-0.611639 -0.727657 0.026845159 -0.5054397 -0.37771976 -0.27724123 -1.3937383 1.1008226
0.056434818 1.4299527 0.25092545 -0.08856868 1.1078818 0.6245721 1.0180824 -0.10842352
0.30320078 -0.5873524 0.45316628 -1.1966553 -0.03285923 -0.49225536 0.22423707 -0.05281014
-1.6500767 0.59725875 0.26305586 -0.014381653 0.57913715 -0.32434344 -0.15385312 -0.51523584
-0.08281656 0.19814233 1.4784821 0.2159075 1.019166 0.66691613 0.13530384 -0.5301457
0.033774164 -0.31526354 -0.36206582 1.4938358 -0.26134375 -1.6535975 0.42226136 0.1692531
-0.204623 -0.32638988 -1.4551696 0.61777633 0.27698794 -1.2101234 -0.5125524 -0.8451042
-0.03470563 0.5945216 -0.08468869 0.49758103 0.42472342 -0.19179927 -1.1655587 -0.63210124
0.46756262 -0.4680635 0.15719526 -0.021498201 0.30880332 -0.35283858 1.1081274 0.8481579
-0.9474308 0.087539345 0.46324015 0.64403766 0.22428557 0.89062196 0.29677954 0.10109097
0.766187 0.09337027 -0.59736174 0.4600417 -0.3154205 -0.7638067 -0.33502904 -0.5158461
-0.4208142 0.49808073 0.10682151 0.50184965 -0.2571186 0.5259853 -0.22597246 0.62646884
-0.6753977 -0.75943816 0.9601051 0.37650204 -0.23166047 -0.042032443 -0.3222365 -0.3667145
-0.15821983 -0.03832492 0.7660212 0.23920663 0.5684716 -0.5890814 -0.5469209 -0.36594096
-0.3434274 1.1161317 -0.38921106 -0.54352236 -0.1713474 -0.72454125 -0.4120093 0.2378251
-0.36082485 -0.0060593933 0.67579675 -0.44453728 0.19970271 0.110318884 0.36700875 -0.17762175
-0.38236317 0.084177196 -1.5447267 0.34165096 0.016583798 -0.2570523 -0.336757 0.083073124
-0.42702147 0.15152548 0.8485826 0.29948905 0.04055312 -0.36955893 0.5447478 -0.5013139
-0.40891376 -0.63455003 0.16176467 -0.023124935 -0.52632284 -0.061218075 -0.09068052 -0.14447659
0.46789405 -0.08920633 -0.4363307 -0.23986192 -0.26662746 0.83557224 0.35974997 -0.07216466
-0.5489853 -0.533436 -0.27525336 -0.24147289 0.7935549 -0.2588643 0.37781847 -0.28231776
-0.48033312 -0.31093347 -0.19055445 -0.29924378 -0.38355643 0.7787993 0.113935456 0.034275908
-0.014942354 -0.11765242 0.493799 0.97854495 0.74285626 -0.39753345 -0.6027531 -0.17014281
-0.6045078 -0.75903 0.7667976 -0.29164812 0.0112085985 0.48971587 0.18018568 0.4546279
-0.37383613 -0.35538927 0.54372513 -0.22929618 -0.39514422 -0.64884734 0.09764643 -0.5864345

gru.weight_ih_l0 f4 [384, 256]
00000000: bf5e 0abe 28f9 2a3d 9de3 9d3d 11e2 50bd
00000010: f128 963c 9cef 18bc dab2 edbd 8bfb 12be
00000020: 797c 51bc 4711 913d 1c59 4839 1429 d43c
00000030: 84ac 783c 3fcd bcbd ab26 2a3e 72fe 8f3d
00000040: 477c e23d db80 823d d7b6 293d f6d0 19bd
00000050: c420 123e 9f93 0a3e 0705 333d 7a49 06bd
00000060: c68b 453d 8160 4abe cfb6 c13d 26d1 5e3d
00000070: 679f f53d 401e 35bd d228 09bd c343 e0bc
00000080: fc9b 4ebd b8b2 a5bd ae93 d23d f970 d53d
00000090: a298 9f3d 79ea 0e3e 59af 803c aef5 d13d
000000a0: 852b 973c 55f9 8a3d 53fa a23d 8045 593d
000000b0: 77b8 5ebd 05bb 35be 635c deb9 a1b2 9d3b
000000c0: 379c de3d 8829 fcbc 8d21 9d3d e418 d6bd
000000d0: 7d01 033b 7d1e c9ba 5ff8 9a3d 2c00 debd
000000e0: e622 b03d 1b23 063d 2553 3a3e 5031 d03d
000000f0: 3401 963c 5284 2a3e 656f 033d 939d a83d
00000100: d2dd b0bc c178 a83d cb17 32be 1cd2 e63d
00000110: 6a56 8a3c 6270 613b a33b 17bd 7808 183c
00000120: 1a18 d2bb f3e2 bf3d 3a4e a53d 9e3a 873d
00000130: 56e1 a23c 9c71 8a3b 2fa4 463d f006 bf3a
00000140: 67ee a2bd d129 a7bc 32d7 81bd 3767 bbbd
00000150: 251a 8e3d 5b24 0fbe 42d1 323e 55f2 123d
00000160: c9a7 793d 7198 17bd 8215 3f3c 84ed d93d
00000170: ef77 063e 9e1a 3bbe 9a69 bdbd 913a 913b
00000180: 5ed7 8e3c 3f55 80bd 9765 94bd f194 9bbc
00000190: 586f b4bd 150b 9e3d 066a 57bd 7f92 27bd
000001a0: 53ff 02bd bf9d bcbc be77 93bd b5a5 043d
000001b0: 1b14 b43d bd60 bfbb 064d c9bd e2fd 923c
000001c0: a2e2 263c fa78 a33d bfd4 4e3d b171 0d3e
000001d0: 8c10 6e3d 66a4 933d 480f 4d3d ef5c b13d
000001e0: 86b8 98bd be53 d9bd b2f8 b4bd 85c5 4fbd
000001f0: 0fc6 1bbd 789a 1abd 7051 4f3c 0c73 203d
00000200: 9d23 8abd ed2a c8bd 4e09 f6bd 5516 90bc
00000210: 6089 193d 5875 be3d d3da 243e 2c35 a23c
00000220: 840f f0bd a50e 0fbd 29ab b83d 02b5 cebd
00000230: 1f43 543d 6712 32be 07a1 db3d 0254 90be
00000240: b381 8bbc 300b 8abd f598 853b 3382 89bd
00000250: 5c8a 103d 4ca0 d93c e79e 603d a465 3c3d
00000260: 0f8d e73c 822b eb3d 4080 1d3b b801 fd3c
00000270: bbe1 28be ebeb 8ebd 7e8b 3b3d bca9 33bd
00000280: 9bcc e03c f452 27bc d1ec babd f779 8bbd
00000290: 0c4d 843d 09b2 a33d e238 da3c f831 1e3e
000002a0: 93cc ad3d c690 8cbd 2d51 0d3e 15cc 8dbd
000002b0: 5618 52bd 4db3 743e 57d2 8bbd d689 453e
000002c0: 0e0c 923d a8a4 713d 2be6 07bd 0c99 0ebb
000002d0: b138 f7bb 7602 783d 7a71 99b9 a5a9 153d
000002e0: 37a0 dd3c 7743 f8bc 48f5 28bd 4a92 cf3d
000002f0: b3d9 113e 6e99 6fbc 90c8 a33d 284c 123d
00000300: 3ccd 7dbc 0e37 a4bd 04e3 48bd f4f0 b6bc
00000310: 896c c1bd c887 4c3d 24a5 3e3e 1b84 703c
00000320: b1f2 043d f7da 06bb 5501 96bc a72e b63d
00000330: 8fc6 c63b aed5 a6bd 7a97 0a3d 4148 32bc
00000340: e576 1b3e 6415 283e ffc0 4fbd 8061 29bd
00000350: ae3e 263e dca5 37bd 9290 81bd 393a 9f39
00000360: 3394 a4bd e40b d53c 221d 96bd 063f b2bd
00000370: 4d1e 11bc f341 083e 4765 ac3c 2a20 1a3e
00000380: d9b9 31bd e9a0 d83c 2869 9dbd ece3 c6bc
00000390: 4ee9 9cbd 1dea 053e a3b3 0f3d 02f4 f43c
000003a0: 4dca f83d 9897 71bc cf7d 76bd a1d6 b4bd
000003b0: d621 7bbc c677 06bd 7e7b 91bd 13d0 023c
000003c0: ef05 45bc 4299 efbc 743b dcbb 7911 373e
000003d0: ec6b e1bd afc1 56be eb36 8d3c 60ce 50bd
000003e0: 9765 39bc b0ce 2bbe 2118 073e d64a 843b
000003f0: 5d23 9e3c 8995 15bd cabf b93c c9ce 983b
-0.13512705 0.04174152 0.077094294 -0.050996844 0.01833007 -0.009334471 -0.11606379 -0.14353769
-0.012786024 0.070833735 0.00019106682 0.025898494 0.01517785 -0.09218835 0.16616313 0.070309535
0.1105886 0.063722335 0.041434135 -0.037552796 0.14270312 0.13532875 0.043705966 -0.032784916
0.048229 -0.19763376 0.09458696 0.05439868 0.11993294 -0.0442183 -0.033486195 -0.027376061
-0.050441727 -0.080907285 0.10282074 0.104219384 0.07792784 0.13956632 0.015708612 0.10251938
0.018453369 0.067858376 0.07957902 0.053044796 -0.054375138 -0.17747124 -0.00042411973 0.004812554
0.10869639 -0.030781522 0.07672415 -0.10453966 0.00199899 -0.0015344169 0.07566904 -0.108398765
0.08600406 0.032748323 0.1819578 0.101656556 0.01831112 0.16652039 0.032088656 0.0823318
-0.021590147 0.08226157 -0.17391889 0.11270544 0.016886909 0.003439926 -0.03692211 0.009279363
-0.0064115645 0.09369459 0.08071561 0.06602977 0.01988284 0.004224969 0.04849642 0.0014574211
-0.07955628 -0.020405682 -0.063398734 -0.09150546 0.069385804 -0.13978712 0.17462638 0.035875637
0.060951028 -0.037010614 0.011662843 0.10641006 0.13131689 -0.18271872 -0.092486575 0.0044320305
0.01743668 -0.062662594 -0.07245939 -0.01899192 -0.088103 0.077169575 -0.052591346 -0.040911194
-0.031981777 -0.023024438 -0.072005734 0.032384593 0.08792897 -0.0058403895 -0.09829144 0.017943326
0.010185869 0.07982059 0.05049586 0.13812901 0.05812125 0.07209091 0.0500634 0.08660304
-0.0745707 -0.10611676 -0.08836497 -0.05072548 -0.03803068 -0.03774497 0.012653694 0.039172217
-0.06745074 -0.097738124 -0.120134935 -0.017588774 0.037484527 0.09299725 0.160991 0.019800745
-0.11721709 -0.034926075 0.09017021 -0.10093118 0.051821824 -0.17389832 0.10724073 -0.28189093
-0.017029619 -0.06740415 0.004077072 -0.06714287 0.0352882 0.026565693 0.05483904 0.04599537
0.028265504 0.11482908 0.0024032742 0.030884609 -0.1649236 -0.069785915 0.045787327 -0.043863043
0.027441313 -0.010212649 -0.091272004 -0.06810372 0.06460008 0.07992942 0.026638452 0.15448749
0.08486285 -0.06863551 0.13800497 -0.06923691 -0.05129274 0.23896523 -0.068272285 0.19290861
0.071312055 0.05899492 -0.03317849 -0.0021758704 -0.0075446 0.060549222 -0.0002926698 0.03653874
0.027053935 -0.030305607 -0.041249543 0.10135324 0.14243202 -0.014623983 0.07997239 0.03571716
-0.015490826 -0.08018313 -0.049044624 -0.022331692 -0.094445296 0.04993418 0.18617684 0.014679934
0.03245801 -0.002057729 -0.018311182 0.08895617 0.0060661505 -0.08146225 0.033835866 -0.0108814845
0.15182073 0.1641441 -0.050721165 -0.04135275 0.16234848 -0.04483591 -0.06326403 0.00030370223
-0.08036079 0.026006646 -0.073297754 -0.08703427 -0.008857322 0.13306408 0.021044387 0.15051332
-0.04339013 0.026443915 -0.076860726 -0.024278603 -0.07661687 0.13077588 0.035083424 0.029901508
0.12147961 -0.014745615 -0.060178574 -0.0883 -0.015327891 -0.03282907 -0.071036324 0.007984179
-0.01202534 -0.029247884 -0.0067209546 0.17877759 -0.110069126 -0.20972322 0.017238101 -0.050978065
-0.011315725 -0.16778064 0.13192798 0.0040372415 0.019303972 -0.03651956 0.02267446 0.0046633226

gru.weight_hh_l0 f4 [384, 128]
00000000: 156f 9f3a 8a3e aa3d 82f5 34be 630c 323c
00000010: 6b08 cc3d f093 a13d 0de4 b1bc 524f ce3d
00000020: 6891 e23c 31ee d13b 7d21 333d 2215 15bd
00000030: cb69 633d 9a63 f53d 9f2b 0f3e d569 c9bd
00000040: 3fee c73b b356 d8bd a3e3 353d b629 7d3d
00000050: 16d7 93bd afd2 1fbe f4b1 503d a468 98bb
00000060: 42eb c33c cd89 4aba 4b6d 603d a8a8 09be
00000070: e8f1 dcbd ebcc c4bd 519d c3bb 3f79 a93b
00000080: 27f7 47be 47e5 a33d eeee c93d 984e e5bc
00000090: a4cd c03d b9ad 0e3c 5679 593d 2b27 02bb
000000a0: b821 8cbd 1912 93bc 1084 6f3d 5af2 91bc
000000b0: 2fd1 7a3d 4ea7 9c3d 96f7 e13b 7656 23bd
000000c0: 74d9 56bc 2ebb ff3d 7d87 153d 4e64 a63d
000000d0: 3b71 123e 828c 753d e723 a83d e244 b3bd
000000e0: c27f 6abd 7b88 8dbd 45e2 e6bc 5387 f8bd
000000f0: d633 1ebe e860 63bd f0d9 973d 1388 8f3c
00000100: 8cfd 43bc c0aa 56bc bdf8 0cbd 34ff f1bd
00000110: 948f b6bd 90f2 123e 24cb 203d 2cbd e0bd
00000120: f77e debd 8ae3 11be 16d4 c03d 3127 923d
00000130: e1b1 25be fc51 fdbb 06d3 fd3c 6382 36bd
00000140: 73f2 bb3d d463 39be 7335 063e 4f78 bf3c
00000150: ae9b ee3d 4387 d8ba 4329 bdbd b65f 2ebd
00000160: 68c3 e73b 4e78 e93d dbef e2bc 1392 4a3d
00000170: b3a4 803c 6abf 923d bfd5 953c 8b33 663d
00000180: c70d 093e f07c b1bc 3e4c 443d 737b acbd
00000190: f2fc 6a3d a2a0 a93d 6443 dcbc aa72 99bd
000001a0: 3aa8 ba3c 28cd b6bd b21d 7ebd c1f8 f3bd
000001b0: c6a8 11be ce74 85bd 2891 4e3c 285b c1bd
000001c0: 17eb 84bc fb73 593d 3a5b 093e d8e2 023e
000001d0: 7c7a 33bd efbe edbd 4f05 cf3c c475 3bbc
000001e0: 24ac de3d 9ab0 c2bc 64ab 1d3d cbe9 8d3c
000001f0: f7af 013e b537 623c 91aa 9e3d c87c 663d
00000200: c3ad f7bd 04ec 443c d922 cdbd 946c 72bd
00000210: 5cdd 823e f175 f53d 9aa1 27be 220d 313d
00000220: ac85 64bd 45a7 87bd 87f8 603e 3397 c6bc
00000230: e652 4e3d c0ed 223d 9887 db3c a118 76bc
00000240: c106 17be b094 3abd e350 1cbe 4560 633b
00000250: a9cd c23b 75d2 30bd 2bb8 ea3b 6436 1bbd
00000260: dd4f 0ebd d4d0 aa3b cb64 10bd 2c02 cabd
00000270: dbc5 bbbd 6afb 5abd 9411 e7bc 6f3e 8e3d
00000280: 89dd 4ebe be81 543d a209 d13d 1b68 d93c
00000290: 63fc bcbc 2c80 5dbe f414 7a3d 9447 0bbd
000002a0: 262a 963d fe59 1dbd 9bd9 c4bd c888 343d
000002b0: 46d4 913d 4f4d f83c bbeb dbbc c0cb 883c
000002c0: eaea 7c3e 482a 913d 12c3 823d a63d 27be
000002d0: 1d4f 8a3d 7f61 8d3c 07a7 3cbd 3c5b 4bbd
000002e0: 6b42 34be cc4b 533e 322e 9f3d fe2c 67bd
000002f0: d260 c8bd c43e aebd 02ca 78be c742 23bd
00000300: 77ba 8abc e725 20bc 4347 12bd 8611 0dbe
00000310: 15d3 23bd e2ba 6fbd b20b f33d 3201 aebd
00000320: dbce 73bd 033b 84be d138 b139 da07 703d
00000330: face a53c 1573 3dbd b19e 90bd 5027 963d
00000340: 34ea c63d f5ba 0dbe 5809 143e 3f12 00bd
00000350: 7c17 a83d 6f9b 2ebe 4160 313e c775 833c
00000360: 758c c9bb a249 f13c c529 1bbe 8f37 b33c
00000370: 2909 16be 177b 8f3e 56a5 f13d 23ac 8f3d
00000380: 410a 493e 025c fb3d 19ce 2e3d e36a 5abd
00000390: 01fe b73d 1e03 af3d b1b7 ddbd 4edb 05be
000003a0: 510b 573d d6c4 043d f5d4 45bd d24f 89bd
000003b0: 40ac cebc ef65 463d 21da 363d 4b7c 69bd
000003c0: a7bc 51bb 56d2 563b 8161 f03c 6d96 d93d
000003d0: f2fd a6be 992d c4bd 1ced 69bd d8fa 923c
000003e0: bd4c 353e deb6 c4bd 5118 4d3c 17c9 36be
000003f0: 7cc8 103e d124 1f3e 2be2 eebd 615f 0e3e
0.0012163842 0.0831271 -0.17671779 0.010867211 0.09962543 0.07889545 -0.021715188 0.10073723
0.027657226 0.0064065685 0.04373311 -0.036397107 0.055520814 0.11981888 0.13981484 -0.09834639
0.006101399 -0.105634116 0.044406544 0.061807357 -0.07218759 -0.15607713 0.05095096 -0.004651146
0.02391589 -0.00077262224 0.05479173 -0.13443244 -0.107883275 -0.096093975 -0.0059696813 0.0051719244
-0.19527875 0.080027156 0.09860025 -0.027991578 0.09414223 0.008708411 0.05309423 -0.0019859772
-0.06842369 -0.017952966 0.058475554 -0.017815758 0.06123465 0.07649098 0.0068959696 -0.039877377
-0.013113368 0.124868736 0.036506165 0.081246 0.14301006 0.05994845 0.08209973 -0.08753373
-0.057250746 -0.06910797 -0.028184066 -0.12135186 -0.15449461 -0.05551234 0.07414615 0.01752094
-0.011962306 -0.013102233 -0.034416903 -0.11816254 -0.08914104 0.14350343 0.03925623 -0.10973582
-0.1086406 -0.14246956 0.09415452 0.071363814 -0.16181137 -0.0077307206 0.030984413 -0.04455794
0.09177103 -0.18104488 0.13106327 0.023372797 0.11650787 -0.0016519803 -0.09236386 -0.042571746
0.007072855 0.113998994 -0.027702263 0.049455713 0.015703535 0.071654156 0.018290399 0.0562015
0.13384162 -0.02166602 0.047924273 -0.084219836 0.057370134 0.082825914 -0.026887603 -0.074925736
0.022785295 -0.08925849 -0.06204004 -0.119126804 -0.14224538 -0.06516419 0.01260785 -0.09441215
-0.01622538 0.053089123 0.13413706 0.12781847 -0.043817982 -0.11608683 0.025271086 -0.011441652
0.10872677 -0.02376585 0.03849353 0.017323395 0.12664782 0.013807227 0.07747377 0.056271344
-0.12093689 0.012019161 -0.10016412 -0.05918558 0.2555951 0.11985386 -0.1637024 0.043225415
-0.055791542 -0.06623701 0.21969806 -0.02424202 0.050372027 0.039777517 0.026798055 -0.01502052
-0.1474867 -0.045551956 -0.15265231 0.0034694832 0.0059449268 -0.043169457 0.007163068 -0.037893668
-0.034744132 0.0052128825 -0.035252374 -0.098636955 -0.09168597 -0.053462423 -0.028206624 0.06945502
-0.20201696 0.051881544 0.102069154 0.0265389 -0.023069566 -0.21630925 0.06105514 -0.03400381
0.07332258 -0.0384159 -0.096118174 0.044075757 0.07120566 0.030310301 -0.026845803 0.016698718
0.24698988 0.07088143 0.06384863 -0.16332111 0.06753371 0.017258404 -0.046057727 -0.049647555
-0.17603461 0.20634383 0.07772483 -0.056439392 -0.09784092 -0.08508065 -0.2429581 -0.039858606
-0.016934616 -0.009774662 -0.03571249 -0.13776216 -0.039996225 -0.058527835 0.11867465 -0.08496322
-0.059523445 -0.25826272 0.00033802402 0.058601238 0.020240296 -0.04625233 -0.07061518 0.07331717
0.097126395 -0.1384085 0.1445669 -0.0312674 0.08207604 -0.1705148 0.17321874 0.016047372
-0.006150777 0.029454056 -0.15152653 0.021877078 -0.14651932 0.28023598 0.117991135 0.07015254
0.19632818 0.122734085 0.04267702 -0.05332459 0.08983994 0.085455164 -0.10826052 -0.1307194
0.052501027 0.03241428 -0.048298795 -0.06704678 -0.02522862 0.048437055 0.044641618 -0.0570033
-0.0032003315 0.0032779179 0.029343368 0.106243946 -0.3261562 -0.095790096 -0.05711089 0.017941877
0.17705055 -0.09605192 0.0125180045 -0.17850147 0.14138979 0.15541388 -0.11664232 0.13903572

gru.bias_ih_l0 f4 [384]
00000000: 201d 9ebd 5845 873d f7ee 973d f3e5 15bc
00000010: 18a0 033e dec4 e33b 1fd6 303c 81d2 603c
00000020: c70f da3c 6451 593d de2b 493d f6bf 133e
00000030: bfa0 6c3c a315 813d e113 bc3d 0dcc df3c
00000040: b6a9 ea3b ba5b 253d 87fd 1b3d 8413 b33c
00000050: fffe d03d 8dcc a0bd 8723 973d 4336 0b3d
00000060: 8433 643d d461 2b3b ca63 62bd 4d17 28bb
00000070: 87d9 f93d 4c78 c3bd 12b0 303d d696 a2bc
00000080: bc4b 49ba 0ba3 673d 7546 753b a127 b93d
00000090: 5712 60bd dc0a 4d3e 207b 013e 5aa2 c43b
000000a0: 6bf1 7d3c 38d2 2a3d 483a 6bbc cca9 92bd
000000b0: 3bb4 8c3d 9070 243d 9067 9b3d 84e1 e9bc
000000c0: 048f 6e3d 3d97 b33d 2231 883c 6d6d 043a
000000d0: 03a6 d1bc ca61 5b3d 1c38 943d 5793 b4bb
000000e0: 0ac9 d43d 9330 533d 8cb0 13bd 28b6 353d
000000f0: f2c5 903b b79f 073c 1272 8c3d aa3a 19bd
00000100: dab5 e93d 21e7 adbc b2bf 983d 3174 2b3d
00000110: 3018 fdbd 7750 ca3c f166 ed3d 06a2 a03c
00000120: da26 373d d522 823c e3cf 0abd 9857 573d
00000130: 5573 9abb 5575 31ba d223 cabd f40c 553b
00000140: 2add 5b3c a28a 58bc 684f 7e3d dc57 1fbd
00000150: e678 68bd 098d 1cbc b3d7 f63b e260 bfbb
00000160: 1123 653e 89d0 86bd 57e6 20bd 2c8b da3c
00000170: 6b2c 7cbd 69e3 39be cc5c 78bc 2846 8b3d
00000180: 2c1c 41bd 0194 75bd 2599 3c3d 6f38 b3bd
00000190: 34d7 c8bc 408c 9a3b 0cae 08bd c982 943a
000001a0: 588c f23d c17b 393d c475 843d f9a3 0ebd
000001b0: 8bc5 3ebd 2d60 0cbe 315c df3d bf3b eebb
000001c0: 59c1 f13d 2c52 c23d 9d27 0dbb 6d90 eabc
000001d0: 6b5d e4bb 45ef cfbc d40b 95bd c926 2cbc
000001e0: 48a5 dd3a e0de 863c db46 87bd 9d91 343c
000001f0: f547 393d 424b b5bd 5d83 9dbd b38d fd3b
00000200: b61a bfbd b4a1 39be 1ac9 6abe d229 e4bd
00000210: 5df4 4bbe 6f5d 75bd d160 cfbd 1a76 bbbc
00000220: f092 fbbd 989e d8bd a60f 0ebe 7dfd 75be
00000230: 2c61 c6bc a21d d8bd 8001 b63c 6cc5 9d3c
00000240: 3b79 e5bd dbcd 28be 4448 c5bd 4231 a7bc
00000250: 3d6a 36be d395 1fbd 1a6b 46be 7497 04be
00000260: 42cb 49be b268 0bbe 6d6b 4cbe d075 94bc
00000270: a16e eabd 15e7 3bbd 85ad 473d c54f b9bd
00000280: 2402 1c3e 3ada 17be bdd5 37ba 7d3d 90be
00000290: 6a98 a0bc 6c55 0cbe 823a 71be 56af 6fbe
000002a0: 3d11 063d 7772 083e 302c 9fbd 2563 313c
000002b0: fa3c 2bbe 2127 173d 414a 23be a828 87bd
000002c0: 5f01 69be a9ad 19be 5d33 91bd 2783 6ebe
000002d0: f9be 24be 58c4 983c 2f7e 81bd 172e 2cbe
000002e0: 6603 47be 18ec 47be 9c9d e7bd 131a 89bc
000002f0: a74b b13d 24df 3e3d 0b92 f6bd 57f5 c8bd
00000300: 7a1d 87bd 0472 b6bd b14c 49bd e1ac 33bd
00000310: 6083 3abe 4578 e23c 2f3b e7bc 7201 6e3e
00000320: bc9b 8fbd 88ee b63d 89a2 6e3d 0d5e 2dbd
00000330: 176f 7e3d 1d7b cd3b e135 1639 c1a6 8bbd
00000340: 7b46 96bd 6fb7 243d 9148 34bc 0fdd c9bd
00000350: f8ea 01be 6b57 89bd e791 1dbe 34ef c9bc
00000360: e5da 22be 7fab d0bd 3cf2 1abe cd5c 4e3d
00000370: 4550 84bc b17f 1dbe c2db 053d e06d 02be
00000380: 0159 fe3d 0947 a4bd 54a2 30be 04d3 b3bd
00000390: 68cf 9cbd f65f 403d f490 8a3d 6a84 37be
000003a0: 954b 5ebd 468d f8bc 836d 6fbe fcd8 4cbd
000003b0: 7967 a43d e97a 2bbe b2ad 5fbe 79bd 833d
000003c0: 97d5 34be 7a99 6cbd 07e3 1cbe 1d4f 1fbe
000003d0: 8f18 4abe 74c8 bfbb 0292 e2bc 792c 20be
000003e0: 2a1c 35be 1121 bc3d 503f 16bd 6b00 d83c
000003f0: f9f8 43bc efd7 a2bd 7a04 17be f326 13bc
-0.07720399 0.06605023 0.07418626 -0.009149062 0.1285404 0.0069509586 0.010793238 0.013722063
0.026618851 0.053056136 0.0491141 0.14428696 0.014442622 0.06302955 0.09183479 0.027318979
0.0071613444 0.04037068 0.03808358 0.021859892 0.10204887 -0.07851515 0.07379823 0.033987295
0.05571319 0.002615084 -0.055270948 -0.0025648654 0.12199693 -0.09544429 0.043136664 -0.019847315
-0.0007678827 0.056551974 0.003742603 0.09040762 -0.05470499 0.20023674 0.12644625 0.006000799
0.015499453 0.041704386 -0.014357157 -0.071612924 0.06870314 0.04014641 0.07588112 -0.028549917
0.05824186 0.08769081 0.01662499 0.0005051706 -0.025591856 0.053560056 0.072372645 -0.0055107283
0.10389908 0.051559996 -0.03605704 0.04436317 0.004418128 0.008277825 0.06857695 -0.037409462
0.114116386 -0.021228375 0.07458438 0.041858856 -0.12358129 0.024696572 0.115919 0.019608509
0.044714786 0.01588575 -0.033889662 0.05257377 -0.0047134557 -0.0006769498 -0.098701134 0.0032508941
0.013419429 -0.013216646 0.062087446 -0.03890215 -0.056755923 -0.00955511 0.0075330376 -0.0058404068
0.22376658 -0.06582744 -0.03928217 0.02667769 -0.061565798 -0.18153156 -0.015158843 0.068004906
-0.047146007 -0.0599556 0.046044488 -0.08750998 -0.02451668 0.004716426 -0.03336911 0.0011330481
0.11843175 0.045284037 0.064677745 -0.034824345 -0.04657511 -0.13708563 0.10906256 -0.007270306
0.11804456 0.09488329 -0.0021538504 -0.02863332 -0.006969144 -0.025382647 -0.07277647 -0.010507294
0.001691022 0.016463697 -0.066053115 0.011021045 0.04523464 -0.08852245 -0.07691071 0.007737839
-0.093312666 -0.18128091 -0.22928277 -0.11140789 -0.19917436 -0.05990356 -0.10125888 -0.022883464
-0.122838855 -0.10577124 -0.13873157 -0.2402248 -0.024216257 -0.10552527 0.022217512 0.019259177
-0.112047635 -0.16484778 -0.09632924 -0.02040923 -0.17813964 -0.038961243 -0.19376794 -0.129484
-0.19706443 -0.13614157 -0.19962855 -0.018122584 -0.11446882 -0.045874674 0.048749465 -0.09048418
0.15235192 -0.1482934 -0.00070127455 -0.28171912 -0.019603927 -0.13704461 -0.23557475 -0.23406729
0.032731283 0.13324915 -0.077721 0.010826861 -0.1672248 0.03690255 -0.15946294 -0.065995514
-0.2275443 -0.15007652 -0.07089875 -0.23292218 -0.16088475 0.018648311 -0.06322896 -0.16814457
-0.1943489 -0.19523656 -0.113093585 -0.016736066 0.08657008 0.046599522 -0.12039574 -0.0981242
-0.06597419 -0.089084655 -0.049145404 -0.043866042 -0.18214178 0.02764524 -0.028226463 0.23242739
-0.07012126 0.08932215 0.058260474 -0.042326022 0.062117662 0.0062707798 0.00014325186 -0.06818915
-0.07337662 0.040214 -0.011003629 -0.09856617 -0.1268729 -0.06706127 -0.15387689 -0.024650194
-0.15903814 -0.1018896 -0.15131468 0.05038147 -0.016151557 -0.15380742 0.03268028 -0.12737226
0.1241932 -0.080213614 -0.17249423 -0.087804824 -0.07656747 0.046966515 0.06765929 -0.17921606
-0.0542713 -0.030340802 -0.23381619 -0.05001162 0.08027548 -0.16746105 -0.21843603 0.064326234
-0.17659603 -0.057763554 -0.15320979 -0.15557523 -0.19735931 -0.0058527533 -0.027657513 -0.15641965
-0.17686525 0.091859944 -0.036681473 0.026367387 -0.011961215 -0.07951342 -0.14747801 -0.008981454

gru.bias_hh_l0 f4 [384]
00000000: ef32 973c 732f 723c 30c4 7b3d 0862 af3d
00000010: 77af 2d3d 40ae 843b 58ec 93bc 4b0f 913c
00000020: 6e3a e63d c0ee 393d 1639 f7bb a9d8 183e
00000030: dcc7 803c 04f2 8cbb 33f3 543d d47d 5c3d
00000040: 5d08 4e3d 9918 303d 7f54 093d 96e5 debb
00000050: 94c4 023d 783d e0bd 68b0 ea3c 3deb 363d
00000060: bc67 343d 3e4a 77bc 3093 edbc 5521 c53c
00000070: 940f 9a3d 8a67 6c3c 840d 343d 972c 39bd
00000080: cd80 3aba fefd bd3c 96e5 d43c 2a89 29bd
00000090: 25dc 8abc 7110 903d 1a4c 0e3e 2e08 2a3b
000000a0: b9c2 b53c 69ba 493d 9876 d13c 5e0f 80bd
000000b0: 316c 313d c160 263d 0234 073e 3f7e 54bd
000000c0: fef1 533d 7dbf 4b3d ffee cc3d 234f cebd
000000d0: f887 4abd dd4a 333d c670 5e3d 8155 373c
000000e0: 8409 9fbc 58bf bc3d f75f 74bc 680f a33d
000000f0: 2350 48bc 9db1 09bd fa90 213d dd61 09bb
00000100: 4f29 e93d cb47 0fbd 6425 3f3d 52e4 86bc
00000110: 4e01 80bd c08a bc3c 5ec5 383d a785 b93c
00000120: 6b88 133d 961c 813c 00a1 38bc d2c5 b13d
00000130: e4c9 0c3a 7693 20bd d65e 2fbd f24a edbb
00000140: 41af d33c 5f1c fd3c fc4a 903d 6f2a 8cbb
00000150: 49b6 d4bd 4890 8f3d 0930 afbd 7f2a fbbb
00000160: b773 2d3e 00c7 e63c d796 1f3b d5e9 d33b
00000170: 6354 273d c399 23be b976 063d b2f5 223d
00000180: 3652 54bd c706 8bbc 6965 c3bc f7fc 9fbd
00000190: d0a8 3b3d 5743 6c3b 4a58 aebd 7576 b2bb
000001a0: cdbc bf3d aeb4 553d 4ede 863d 2870 62bd
000001b0: 0cd4 573d 0e63 13be 4cf8 743d 761e 8dbb
000001c0: c2cd 103e 49c0 883d 4329 32bc 3abf 48bd
000001d0: 4af8 3238 0539 d9bc 68f9 75bd ad64 2abd
000001e0: 4089 573d a6d7 19bb ade1 87bd 78fd 78bd
000001f0: 2494 3d3d b1c3 b5bd 0c7c b7bd 2429 023d
00000200: e518 16be f4ba 44be 81d9 50be 8133 e6bd
00000210: b3e7 c1bd 572d 893d eb10 27be 5412 8cbd
00000220: 41ce 0bbe 88a5 7cbd 71d1 1dbd 4319 8abe
00000230: 8f62 1f3c b4b0 67bd b8a7 4a3d 0cf7 27bd
00000240: e046 51bd 9979 5dbe 1898 16be cb96 8f3d
00000250: 5af9 11be 5f87 2d3c ec1c 2ebe 6ed2 40be
00000260: 9899 84bd d55b febd 0a63 1dbe 7551 efbc
00000270: 327b 87bb 9949 00be f767 943d 15fd a8bd
00000280: a70a d73d a12d 14be 2571 543d fc3d 4cbe
00000290: d271 c7bd fffe 80bd d9d1 95be 8365 50be
000002a0: 8501 a93d fe37 223c 14b9 e9bd c558 abbd
000002b0: 13c2 dabd 5cab a33c 9812 0bbe 77af e73c
000002c0: 0fa0 23be c786 34be 0178 08be 0ec4 1cbe
000002d0: f05f 9dbd f1b3 8f3d 835d 81bc 1915 efbd
000002e0: 7452 4dbe 95bc 69be 4015 11be d808 9ebd
000002f0: 5da1 183d 4ec1 643d 0a66 9bbd 7eef 84bd
00000300: 35f0 79bd 1579 523d 6804 03bd 46b8 1ebd
00000310: 7705 3cbe 68b9 02bd 4457 98bb 3441 713e
00000320: bac9 dcbc 7ffd 8d3d 6dea 21bb 7986 bbb8
00000330: 54e6 7bbd 1112 6cbd db07 37bd de06 6abd
00000340: 494a 6ebd fc09 143a 1813 f5bd 5db9 efbd
00000350: f180 86bd 3413 8abc 7f42 29be 6a43 a73c
00000360: 09a8 2bbe 063b 41be 96de 23be b939 0bbd
00000370: d5a3 96bd 6ec4 22be 9dce 963b bcdd ebbd
00000380: c378 263d 3bab 82bd e1c6 d7bd 0ceb 0ebe
00000390: b089 08be 305b 1a3c 7e8b e73c af99 43be
000003a0: 89df 24bd 49da 2d3d 38f4 63be 4408 d6bd
000003b0: 2e62 5abc 3b9d 3ebe aab2 43be c9ca 173d
000003c0: b7eb 4bbe 292e 50bd 0183 38be be09 63be
000003d0: d5d7 09be a56e cc3c 4900 82bd 493e bfbd
000003e0: 5c4f 65be 35e3 3e3c 4766 0ebd 6321 c7bc
000003f0: f510 80bd a0bd d5bd de97 3abe 4a7a ca3d
0.018456904 0.014781821 0.061466396 0.0856362 0.042403664 0.0040490925 -0.018057033 0.017707488
0.11241613 0.045393705 -0.007544647 0.149264 0.0157203 -0.0043013114 0.051989745 0.053830937
0.050300945 0.04299221 0.033527847 -0.006802271 0.031925753 -0.10949224 0.02864857 0.044657934
0.04404424 -0.015093384 -0.029000849 0.024063746 0.075225025 0.0144289825 0.043958202 -0.04520854
-0.000711453 0.023192402 0.025988381 -0.041390575 -0.016950676 0.07034386 0.13896218 0.0025944817
0.022187578 0.04925004 0.025569245 -0.06252931 0.04331607 0.040619615 0.13203433 -0.05187821
0.051744454 0.049743164 0.100065224 -0.10073688 -0.049446076 0.043772567 0.054306768 0.011189819
-0.019413717 0.092161834 -0.014915458 0.07961923 -0.012226137 -0.03361665 0.0394449 -0.0020962872
0.11384832 -0.034980576 0.046666518 -0.016466293 -0.06250249 0.02301538 0.0451101 0.022646738
0.03601877 0.015760701 -0.011268854 0.08680309 0.000537066 -0.03920313 -0.042815052 -0.0072416
0.025840404 0.030897317 0.07045552 -0.0042775194 -0.10386331 0.07009941 -0.08554084 -0.007664978
0.16938673 0.028171062 0.0024351382 0.006467084 0.04085196 -0.15976624 0.032828066 0.039785095
-0.051836215 -0.016971005 -0.023852067 -0.07811921 0.04581529 0.003605088 -0.085129336 -0.00544625
0.09362183 0.052174263 0.0658537 -0.05528274 0.052692458 -0.14393255 0.059807107 -0.0043066097
0.1414099 0.066773005 -0.010874095 -0.049010493 4.2669744e-05 -0.026516447 -0.060052305 -0.04159992
0.052621126 -0.0023474484 -0.06634841 -0.0607886 0.046283856 -0.08875216 -0.08959207 0.031777516
-0.14657934 -0.19211942 -0.20395471 -0.11240292 -0.09468021 0.06698101 -0.16315047 -0.06839433
-0.13652898 -0.0616813 -0.038529817 -0.26972398 0.009728088 -0.056565 0.049476355 -0.041007087
-0.051092982 -0.21628417 -0.14706457 0.07011183 -0.14255276 0.010591357 -0.1700322 -0.18830273
-0.06474608 -0.12419859 -0.15369812 -0.029213646 -0.004134559 -0.12528075 0.07246392 -0.082513966
0.10500079 -0.14470531 0.051865716 -0.1994552 -0.097385064 -0.06298637 -0.29261664 -0.20351224
0.08252243 0.009901045 -0.11412254 -0.08366541 -0.10681548 0.019979171 -0.13581312 0.02828191
-0.15979026 -0.17629538 -0.13327028 -0.15309164 -0.07684314 0.07016743 -0.01579166 -0.11673946
-0.20050985 -0.22825845 -0.14168262 -0.077165306 0.037263263 0.055848412 -0.07587822 -0.06490992
-0.061020095 0.051385004 -0.031986624 -0.038749956 -0.1836146 -0.0319151 -0.0046490747 0.2356003
-0.02695166 0.06933116 -0.002470638 -8.941902e-05 -0.061498955 -0.057634417 -0.044685226 -0.057135455
-0.058176313 0.000564724 -0.119665325 -0.11705277 -0.06567562 -0.01685486 -0.16529272 0.020417888
-0.16763319 -0.18870172 -0.16002879 -0.033990595 -0.07355467 -0.15895244 0.004602267 -0.11516902
0.04064251 -0.06380316 -0.1053598 -0.13956851 -0.13333774 0.009421155 0.028264757 -0.19101594
-0.040252242 0.0424445 -0.22261131 -0.10450795 -0.013329072 -0.18614666 -0.19111124 0.037058625
-0.19914137 -0.05082527 -0.18018724 -0.22171685 -0.1346124 0.024955103 -0.06347711 -0.09338052
-0.22393554 0.01165085 -0.034765508 -0.024307912 -0.06253234 -0.10436559 -0.18221995 0.09886606

out.weight f4 [36, 256]
00000000: d68a e6bc 6ceb 14bd eb5c debb 6a42 a83b
00000010: b96e 243d 8632 0c3d d325 113c 0142 4e3c
00000020: 7577 f0bc 7c1e 153c 73ae c1bc 9c4e eaba
00000030: 1ed6 56bc de1f 3abc 5007 3a3c 5462 ccbc
00000040: ca3f 1dbc 39a4 a93c 75d2 183d a98a fb3c
00000050: 4f08 3abc 6e75 393d fafd c0bb d586 ac3b
00000060: b7cc 5d3c 7282 27bc 1642 0cbd 9325 1fbc
00000070: 9e35 a53c c038 943c 1569 7e3d 2340 2a3d
00000080: 8524 1e3d 0dcc 08bd 8511 413d 881b 3b3d
00000090: 6ecb 963c 126c 89bb 1b66 8bbb 37ce 783c
000000a0: 7eb2 a5bb a48c b1bb 5077 033c f942 943c
000000b0: c566 89bc 982d e13c 4a86 a83a 5810 6c3c
000000c0: 0627 34bd 5a14 50bd d8ed 0fbd 4151 dabc
000000d0: 57a3 003c b60e 71bd 6294 31bc a5d4 903b
000000e0: 4d6f 00bd cff8 fe3c 1bc8 573d 1a0e 28bd
000000f0: 5ef2 723d 5197 a93c 0c71 1a3d 10e8 f83c
00000100: 14ab 68bd b2cf 443d f2a6 9fbc 5b70 83bd
00000110: 9bec 073d 564f 80bc 03c1 d03c 13cc 353d
00000120: 287d a1bc 7a28 633d bca2 353d 7e9c c7bc
00000130: fa88 4cbc a58c 14bd aec6 12bd f0fa 593c
00000140: 8e83 4d3d be5a fe3c b80c 1bbd b8b9 073c
00000150: e5d6 0a3d db32 1d3d 7185 723d 432b bf3c
00000160: a992 1ebb 8132 a2bc f089 a13c 6c1d 873c
00000170: 553c 4a3c 623e ed3c 0437 c93c a7fb 6abd
00000180: 74a6 c6bc 848c 593d 44fa 433c 6a02 803c
00000190: 4e1c fd3c 8f91 4a3d c235 133d 24d3 98bc
000001a0: b755 1b3d 3b2c 62bd 42e4 163d 8d33 b43c
000001b0: 06e8 51bd 65f8 98bc 066f 273c 0028 cebc
000001c0: 0360 c93c 6f5b 50bc 4a3d 7b3d aaa9 05bd
000001d0: bf68 31bd 4a4f 7f3c 9cac 993c eee7 7cbd
000001e0: 3a84 2cbc 0de7 96bd 2682 6f3c 786e 13bd
000001f0: bddb 16bc cb9e d03c c649 49bd 64f5 a43d
00000200: 8d1c 7b3c 4130 0c3d c721 71bb 49b7 843c
00000210: b325 03bd 1fad d03c 4692 933b d0fe 81bc
00000220: c8da 673c 0495 6dbb 8c32 cabc 31b4 0abb
00000230: 45ab bbbb fd74 e63c 37dd 5a3c 9366 14bc
00000240: e550 49bb 27c6 abbb 21ed f0bb 0e25 1c3c
00000250: 630f bfbc f129 fcbb 8fae 163d f451 f0bb
00000260: 4bf0 cabc a16e 2f3c d978 0f3c e338 e33b
00000270: acfa 0bbb 4999 8a3c 386a 08bd 2e2a 333b
00000280: 6331 6fbc 7295 e03a 50a8 623c 9773 063a
00000290: 4691 ff3b d866 4b3d 5219 3e3d faa5 f1bb
000002a0: d982 f8ba 57ce 04bd 9db8 f73c 0c92 06bd
000002b0: cfb9 383c 4bae 373b 9570 1abc 1b66 773c
000002c0: 09c2 14bb 8035 d6bb 85da c3bb c7a5 723b
000002d0: 1f6c 513b 8b19 a93b f2fc 2b3d cf48 49bc
000002e0: 3832 8d3c fc22 9fbb a650 58bc 7026 5fbd
000002f0: 4a13 443d af91 41bc 2c1a 1abc bc77 38bc
00000300: 279e 03bc 2da6 083d 0ac6 d7ba 5eab 12bc
00000310: b9c4 bfbb c07c 99bc 6565 25ba e969 ad3c
00000320: 1734 cc3c 8961 f23b a7df a6bb cf70 7cbc
00000330: 1dfd d5bb c7d8 e33a bd9a b73c 0493 7fbc
00000340: 7767 423d 8486 a1ba 5f3e 6d3b 6b58 6bbc
00000350: 34b0 123c a35e e1ba e9aa 80bb 0676 25bc
00000360: 5fb0 acbc c496 7039 593d 6abc 4f63 ee3b
00000370: c512 4ab9 acee 373a 2cbc c73c 0955 973c
00000380: dc20 ca3b 159a b0bb b740 8cbc cfe1 ddbc
00000390: fb4e 80bd 0f1c d73c d1c2 5a3c 16a2 183d
000003a0: 8e33 8fbb d01f 7fbc e4ce 87bc 1af2 b5bc
000003b0: 0453 2ebb 908d cd3b 0e9a ec3c 927d c7bb
000003c0: 2000 97bb 46f9 02bb f083 a03c c18b 53bc
000003d0: b0f2 30bc 6c55 d5bb ecd0 29bc 4cea 92bb
000003e0: a551 e5bb 88b0 48bd 4b92 b3bb 39a5 46bc
000003f0: 99b0 d0bc 05dc bb3b 3562 f03b 3605 923b
-0.028142374 -0.03635733 -0.006785979 0.0051348703 0.040144656 0.03422787 0.008859116 0.012588979
-0.029353837 0.009101506 -0.023642754 -0.0017876211 -0.013112573 -0.011360137 0.0113542825 -0.02494923
-0.009597728 0.02070819 0.037310082 0.030705767 -0.01135452 0.045278005 -0.0058896514 0.0052650967
0.013537577 -0.010223972 -0.034242712 -0.009713548 0.020167168 0.018093467 0.062111933 0.04156507
0.038609046 -0.033397723 0.04713585 0.045680553 0.01840755 -0.004193791 -0.0042541153 0.015185884
-0.0050566783 -0.005418377 0.008024052 0.018098341 -0.016772637 0.027487561 0.0012857404 0.0144081935
-0.04398253 -0.05080066 -0.035138935 -0.026650073 0.007851443 -0.05885192 -0.0108386 0.0044198805
-0.031356145 0.0311245 0.05268107 -0.041029073 0.05931317 0.020702036 0.037705466 0.030384094
-0.056803778 0.048049636 -0.019488785 -0.064179145 0.03318463 -0.01566283 0.02548266 0.044384073
-0.019713 0.055458523 0.04434465 -0.024366613 -0.01248383 -0.03626694 -0.035834007 0.013304457
0.05017429 0.031049129 -0.037853926 0.008284025 0.033896346 0.038378578 0.05920929 0.023336058
-0.0024196303 -0.019799473 0.019719094 0.016493522 0.012343486 0.02896041 0.024562366 -0.0573689
-0.024249293 0.05311252 0.011961523 0.015626151 0.030897286 0.04945522 0.03593994 -0.018655367
0.03792354 -0.055217963 0.036838777 0.021997238 -0.051246665 -0.018673131 0.010219341 -0.025165558
0.024581915 -0.012717112 0.061337747 -0.032632507 -0.043312784 0.015582869 0.018759064 -0.061744623
-0.010529572 -0.07368288 0.014618432 -0.035994023 -0.009207663 0.025466343 -0.04914262 0.08054617
0.015326631 0.034225706 -0.0036793815 0.016200678 -0.032018375 0.025473176 0.004503521 -0.015868574
0.014151283 -0.003625215 -0.024682306 -0.0021164531 -0.005727204 0.028131956 0.013358406 -0.009057659
-0.0030718383 -0.0052421275 -0.0073524867 0.009530319 -0.023322767 -0.0076954295 0.036787566 -0.0073339883
-0.024772784 0.010707528 0.00875684 0.0069342717 -0.002135913 0.016918795 -0.033304423 0.0027338373
-0.014599177 0.0017134382 0.013834074 0.00051289186 0.0077993004 0.049658626 0.046410866 -0.0073745223
-0.0018959894 -0.032423344 0.030239398 -0.032854125 0.011274769 0.002802747 -0.009426256 0.015100027
-0.0022698662 -0.0065371394 -0.0059769773 0.003702508 0.0031955314 0.0051605157 0.041989274 -0.012285425
0.01723586 -0.0048564654 -0.013202822 -0.054480016 0.047869958 -0.011814519 -0.009405654 -0.011259016
-0.008033312 0.033361603 -0.0016462218 -0.00895199 -0.0058523086 -0.018736243 -0.00063093595 0.021168666
0.024927182 0.007396881 -0.0050925794 -0.015407755 -0.0065304176 0.001738333 0.022412652 -0.015599016
0.047461953 -0.0012323414 0.0036200506 -0.014364342 0.008953143 -0.0017194342 -0.003926624 -0.01009894
-0.021080194 0.00022944348 -0.014296853 0.007275022 -0.00019271213 0.0007016461 0.02438172 0.018473165
0.006168468 -0.0053894618 -0.017120702 -0.027085213 -0.06265064 0.026258497 0.013352112 0.037263952
-0.0043701595 -0.01557155 -0.016578145 -0.02221017 -0.0026599774 0.006272979 0.028882053 -0.006087967
-0.004608169 -0.0019985004 0.019594163 -0.012911738 -0.010800049 -0.006510427 -0.010364752 -0.004483497
-0.006998258 -0.04899648 -0.005480086 -0.012124353 -0.025474833 0.0057330155 0.007335926 0.0044561876

out.bias f4 [36]
00000000: 7513 c4bd 3451 b83d 6015 c4bd 6f37 2b3e
00000010: cc7a 36be d8c1 28be ecbe 72bd 320d 70be
00000020: 3636 e63c 2c85 e4bd 75d6 efbd 5584 1abd
00000030: 8602 cbbd 64b6 0cbc b6a5 b6bd 78f1 1dbd
00000040: d6c7 04bd 5a63 debd 552f 1bbd f248 06bc
00000050: 4a3f 92bd 1928 5d3e 72aa 553c f198 1fbd
00000060: 10c9 59bd a369 f4bd d189 193d 91c7 183d
00000070: 2e20 00bc 1ace 5ebd 1305 3dbd 7b35 f6bd
00000080: 5479 4dbd 51d4 85bd 8558 e8bd 4795 14be
-0.09574024 0.08999863 -0.095743895 0.16720365 -0.17820281 -0.16480196 -0.05926411 -0.23442534
0.028102022 -0.11158213 -0.11710826 -0.037723858 -0.09912591 -0.008588407 -0.089183256 -0.03856036
-0.03241714 -0.108587936 -0.037886936 -0.008196102 -0.07140978 0.21597327 0.013041126 -0.038964216
-0.053170264 -0.11934211 0.037484948 0.037299696 -0.007820172 -0.054395773 -0.046147417 -0.12021919
-0.050164536 -0.06534637 -0.11345009 -0.1451007
