modules/prn_gen/exp/id/models/trigram/train+val-decoder-wdecay_1e_5-attn_dot-emb_128-hddn_128-layers_1-epoch_88.pth (torch, 651504 bytes, 7 tensors)

embedding.weight f4 [36, 128]
00000000: f82b 23bd c4cb 543f 5d8e 823e a330 51be
00000010: fd6e fd3d b1a6 57be 8aa9 153f fb5d 66be
00000020: da33 ffbe d0d8 d83e 7895 cc3e ff25 88bf
00000030: 7e6e 333f d3cb b5be 37c4 7ebf c7ca 23bf
00000040: 871a 0ec0 622b 5a3f 5593 5cbf 55d1 37bf
00000050: c93c 253f 8e1e 1d3f 0471 8ebe a78e 05bf
00000060: b174 cbbe 3a03 343f 1ec8 96bf edbe 10bf
00000070: b3b6 c5be 103d 8f3e 0c87 a6bf 9a4a 7abe
00000080: 5cd9 2abe df54 9e3e 89c7 5cbd 0420 aa39
00000090: 9d5c 093f 3317 bb3e eeb9 1e3f 408d 2abd
000000a0: 1307 4e3f d341 70bd b653 24bf 0524 43bf
000000b0: 4cd5 43be 6a17 ebbe 3530 aa3e ff51 6cbd
000000c0: d14d 3f3e 50a5 3abf 51b3 c73e b1ce 8e3f
000000d0: 8f4c 823f 6c99 513e b731 7cbe 3917 1cbf
000000e0: 00c3 bf3e e093 0e3e 809a 1fbf 188e 183f
000000f0: 1ab3 9e3e b217 f43e 0343 11bf 96ac e63e
00000100: 71bc 4bbe 92c1 2e3e 8359 abbe c7a2 17bf
00000110: 21a7 093f 9e8a be3d c387 673f 11e7 01bd
00000120: fd89 4abf 0ff0 26bf 85b7 f1bd bbf2 29bf
00000130: 0883 98bf d74a cebf 0bfa 8a3f 28f7 b9bd
00000140: 7b12 91bd b1be 723d 95dd df3d 480c 84be
00000150: 08e2 5a3f 92d9 f9bd 5544 56bf 3122 2a3f
00000160: 43d4 4bbe 398c 993e 908c e43e 5fa3 f5bc
00000170: 0c24 eebe ed21 d13e 7447 66bd fd66 93bf
00000180: 18d9 81bc d1cf 97be d832 163d 7e3f bdbe
00000190: 7077 3ebf 0bad e03e b7fd 59be 489d 6abe
000001a0: d366 e9bc 2a3e a6ba 4530 8bbf 1675 92be
000001b0: 6f95 293f f3d0 47bd 1c4f ddbe 0c56 9ebe
000001c0: 6e11 ca3d a2da 2abe b9bf 3cbf 9c58 85be
000001d0: 67b6 da3e f5c4 62bf e774 7bbf 5629 913f
000001e0: face 61bd 7c43 ccbe 21db eebd 3a49 983d
000001f0: a4ac 30bf 39d1 fcbd b986 debf 14a2 8a3e
00000200: 1b8e b43d 6bd5 8d3d 184d 6cbf a819 673f
00000210: 0740 fbbd 1d0b 8d3d 7fef cd3e 151d 023e
00000220: 9865 7f3c bd8b 073e 4f10 7a3e b47b cfbd
00000230: c7c9 26be 912d d1be 56e7 3c3e 65e6 113f
00000240: 690d 3c3d 8978 233e 7a60 4a3e 4593 623e
00000250: a11c c73e cc92 d9bd 9480 14be 418c f63e
00000260: 2eae 99be 06cc 27be 04c7 abbe 7ce6 10bf
00000270: 0939 8dbe 543b a43e da59 243f cd3e 723d
00000280: 82fc ae3d af7d 863d ada0 bd3e 0724 42be
00000290: 67a3 6dbf e89c b13e 94b3 da3c f7d1 e23e
000002a0: a338 89bd 68f1 b9be cb2e 77bf bff5 c23d
000002b0: c002 22be 4f6e d53e bf96 803e e5c1 ac3d
000002c0: c0a6 e2be 3c28 b1be 0a02 423e d6de 1dbe
000002d0: 07a2 563b 754f 98be e9c5 063f fb7e b63e
000002e0: 9c8d 92be dbf1 de3d 0ca6 1f3c 61bf 693e
000002f0: 7dcd ba3e a630 8b3e b18d 233f 6a0d e43c
00000300: f746 7f3e 940a e83d 03ba 0f3e 2794 763e
00000310: 481d a13e 76f7 c2bc 6c61 d7ba 19ab 15bf
00000320: 9aac 293f bbaf 8fbf 59c4 9bbd a795 8fbb
00000330: e53b 2abe ccfa ea3e 5c7e ab3e 5cd0 1a3e
00000340: cf73 92be d6d8 a23e 9c52 0f3e 7a30 833e
00000350: 1598 693d 31f1 fcbd fb92 103f 6462 f9be
00000360: 8e6d 093e fef3 833e deab 143d 8321 0a3e
00000370: 8ea4 f63e 7666 84be a234 56be 397f 103e
00000380: 28d8 af3e a811 f6be 9905 52be edff 31bf
00000390: b144 a9be ed64 093b 7dc1 96be a657 83be
000003a0: e223 17bf 9313 c23e 4510 8ebe e516 653e
000003b0: 26cc f03e 5e65 cbbe bdab 65bc 31b1 113d
000003c0: 58fa ba3d a133 3e3f ff0d 18bd 06f0 bdbe
000003d0: 1b77 80bf 82a6 1dbd bf9d 5dbe 0de0 ad3e
000003e0: e624 2a3e 636b 6a3d 9de6 2bbe 1079 783e
000003f0: d07d 5dbe 838b 993c 7446 603e b5ae 14be
-0.039836854 0.8312342 0.2549924 -0.2042871 0.12374685 -0.21059681 0.5846182 -0.22496788
-0.49844247 0.42352915 0.39957786 -1.0636595 0.7009047 -0.35507068 -0.9951815 -0.6398129
-2.220369 0.85222447 -0.8616231 -0.7180379 0.64545876 0.6137475 -0.278206 -0.52170795
-0.39737466 0.70317423 -1.1779821 -0.5654133 -0.3861595 0.27976274 -1.3009963 -0.2444252
-0.16684479 0.30924127 -0.05390123 0.0003244878 0.5365694 0.36541137 0.62002456 -0.041638613
0.80479544 -0.058656525 -0.6419023 -0.76226836 -0.19124335 -0.459163 0.33239904 -0.057695385
0.18682028 -0.72908497 0.39003995 1.1156827 1.0179614 0.20468682 -0.2462834 -0.60972935
0.3745346 0.13923597 -0.62345123 0.5959182 0.3099602 0.47674328 -0.56742877 0.45053548
-0.19896103 0.17066029 -0.3346673 -0.59232754 0.53770643 0.09303783 0.9044153 -0.031714503
-0.79116803 -0.6521005 -0.11802582 -0.66386 -1.1914988 -1.6116589 1.0857557 -0.090803444
-0.07083603 0.05926389 0.10930935 -0.2579062 0.85501146 -0.12199701 -0.83698016 0.6645842
-0.1990519 0.29989794 0.4463849 -0.029985128 -0.46511877 0.40846196 -0.056220487 -1.1515805
-0.015850589 -0.2965074 0.036669582 -0.36962503 -0.74401 0.4388202 -0.21288191 -0.2291156
-0.028491413 -0.0012683321 -1.0874106 -0.28604954 0.6624364 -0.048783254 -0.43224418 -0.30925024
0.09866606 -0.16684964 -0.73730046 -0.26044166 0.42717287 -0.8858178 -0.98225254 1.134074
-0.05512903 -0.39895236 -0.11662889 0.07435842 -0.6901343 -0.123445936 -1.7384864 0.2707678
0.08816167 0.06925472 -0.92305136 0.90273523 -0.122680716 0.06886885 0.40221784 0.12706406
0.015588187 0.132369 0.24420284 -0.101310164 -0.1628791 -0.40855077 0.18447623 0.5699218
0.045911226 0.1596395 0.19763365 0.22126491 0.3888903 -0.106237024 -0.14502174 0.4815388
-0.300157 -0.16386423 -0.33550274 -0.5660169 -0.27582577 0.32076514 0.641996 0.059141923
0.08544256 0.06566941 0.37036648 -0.18959056 -0.9282746 0.34690022 0.026696958 0.44300815
-0.06700256 -0.3631699 -0.96555775 0.095195286 -0.15821362 0.4168572 0.2511501 0.0843542
-0.44267845 -0.3460101 0.1894609 -0.15417036 0.0032750384 -0.2974812 0.52645737 0.35643753
-0.28623664 0.10885974 0.0097441785 0.22826912 0.364849 0.27185553 0.6388808 0.027838428
0.24929415 0.113301426 0.14035802 0.24079953 0.31467652 -0.02379964 -0.0016432232 -0.584642
0.66278994 -1.1225504 -0.0760581 -0.0043818536 -0.1662441 0.45894468 0.33494842 0.15118545
-0.2860398 0.31806058 0.13996357 0.25622922 0.057029802 -0.12350691 0.56474274 -0.4870788
0.13420698 0.2577209 0.036296718 0.13489346 0.4817242 -0.25859421 -0.20918515 0.14111032
0.34344602 -0.48060346 -0.20509948 -0.69531137 -0.3306022 0.0020964697 -0.29444495 -0.25652808
-0.5903913 0.3790556 -0.27746788 0.22372015 0.47030753 -0.39725775 -0.014017996 0.035569374
0.091297805 0.7429753 -0.037122723 -0.37097186 -1.0036348 -0.038488872 -0.21642207 0.3396
0.16615638 0.05723132 -0.1678719 0.24264932 -0.21630025 0.018743282 0.21901876 -0.1451977

gru.weight_ih_l0 f4 [384, 256]
00000000: 0506 8b3d b275 333d 1848 813c e4e3 8e3d
00000010: 3428 0dbc 5957 1fbd 8064 943c a8bd 93bd
00000020: d1b8 15bd 3598 0b3d 206e 7f3d c8a1 573c
00000030: 4afb d23d 862f 783d 39de ff3c f1e4 3b3d
00000040: 9498 f23c 8dd5 1c3d fd7d 6d3d bcdb e03c
00000050: 3b96 f4bd 59cb e2bc 5104 633c 9d49 36bc
00000060: a432 ddbd 8464 bbbc 4b5c 803d 7ef0 5dbd
00000070: 694b a2ba abd3 463d 17e4 cb3c 0f24 7e3d
00000080: 9328 fdbc aec6 873c 1e8a c8bc 3e2d 9e3c
00000090: 07c4 903d ee65 a6bc 0302 f2bc 4b02 0e3c
000000a0: fc54 9f3d d95c 9e3c 460f a3bd 9370 763c
000000b0: 4989 10bd 39aa 683d 5e95 0a3d 4f86 643d
000000c0: 7fce 46bd 650c 8cbd 5c12 9b3c 688a e2bc
000000d0: 47bb abbd 13c6 8f3c cd94 a73d 4522 9b3d
000000e0: 55c4 48bd fd9e 1b3d 3bc1 8fbd e11a 053d
000000f0: 40a3 a0bc 5bc7 8c3b be74 853d 1304 8fbb
00000100: b120 95bc da05 8abb 3e16 9f3d 1005 a6bb
00000110: 4e3c 7cbd bcb7 963d e433 e9bc a521 453c
00000120: 70c3 9bbc 2d26 d93c 927d 6b3c c098 17bd
00000130: eaaf 4b3d 1380 b2bd 4e97 5c3d fecf 113d
00000140: 1cfd 4bbb 81d2 0bbd cbff 7d3d b2ac aebc
00000150: 4cff 703d 2dd4 3cbd 784a 4a3c 4ce7 d7bc
00000160: 21d5 c93c a5d9 d9bb b4cd f2ba 3f86 203d
00000170: a844 12bd 1dcf 10bd 6b55 00be 21c7 ce3d
00000180: 0661 013d 941b e73c 5508 e5bc 4069 8f3d
00000190: aeed 833c c583 edbb 20f1 a4bd 87aa 8cbb
000001a0: d960 303b 8ceb 9d3b 48b1 80bc 6571 9e3c
000001b0: b42e c2bc 67ab d1bc bb6c 393c de00 22bd
000001c0: 6ac7 493c bbe2 1e3c 0be9 303d 11ac 593d
000001d0: 832e aabd a866 0dbd 5f4e ec3b a127 943d
000001e0: de51 a7bc d6c7 713d 7cc0 c33d bfae 31bd
000001f0: c551 09bd 2201 933c 252b 9b3d 3b64 44bd
00000200: 2ec1 67bd 4f4a 123d 5b7c 003d 2b23 5a3c
00000210: 9ddc e93c 98b1 d33d f6bb 2ebc 79e8 c93c
00000220: f5be a9bd 2784 2a3c b4ff 2dbd 6851 363c
00000230: 51b8 febb c454 553d 1e77 01bd a452 883d
00000240: 9fd4 8e3d e5bf 73bd c6ba 023c 6548 28bd
00000250: 625f 633d a167 ef3b be0a 3cbd 8e3a a13d
00000260: 56b2 fb3c 0e07 41bd 2f2b 9ebd f805 973d
00000270: 2830 2b3d 191e 5d3d aa42 1cbd 7d52 8ebd
00000280: 0e89 2f3d 30ee 8abd 57ad aabd 9a54 133e
00000290: 6c50 93bd 4f23 05bd 7cbf 193c e4cf 8bbc
000002a0: 8601 293d 01cf 9d3d 305c 873d cd1b 4a3d
000002b0: 1277 c93b 891f 153d 29ca a3bd 1a48 243d
000002c0: 5119 02bd 1af0 fcbc 2837 26bd 5368 ea3c
000002d0: bf8d 563c 0bac febc cacd 813d 28ed 46bd
000002e0: 298a 993d f274 31bd 4be9 b8bb 6984 aebc
000002f0: 6df3 2fbd ab61 4fbc a2a2 60bc 6a4b 4abd
00000300: ae75 293c 10f5 923d f53d 0e3d 52ab 7eb9
00000310: 6403 963d 49b9 603d 6530 e33c 8a6b 073c
00000320: 965d 5a3c 2aab b1bd 5308 b3ba 6891 9d3c
00000330: 45bd 83bd 10f0 21bd 7280 b9bd eee6 4abd
00000340: 914b c63d 3f69 4cbc b27d 923c 018a d0bc
00000350: 47ec 133c 79b1 2f3d ca24 c03d b2bf 15bd
00000360: fc85 46bd b66a ce3c 6817 86bb d33a cdbc
00000370: 8f4e 333d 37e6 1bbd 9ffd 00bd 208b c33d
00000380: 84d2 f33b edff c9bc c0f0 a13d c743 e8bc
00000390: 365c c3bc a1cb 04bd d5e2 b3bd 22d0 37bd
000003a0: 1830 27bd 2253 22bd a5ae 9cbd 48f2 8abd
000003b0: 4338 9e3d 4123 d8bc fac0 ab3d d783 f93a
000003c0: cacb 803c 2716 183d d718 b83c 4b5d 19bd
000003d0: 2cfe 023d 4dc4 923c 1ff7 8e3d 579a ba3c
000003e0: efe3 9e3d e5ef 773c ff39 0cbd 17a9 823d
000003f0: 6113 cbba c311 9bbc b968 c4bd 01e7 cebc
0.067882575 0.043813415 0.015781447 0.069770604 -0.008615542 -0.03890166 0.018114328 -0.072139084
-0.036553208 0.034080703 0.062360883 0.01316113 0.10301836 0.060592197 0.031233894 0.045872632
0.02961377 0.038289595 0.05798148 0.027448528 -0.11942717 -0.027684854 0.01385601 -0.011125949
-0.108006746 -0.022875078 0.062676035 -0.05418443 -0.0012382093 0.048541706 0.024889035 0.062046107
-0.030903136 0.01657423 -0.024479922 0.019308683 0.07068639 -0.020312276 -0.029541975 0.008667539
0.07779881 0.019331383 -0.079618976 0.015041488 -0.035287175 0.056802962 0.033833854 0.05579215
-0.048536774 -0.068383016 0.018929653 -0.027653888 -0.0838533 0.017550504 0.08182678 0.07574896
-0.04901536 0.03799342 -0.07019278 0.032496337 -0.019609094 0.004296226 0.065164074 -0.0043644994
-0.018204065 -0.0042121233 0.07767914 -0.0050665215 -0.06158095 0.07359263 -0.028467126 0.012031947
-0.01901409 0.026507461 0.0143732 -0.037010908 0.04972831 -0.087158345 0.053855233 0.035598747
-0.0031126207 -0.0341363 0.06201152 -0.021322582 0.05883722 -0.046100784 0.012346856 -0.026355408
0.02463776 -0.0066482597 -0.0018524439 0.039190527 -0.035710007 -0.03535377 -0.12532584 0.100965746
0.03158667 0.028211392 -0.027958075 0.07002497 0.016104545 -0.007248374 -0.080538034 -0.0042927894
0.0026913194 0.004819339 -0.015709534 0.01934118 -0.02370391 -0.025594426 0.011317427 -0.03955161
0.01231561 0.009697611 0.043190997 0.05314261 -0.08309653 -0.03452173 0.007211491 0.07234121
-0.02042478 0.05902847 0.09558198 -0.04337954 -0.033525247 0.017944876 0.075765885 -0.04794715
-0.056580715 0.035715397 0.031368595 0.013314049 0.02854758 0.10336608 -0.010664931 0.024646984
-0.08288375 0.010407484 -0.042480186 0.011127807 -0.007773437 0.052082792 -0.03160774 0.066563874
0.06974148 -0.059509177 0.007979101 -0.041084666 0.055510886 0.0073060547 -0.045908682 0.078724965
0.030724686 -0.04712587 -0.0772308 0.07374185 0.041793972 0.05398378 -0.038149513 -0.06949327
0.042855315 -0.06783712 -0.08333843 0.14387742 -0.07193074 -0.032504376 0.009384032 -0.017066903
0.04126122 0.077054985 0.0660938 0.04934292 0.0061482275 0.036407027 -0.07997543 0.040107824
-0.031762425 -0.030876208 -0.040579945 0.028614199 0.013095318 -0.031087896 0.06338079 -0.048566014
0.07497055 -0.04332442 -0.005643045 -0.021303372 -0.04295676 -0.012657563 -0.01371065 -0.049388327
0.010342998 0.07175648 0.034727056 -0.0002428715 0.073248655 0.0548642 0.027733037 0.008265385
0.013327977 -0.08675225 -0.0013659097 0.019234374 -0.06432585 -0.039535582 -0.09057702 -0.049536638
0.09682382 -0.0124762645 0.017882202 -0.02545643 0.009028501 0.04289386 0.09382017 -0.036559768
-0.04846762 0.025197368 -0.0040921457 -0.025052464 0.04377609 -0.038061347 -0.031491872 0.0954802
0.007440867 -0.024658168 0.079072475 -0.028352631 -0.02384768 -0.03242076 -0.08783499 -0.044876225
-0.04081735 -0.039630063 -0.07650498 -0.06784493 0.07725575 -0.026383998 0.08386417 0.0019036484
0.015722174 0.0371305 0.022472782 -0.037442487 0.03198068 0.01791587 0.06980728 0.022778673
0.07758319 0.015132879 -0.034234997 0.063799076 -0.0015493446 -0.018929368 -0.09590287 -0.025256636

gru.weight_hh_l0 f4 [384, 128]
00000000: 380a 25ba 7f94 7d3c 8295 d43c 2b71 de3b
00000010: 7b11 073d df04 c5bd 790e 0a3d b01a 41bd
00000020: 9b92 bbbd d8b8 823d c0c6 c03c 6a8e 773d
00000030: 6e05 8c3c 317b 8b3c af5c 4c3d 11dd 65bb
00000040: 4023 8e3c 77b2 18bc 5c51 54bb 0027 febc
00000050: eacb 403c de4d 48bd 06d0 49bd 98bb 03bd
00000060: a18e 71bd 74f3 7d3d 06d8 673c b57a 2cbd
00000070: bb9f 5ebd 6b4d 083d 0a7f 20bd 0bb8 b7bd
00000080: a493 afbd ab97 0f3d 3728 9f3d 1f19 7a3d
00000090: 0ec7 9f3b 9fab ca3c 68f6 54bd 4935 523d
000000a0: dbd6 bebb 469d edbd 0f67 8ebd 9a15 0b3d
000000b0: f09b bcbc 14d6 063e 4db3 5abd fbaa a33d
000000c0: 6ef2 2ebd edb5 75bc 6a14 993d 9cce 73bd
000000d0: 6e9b 57bd dcd5 9ebd e8f6 b4bc 6bd4 efba
000000e0: adbd c2bc bcbe 7cbd 5291 8e3d d3a8 b53d
000000f0: 692e 74bd df23 c83d 5088 7fbd 8184 bd3c
00000100: 5210 5dbc 617b b13d 6b29 163d ed49 86bc
00000110: 28f1 2b3c ae9f a63d e7ce 843d f802 eebb
00000120: d40d 943c a335 2dbe e7a5 7abc 66b5 49bc
00000130: ab04 53bd f32f 79bc 8ab0 6b3d b676 5cbd
00000140: 1e14 3ebc 0951 d9bc cbd0 abbd 91bc 11be
00000150: c9e8 edbc bcb0 77bd e4fd 663c 75f5 863c
00000160: 6961 30bd 1c43 27bd 66c3 423d 8859 ce3c
00000170: d49c 8d3b 4d60 fb3c 677f c6bd 62b2 313c
00000180: 5748 b4bd 6f64 4bbd 33a4 8fbd b89f 073d
00000190: 152f 9fbd e286 05bd 2750 73bd 145d 553c
000001a0: eba5 103c 5ec7 c4bc 4cc8 77bd 080d a23c
000001b0: 6188 84bb 2f56 783d b3f3 853d e2f2 77bd
000001c0: 89e6 8d3b 2e64 66be 7e79 fc3d 335a ff3c
000001d0: b13b 2c3d 085d 73bc b3d3 d9bd 5f77 e03c
000001e0: 1423 e63c 488a 7dbc 4616 2f3d 8d77 96bd
000001f0: 4d9c 1c3d 4617 0f3c e0ca 0d3b 14f3 51bd
00000200: a66f 213d 21aa b73b a40a c1bb e092 d1bc
00000210: a3ad 2f3c d5e7 ac3c a7ff c43a 2cd9 d23c
00000220: 16ab ec3c 5406 01bd 8f29 cfbb d367 70bc
00000230: 620c 0a3d 7be5 363c 6d21 69bc 6b87 643b
00000240: 5171 653d 7ee3 353c 33cb 62bd 36fb 31bc
00000250: 3aab 463b 7dbc 333c 8d19 303c e029 70bc
00000260: 2ccd 383c fec5 c5bc 40d4 373d 62f4 21ba
00000270: ad12 7dbc 8553 6ab9 8674 27bd b9cc c3bc
00000280: fe36 e83b 0ddc 563d add7 a33c 667f ef3b
00000290: e929 af3b 8c02 86bd f349 33bd 2ae0 a73c
000002a0: 680d 6db8 7f3e c5bc 91e8 43bc ffe2 3ebc
000002b0: d93b 293c e111 4dbd 9144 2ebc 2726 5bbc
000002c0: 9e5a 2b3d 2b88 14bc 6484 ebbb 4e08 cbbc
000002d0: 3c2e 093d da36 3abd 501b 833d a1c9 16bc
000002e0: 518a da3c 08ff e53b eb7a 8c3c 1862 a2bb
000002f0: 4f05 903b bea9 a0bc e26e 1ab9 b9c7 1e3d
00000300: 2ce0 b7bc 59d6 37bd 19c3 ce3b f58c 42bd
00000310: fc7c ca3c 5988 633c 0acb edbc bee6 babc
00000320: 0503 003c 772a 1cbd 0830 ca3c 85d7 9a3b
00000330: 82e2 003d 84e7 343d cf6e f53c 188e 84bc
00000340: 5df0 1a3d e7d1 003d 5834 e3bb f3ba 55bb
00000350: f089 e83c 1a1f 8ebc 9b98 8e3b 5f8f a53c
00000360: 6a63 09bc 71a7 c1bc 1ab2 3939 a177 66bc
00000370: 8830 21bd 1bdf a43c 8c35 093d ec09 9fbb
00000380: 6659 77ba f810 0dbd 6207 f0bc 265b 393b
00000390: e7c8 89bc 43a5 5bbc 5fbe 3f3a 6b53 afb9
000003a0: abf2 84bb 13de 2f3d d03d b3bb 87b7 143c
000003b0: 8b53 c9bc c742 55bc 1126 c63a 578c bfbb
000003c0: a5cd e1bb f333 87bc 8aaf 5abc 2945 80bc
000003d0: 490c ec3c 8955 cc3b 729b e4bb 6578 2cbd
000003e0: 93b0 ffbc 3658 413d c8d1 c23b 8559 0b3c
000003f0: 02fe 91bb 8070 663c 87e2 2c3d 4bbd 43bd
-0.0006295773 0.015477299 0.025950197 0.006788393 0.032975655 -0.0962007 0.03370521 -0.04714459
-0.09158822 0.063829124 0.023532271 0.06043855 0.017092433 0.017026516 0.049893077 -0.0035074393
0.017350793 -0.009319893 -0.0032397127 -0.031024456 0.011767367 -0.048902385 -0.049270652 -0.032161325
-0.058973912 0.061999753 0.014150625 -0.04210921 -0.05435155 0.033276957 -0.039183654 -0.0897065
-0.08573082 0.03505675 0.07771342 0.061059114 0.004876024 0.024740038 -0.051992804 0.051320348
-0.0058239526 -0.11602263 -0.069532506 0.033956148 -0.023023576 0.13167602 -0.05339365 0.07991596
-0.042711668 -0.014996988 0.07474597 -0.05952321 -0.052638464 -0.07755634 -0.02209039 -0.0018297558
-0.023772085 -0.061705336 0.069613114 0.08870091 -0.059614573 0.09772467 -0.062385857 0.023134472
-0.013492661 0.08666111 0.036660593 -0.016392672 0.010494508 0.08135925 0.06484776 -0.0072635375
0.018073 -0.16914992 -0.015298343 -0.012311315 -0.051518124 -0.015209186 0.057541408 -0.05382415
-0.011601476 -0.026527898 -0.083894335 -0.14232089 -0.029041665 -0.06047128 0.014098618 0.016474465
-0.043061648 -0.040835485 0.047549628 0.025189176 0.004321674 0.030685568 -0.09692269 0.010845752
-0.0880286 -0.049656328 -0.070137404 0.033111304 -0.07772652 -0.032599337 -0.05940261 0.01302268
0.00882862 -0.024020847 -0.060493752 0.019781604 -0.004044578 0.060629066 0.065406226 -0.060534365
0.0043304604 -0.22499153 0.1232786 0.03117094 0.042049114 -0.014853723 -0.106360815 0.02740067
0.028092898 -0.015474863 0.04274585 -0.07347021 0.038234998 0.008733576 0.0021635816 -0.051257208
0.039413117 0.0056049977 -0.005891161 -0.02558273 0.010722551 0.02110664 0.0015029804 0.025738321
0.028890174 -0.031500176 -0.006322093 -0.014673191 0.033703215 0.011163111 -0.014229161 0.0034870754
0.05601627 0.011101602 -0.055369567 -0.010863116 0.0030314461 0.010970232 0.010748279 -0.014658421
0.011279386 -0.024142262 0.04488015 -0.00061780785 -0.015446347 -0.00022347092 -0.04088261 -0.02390133
0.0070866337 0.05245595 0.020000303 0.0073088882 0.0053455723 -0.065434545 -0.043771695 0.020492632
-5.651769e-05 -0.024077652 -0.011957304 -0.0116508 0.01032921 -0.05006588 -0.010636465 -0.013375795
0.041834466 -0.009065668 -0.007187413 -0.024784233 0.03349136 -0.045462467 0.06401694 -0.0092033455
0.026677283 0.0070189275 0.017148456 -0.0049555413 0.004395164 -0.01961219 -0.00014727892 0.03876469
-0.02244576 -0.044882152 0.0063098785 -0.04749771 0.0247178 0.013887488 -0.02902748 -0.022815105
0.00781322 -0.038126435 0.024681106 0.004725399 0.031466015 0.044166103 0.029960064 -0.016181037
0.037826885 0.03145018 -0.00693373 -0.003261265 0.028386086 -0.017348815 0.004351688 0.020209966
-0.008385519 -0.023639413 0.00017709323 -0.014066608 -0.039352924 0.020125916 0.033498332 -0.0048534777
-0.00094356237 -0.03444001 -0.029300395 0.0028283088 -0.01681943 -0.013406101 0.0007314439 -0.00033440752
-0.0040572486 0.042936396 -0.005470015 0.009076959 -0.02457597 -0.013016409 0.0015117546 -0.0058455872
-0.00689097 -0.016504264 -0.013347516 -0.015657978 0.028814452 0.0062357825 -0.0069765383 -0.042107005
-0.031212127 0.047203265 0.005945418 0.00850523 -0.004455329 0.014064908 0.04220822 -0.047787946

gru.bias_ih_l0 f4 [384]
00000000: d19b 853d 53c8 c1bc ba80 113e b496 803d
00000010: 3cfd 02bc 9c02 47bd 0bf5 a2bb b417 133c
00000020: 2212 003d 8ff8 86bd 078a 9fbb cc96 ae3a
00000030: 52f8 9d3c 7e77 3c3b 3834 d63c af51 8b3a
00000040: 142c e03c da9b d03b 13e1 893c afcb 693c
00000050: 0bba c4bb 6f84 473d 270b 51bc 25d9 e5bd
00000060: e17f 073d d730 d7bc 7a9e 1d3d 30c7 713d
00000070: ab79 c03c c573 9dbd b274 bb3d bd32 72bc
00000080: e04d a0bd 8237 4ebc 8037 b53c 6173 cf3b
00000090: 7cf0 27bd 7887 aa3d 4adb 28bc ebc0 8a3d
000000a0: 81fe ce3b bb17 2d3c dbc5 38bd ecf3 5d3c
000000b0: f49e 383d ee3b 5abd cb5d 2abd 5098 57bd
000000c0: c87c 9cbd 7826 9338 c81e f2bb 1525 ab3c
000000d0: 8700 02be 560c 66bd 6b7a bc3d e2c1 aabd
000000e0: 8781 17bc 98d8 d0bb 8277 97bb c82d 963d
000000f0: f54c 34bc 9d57 5bbc 0aaf 20bc b0f8 923c
00000100: 2164 273d 08b4 65bd 01af f13d 6576 9d3c
00000110: 912e 0c3d 6d51 21bc 10d6 b43d 495e 75bc
00000120: 40a0 23bd f966 553d 8dfc afbc 4b3e c0bd
00000130: bde7 b13d 964d f9ba f6a2 92bc 5c99 963d
00000140: e93f 0a3d 2436 bf3d be64 8c3c c48c 6ebb
00000150: f294 50bd ee7c ca3b 3895 c1ba 797b 8ebc
00000160: 25d5 d1bb cb7f c73b 4742 62bc 0614 e63c
00000170: ec67 403d bfe5 213d 8fd7 8c3c bc2e acbb
00000180: 04bd 933a c479 e1bc ca3b f43b 6ddf e33b
00000190: b143 d0b8 f3f3 a23d 914e e73c e118 233d
000001a0: e821 4e3d f903 e83b 70a0 343d a9b5 bdba
000001b0: dd7d d4bc 4c1b ecbc 9cd8 ca3c 19be 963d
000001c0: d9ad 243d 795a 973c 95c9 a3bb 0e2c c23c
000001d0: 82da 163d 3cc7 32bb 1e99 2d3d 225f 32bd
000001e0: 3155 fdbc 6693 133c b92c 1dbd caf0 93bd
000001f0: 37a1 f73d 34a8 bdbc aa82 b03d 4fef ae3d
00000200: f1ec 0bbb 3518 813d 97bc fc3d 9c30 7abd
00000210: b785 62be 5006 56be 9000 a2bc 56ce 3f3e
00000220: 7807 4abe ca89 d7bd abe5 b4bc e8b6 0bbe
00000230: 94d6 703d fb31 c9bd acf3 d63c ad17 503e
00000240: 1871 dcbd 6c5d 673e 6a4d 18be cfdd eabd
00000250: edf0 873c 99a7 a3bd 1f32 e4bd 4019 51be
00000260: b8a4 033d 9f20 91be 7e17 073d e299 11bd
00000270: c70b a33b 738e 8bbd 2d7b 85be c34e 40bb
00000280: e6f9 28be 2d5b 46bc 4ee4 953c e634 9bbd
00000290: 2693 2abe 905b 79be 710e 71be 9766 15be
000002a0: ad1d 87bc 9c5e 0e3e 9d38 45bc 2213 583e
000002b0: 25d1 89bd 99b2 bdbd 4903 a0bd f858 86bd
000002c0: c012 67be 597c cebd 8e2f cbbc 36b4 cdbd
000002d0: 14fe 81be a8d5 9fbd b264 32be e74d 65be
000002e0: 4a84 55be f043 fc3c 663d 8bbd a8d5 ddbd
000002f0: 72e8 05be 08fc 4bbd bc04 b13c 16f9 febd
00000300: e2dd c7bd 195a 74be 6a77 2cbe b689 0bbe
00000310: dfa6 3ebd d3ce 863d fc5d 1fbe 8a80 633d
00000320: c259 263d d695 0ebe 84f9 dbbd 5ba8 e8bd
00000330: f18f b5bd 621b 2ebe 1456 29be 5052 3bbd
00000340: 4dae e9bd aa77 65be f1ae 953d db11 dc3d
00000350: 8ff8 25be b02e 0bbd 8329 813b fa3a 33be
00000360: 8d36 1cbe e7bf a5bc 0694 a7bd e0c3 733d
00000370: 086e 483d b70b d1bc d248 d4bd 77f8 50bb
00000380: 7120 073e deac 1cbe 8e0d bcbd 3058 01bc
00000390: bffe 14bd 9412 4abe ae1e da3d 00d1 12bd
000003a0: 99a4 403c 850a 7bbd 471d 1fbe be35 2fbe
000003b0: 4336 64bc 5c35 30be e23b d03d f7c7 623c
000003c0: 787f 03bd daf8 ae3d 7b0b 40bd 0313 30be
000003d0: e840 a4bd 4e20 1abd d6af 1cbe 32b8 50be
000003e0: ecb1 a73c 7300 7bbd c53c 1ebe e52b 81be
000003f0: 5e1c 30be 8b77 863d 9378 74be 660d 35be
0.0652386 -0.023655092 0.14209262 0.06278744 -0.007994946 -0.048586473 -0.004973059 0.008977819
0.031267293 -0.065903775 -0.004868749 0.0013320087 0.019283447 0.0028757746 0.026147947 0.0010629202
0.027364768 0.006366235 0.016830957 0.014269753 -0.0060036234 0.048710283 -0.012759007 -0.11223058
0.03308094 -0.026268406 0.038481213 0.05902785 0.023495516 -0.07688097 0.09153117 -0.014782605
-0.078273535 -0.012586476 0.022121191 0.006330893 -0.04100083 0.0832662 -0.010306189 0.067750774
0.0063169603 0.01056474 -0.045110565 0.013546925 0.045073465 -0.05327981 -0.041593354 -0.05263549
-0.07640988 7.0166716e-05 -0.0073889233 0.020891706 -0.12695514 -0.05616411 0.09203037 -0.083377615
-0.00924719 -0.0063734762 -0.0046224007 0.07332951 -0.011004676 -0.013387588 -0.009807358 0.017940849
0.040866975 -0.056079894 0.118009575 0.019221494 0.034224097 -0.009846074 0.08829892 -0.014976093
-0.03994775 0.052100156 -0.02148273 -0.093868814 0.08686779 -0.0019020315 -0.017899971 0.0735347
0.033752356 0.093364984 0.017137881 -0.003639982 -0.050923295 0.0061794436 -0.0014769202 -0.01739286
-0.0064035826 0.006088232 -0.013809747 0.02808572 0.046974108 0.039525744 0.01719263 -0.0052545946
0.0011271541 -0.027523883 0.0074534165 0.0069541247 -9.9308214e-05 0.07956686 0.028235706 0.03981865
0.050325304 0.0070805517 0.044098318 -0.0014473695 -0.025938923 -0.02882161 0.02476149 0.07360477
0.040204857 0.018475758 -0.0049983957 0.023702648 0.03682948 -0.0027279397 0.042382352 -0.043547757
-0.030924411 0.0090073105 -0.03837273 -0.07223661 0.12091296 -0.023151495 0.08618672 0.08541738
-0.0021350945 0.06303445 0.12340658 -0.061081514 -0.2212132 -0.20900846 -0.019775659 0.18731055
-0.19729412 -0.10524328 -0.02208217 -0.13643992 0.058798388 -0.09823986 0.026239239 0.20321532
-0.107637584 0.22594231 -0.14873281 -0.11468088 0.016594375 -0.07990951 -0.11142372 -0.20419788
0.03213951 -0.283452 0.03298139 -0.035547145 0.004975769 -0.068142794 -0.26070538 -0.002934382
-0.16501579 -0.012106699 0.01829734 -0.07578449 -0.16657695 -0.24351335 -0.23540665 -0.14589916
-0.016493643 0.13903278 -0.012037423 0.21101049 -0.06729344 -0.092625804 -0.078131266 -0.06559938
-0.22565746 -0.10082311 -0.02480295 -0.10044138 -0.2538916 -0.078044236 -0.17421225 -0.22392999
-0.20851246 0.030794114 -0.0679882 -0.10831767 -0.13076952 -0.049800903 0.021608703 -0.12449853
-0.09759118 -0.23862495 -0.16842428 -0.13626751 -0.04654586 0.06582417 -0.15563196 0.055542506
0.040612943 -0.13924345 -0.10740951 -0.11360236 -0.08865345 -0.17002633 -0.16536742 -0.045732796
-0.11410198 -0.2240893 0.07308758 0.10745593 -0.16208099 -0.03398007 0.003941716 -0.17502967
-0.15255184 -0.020233108 -0.0818253 0.059512973 0.04893306 -0.025518281 -0.10365452 -0.0031886378
0.13195969 -0.15300319 -0.09182273 -0.007894561 -0.036375757 -0.1973365 0.10650383 -0.03584385
0.011757993 -0.06128933 -0.15538512 -0.17110345 -0.013928953 -0.17207855 0.10167672 0.013841621
-0.032103986 0.085435584 -0.04688595 -0.17194752 -0.080201924 -0.037628464 -0.15301451 -0.20382765
0.020470582 -0.061279725 -0.15452869 -0.252288 -0.17198321 0.0656577 -0.2387412 -0.17680892

gru.bias_hh_l0 f4 [384]
00000000: 2405 b93d c347 b4bc 799a 0c3e 47f8 5b3d
00000010: 7a2c ca3c 16df 9bbd 3cde 3c38 a56d f23a
00000020: ef9c 103d 145d 38bd 2b7f 393d b794 b13b
00000030: a16a c23c 40ec dfbc 868b 8a3d a051 8b3a
00000040: 46b0 ef3c a172 d03b b909 9ebc fa3b cd3c
00000050: b968 c5bb a867 fd3c db89 87bd b933 86bd
00000060: e4e2 063d a0c7 8d3c 441d 1a3d 6739 4d3d
00000070: 41d7 c03c eb1c a3bd 2093 bb3d 9cda d63c
00000080: 2264 8c3b 6d1c 543d f6c6 d63c 6e2a 2bbc
00000090: a7ae 83bc 58da 553c 0318 62bd ced2 f53c
000000a0: dd51 133c 044b 4d3c 0e2d d9bc 9551 593c
000000b0: b737 0f3d 97ed 9cbc 85ed 7dbb 3ccd 143b
000000c0: ca50 11be 75df 2b3c f310 f0bc 88b7 a63c
000000d0: 0a5d 53bc 1990 963c 48e8 e73d 74ef 5dbd
000000e0: fbdb 18bd fc3f 8dbc 804d 5e3d 8f33 4b3d
000000f0: ff4e 94bc dc97 acbc 36e5 c8bc f7cf 923c
00000100: 35bb a53d 26d8 a6bd 1370 a13c b37f 70bd
00000110: 1c2e 0c3d 509d 28bc 8f14 fd3d e502 cabc
00000120: 2aa2 0dbd b59d bfbc 7eaa a6bc cace 27bd
00000130: 511d b13d 9aa1 3abc 979c 33bd ce53 7e3d
00000140: 58be 1c3d b8ad ac3d 6382 8a3c b048 f239
00000150: 506b 82bd 5126 053b 0f24 613c 3b0d c7bc
00000160: 9ba3 06bd 960a d63b 30a8 68bc 4fda 0c3d
00000170: 2803 3a3c 388c 093d 4ae1 25bc ae7c 4cbd
00000180: 10dc 903a 5db4 bfbd b710 4e3d db40 ed3b
00000190: 80b2 f73b 51ab d73c 3048 9f3c 5bc7 913d
000001a0: a3c2 433d cc30 2ebc 3c36 f63c d399 083c
000001b0: b7a3 01bd e2c9 b6bb 2afc c53c 22f6 513d
000001c0: b83d 433d 2158 123d 460e 16bc 9291 abbb
000001d0: 4657 133d e814 50bc ff1d 1f3c f358 8a3c
000001e0: 8a67 0bbd 1293 d83c aa2b 66bc d8ac e6bc
000001f0: 1b27 2b3e fd2e c2bc fbff be3d 5fdc 5cbc
00000200: 7e66 b53c d3d0 0a3d 4548 9a3d 9105 d9bd
00000210: 8696 76be d896 1bbe 89c7 c53d 4c6f ab3d
00000220: ed1f 50be 2353 bfbd 4e6a eebd 1136 e6bd
00000230: 9ad3 443d 3771 bcbd 9c2c 20bc 248f 603e
00000240: b489 eebd b92d 023e 6af3 35bd ec36 24be
00000250: 6914 b43d 59ea bfbd e040 29be 668c 2cbe
00000260: 4ebd cb3c 8dd6 6ebe a397 5dbd 3cc9 9bbc
00000270: 11c1 9a3b 0ca7 de3c 88cd 83be 7d34 7dbd
00000280: bd9d 04be c907 52bd 5a42 e53d ee5c 573c
00000290: 1528 7cbe de3d 40be c1c7 74be ee0c debd
000002a0: 83d2 ee3c 051f 4b3e e29e 20bd 0bfd f53d
000002b0: b352 41bd 970a fdbd a154 72bc e242 b4bd
000002c0: 9d45 02be e9c4 d7bd abd2 bfbb f1d5 bcbc
000002d0: 419f 81be e024 1abd a2b1 56be 1d47 0bbe
000002e0: b944 43be 82b9 fb3d db04 a5bc 9591 e2bc
000002f0: 03f1 0dbe 035b 94bd dd28 25bd 824e 21be
00000300: 912d 06be fdf9 17be 506c d0bd 2ad1 8abd
00000310: a7cf 843d 4302 8ebc a4e3 13be 0f79 663d
00000320: 7c0e a53d bd13 5fbe e5a6 3fbe 7802 dbbd
00000330: 3fd6 4cbe b047 b2bd ecd5 26be ff13 eabd
00000340: 179d 2ebe 37af 65be d882 a13d 6da8 ea3d
00000350: cfa1 b2bd 566a 0e3c ac56 683c 9f1c 63be
00000360: 3a65 45be 2649 44bd 2ed5 c0bd 2b57 953d
00000370: 3ccd 843d 36ab e5bc ec0d 33bb 3467 92bc
00000380: 3992 d53d 76bc bfbd 7bf0 5bbd d696 bebc
00000390: 1814 d13a 03a8 46be bdc1 dd3d cb41 52bd
000003a0: 79ed be3b a1be b8bd 3f31 2abe 0b36 e4bd
000003b0: 72ef afbd d289 51be 6a20 7a3d ef8d 6f3c
000003c0: d18e 143d d9d3 913c ca59 f0bd 87c9 0abe
000003d0: b93c 0039 a2eb d53c a1f4 e9bd e509 6fbe
000003e0: 1491 ba3c 743b a7bd 20fa 84be 36ee 86be
000003f0: 7071 34be 6184 483d 0fb6 28be 43c9 5ebe
0.090341836 -0.022006875 0.13730802 0.053703573 0.024679411 -0.0761091 4.5029665e-05 0.0018495811
0.035305914 -0.04501064 0.045287292 0.0054193395 0.023732485 -0.027334332 0.06764893 0.0010629185
0.029258858 0.006361321 -0.019291745 0.025053013 -0.006024447 0.030933216 -0.06618091 -0.06552834
0.032931224 0.017307103 0.037625566 0.05010357 0.023540141 -0.079645 0.09158921 0.026227288
0.0042843977 0.05178492 0.026217919 -0.010447128 -0.016074492 0.0130525455 -0.05519868 0.030007746
0.008991686 0.012530092 -0.026510742 0.01326408 0.034965243 -0.01915626 -0.003874631 0.0022705337
-0.14190975 0.010490288 -0.029304957 0.020351186 -0.0129006 0.018379258 0.11323601 -0.05418344
-0.037319165 -0.017242424 0.05427313 0.049609717 -0.018104075 -0.021068506 -0.024523359 0.017921431
0.080923475 -0.08146696 0.019706761 -0.058715533 0.03422366 -0.0102914125 0.12357437 -0.024659583
-0.03457848 -0.02339063 -0.020344969 -0.040968694 0.0864817 -0.011391068 -0.043850508 0.06209164
0.038267463 0.08431572 0.016907876 0.00046211993 -0.063681245 0.0020317028 0.013741507 -0.024298301
-0.03287087 0.0065320237 -0.014200255 0.034387883 0.011353292 0.03358099 -0.010124514 -0.04992359
0.0011051912 -0.093605734 0.05030891 0.0072403974 0.0075591207 0.026326807 0.019443601 0.07118102
0.047793042 -0.010631751 0.030055158 0.008337456 -0.03165027 -0.0055782655 0.024168093 0.05126012
0.04766628 0.035728578 -0.0091586765 -0.005235859 0.035971902 -0.012700297 0.0097117415 0.016888117
-0.03403429 0.026437316 -0.014048496 -0.02815859 0.16714136 -0.023704046 0.09326168 -0.013480275
0.022143599 0.033890557 0.075333156 -0.10596765 -0.24080858 -0.15194261 0.09657199 0.083708376
-0.20324679 -0.09342029 -0.1164137 -0.11240781 0.04805336 -0.092012815 -0.009776261 0.21929604
-0.116473585 0.12712754 -0.04442159 -0.16036576 0.087929554 -0.0937087 -0.16528654 -0.16850433
0.024870541 -0.23324032 -0.05409969 -0.019016854 0.0047227223 0.027179264 -0.25742745 -0.061817635
-0.12950797 -0.051276956 0.11194296 0.013144715 -0.24624665 -0.187736 -0.23904325 -0.1084231
0.029153114 0.19836052 -0.039214022 0.12011155 -0.04719801 -0.123555355 -0.014790685 -0.088018194
-0.12721868 -0.105356045 -0.005853971 -0.023051234 -0.25316814 -0.037632823 -0.20966199 -0.13601346
-0.19069184 0.12291242 -0.020143917 -0.02765731 -0.1386147 -0.072439216 -0.040322173 -0.15752605
-0.1310332 -0.14841457 -0.10176909 -0.06778176 0.06484919 -0.017335063 -0.14442307 0.056267794
0.08059403 -0.21784873 -0.18716009 -0.1069383 -0.20003603 -0.087050796 -0.16292542 -0.11429595
-0.17052113 -0.2243012 0.078862846 0.11457906 -0.08722269 0.008692345 0.01418082 -0.22178887
-0.19276896 -0.047921322 -0.09415661 0.072920166 0.06484458 -0.028035741 -0.002732153 -0.017871477
0.104282804 -0.09362118 -0.053696137 -0.023265284 0.0015951423 -0.19400029 0.10827968 -0.051332276
0.005826649 -0.090207346 -0.16620348 -0.111431204 -0.085905924 -0.2046273 0.06106607 0.014621242
0.036269013 0.017801212 -0.11735876 -0.13553439 0.00012229652 0.026113335 -0.114236124 -0.23343618
0.022774257 -0.08165637 -0.2597208 -0.26353616 -0.17621398 0.04895437 -0.164757 -0.21756463

out.weight f4 [36, 256]
00000000: f031 743c 0d55 3bbd bd6d 18bc 72da 773b
00000010: 1b04 6fbc 95da 113d f1a5 d2bc 2697 8f3d
00000020: 931a 1e3d f5fd 9f3c bf09 7b3b 800a fabc
00000030: 6ca6 21bd f980 303d a130 67bd f376 503c
00000040: 55e5 a33c cebb 0fbc 89ee f6bb 5ec3 4c3d
00000050: bd02 5d3d 87f4 583c 2903 32bb 34ef 1c3d
00000060: 9a47 1a3d f577 a9bc 5c8c 063c bae3 e23c
00000070: f8fc d93c 14ca 9b3c b28c 603c 6b64 233c
00000080: 2815 183d 3b17 48bc 2e39 15bc 66fd 913c
00000090: 443c e8bc 0c79 cdbc 61e6 263d 51f1 ba3b
000000a0: 3927 cc3c 1b36 223d 8652 293d 6b27 98bd
000000b0: 1726 493d 2d46 59bd 1876 9f3c 8cee d7bc
000000c0: 45e5 b73c 6d09 243d 58ba e2bc cff0 b13c
000000d0: 2aaf ca3c 172a 0a3d 3082 d33c 6f4d c7bb
000000e0: c8a7 0d3c a399 cd3c 12ad b6bc 124b 8c3c
000000f0: 2852 9e3c 4f3f 0f3c b0d3 263d 0503 f23b
00000100: 020d 273d f7d5 5f3c 0557 813c 558d 1e3d
00000110: 53a5 9dbc 15cb 85ba e2de eabc 7373 6d3d
00000120: 96ad 63bd 665a d7bc 3a86 01bc 5a89 b63b
00000130: 7659 d7bc 4525 45bd 2452 023c a152 133d
00000140: fdf5 dc3a dc64 4fbb 0e6b a43c 358a bc3c
00000150: f79a 3e3c 8698 153d 4e24 6b3d 5666 07bd
00000160: fe6e be39 394f 0a3d 0939 2fbd ed1e 39bc
00000170: ebb9 09bd 0756 28bd 99d7 403d af54 bc3c
00000180: 78a7 783d c87e a83c df1c eb3b def7 7bbd
00000190: 9209 3cbd 1976 69bb 78b5 753d 720b 6b3c
000001a0: cae1 71bc a72d 84bc 3a2e 093c b2e6 30bb
000001b0: 163f 0a3d 2c7d d7bc c11f 66bd 64ed 89bb
000001c0: 923f 94bd 90f7 373d 976b bfbc cf4e a73c
000001d0: fea7 35bc 8cb3 da3c f7ca 04bc e0ed 3d39
000001e0: 76f9 82bc d2c7 cebc b8f2 2ebd 4ef4 1b3c
000001f0: 5327 e0bc fe43 7b3d 889e b6bc b105 1a3d
00000200: 9b82 2f3d c3e6 ebbb bc42 1f3c da19 bc3b
00000210: b097 a4bb 8b2a 3fbb 7b91 59bc 3146 623c
00000220: 8653 d1b9 561a a03c 28b0 2c3d d8de f03b
00000230: 812d 2ebc ea1f 72bc 530e dfbb 9cd0 943b
00000240: 8f8c 2d3c 6252 2bbc 7a73 0c3c da79 91bc
00000250: 8e0e e23c 817a 0cbd ae84 643c e145 1d3c
00000260: 20a0 ed3b 0543 45bb 2a04 1f3d a153 a83a
00000270: 8638 e7bb 5239 163c c36e 64bb 37a7 9dbb
00000280: 1a8f 5dbc 9756 a83c 7130 cc3b 5f1f 96ba
00000290: b583 483d 447a 8cbc 7439 0aba fdd0 1cbc
000002a0: 8c01 da3c 77f6 a13c 8022 3fbc ee9e 5b3b
000002b0: 1dab b43c 2ea3 0f3c e4ad 27bc 72f3 f6ba
000002c0: b159 a33b c78d 80bb 11aa 823b bb37 a3bb
000002d0: 7c01 95bc 4ae1 79bc efee 393a b876 183d
000002e0: b170 143b e4a7 5bbc e070 4e3c fb43 2ebb
000002f0: 98d5 bf3a 29c6 acba 7fca a03b 38bf 043d
00000300: 14f8 833a 971f 9a3a a417 1fbb 4531 f8bb
00000310: 5aaf cdbb 64df 95bb b46c 10ba 99fd cf3a
00000320: c788 863a 2faa 7a3a 1294 6dbb 9ebb 06bc
00000330: c8a2 933b 30dd 83ba 6abe 32bc 00a2 cd3b
00000340: 2808 133c 1a68 99bb c5ed fd3b 7d40 f3b8
00000350: f5e2 de3b 527b 383c eaf7 033c 4eb1 693b
00000360: b02d 3d3c 5174 ccbc 4655 41bc 359c 88bc
00000370: da2d 92bc 71a1 b7ba f46e fdbb 11b9 843b
00000380: 6991 b53c a613 dfbb b14d 30bd 109f 5abb
00000390: f4dd f23b 5d49 15bc 113c ca3b 2758 0e3c
000003a0: 8fcf e43c d46f fe3b af41 f2bb f1cd 973a
000003b0: f163 943c cc68 393c 8e99 acbc 604c 8dbc
000003c0: bf27 aa3b 71de 553b 1514 903c fb4a 8c3b
000003d0: 0edd 143c cc88 5b3b a37f d4bc 7906 79bc
000003e0: a388 6ebc f02b e6bb 326a e63b 05a6 66bd
000003f0: 6262 02bb 3d97 343d 3576 823c 340a 9dbc
0.014904484 -0.045735408 -0.009303507 0.0037819413 -0.014588381 0.035608847 -0.025713893 0.07011251
0.038599562 0.019530276 0.003830537 -0.030522585 -0.039465353 0.043091748 -0.05644286 0.012723672
0.020006815 -0.0087728035 -0.00753576 0.049991004 0.05395769 0.013241894 -0.0027162528 0.03831406
0.03766594 -0.020687083 0.008212175 0.02769648 0.026609883 0.019017257 0.013705419 0.009972672
0.03712955 -0.01221257 -0.009107871 0.017821025 -0.02834905 -0.025082134 0.04074705 0.0057050367
0.024921047 0.03960238 0.041338466 -0.074293934 0.04910859 -0.05304544 0.019465491 -0.026358865
0.022448191 0.04004805 -0.027676746 0.021721272 0.024741728 0.033731546 0.025818914 -0.006082229
0.008645959 0.025097674 -0.022299323 0.01712564 0.019326285 0.008743121 0.040729225 0.007385614
0.04078389 0.013661853 0.015788564 0.038709003 -0.019243872 -0.0010207618 -0.028670732 0.05797143
-0.055585466 -0.026288223 -0.007905537 0.005570573 -0.026287775 -0.048131246 0.007954154 0.035967473
0.0016857978 -0.003164581 0.020070579 0.023015121 0.011633626 0.03652241 0.05740767 -0.03305658
0.0003632232 0.03376696 -0.042779002 -0.011298877 -0.03362457 -0.041097667 0.04708061 0.022989599
0.060706586 0.020568267 0.0071750726 -0.06151568 -0.045907564 -0.003562337 0.059987515 0.0143459905
-0.014763305 -0.01613505 0.008372838 -0.0026992974 0.03375157 -0.026304804 -0.056182627 -0.0042092074
-0.072386876 0.04491383 -0.023366733 0.020423321 -0.011087416 0.026696943 -0.008105031 0.0001811306
-0.015988093 -0.025241766 -0.042711943 0.009518696 -0.027362501 0.06134414 -0.02229239 0.037603084
0.042849164 -0.00719914 0.009720501 0.0057403864 -0.0050229654 -0.0029169645 -0.013279314 0.01381068
-0.00039925816 0.019543808 0.042160183 0.007350784 -0.010630966 -0.014778117 -0.0068071275 0.0045414697
0.010592594 -0.010456653 0.008572454 -0.017758299 0.02759483 -0.034296516 0.013947649 0.00959918
0.0072517544 -0.0030099761 0.03882233 0.0012842306 -0.0070562987 0.00916894 -0.0034856058 -0.0048111933
-0.013522888 0.020549102 0.0062313606 -0.0011453441 0.04895373 -0.017148145 -0.00052728434 -0.009571311
0.026612066 0.019770844 -0.01166594 0.0033511478 0.02205425 0.008766932 -0.01023433 -0.0018840863
0.0049850573 -0.003923151 0.0039875587 -0.004981009 -0.018189184 -0.015251467 0.0007092794 0.037222594
0.0022650177 -0.013406727 0.012600154 -0.0026590812 0.00146358 -0.0013181615 0.004906952 0.032408923
0.001006844 0.0011758682 -0.0024275566 -0.0075742328 -0.006277007 -0.0045737494 -0.0005509362 0.0015868425
0.0010264151 0.00095621025 -0.0036251587 -0.008223442 0.004505489 -0.0010060426 -0.010909656 0.0062754154
0.008974113 -0.0046815993 0.0077492916 -0.00011599155 0.0068019577 0.011259871 0.008054713 0.003565866
0.011546537 -0.024957808 -0.011800116 -0.016676048 -0.01784413 -0.0014009905 -0.007734174 0.004050382
0.022164064 -0.006807762 -0.043042842 -0.0033358969 0.007411713 -0.009111729 0.0061717113 0.008688009
0.027931003 0.007764796 -0.007393084 0.0011581761 0.018114062 0.011316489 -0.021069314 -0.017248333
0.0051927264 0.0032633806 0.0175877 0.0042813993 0.009085907 0.0033498285 -0.025939768 -0.015199297
-0.014558944 -0.0070242807 0.0070317024 -0.056310672 -0.0019895067 0.044089545 0.015925506 -0.019169904

out.bias f4 [36]
00000000: c300 b2bd 2a1b bb3d c300 b2bd 912c 913e
00000010: b102 e9bd f838 32be 24db 91bd 882f 8ebe
00000020: 5b02 9b3c 8bac 4ebe 7151 81be b746 a8be
00000030: f157 dfbd 053c f6bd e2ee f8bd 7403 c43c
00000040: 8680 27bd 9283 e9bd 7325 0c3d 47c7 76bd
00000050: 33bd 2bbd 43f5 1c3e d8c9 62bd 8b21 a8bd
00000060: a605 d2bd a228 23be 0e66 293e 877a e2bb
00000070: adbc 2fbd be5f 69bd 478e 71bd 3997 a1bd
00000080: 5197 1fbe 4472 a2bd 4635 0ebe 2fc8 4abe
-0.086915515 0.091360405 -0.086915515 0.28354314 -0.113774665 -0.17404544 -0.07121876 -0.27770638
0.018922022 -0.20183007 -0.25257447 -0.3286645 -0.10905445 -0.120231666 -0.12154938 0.023927428
-0.040894054 -0.11402048 0.0342154 -0.06024864 -0.04192848 0.15327935 -0.055368274 -0.08209523
-0.102549836 -0.15933469 0.16542837 -0.006911579 -0.042904545 -0.056976072 -0.058973577 -0.078901716
-0.15585066 -0.07931951 -0.1388751 -0.19802926
