modules/prn-gen/exp/en_id/models/trigram/decoder-attn_dot-emb_256-hddn_100-layers_1-epoch_32.pth (torch, 618288 bytes, 7 tensors)

embedding.weight f4 [36, 256]
00000000: c7c4 efbf a6d4 8fbe 1859 233f 45da 89be
00000010: 1252 abbe 808e 8cbf 68f7 55bf fb49 0d3f
00000020: 18ad 2bbf 6a10 30bf 88f6 5e3f ef9b 043e
00000030: c868 9c3f 00bd e03d c58e e23f f311 a73e
00000040: eca5 d5be 4a02 173f 9da4 0e3f 310a 23bf
00000050: 5c62 523f cbba afbe 4976 c53e 844d 06be
00000060: 43d6 b3bd 907e 413f a614 893b 2f59 11be
00000070: c639 b4bf ed34 17be 615b 0c3f 9978 d53e
00000080: f385 403f 8bec f33e 57a1 2f3f 9c43 9dbe
00000090: 1aee 973f b49c 26be ac7f 7b3f 85f4 e7bf
000000a0: 554e c83f e93b b03e 917a 32bf f1f3 1b3e
000000b0: 46e1 7e3f d4d7 1a3f 69b5 1540 79ff e23b
000000c0: 5359 3fbc 1fb5 a1bf 43fc 7cbe 0db1 98bf
000000d0: f230 0dbf fb08 853d 3530 3fbf e5e2 43bf
000000e0: b0e5 953f 0a41 17bd c4cd af3e 3d8f 9a3f
000000f0: 1c6e 1fbf c7bc e5bd a20e 8abd cf94 29be
00000100: 0a72 37bf 22d5 febf 4b34 e13e c00e 9a3e
00000110: bb5b 5dbe d182 28bd 2fcb bfbe 6a5e 2b3f
00000120: 4fb5 3d3e 967b b73f b252 093e 8cbe 9bbe
00000130: 4d07 9abd 0ec3 e7be a3a6 91be 7955 313f
00000140: 4e0c 1440 7f67 1abf 28f6 dfbc 166e a93e
00000150: 9346 c6bd ae7c 69bf c4ef ccbd e0d6 a33e
00000160: fbd9 ba3f 516b 0a3e 99e4 443e fdf8 55bc
00000170: df30 e5be 7a47 e93f 66d2 a63f e406 97bf
00000180: 73ba 2e3f 5c5e 2d3f 267a b73c 36be fe3f
00000190: 8bc4 e53e 15b2 04bf 006a b8be 41c6 323f
000001a0: b6b4 9cbf 4122 b1be aa11 acbf 9272 b5be
000001b0: 30f7 e8bd ceb8 d03e 1cf2 81bf fc9c af3e
000001c0: 2c9c bbbe 588c 17be 272e ddbe a25f 653f
000001d0: e59a c13f 1bdd f2be 8ea3 db3f 6ae5 1ebf
000001e0: 4648 c13f ab97 953f 6c10 c1bc abda 2e3e
000001f0: 6434 763d bd66 dfbd a672 093e 1094 8c3f
00000200: ee54 5abf bb68 a63e d16c 033f 9fc5 20bf
00000210: dbcf 8d3f e369 48bf 2275 44be c74d 613e
00000220: 36a8 873e d765 88bf d1e5 adbe 96b9 6bbe
00000230: 7a64 3d3d dbd1 81be 2902 233f 0d76 1f3e
00000240: 3f94 12bf 739a 553f db93 f2be 6aa7 873f
00000250: f791 1d40 7be7 a7bf 3935 e2bd 5b95 ab3f
00000260: f776 f03e 50bc 693f 976b 553f bb65 84be
00000270: 8b37 3bbf 60fd a93f 16ac 263f 35ba 3e3f
00000280: 0902 ecbe 8bb8 f83f 5bfc 903e 7721 4abf
00000290: 7530 eb3e dcfb 60bf 7615 143e 40b4 bebd
000002a0: 9bd1 c4bf e9a0 81be 40ad a8bd 0fa3 b9be
000002b0: 8d2e 303f 7d4b d13d b76d 503b 48e2 35bf
000002c0: b93f c3bf 66bf 263e 62ae 9a3e be55 813e
000002d0: 5d27 963d 532b d23d 5f5d d43d b278 a8bf
000002e0: 00df eabd 7a0b 5d3f 4ecf e33e 070b 91bf
000002f0: f674 6ebf e7f6 b53f d93e 2a3e ee67 82be
00000300: 8115 9cbf fc24 febe 514e 4d3e 8ae6 3abf
00000310: 123c 203e cfbf d73e 5434 963e 5107 7ebf
00000320: f6ae 03bf d1be 1b40 e006 ed3f 21ae dd3e
00000330: 175e 953e 4646 f5bd d642 06bf 52fa 043f
00000340: dfac ec3d ad50 d03e e73f 8cbf b340 1b3f
00000350: dbbc 38bf 45d2 80bf 8dd7 c03d c829 da3f
00000360: 4d09 5cbf 1f67 93be 2c07 ba3f 2581 873f
00000370: aa96 3f3f 2242 bebf 6c2b 8fbe 16c9 c6bf
00000380: afe2 1640 b7eb 2cbf d275 233d 4dd1 84bd
00000390: 695d 893f b5ee 4fbe 51c9 9a3f 5b22 383f
000003a0: 5383 54be be1d febb bf74 84bf fb23 4a3f
000003b0: 7063 a1bf 9813 62bf 3f25 5dbf 00ef 0bbf
000003c0: 3a99 7dbc 3690 263f 0875 003f dfe5 f9be
000003d0: 8c68 9c3f 3278 903f 2867 963f ccab d13f
000003e0: fc5d f3be 1a32 d53d 150f 8ebf 2ed4 f6be
000003f0: 3613 2a3e 0896 d4bf 2766 543e dba9 bb3f
-1.8731927 -0.28091925 0.6380782 -0.2692434 -0.33461052 -1.0980988 -0.83580637 0.5519101
-0.67060995 -0.68775046 0.87094927 0.12950109 1.2219477 0.10973549 1.769982 0.32630882
-0.4172815 0.5898787 0.5571993 -0.63687426 0.82181334 -0.343222 0.38566807 -0.13115507
-0.087811016 0.75583744 0.0041833697 -0.14194177 -1.4080131 -0.14766283 0.54826933 0.4169357
0.7520439 0.47641405 0.6860556 -0.30715644 1.1869538 -0.16270715 0.98241687 -1.8121496
1.5648905 0.34420708 -0.6971827 0.15229775 0.9956249 0.6048558 2.3391974 0.0069274274
-0.011679011 -1.2633399 -0.24705605 -1.1929032 -0.5515281 0.064958535 -0.74682933 -0.7651809
1.171072 -0.03692726 0.34336674 1.2074963 -0.6227739 -0.11217647 -0.06741072 -0.16560672
-0.71658385 -1.9908793 0.4398521 0.30089378 -0.21617024 -0.04114038 -0.37459704 0.6694094
0.18526195 1.433459 0.13410452 -0.30418813 -0.07520924 -0.45266002 -0.28447446 0.69271046
2.313251 -0.6031417 -0.027339056 0.330918 -0.0968143 -0.9120587 -0.10006669 0.31999874
1.4597772 0.135175 0.19227828 -0.013059852 -0.44763848 1.8224938 1.3032959 -1.1798978
0.6825325 0.67722106 0.022397112 1.9901798 0.44876513 -0.5183423 -0.36018372 0.6983376
-1.2242649 -0.34596446 -1.3442891 -0.35438973 -0.11375272 0.40765995 -1.0152011 0.34299457
-0.36642587 -0.1479963 -0.43199274 0.8959905 1.5125395 -0.47434315 1.7159288 -0.6206881
1.5100181 1.168691 -0.0235674 0.17075603 0.060108557 -0.10908268 0.13422641 1.0982685
-0.8528584 0.32501778 0.51337916 -0.62801546 1.1079057 -0.7828657 -0.19185308 0.22002326
0.26495522 -1.0656079 -0.33964399 -0.23020014 0.0462384 -0.2535542 0.6367517 0.15572377
-0.57257456 0.83438796 -0.4737843 1.0597966 2.462034 -1.3117517 -0.11045308 1.3404955
0.46965763 0.9130297 0.83367294 -0.25858864 -0.73131627 1.3280449 0.6510633 0.7450288
-0.46095303 1.9431318 0.28317532 -0.78957313 0.45935407 -0.87884307 0.14461312 -0.09311724
-1.5376467 -0.25318077 -0.0823617 -0.36257216 0.6882103 0.10219476 0.0031803676 -0.710484
-1.5253822 0.1628395 0.3021117 0.2526073 0.07331727 0.1026217 0.103693716 -1.3161833
-0.11468315 0.86345637 0.44494098 -1.133149 -0.9314722 1.4215974 0.16625537 -0.25469917
-1.2194062 -0.49637592 0.20049407 -0.73008025 0.15647915 0.42138526 0.29336798 -0.99229914
-0.51438844 2.4335215 1.8517723 0.43296912 0.29173347 -0.11976294 -0.52445734 0.5194446
0.1155641 0.4068655 -1.0957001 0.606456 -0.7216317 -1.0064169 0.09416113 1.7044001
-0.8595169 -0.28789613 1.4533439 1.0586287 0.7483927 -1.4863932 -0.27962816 -1.5530117
2.3575857 -0.6754717 0.039907284 -0.064852335 1.0731632 -0.20305903 1.2092687 0.7192742
-0.20753221 -0.0077550104 -1.0348128 0.7896115 -1.2608471 -0.8831115 -0.8638496 -0.5466156
-0.015478427 0.650638 0.50178576 -0.4880819 1.2219405 1.1286681 1.1750231 1.6380553
-0.47532642 0.10409947 -1.1098353 -0.48208755 0.16608891 -1.6608286 0.20742093 1.4661211

gru.weight_ih_l0 f4 [300, 356]
00000000: a008 b7ba daf7 b43c 1151 b7bc cbbe 78bd
00000010: 1382 0dbd 43f1 f33c 687a f63d 4478 2cbe
00000020: fc95 a1bd 218c 77bb e749 1c3d 9ccb e43d
00000030: 8f3e 21bb a7b1 1ebe 7e86 103e 0043 d2bd
00000040: 62ea 65be 9f99 a33d 960b 593d 3d05 90bd
00000050: c273 0ebd a4aa 3bbe 0348 edbd 167f bbbc
00000060: cdde 40be 3ee8 6f3d 0518 b1bd c52e e93b
00000070: 9302 023e 0fd6 e03c d2f3 843e 1f8a 4c3e
00000080: e8e1 a8bd 73a0 bfbd 07bf dc3c 847b b9bd
00000090: 66d2 213d 59f2 9cbd 56af dfbd b417 75bc
000000a0: b765 3abd 8040 b73c e4a4 4b3d 2ff9 acbd
000000b0: 21b1 bfbd 6703 b03d 4a8d cb3d 6545 043e
000000c0: 4445 773d 0b25 fb3c eae9 013e cef9 a5bd
000000d0: b43e 85be 482b adbd 0df0 633d 187d 88bc
000000e0: 9a05 26bd eb1b 11bd 7ccf 113d 6e94 b23d
000000f0: e315 cd3c c179 b53d 2e63 2abd 7f91 28bd
00000100: d2c4 c43d 2b7a 13bd 74ee 1bbd cad1 ccbd
00000110: 9807 29be 4129 85bd 985d 873d 7ff9 b5bd
00000120: 3566 52be 1946 76be 331d 893c 25e5 92bd
00000130: 3f56 c83d 3652 14be 8b6f 3a3e 3247 49be
00000140: a759 80bd d9fb ef3d 3ce6 313e 7640 ddbd
00000150: dacc 78bd 4b84 83bd 1be8 23bd 87f1 5c3c
00000160: 941a 02be b126 fd3b cbe2 ab3d c7ab babd
00000170: 565e 0c3e 9c15 b9bd ac25 4cbd f3ed 15bd
00000180: 0d70 81bd b424 68bc f5d4 1a3e 02ed 4f3e
00000190: 7e46 a73d d399 4d3e 80a6 023e 07fe 543c
000001a0: 4cb4 023e 5e3b ea3d c79c 853d 99e1 293c
000001b0: 937e d8bd 6898 7e3c f294 f03d 3836 873c
000001c0: 9b5b cbbc e2c7 85bd f2a3 21bb e04d 04be
000001d0: 492d b23d 9dd1 8c3c 0403 25be 6eca 6ebc
000001e0: d185 2fb9 358f c83d 9a32 d1bd b474 2d3d
000001f0: 6698 44be 022b 333d 6b4a ac3c ed70 59bd
00000200: 842f 01be b60d d43d 51cd babd 8774 e1bc
00000210: 8b23 a8bd 9090 813c dd56 b33d 8c69 123e
00000220: fcbc 2d3e d741 39bd 9b99 0dbe 362d cebd
00000230: 7b13 fe3d 2358 913c d376 27be 60d8 b93d
00000240: c0a6 823c 785d 9b3d 4412 a13b d37c c3bd
00000250: b89b 2ebe 7eb3 47bd d806 1b3d 0a5a c73d
00000260: 2992 d5bd 3762 f43d d7b8 4d3d 61f4 eebd
00000270: acf5 debd 0047 09be 461b bd3c a959 843d
00000280: ddc7 ea3d f0ed 70be 4f5d 1a3d 4b2a 893d
00000290: 0ea1 43bd 84c0 213e 1510 ddbc d206 9c3d
000002a0: 565a e8bc fa78 3f3d f843 dd3d b5c4 333e
000002b0: 7568 dabc 3226 b0bd b496 383e a37f aebd
000002c0: 7da5 7d3b ac36 7a3c 7739 02bd 1891 d6bd
000002d0: f47f 853d e29e 25be 57fd 35be 8fa2 523d
000002e0: b470 8cbd 5576 f23c bab8 df3d 761a 22bc
000002f0: 7eef 33bc 2f14 80bd 26e6 513d 6e71 143e
00000300: 7ffc 8d3c 976d eb3d d2fe 823d 33eb 873d
00000310: e147 cfbd 951b d83d 0502 b5bb 2b7c 873e
00000320: b048 14bc 0c23 39bc c2aa cc3c d49d cbbd
00000330: dd7c 3bbd c952 1c3e 2f0f afbd e01d d83d
00000340: 6d6a dcbd d9b7 623d 3545 15be 27c9 6ebd
00000350: c9b2 313e a725 8e3d 5eb7 253d eebe 2cbe
00000360: e68a 4a3e 1d77 15be 6597 cbbd 3fcd 03bd
00000370: 2926 d3bc d561 9fbd 39b5 133d 35c7 63bd
00000380: fc77 013c c318 44be f99e d5bd 8af2 b9bb
00000390: c22d 833d 03b7 9fbd f7a5 233c a796 41bd
000003a0: 212d 543d 8375 0fbd cb73 443b 06ee 843d
000003b0: db2c 6b3d f54e 273d 659e 8f3d 9e39 b5bc
000003c0: b674 d8bc 9e1c d43c 0063 b03d e4a1 2bbe
000003d0: b765 51bd 808a 933a 6aea 3c3d 9263 37be
000003e0: bc2b a03d abe6 efbd 0bc5 2f3d d9e0 cb3b
000003f0: 3440 a7bd 749b 2dbb ec5b 22bc 6e38 0d3e
-0.0013964362 0.022090841 -0.022377523 -0.06072883 -0.034547877 0.029778128 0.12035066 -0.16842753
-0.078899354 -0.0037772732 0.038156416 0.11171648 -0.0024603938 -0.15497456 0.14113805 -0.102666855
-0.22452691 0.07988285 0.052989565 -0.07032249 -0.034778364 -0.18326813 -0.11586001 -0.022887748
-0.18834992 0.058571093 -0.086471595 0.007116171 0.12696294 0.027445821 0.2596727 0.19974564
-0.08246213 -0.09356775 0.026946558 -0.09056762 0.039507292 -0.07663412 -0.109221146 -0.014959265
-0.04550716 0.022369623 0.0497178 -0.084459655 -0.093599565 0.08594399 0.09939058 0.12917097
0.06036879 0.030657312 0.12686887 -0.08104287 -0.260244 -0.08455521 0.055648852 -0.016661212
-0.040532686 -0.035427015 0.035598263 0.08719717 0.02503485 0.08861113 -0.04159849 -0.04115438
0.09607853 -0.03600518 -0.038069203 -0.100009516 -0.16506803 -0.06502009 0.066096485 -0.08885478
-0.20546801 -0.24050178 0.016737556 -0.07172612 0.09782075 -0.14484486 0.18206613 -0.19656065
-0.062671 0.11717958 0.17372984 -0.108033106 -0.060742237 -0.06421717 -0.040016275 0.013485319
-0.12705451 0.0077255596 0.08392867 -0.09114795 0.13707861 -0.09037325 -0.049840614 -0.03660388
-0.063202 -0.014168907 0.15120299 0.20305255 0.08167742 0.2007821 0.12758827 0.013000018
0.1276409 0.11437105 0.065240435 0.010368728 -0.10571017 0.015539266 0.11747159 0.016505346
-0.024823954 -0.06532265 -0.002466437 -0.12920332 0.08700044 0.017189795 -0.16114432 -0.01457463
-0.00016739151 0.097929396 -0.102147296 0.042347625 -0.1919876 0.043742187 0.021031579 -0.05308621
-0.12615782 0.10354178 -0.09121192 -0.027521385 -0.08209904 0.015816003 0.08756802 0.14298075
0.16966623 -0.045228805 -0.13828127 -0.10067217 0.12406059 0.017742222 -0.16353922 0.090744734
0.015948653 0.07586187 0.0049155075 -0.09545293 -0.1705159 -0.04875516 0.037848324 0.097339705
-0.104282685 0.119327955 0.050225105 -0.11667705 -0.10886702 -0.1340599 0.023084294 0.06462414
0.11463902 -0.23528266 0.037686642 0.0669752 -0.047761016 0.15796095 -0.026985208 0.07618488
-0.028363388 0.04674623 0.1080398 0.17555507 -0.026661137 -0.08601035 0.18026239 -0.085204385
0.0038703375 0.015271824 -0.031793084 -0.10476893 0.06518546 -0.1617389 -0.17772423 0.05142456
-0.06857434 0.02959744 0.10923906 -0.009894004 -0.010982392 -0.0625385 0.051244877 0.14496395
0.017332314 0.11495512 0.06396259 0.066366576 -0.10121132 0.10552136 -0.0055239224 0.2646192
-0.009050533 -0.01129986 0.024983767 -0.09942213 -0.045773376 0.15265955 -0.08547818 0.10552573
-0.107624866 0.055351112 -0.14577182 -0.058297303 0.17353357 0.06940775 0.040458076 -0.16869709
0.19779548 -0.1459622 -0.099409856 -0.03217816 -0.025775032 -0.07782332 0.0360615 -0.0556099
0.007902142 -0.19150071 -0.10430712 -0.005674665 0.06405212 -0.077985786 0.0099883 -0.047262814
0.05180085 -0.035024177 0.0029976245 0.06490712 0.057415824 0.040846784 0.07012633 -0.0221222
-0.02642284 0.025892552 0.08612633 -0.16760975 -0.051122393 0.0011256486 0.046121992 -0.17909077
0.07820842 -0.11713918 0.042912524 0.0062218723 -0.08166543 -0.0026490362 -0.009909611 0.13791057

gru.weight_hh_l0 f4 [300, 100]
00000000: e6f0 00be b86f 22bf c01a 37bd 5ac9 ef3d
00000010: 355a 01bd 7d07 813d 4cf1 81bf ff86 0a3d
00000020: 91c0 db3e 4d56 0e3e 44c0 38be 89d2 773d
00000030: c144 88be 26e7 5a3e f8c8 14bf 220b b9be
00000040: 261e 713e ecff 213e 4cb1 d6bd 41c5 6cbd
00000050: fe56 e3bb 4886 48be e63a ec3d 1fb0 34be
00000060: cef4 aabd 9064 b43d e4ef 2c3e 5ff3 be3d
00000070: 9ed8 9d3c a523 69be 6ffe 033e 72a0 c2bd
00000080: 754b 04ba 7ae0 f7b9 d565 41be 842b 943c
00000090: fc2b 253d 1930 03be c566 3d3d 0e3e 2fbe
000000a0: 961b 963d c120 393e 08f1 6dbe d072 2abe
000000b0: ac52 263e f4a2 893e d976 49be 7949 2abe
000000c0: beb4 a5bc c0b6 b2bd 32c2 453d 22d8 093e
000000d0: 54be 39be 835b c3be 7c39 1a3e c3ef 0bbb
000000e0: a21d 7dbe 9489 ccbd 6700 88bc 6e31 9abd
000000f0: bcde f43d 4b61 643d e3e4 093e 1582 f3bc
00000100: 7037 a73d 09b2 8c3e 9a33 d33d 55d5 93be
00000110: a6cf 28be 7181 b4be 7d72 01bf 93e5 423e
00000120: 485a 9cbe 2ed9 ffbd 0763 b9bc c1ed 78be
00000130: b7e1 0c3f 4811 fd3d 7fc0 73be 7df3 5fbe
00000140: abe8 0abd 321b ae3e 7982 7ebe d8c2 4f3e
00000150: 0ca4 9bbe e31d c8bd 6d2f 6ebe f0d8 2abc
00000160: f3b1 32bd 821a adbc 6a17 4bbc ab0e 55bb
00000170: 3381 87be 15e2 aabe d65a a53b c5ff e23c
00000180: 83e9 2f3c c283 67be 3de7 8dbe 91bc 853e
00000190: 1213 2fbc 1007 45be 63b1 81be 357b 13bd
000001a0: c1b3 09bd 2d7a bfbe 6f15 7f3c e7e9 6f3e
000001b0: 8621 1a3e 978f 28be a092 043d 3be4 81be
000001c0: 25dc 943e b6cc 4d3b 8cbc 5a3d 0a18 843d
000001d0: 0884 4fbe 601b 9cbe c631 ca3d e013 76bd
000001e0: 292f 123e f841 4ebe 7d0d 123e 9410 3a3d
000001f0: a0b0 34be 9224 e83b c4ec 943d 9dc6 53bd
00000200: 1e34 573e f9dc 263e 763d bfbd 7b5e 3bbd
00000210: 1af6 7b3e 78df a8bc 9fdf 273e 334d 243e
00000220: 1fb9 66be 9e7f 0f3e 4bb7 823d f7fd a1bc
00000230: 1d12 1e3c abbf b7bc d2e7 353c 88cf c43b
00000240: 72d5 d73d 8c90 1f3c c476 acbd 848c 5bbe
00000250: f643 61be 25a9 25bd fb8d a13e 5268 07be
00000260: 2678 3f3e 304f aa3e 9b36 2cbe 4636 e43d
00000270: eec3 d43d 3845 8e3e 9c5c 7cbd 0f45 723d
00000280: b19e eebd f011 e8ba 5ee7 0e3c d964 b6bd
00000290: c063 fe3d a87b 593e eb17 a63e b2ac bcbd
000002a0: 08f8 00be 751a 20be 4d70 6c3e c4f5 13be
000002b0: f6de c83e c15d 653e 386b 5dbd 1fb0 14be
000002c0: aa3e c03d 9a5f 2abd ff67 1e3d cf34 febd
000002d0: 65f2 7c3c 1c6e 3a3e 7311 063e 74e8 ddbd
000002e0: 0e98 103e 454c e8bc 0513 003e 0cee ca3d
000002f0: 008b 723e 4908 5ebe e01e 54be 1b51 813e
00000300: e14f 8c3e 9b4e e9bc 33c3 4fbd 9b21 60bd
00000310: a700 c0bc bfa7 583e c578 57be 0363 0ebe
00000320: f3e0 b33d d031 413d e2c3 2bbe bb03 c73d
00000330: b114 b1be d60f a63e cea7 1bbd aa18 00be
00000340: 2470 0abd a67b 753d 64ce debc e3f2 f3bc
00000350: 0a85 1e3e d580 0d3e edfa 7bbd 8ed9 09be
00000360: 1150 fb3c db4d 523d d091 3fbe 4365 e9bd
00000370: 028f 42be 356d 08be 0c67 863b 7a96 2fbe
00000380: 8850 dcbd 4662 043e c8b0 9c3e 4fad fc3d
00000390: c926 ad3c de7e 7ebd 9e99 d93b 7f5e 4e3e
000003a0: 7523 e1bd f32f 3bbd d83a c93e b04e 153e
000003b0: d1ed 33be 2479 cd3e 76a2 303e 5c3e 483e
000003c0: 0d1a 653d 2031 803e 5a8a 2b3e 6234 80bd
000003d0: 5558 683e 1bf4 733d 19a2 31be 394d 893e
000003e0: 4d21 523e 167e a73d 3786 1d3d b84a 34be
000003f0: 6013 e2bc 1ceb a0bb 98f6 acbb 2f65 53be
-0.12591895 -0.6345172 -0.044703245 0.11708327 -0.03158017 0.063002564 -1.0151763 0.03382015
0.42920354 0.13900109 -0.18042094 0.060503516 -0.26614955 0.21377239 -0.58119154 -0.36141306
0.23546657 0.15820283 -0.104830354 -0.057805303 -0.0069378605 -0.19582474 0.115346715 -0.1764531
-0.08347474 0.08808243 0.16888386 0.09323763 0.01926833 -0.22767504 0.12890027 -0.09503259
-0.00050466444 -0.0004727876 -0.18886502 0.018087156 0.04032515 -0.12811317 0.046240587 -0.17113516
0.0732948 0.18078901 -0.23236477 -0.1664536 0.16242474 0.26882136 -0.19674243 -0.1662959
-0.020227786 -0.08726263 0.048280902 0.13461354 -0.1813901 -0.38155755 0.15060991 -0.0021352626
-0.24718335 -0.099871784 -0.016601754 -0.07528959 0.11956546 0.05575685 0.1346622 -0.029725114
0.08164871 0.2747958 0.103125766 -0.28873697 -0.16485462 -0.35255006 -0.5056532 0.19032888
-0.3053763 -0.124925956 -0.022630228 -0.24309446 0.55031914 0.12356812 -0.238039 -0.21870227
-0.033913296 0.34005123 -0.24854459 0.2028917 -0.30398595 -0.097713254 -0.23260279 -0.0104276985
-0.043626737 -0.021130804 -0.012395719 -0.0032509963 -0.2646576 -0.33375612 0.005046229 0.027709851
0.010736826 -0.22608855 -0.27715483 0.26120427 -0.010685699 -0.19240975 -0.25330648 -0.03600617
-0.033618692 -0.373979 0.015569075 0.2342907 0.1505185 -0.16461025 0.032366395 -0.2536944
0.29074207 0.0031402535 0.05340247 0.064498976 -0.2026521 -0.30489635 0.09872775 -0.060077548
0.14275803 -0.20142353 0.14262958 0.045425966 -0.17645502 0.0070844376 0.07271722 -0.051703084
0.21015975 0.16295232 -0.093378946 -0.0457444 0.24605599 -0.02061437 0.16393898 0.16045074
-0.22531556 0.14013526 0.063826166 -0.01977442 0.009647873 -0.022430262 0.011102634 0.006006185
0.10538758 0.0097390525 -0.0842109 -0.21440321 -0.21998581 -0.040444512 0.31553635 -0.13223389
0.18698177 0.3326354 -0.16817705 0.11143164 0.10388933 0.27787185 -0.061611757 0.05914789
-0.11651362 -0.0017705541 0.008722154 -0.08905954 0.124213696 0.21238577 0.32440123 -0.092126265
-0.12594616 -0.15635093 0.23089714 -0.14449221 0.39232606 0.22399046 -0.05405733 -0.1452031
0.09386952 -0.04159508 0.038673397 -0.12412416 0.015438651 0.18206066 0.13092594 -0.108353525
0.14120504 -0.02835668 0.12507255 0.09908685 0.23685837 -0.21682848 -0.20714903 0.2525719
0.27404693 -0.028479865 -0.050723266 -0.05471955 -0.023437811 0.2115774 -0.21042164 -0.13904957
0.0878314 0.047166646 -0.16773942 0.097175084 -0.345861 0.32433957 -0.038001828 -0.12509409
-0.033798352 0.059932373 -0.027198024 -0.029778903 0.15480438 0.13818677 -0.0615186 -0.13461897
0.030677827 0.05134378 -0.18707967 -0.11396267 -0.18999866 -0.13322909 0.0041016396 -0.17147246
-0.107575476 0.12928113 0.30603623 0.123377435 0.021136658 -0.06213271 0.006640627 0.20153235
-0.10993091 -0.045700025 0.39302707 0.14580798 -0.17571189 0.40131485 0.17249474 0.19555038
0.055933047 0.2503748 0.16751996 -0.06259991 0.22689946 0.05955897 -0.17346992 0.2681673
0.20520516 0.08178346 0.038458075 -0.17606628 -0.02759713 -0.0049108397 -0.0052784197 -0.20644067

gru.bias_ih_l0 f4 [300]
00000000: e7c0 ac3d 9c5c f13b f48c 483e 7fa1 c63d
00000010: 864c 73bc 36e4 43be 4ccb 073d cf0b 533c
00000020: 81ff 3abd 364c 623d 8d18 c7bc b216 223e
00000030: 9b8e 98bd b011 8d3d a399 863d 0950 1abe
00000040: 8976 e33d 530a 6abc 3a47 ccbc 565b 86bd
00000050: 9751 0f3d 2c9b 7cbe 816e e3bd 6cd8 91bd
00000060: 9dbd 023e cc58 b13d ffb6 e13d ea3f 5bbd
00000070: da1d 843e 54ec ec3c 5d28 693e ec3d 59b9
00000080: bf45 ccbc b0e0 db3d 33b6 8b3d 355b 373b
00000090: 2e34 003e 0c25 8ebd ff4a 0c3e cadd b83d
000000a0: cac2 733c c339 6b3e f579 b63e bda0 cb3d
000000b0: 3f11 803d 42a1 5bbd 9e91 08be aa4b cfbd
000000c0: 8e86 113e 6034 183e 7043 2d3e f6ca 343e
000000d0: 729c ff3d 453e 0d3e 9418 fbbd 7b56 8d3e
000000e0: f12e 753d 1937 9ebe 8cd1 ccbc 4e2b 283d
000000f0: 0a90 c43c 9299 953e 05a2 213e 9a48 71bd
00000100: cc34 cdbd 13c0 513e c022 9b3d 1886 c13d
00000110: b50c 9a3c 6725 8fbd c827 90bd 677a c0bd
00000120: 161e 1a3e 6789 a33d 4059 033e d99d 33bd
00000130: 980f 08bd b175 f53d 3118 c0bd aa78 27be
00000140: de09 6c3e 3608 a8bd 0084 f83c 8683 09bc
00000150: f480 893e 3ffb 893e 10dd 133d bfb8 1c3e
00000160: 2cd3 acbc cc80 1b3e c92c 533b d6e8 96bb
00000170: b3e9 f63d 7a42 e7bd e88a 3f3e cf9e a43b
00000180: ba17 1c3e e926 3a3e 2bbf ffbc a49e 5cbc
00000190: a0fe 77be e7b5 2bbe 0f13 da3d 4612 b33d
000001a0: 6e40 98be 3b05 9a3d f9d6 21be 73f5 f6bd
000001b0: 43fd b0bd 15e4 dc3d 76b2 543d 7e9c 12be
000001c0: 4c21 d33d 4296 0f3e 1eb4 98bd 1268 91bd
000001d0: 812c 2d3d 9324 97be 18aa e53c 7e84 36be
000001e0: 1a9c 8abe 5b74 32be b820 f5bd 93f4 9d3d
000001f0: ef9d 5fbd 9575 1cbd 9578 2cbe 2315 95be
00000200: a70c 02bd 81a9 5dbc 9adc a5be cd45 1cbd
00000210: c0d1 c83d 57c6 a0bd f5c5 9fbd f8c9 92be
00000220: ce5a e63d f93e 80bd 68c7 91bb ee58 63bd
00000230: 0596 b93d 197d 5cbc bb0e 00be 0bb6 71bd
00000240: c5f7 39be c258 44be 106e 563e 50b2 83bd
00000250: 7ff9 0bbe db01 1dbe 3c7b 2e3d b231 53bc
00000260: 1c15 ea3d 8734 d3bd 34d3 663e 85a8 51be
00000270: 24d6 91be 47da 623b 5159 b7bd 4660 5dbd
00000280: 2a4a d5bd 12f7 03be ad92 343e e1ac d33b
00000290: 454a 0c3e ead2 f1bd a22f 553e bace 53be
000002a0: 3eba 4f3e a8f9 93bd 0cd6 85be a2a5 d13d
000002b0: 7e0e 69bb 1d33 94bd a34a 93be 1aa2 5abd
000002c0: f016 90be fc46 90bb 23cd 76be 2ef8 c2bd
000002d0: 001f 2abe c841 23bd 11de 24be 0d5c 123e
000002e0: 3bc3 adbe d729 6a3e 3772 093e bcb0 06bc
000002f0: 1c5a 1bbe 25ed ca3d 140d eabc cbf8 aebe
00000300: 38d9 65bd eabd 0abe abbb a4be 5e76 cebd
00000310: e917 49be 75b6 86be 9828 45be 9bff c33b
00000320: cdf7 33bd 1594 203e 63ba 743e 2c5c f33d
00000330: 814f a93d b739 56be 9a0c 293d e798 1d3d
00000340: 9692 53bc 8194 22bb 1e4b 183c 12a6 6a3c
00000350: 6f96 7d3c c051 ef3d c231 4c3e 6516 f23c
00000360: 8dd7 443b 33f2 13be 1c0f 2f3e 0381 9ebc
00000370: 013c 10be 50d7 0abe 847c 8dbd 77f4 b4bd
00000380: b7a1 0ebe 7284 35bd d7a4 6bbd ec2c edbc
00000390: b883 d93c 002b 2b3e 79d6 373d 9cba a1be
000003a0: 540b 473e f991 663e 85ad 273e 7be4 4a3e
000003b0: 35fa 3bbe 8d4c 42bd 94ae 2e3e 6726 343e
000003c0: 07cb 033e eb55 d33c 1f91 dd3c e2a3 37be
000003d0: bb54 c93c 43e4 40be fc27 0fbe edc5 b13d
000003e0: c9b7 8a3d 2dd2 2abd c12e 6c3e a506 c1bd
000003f0: fc86 5dbd 9bbc 89bd 487b 39bd dbae 86be
0.08435231 0.007365776 0.1958502 0.09698772 -0.014849788 -0.19130024 0.033152863 0.012881233
-0.045653824 0.05524846 -0.024303699 0.1582897 -0.07449075 0.06888139 0.06572273 -0.15069593
0.11106593 -0.014284688 -0.024936307 -0.0656039 0.03498992 -0.24668568 -0.11105061 -0.07121357
0.12767644 0.08659515 0.11021232 -0.05352775 0.25804025 0.028921284 0.22769304 -0.000207178
-0.024935601 0.10736215 0.06821861 0.0027977948 0.12519905 -0.0694066 0.13700484 0.09026678
0.014877984 0.22971253 0.3563992 0.09942768 0.062532894 -0.053620584 -0.13336799 -0.10121854
0.14211485 0.1486373 0.16920257 0.17655548 0.124810115 0.13793285 -0.12260547 0.27605042
0.05985922 -0.3090141 -0.025002263 0.041056924 0.023994464 0.29218727 0.15784462 -0.05890713
-0.10019836 0.20483427 0.075749874 0.094494045 0.018804887 -0.06989556 -0.07038838 -0.093983464
0.1505054 0.07985192 0.12827015 -0.043851707 -0.033217996 0.119853385 -0.09379614 -0.16354623
0.23050639 -0.08204691 0.03033638 -0.008393174 0.26856196 0.26949498 0.036099494 0.1530485
-0.021096788 0.15185851 0.003222274 -0.004605393 0.12056293 -0.11291976 0.18705332 0.0050238143
0.15243426 0.18178906 -0.031219086 -0.013465557 -0.24218225 -0.16768609 0.106481664 0.0874372
-0.29736656 0.07520529 -0.15804662 -0.120585345 -0.08642056 0.10785691 0.051928006 -0.1431751
0.10309085 0.14022163 -0.074562296 -0.07099928 0.04227877 -0.2952009 0.028035209 -0.1782398
-0.2707222 -0.17427199 -0.11969131 0.077126645 -0.054593977 -0.038198072 -0.16842873 -0.2911769
-0.031750347 -0.013529182 -0.32394868 -0.038152505 0.09805632 -0.0785033 -0.07801429 -0.28669715
0.11247788 -0.06262011 -0.00444882 -0.05550473 0.09061817 -0.01345756 -0.12505619 -0.0590115
-0.18160923 -0.19174483 0.20940423 -0.06430495 -0.13669394 -0.15332739 0.042597994 -0.012890266
0.114298075 -0.10312753 0.22541505 -0.20474441 -0.2848369 0.0034614967 -0.08952583 -0.05404689
-0.10414536 -0.12887219 0.17634077 0.0064598178 0.13700207 -0.11807807 0.20818952 -0.20684329
0.2028589 -0.072253525 -0.26139867 0.1023667 -0.0035561617 -0.072363116 -0.2876788 -0.05337725
-0.281425 -0.0044029932 -0.24101691 -0.09519993 -0.16613388 -0.039857656 -0.16100337 0.14292927
-0.33938012 0.22867523 0.13422476 -0.008220848 -0.15171093 0.09908513 -0.02857069 -0.3417419
-0.05611536 -0.13549009 -0.3217443 -0.100811705 -0.19638027 -0.2631108 -0.19253767 0.0059813983
-0.043937493 0.15681489 0.23899226 0.11882815 0.08267117 -0.20920454 0.041271783 0.038475897
-0.012913367 -0.0024807754 0.009295253 0.014321821 0.015477761 0.116855145 0.19940856 0.029551694
0.0030035705 -0.1444786 0.17095608 -0.019348627 -0.1408539 -0.13558698 -0.06908515 -0.088356905
-0.13928877 -0.044315763 -0.05753025 -0.028952084 0.026552066 0.16715622 0.04488227 -0.31587684
0.19437915 0.22516622 0.16374786 0.19813721 -0.18357165 -0.047436286 0.17058784 0.17592774
0.12870418 0.025797805 0.027046738 -0.1793361 0.024576535 -0.18837075 -0.13980097 0.086803295
0.067733355 -0.041704345 0.2306471 -0.094250955 -0.05408381 -0.06725427 -0.045283586 -0.2630528

gru.bias_hh_l0 f4 [300]
00000000: 616b 513c 94df 3a3c 7e28 df3c fdda 3e3e
00000010: 141c 02bd b57b bcbc 247b af3d 9bce 8c3b
00000020: 34e3 14be 7e74 d2bc a12e 8a3d 28ae 3c3e
00000030: ffc5 52be 37ac 81bc bc61 42bd 3f8e 63be
00000040: 4075 233e 5c8d d2bc 8444 76bd af00 a63d
00000050: c04f a43c 6f1d 9abe 185f 2dbd 389a a83d
00000060: d7dd 703e 01bf 183e 7a9a 353e 5fd9 5e3d
00000070: 84cb 5b3e 342c 1b3d 4197 cb3d b17e d03d
00000080: d6cf 26ba 4b45 253e d081 263e 7338 31bd
00000090: 644f 3d3d 878d 5cbd dfd0 593e 5f18 a53d
000000a0: 1929 cb3b 985d 893e e2d8 b93e 0340 3c3e
000000b0: 6893 85bd 2145 6cbe 85fc 0fbe d01b e1bd
000000c0: b203 863e acd2 623e 958d 333e b44a 273e
000000d0: 41e4 8a3e eeb7 b83d 0cce 3ebe d3bb 4d3e
000000e0: ccad af3d 11e7 5ebe 52f8 0d3c fbd0 c83d
000000f0: 0f55 c73d 7164 123e 3eb7 343d 983d aebd
00000100: d056 16be 07ae 073d 3d97 573d 5b13 5b3d
00000110: 8e99 e2bb 390e 01be 3860 6d3c ff7b 44be
00000120: 0365 153e b6fc 0d3e 50ba 643e 52d4 60bd
00000130: 43d6 1dbe bdfb e43d 8978 8a3d 3c84 b8bc
00000140: 5873 8c3e da07 f7bd f489 143d 0e7f fcbd
00000150: 61e3 713e aa28 273e 86cd 1d3c a56a 5fbc
00000160: 6a1c bb3d 14d9 bf3d 770c 283d 862b f2ba
00000170: ed74 b83c 2580 b9bd 02cf 173e 31ba 01bd
00000180: 3b83 013e 9136 843d 4a64 6d3d 5eec a93d
00000190: fade 7dbe 52c5 23bd 069f 1b3e 725f 273e
000001a0: 64ed 8dbe d328 e53d b44d 86be 0752 03be
000001b0: 6a12 63be cf31 513e f70f 5b3d a63e 3fbd
000001c0: 846d 1b3e 3afc ca3d 082b adbd c74c cebd
000001d0: 1e11 2c3c 58ae 8abe f12f 823c 2986 21be
000001e0: 1470 47be 4068 83be 7816 83be 399f bf3c
000001f0: 0cde 11be 261d b43d 3888 04bd 972a 07be
00000200: 6967 6f3d 7e33 f63d cb71 2cbe e5ca a0bd
00000210: 8a27 6abd 5e1a 54bd 6ec2 843d 0780 3ebe
00000220: 64de 833d 7871 1cbe 44eb acbd 2c89 d8ba
00000230: f9e0 133d 0e0e 04be 8ea2 d8bd 8e25 3e3d
00000240: 333b 95bd 4630 10be 924e 843e 4da6 debd
00000250: 3ac1 63bd 4077 f3bd 0e5d ba3d 8cd9 77bc
00000260: 60b0 d83b ff5c ffbd 5206 953d 6b4e 20be
00000270: 8fb4 8ebe 9017 f13d c8f8 ddbc 4cc5 b63b
00000280: 4027 8bbd a868 29be 06d2 283e cd71 bfbd
00000290: c9bd 21bc c7e9 eebc 880f 813e 9eb2 38be
000002a0: 7cb9 a23e 2a93 24be 8b3b 4cbe b165 553d
000002b0: f729 16be a879 f4bd 9794 62be bb4b 12be
000002c0: d4fa 8fbe dd05 353d a4e3 f8bd 7a9e 33be
000002d0: 207d e1bd 963c 2ebc f728 19be 7057 173e
000002e0: 4d8a 5cbe b63a 983e ec0d 1c3e e3c2 5b3d
000002f0: cc5b 98bd 7a9c 373b 93c7 5b3d fd4c 5bbe
00000300: b948 afbc f685 11be 0761 10be d20b ec3c
00000310: ad63 5abe a7b7 08be 1c01 3cbe d99e 25bd
00000320: 6413 49be e1f2 9e3d 7226 383d 1116 363e
00000330: a3e8 e8bd 2c06 b43c 00a9 a8bd 91d6 a53c
00000340: 01fe 343e d8b8 993d 005a 003d d81b f9bc
00000350: c2c6 69bd 2874 b83d fb19 2a3e cb4c ebbb
00000360: ff59 1bbe d385 893c be3d fc3d 5794 3cbe
00000370: 19f1 22be 0d60 663c eefa c9bd c2ee aebd
00000380: 5c45 20be c71f 913b 5781 81bd 17fd 563d
00000390: 759b 413e 4bc1 453e e299 fc3d 4deb c9b9
000003a0: 5986 5a3e 02c7 e33d f6bd 9e3e 7e66 343d
000003b0: 8b40 73be 3047 78be 3f32 f83c 4239 573e
000003c0: e07e ce3c 31d1 e43c b0d3 e3bd 5bd1 88be
000003d0: d910 23be b85a b0bc 00a8 9a3d ba4b 7f3d
000003e0: 95f8 883d 271b 7cbd c109 fb3d a4be fabd
000003f0: 06e3 fcbd 2e1e 233d e5b8 37be a89b c4bd
0.012781949 0.011405844 0.027240988 0.18638225 -0.03176506 -0.023008207 0.08568409 0.00429709
-0.14539796 -0.025690313 0.06747175 0.1842581 -0.20583342 -0.015829189 -0.047456488 -0.22222231
0.15962696 -0.025702171 -0.060123935 0.08105599 0.020057559 -0.3010058 -0.042327017 0.0823254
0.23522125 0.14916612 0.1773471 0.05440652 0.21464354 0.037883952 0.09940959 0.101804145
-0.00063633674 0.16139714 0.16260457 -0.043266725 0.04621829 -0.05384591 0.21271084 0.08061289
0.0061999676 0.2682922 0.3629828 0.18383794 -0.06522256 -0.23073246 -0.14061172 -0.10991633
0.26174694 0.22150677 0.17534478 0.1633709 0.2712727 0.09019457 -0.18633288 0.2009118
0.08578071 -0.21767832 0.008665161 0.09805485 0.097330205 0.14296128 0.044120066 -0.08507842
-0.14681554 0.03312495 0.052634466 0.053485256 -0.006915278 -0.12603082 0.014488272 -0.19187926
0.14589314 0.13865933 0.22336698 -0.054889984 -0.15413766 0.11180828 0.067612715 -0.022523992
0.2743175 -0.120620444 0.036264375 -0.12328921 0.23621894 0.16324106 0.00963152 -0.013636266
0.09136279 0.09367576 0.041027512 -0.0018476106 0.022516692 -0.09057645 0.14825061 -0.031671707
0.12647717 0.0645572 0.05795697 0.082970366 -0.2479209 -0.0399831 0.15197381 0.16345003
-0.27720177 0.11189427 -0.26231158 -0.1282426 -0.22174993 0.20429157 0.053482022 -0.046690606
0.15178496 0.0991139 -0.08455473 -0.10073238 0.010502128 -0.2708614 0.015892 -0.15773834
-0.19476348 -0.25665474 -0.2560308 0.023391353 -0.1424486 0.08794622 -0.03235647 -0.1319984
0.05844823 0.1202154 -0.16840284 -0.07851199 -0.057166614 -0.05178296 0.06482397 -0.18603526
0.06438902 -0.1527766 -0.08443311 -0.0016520373 0.036103223 -0.12895986 -0.1057788 0.046422534
-0.07286682 -0.14080915 0.25841194 -0.10871563 -0.055604197 -0.118879795 0.0909978 -0.015127551
0.0066128224 -0.124689095 0.07276596 -0.15654914 -0.2787213 0.11772072 -0.027096167 0.005577719
-0.06794596 -0.1654383 0.16486368 -0.09347878 -0.009871908 -0.029164208 0.25207162 -0.18036887
0.31782138 -0.16071764 -0.19944589 0.052098934 -0.14664446 -0.119372666 -0.22126995 -0.14286701
-0.28121054 0.044195045 -0.12152794 -0.17540923 -0.11010194 -0.010634562 -0.14957033 0.14779449
-0.21537133 0.29732293 0.15239686 0.053652655 -0.07439384 0.0028016851 0.053657126 -0.21416087
-0.021396982 -0.14211258 -0.14099513 0.02881423 -0.21327086 -0.13351308 -0.18359798 -0.040434692
-0.19636303 0.07761169 0.04495854 0.17781855 -0.11372497 0.0219756 -0.08235359 0.020243915
0.1767502 0.07505959 0.03133583 -0.030408785 -0.057074316 0.0900653 0.16611473 -0.0071807853
-0.1517105 0.016787445 0.12316464 -0.18415962 -0.15912284 0.014060986 -0.09862314 -0.08541633
-0.15651459 0.004428837 -0.06323498 0.05248746 0.18906958 0.19312017 0.12334038 -0.0003851302
0.21340312 0.11121942 0.31004304 0.044043057 -0.2375509 -0.24245906 0.030297397 0.21017936
0.025206983 0.027931781 -0.111243606 -0.26722226 -0.15924396 -0.021527633 0.07551575 0.062328078
0.06688038 -0.061549332 0.1225772 -0.12243393 -0.12347989 0.039823703 -0.17941625 -0.096000016

out.weight f4 [36, 200]
00000000: 081a 773d 5c0d d7bd e151 953e 1652 4dbf
00000010: f718 ddbb b938 95bd f611 94bc 69af 8c3e
00000020: 9179 9bbe 68a8 40bf f5c9 833e eca6 ccbd
00000030: e140 0bbf 400b 90be f117 89be 32c9 c83c
00000040: dea9 89be 2be6 b13d 5727 913e 9e6d 923c
00000050: ef47 a23e ee6a 5d3e c475 a23c eb74 ca3e
00000060: 1fe2 1c3e 2827 f2be 6808 883e b284 c0bd
00000070: 2c2b 18be fdc9 583a 74fb bebd f9d1 393f
00000080: bb77 333e 8bd9 56be e62f dc3d 781d 7dbd
00000090: bda5 5b3d 8e96 a23d aac2 ccbd b51f 9dbe
000000a0: f6be 47bd 8b39 e23d 98de 4dbe 46f3 073f
000000b0: 3b66 a3ba 631d 8f3e 708c 983e 0f5b 3c3e
000000c0: 139d 8a3d 7be5 e93d f04e abbd 6545 9ebb
000000d0: e125 033d 41f1 cf3d c8f7 d6be bdad a23e
000000e0: b0e6 7e3e 832d be3d 0221 853e 2d04 74bd
000000f0: add4 55be 5f12 6f3e aa4f 83be 73e4 47be
00000100: 7ae8 0fbf acf7 06bf 44a5 9d3e 569b 7fbe
00000110: c0ea fabe 33bf 073f b357 f33d 5005 a3bd
00000120: e7ac 1cbe 2da2 5bbe 3d67 a93e 57ef 9939
00000130: 2354 04bd 6c8c 603e 2d2b 3c3f 2d35 de3c
00000140: 11ca 4abd d2f8 45be 73b2 e13d 4988 783e
00000150: b62c b1bd 3978 2c3f 85c1 943e 66c0 263f
00000160: 192d 103e 5470 85be c088 2d3f 49f0 173e
00000170: 7d8d 323e 8c9b 883e d9ba f73d 812e ca3d
00000180: 8042 7a3c e009 633e deca bbbd ddf7 5abe
00000190: e824 4bbd 2426 813d d9dd c5bd 2c86 5ebe
000001a0: 939e f43b e99b 04be 5de2 133e 381e 84be
000001b0: ac89 223d c70f 04bf 8f6f 9abe 1e77 4cbd
000001c0: fa5d b53d 339d 5cbe f23a 4a3e 4ac9 eebd
000001d0: bdf4 45be 5bed bbbd baac 213d 755a dabd
000001e0: 67e9 993e e277 4b3e 48a9 68be 87de 873c
000001f0: cfd4 7e3e 0fc7 373e cbc7 f1be 1dc1 5ebe
00000200: 7813 1dbe 7255 93bc 5a20 d33d 6ba6 543d
00000210: 80c9 febd 336e ae3d 6718 6bbd 23dc 77be
00000220: f550 6a3e 4db2 bf3e 3fb3 2fbe e1ad a0be
00000230: 20ad 423c c9a8 a7bd 6b74 14be 2a6d 603c
00000240: f0af 50be a72a cebd b542 8fbe 9a67 5fbe
00000250: ada6 923e 490e 9f3e 06fb 2bbe 2281 ba3d
00000260: 50cb b13d 5700 fdbe 7018 f5bd d0d5 8f3e
00000270: ae36 d73d acff f43b 0d13 b63d 086b f8bd
00000280: 1f9a ff3d 6a8b da3d 8fc4 313d a1d8 123e
00000290: 6bd5 0ebf 9433 01be 94f3 c6be 2ac7 1ebe
000002a0: fb8a debc 50d4 1bbd 6876 e2be 4f17 fc3b
000002b0: 848b 013e 11df fe3c d457 e8bc 1096 123e
000002c0: c667 2b3e 6546 af3e 4258 fb3d 17c2 f0be
000002d0: 79df debd 3bc2 d13d 9d0f 003f 619e 073e
000002e0: add6 9a3d 63dd 953e 58ef 14be 8d71 91bd
000002f0: 1477 fd3d 7770 5cbe 4e37 973e 6abf 123e
00000300: 820f cc3d 3624 203b d17c 623e cfe9 4e3e
00000310: 001f e53b 2440 903d 1c8f 663d 67c4 9cbd
00000320: a665 87be a4a7 923e 5366 d43d eb41 303e
00000330: 7fbd b83d 252e 00be 2b53 01be 01ae 03bf
00000340: 3ce3 ca3d ce8b 21bf be46 353f d3ee 3cbe
00000350: 3c2d 67be b1b0 ec3d 035d 9b3e 0cc9 89be
00000360: 74bf 873c 7173 213e 1c91 6d3e 4423 16be
00000370: a87a 19be bc3f 97be bfc9 80be a4cc 6abe
00000380: 4ce3 64be ab77 653d 1259 8fbd 9a73 60be
00000390: bf05 a2bb 05b1 db3d 758d 80bc 6f00 ebbd
000003a0: b9dc 9c3d 344d 493c 8a87 133e e41a 303e
000003b0: 532a debd 8fce 77be 2560 603e 623b 4a3e
000003c0: 8429 3d3e 81ae 47bd e4fc 1b3e 0860 63be
000003d0: cd41 b93d 78f3 20bf 070c babe 147e 40bb
000003e0: 2850 f3bd 0f37 6dbd 0771 7e3d f109 0bbd
000003f0: d31a 30be 1115 23bc c865 3bbd 62f8 d4be
0.06032756 -0.10500595 0.2916403 -0.8020338 -0.006747361 -0.072862096 -0.01807497 0.27477577
-0.30366185 -0.7525697 0.25740018 -0.09992775 -0.5439587 -0.28133583 -0.26776078 0.02451
-0.2688741 0.08686479 0.28350326 0.017874535 0.31695506 0.21622822 0.019831546 0.39542326
0.15320633 -0.472955 0.26568913 -0.094003096 -0.14860219 0.00082698447 -0.093253046 0.7258602
0.17526142 -0.20981424 0.107513234 -0.06179568 0.053624857 0.07938872 -0.09998067 -0.30688253
-0.0487661 0.11046132 -0.20104444 0.5310558 -0.001246638 0.27952108 0.29794645 0.18394111
0.06768241 0.11420723 -0.083646655 -0.00483005 0.032018546 0.101534374 -0.41985917 0.31773177
0.24892688 0.092860244 0.26001745 -0.059574295 -0.2088191 0.23346852 -0.25646716 -0.1952074
-0.56214106 -0.5272167 0.3079015 -0.249616 -0.49007225 0.5302612 0.11881962 -0.07959998
-0.15300332 -0.21448584 0.33086577 0.00029360756 -0.0323068 0.21928567 0.7350338 0.027124966
-0.04950911 -0.19333199 0.110203646 0.24270739 -0.08651106 0.67370945 0.29053894 0.65137327
0.14079703 -0.26062262 0.6778679 0.14837755 0.17436786 0.26681173 0.12096185 0.09872151
0.015274644 0.22171736 -0.09169553 -0.21383615 -0.049595743 0.06306103 -0.09661455 -0.2173087
0.0074651926 -0.129501 0.1444182 -0.25804305 0.039682075 -0.51586574 -0.30163237 -0.049918287
0.08855815 -0.21544342 0.19749048 -0.116594866 -0.19331641 -0.09176131 0.039471366 -0.106617846
0.30060884 0.1986995 -0.22720826 0.016585601 0.24885868 0.17947029 -0.47222742 -0.21753354
-0.15339458 -0.01798508 0.10308905 0.05191652 -0.12440777 0.085171126 -0.05739632 -0.24205069
0.22882445 0.3744072 -0.1715822 -0.3138266 0.0118820965 -0.0818649 -0.14497535 0.013697902
-0.20379615 -0.10066729 -0.2798058 -0.21816865 0.2864279 0.31065586 -0.16794977 0.091066614
0.08681357 -0.49414322 -0.11967552 0.28092813 0.10508476 0.0074767675 0.088903524 -0.121297896
0.12480568 0.10671122 0.043400344 0.1434045 -0.557944 -0.12617332 -0.3885771 -0.15505663
-0.02716588 -0.038044274 -0.44230962 0.0076932083 0.12650877 0.031112226 -0.028362192 0.14315057
0.16738805 0.34233394 0.12272693 -0.4702308 -0.10882468 0.10242125 0.50023824 0.1324401
0.075604774 0.29270467 -0.14544427 -0.07101736 0.12376228 -0.21527277 0.29534382 0.14330831
0.099638954 0.0024435646 0.22117926 0.20206378 0.006992221 0.07043484 0.056288823 -0.07654648
-0.2644474 0.28643525 0.10371079 0.17212646 0.090205185 -0.12517603 -0.12629382 -0.51437384
0.09906623 -0.6310395 0.7081107 -0.18450479 -0.2257585 0.11557139 0.303444 -0.269112
0.016570784 0.15766694 0.23199886 -0.1466189 -0.14988196 -0.29540813 -0.2515392 -0.22929627
-0.22352332 0.056022327 -0.06999411 -0.21919098 -0.0049445326 0.10727123 -0.015692452 -0.11474692
0.07659287 0.012286473 0.14407173 0.17197758 -0.108479165 -0.2419989 0.21911676 0.19749215
0.18472868 -0.048750404 0.15233189 -0.22204602 0.09045754 -0.62871504 -0.363373 -0.0029372023
-0.11880523 -0.057913836 0.06211951 -0.033945028 -0.17197733 -0.009953753 -0.045751363 -0.4159575

out.bias f4 [36]
00000000: 3b69 b4be 6b20 433e c09f c8be 58ef 353e
00000010: 9357 70be 3451 15bf 2a3c ba3b 2628 f6be
00000020: 5f14 79be e41f c5be 8666 afbd 2de3 2fbe
00000030: e714 9cbe c107 92be 5d4f 83be 5e05 4fbe
00000040: 5595 4e3e d3c2 a4be 0655 d0bd f785 973d
00000050: 6ec1 40be a653 5c3e 2eef 87be 7874 43be
00000060: 7557 debe 236a 77be 1214 cdbd 5446 28bd
00000070: 5a0a 32bd 5313 07be dce5 4c3e 4ce6 f5bd
00000080: 5cc4 aebe 06f0 113e 298e a4be d401 3e3e
-0.35236534 0.19055335 -0.3918438 0.17767084 -0.23470907 -0.5832703 0.0056834416 -0.48077506
-0.24324177 -0.38500893 -0.08564477 -0.17176504 -0.30484697 -0.2852154 -0.25646487 -0.20216891
0.20174153 -0.3217989 -0.10172467 0.07398599 -0.18823788 0.21516284 -0.26549667 -0.19087398
-0.434261 -0.24161582 -0.10013594 -0.041082695 -0.043466903 -0.13190965 0.2000956 -0.12006816
-0.34134185 0.14251718 -0.3213971 0.18555385
