modules/prn-gen/exp/en_id/models/trigram/decoder-attn_dot-emb_512-hddn_100-layers_1-epoch_36.pth (torch, 962352 bytes, 7 tensors)

embedding.weight f4 [36, 512]
0	0x3ea70f3f	0.3262882
1	0xbc7c364e	-0.015393807
2	0xbeb85ff7	-0.36010715
3	0x3fe4bd48	1.7870264
4	0xbf891172	-1.0708449
5	0xbfaae750	-1.3351841
6	0x3c8db2d1	0.01729718
7	0xbdc2ca1b	-0.09511205
8	0xbf470b72	-0.7775184
9	0xbf260f16	-0.6486677
10	0x3f3d0a3c	0.7384374
11	0xbfb4218f	-1.4072741
12	0x3e1023f4	0.14076215
13	0xbf81fe1d	-1.0155674
14	0xbe757e07	-0.23973857
15	0xbf713888	-0.94226885
16	0xbed36c74	-0.4129368
17	0x3efe9bbd	0.49728194
18	0xbfeb61c2	-1.8389208
19	0xbd925fd2	-0.071471825
20	0x3f0bf5ed	0.5467213
21	0xbf61c0ce	-0.8818482
22	0x3f39f283	0.7263567
23	0xbf17ad77	-0.5924906
24	0x3ea339ca	0.31880027
25	0x3fe4305e	1.782726
26	0x3ee14f57	0.44005844
27	0xbe533e48	-0.20629227
28	0x3e967985	0.29389587
29	0x3f94973f	1.1608657
30	0xbf2306f2	-0.6368247
31	0xbed38a70	-0.41316557
32	0x3e7076c4	0.23482805
33	0x3f151f51	0.5825091
34	0x3f7d655a	0.98982775
35	0x3e4681ca	0.19385448
36	0xbf9b3cc2	-1.2127917
37	0x3f022e62	0.50852025
38	0x39773c46	0.00023578209
39	0xbc2783cc	-0.010224294
40	0xbf21511e	-0.630144
41	0x400aa86d	2.16653
42	0x3f24554f	0.6419267
43	0xbfdd75c9	-1.730157
44	0xbdb5b730	-0.08872831
45	0xbfb9578e	-1.4479845
46	0x3f285a18	0.6576247
47	0x3f367b7e	0.71282184
48	0xbf203974	-0.62587667
49	0xbe6020e3	-0.21887545
50	0xbf8738d4	-1.0564218
51	0x3da69363	0.081335805
52	0xbec25e92	-0.37962776
53	0x3f1c5a7e	0.6107558
54	0xbd4fb326	-0.05070796
55	0xbeb1df48	-0.34740663
56	0xbfa4db62	-1.287945
57	0xbf067298	-0.52518606
58	0xbfad8e2b	-1.3559011
59	0xbe742ed8	-0.23845994
60	0xbf26a48a	-0.65094817
61	0x3eaa339c	0.332425
62	0x3f34f94f	0.70692915
63	0x3f823096	1.0171077
64	0xbe5a2818	-0.21304357
65	0x3e0afeba	0.13573733
66	0xbdba3711	-0.09092534
67	0x3e64cf1b	0.2234463
68	0x3f6da089	0.9282308
69	0xbf966825	-1.1750532
70	0x3c709ff1	0.0146865705
71	0xbf98fce1	-1.1952173
72	0xbec111f4	-0.3770901
73	0xbf185071	-0.59497744
74	0xbf579a1c	-0.8421953
75	0x40034f11	2.0517008
76	0x3e81252c	0.25223672
77	0xbf1c61b9	-0.6108661
78	0xbedb3209	-0.4281161
79	0x3d9e5e71	0.07732857
80	0x3f46f460	0.77716637
81	0x3eb18764	0.34673607
82	0x3de75128	0.11294776
83	0xbd25c310	-0.04046923
84	0x3ffadb95	1.9598261
85	0xbd202000	-0.039093018
86	0x3f278c6c	0.6544864
87	0xbf7da39d	-0.9907778
88	0xbddc7065	-0.10763625
89	0x3fb171cb	1.3862852
90	0x3eb10bae	0.34579223
91	0x3efb030d	0.49025765
92	0x3db497a2	0.08817984
93	0x3e4eedba	0.20207873
94	0x3fa0a496	1.2550228
95	0x3fa2035f	1.2657279
96	0xbe43ce12	-0.19121578
97	0x3fd15185	1.6353003
98	0xbf1ef5c2	-0.62093747
99	0xbde7e020	-0.11322045
100	0xbf03b8bb	-0.5145375
101	0x3e390264	0.18067318
102	0xbec8f66e	-0.3925051
103	0xbf69b0e0	-0.91285515
104	0x3f365aa2	0.71232045
105	0xbe12c488	-0.14332783
106	0xbf437e55	-0.7636464
107	0xc0041821	-2.0639727
108	0xbf7989a2	-0.97475636
109	0xbf568ecd	-0.83811647
110	0x3e1e1745	0.15438564
111	0x3f3c0bfa	0.73455775
112	0x3f265925	0.64979774
113	0x3f70402a	0.93847907
114	0xbe292464	-0.16517788
115	0x3decb708	0.11558348
116	0x3e4a6f26	0.19768962
117	0xbe59c669	-0.21267094
118	0x3e2b0103	0.16699605
119	0xbeaaa4ba	-0.333288
120	0x400def91	2.217747
121	0x3f4a5534	0.7903626
122	0xbecc802b	-0.39941534
123	0x3f921179	1.1411582
124	0xbf8ca52f	-1.098791
125	0x3e825208	0.2545321
126	0x3f78a170	0.97121334
127	0x3fe0bff2	1.7558577
128	0xbd08d554	-0.03340657
129	0x3fce24e1	1.6105005
130	0xbf89abac	-1.0755515
131	0x402554cc	2.5833006
132	0x3cc7a7e1	0.024372043
133	0xbf8e35fd	-1.1110226
134	0xbfda947f	-1.7076567
135	0xbf93554e	-1.1510408
136	0xbf51b6f7	-0.8191981
137	0xbd25e664	-0.04050292
138	0xbf9b557b	-1.2135462
139	0xbeb887f7	-0.36041233
140	0xbfb7ab55	-1.4349161
141	0xbf0beb04	-0.5465548
142	0x3e7a1948	0.24423707
143	0xbe942539	-0.2893465
144	0x3f93e8ac	1.1555381
145	0x3eab882a	0.33502322
146	0x3f5e6ef3	0.86888045
147	0x3fa821f0	1.3135357
148	0x3f44314d	0.7663773
149	0x3c584830	0.013200805
150	0x3d8ee7b5	0.06977788
151	0x3f9d6f6c	1.2299628
152	0xbe89f790	-0.26946688
153	0x3eba52ed	0.36391392
154	0xbe8c9452	-0.2745691
155	0xbea82f05	-0.32848373
156	0x3daab8a1	0.083359964
157	0x3d6429f4	0.055704072
158	0xbe6aa8f0	-0.22916007
159	0xbca85163	-0.02054662
160	0x3d8bb006	0.06820683
161	0x3d2ddf37	0.042449202
162	0xbf696a18	-0.9117751
163	0x3e864ada	0.26228982
164	0xbd67bba2	-0.056575425
165	0xbdf4cae3	-0.1195276
166	0x3f067149	0.5251661
167	0x3f73c51d	0.95222646
168	0x3fdb635b	1.7139696
169	0xbf9b60ae	-1.2138879
170	0x3de415e7	0.1113699
171	0x3e31e9fe	0.17374417
172	0x3f1fd814	0.62439084
173	0xbeb04b14	-0.3443228
174	0x3daaa1a9	0.083316155
175	0x3ead1991	0.33808568
176	0xbe35dc69	-0.17759861
177	0x3ee786f2	0.45220143
178	0x3f99f395	1.202746
179	0x3cc2f409	0.023798006
180	0xbe87de10	-0.26536608
181	0x3e398d3d	0.18120284
182	0xbf8719f4	-1.0554795
183	0x3e8bde38	0.27317977
184	0x3e81728e	0.2528271
185	0x3ec73a65	0.3891174
186	0x3d3df5f6	0.046377145
187	0x3e8887ea	0.26666194
188	0x3dcae726	0.09907369
189	0xbfffa023	-1.9970745
190	0x3ed91772	0.424007
191	0xbf12cd84	-0.5734484
192	0xbd417cc8	-0.04723814
193	0xbf0442c7	-0.51664394
194	0x3ecbf990	0.3983884
195	0x3f8db264	1.1070065
196	0xbfb488b4	-1.4104218
197	0xbf9af1c5	-1.2105032
198	0x3f19aedb	0.60032433
199	0x3f3c09f0	0.73452663
200	0xbfaf292c	-1.368444
201	0x3fc59546	1.543618
202	0xbe0306a7	-0.12795506
203	0xbc277753	-0.01022132
204	0x3e56bc05	0.20970161
205	0x3ff14f28	1.8852282
206	0x3f66279a	0.8990418
207	0x3f214a34	0.6300385
208	0xbef22350	-0.47292566
209	0x3fe017ab	1.7507223
210	0x3e564318	0.20924032
211	0x3f6c4ddd	0.9230631
212	0xbf0a2124	-0.5395682
213	0xbe0e54df	-0.13899563
214	0xbf2e922a	-0.6819178
215	0x3dbccd31	0.09218825
216	0xbf00960b	-0.5022895
217	0x3f770d3b	0.96504563
218	0xbf3c9710	-0.73668003
219	0xbefebdf4	-0.49754298
220	0xbf399cdc	-0.72504973
221	0x3fdee11e	1.741245
222	0xbd43f27d	-0.047838677
223	0xbdbf06d5	-0.09327475
224	0xbfa7dbbc	-1.3113933
225	0x3f54b2b6	0.8308519
226	0x3e0d1a58	0.1377958
227	0xbf61054f	-0.87898725
228	0xbea31445	-0.31851402
229	0xbe2ee96a	-0.17081228
230	0xbec0135f	-0.3751478
231	0x3cfadaa2	0.03062183
232	0xbf5aa26e	-0.854041
233	0xbe1e1f53	-0.15441637
234	0x3e44fb25	0.19236429
235	0xbee50454	-0.44729865
236	0xbf290b8b	-0.6603324
237	0xbe918f82	-0.284298
238	0x3e35a146	0.17737302
239	0x3d92e7da	0.071731284
240	0x3f06e187	0.5268788
241	0x3e4d920e	0.20075247
242	0x3fc0c8a8	1.5061235
243	0x3d682c13	0.056682657
244	0xbfb27992	-1.394335
245	0x3f774557	0.9659018
246	0x3e5abc9f	0.21361016
247	0x3ea022ec	0.31276643
248	0x3e753651	0.23946501
249	0xbf4d7657	-0.802587
250	0x3f3df618	0.74203634
251	0x3f319db5	0.69381267
252	0xbf13c2fc	-0.577194
253	0xbe162279	-0.14661588
254	0x3f7f6e80	0.99777985
255	0xbf2c361e	-0.67270076

gru.weight_ih_l0 f4 [300, 612]
0	0xbe0beca5	-0.13664491
1	0xbd8c939c	-0.06864092
2	0x3e76770d	0.24068852
3	0x3de0124d	0.109409906
4	0x3e02ff4a	0.12792698
5	0xbbe8af54	-0.007100979
6	0x3b2f5e76	0.0026759184
7	0xbd87d68f	-0.06632721
8	0xbdf5ace9	-0.119958706
9	0x3e6379df	0.22214459
10	0x3e2b3cd6	0.16722426
11	0x3d0d4a1e	0.03449451
12	0xbe308eb9	-0.17241944
13	0x3e05b556	0.13057455
14	0x3c875dd9	0.016524242
15	0x3e148c0f	0.14506553
16	0xbea5e14e	-0.32398456
17	0xbea5c222	-0.32374674
18	0xbc3a17e9	-0.01135824
19	0xbda6bc5f	-0.08141398
20	0xbdb03c6f	-0.08605277
21	0xbdeb4ece	-0.1148964
22	0xbdbcae87	-0.09212976
23	0xbe4221e6	-0.18958244
24	0xbdaa5985	-0.08317856
25	0x3cd78329	0.02630766
26	0x3d27331e	0.040820234
27	0x3e151c35	0.14561541
28	0xbe267f27	-0.16259442
29	0x3cf743ef	0.03018376
30	0x3e0029a2	0.12515882
31	0x3cb0a73c	0.021564119
32	0xbd624987	-0.055245902
33	0xbe256dcc	-0.16155165
34	0x3cb8a73c	0.022540681
35	0x3d044032	0.032287784
36	0x3e9f4463	0.31106862
37	0x3d76f4e1	0.06029213
38	0xbe0ec645	-0.13942821
39	0xbcd7b106	-0.026329529
40	0x3d35d413	0.044391703
41	0x3e59bd24	0.21263558
42	0x3c82f933	0.015987968
43	0x3d09d5d4	0.033651188
44	0xbdf6be31	-0.12047995
45	0x3e5fe9d9	0.2186655
46	0xbe28b551	-0.16475417
47	0x3b88dee6	0.004176962
48	0x3d3f5264	0.046709433
49	0xbda245ac	-0.07923445
50	0x3e0bd50e	0.13655493
51	0x3d053d9f	0.03252947
52	0x3d9cecdf	0.07662367
53	0xbe3116f3	-0.1729391
54	0x3e2acc0d	0.16679402
55	0x3d23626b	0.03988878
56	0x3e06668d	0.13125058
57	0x3e34fe5b	0.17675154
58	0xbd82008d	-0.06347761
59	0x3d47cfed	0.048782278
60	0x3b9a99e5	0.0047180527
61	0xbe33248e	-0.17494413
62	0xbdc8e05a	-0.09808417
63	0xbd93159c	-0.07181856
64	0x3e128206	0.14307413
65	0xbd9e6fb5	-0.0773615
66	0x3dae02ee	0.084966525
67	0xbd6e68b5	-0.058205325
68	0xbc84eb01	-0.01622534
69	0x3cf0ef5b	0.029411009
70	0xbd8c77c8	-0.06858784
71	0x3d66b4ae	0.056324653
72	0xbd6dee25	-0.05808844
73	0x3d342a5d	0.043985713
74	0x3e7722e8	0.2413441
75	0x3db3ba46	0.08775763
76	0x3d8f86bb	0.0700812
77	0x3cfc77a5	0.03081877
78	0x39a2308a	0.00030935212
79	0xbdeb781c	-0.114975184
80	0x3d722c80	0.05912447
81	0xbdb05a9d	-0.08611033
82	0xbd220a5e	-0.03956067
83	0xbe0d0dff	-0.1377487
84	0xbdf59a8a	-0.119923666
85	0x3d80769b	0.06272622
86	0xbd334c08	-0.04377368
87	0x3d336907	0.043801334
88	0xbd56b42e	-0.052417926
89	0xbdc3b64b	-0.09556254
90	0x3e63d707	0.22249995
91	0xbdaca4e3	-0.08429887
92	0x3e722116	0.23645434
93	0x3c9f5970	0.019451827
94	0xbe6b8cb0	-0.23002887
95	0xbd08be36	-0.033384524
96	0x3d2360de	0.0398873
97	0xbd490e29	-0.04908577
98	0x3c13489d	0.00898948
99	0x3e354d11	0.1770518
100	0x3d76f432	0.060291477
101	0x3e0aab2a	0.13541856
102	0xbe1733e7	-0.14765893
103	0x3e4fce2e	0.20293495
104	0xbd7a4178	-0.061097592
105	0x3c334027	0.010940588
106	0x3e4c29d2	0.19937828
107	0x3dd0ce54	0.10195604
108	0xbe20e88d	-0.15713711
109	0xbdcb7090	-0.09933579
110	0xbe6b2f58	-0.22967279
111	0xbe95a3dc	-0.29226577
112	0xbe83ca81	-0.25740436
113	0x3c88374c	0.01662793
114	0x3c66afdc	0.014080014
115	0xbd85862c	-0.06519732
116	0x3e0f0683	0.13967328
117	0x3dacda34	0.084400564
118	0x3ccb8eab	0.024848303
119	0x3c7ad069	0.015308478
120	0xbdcedcf2	-0.10100736
121	0x3e0d99fd	0.13828273
122	0x3db2e517	0.08735102
123	0xbd3ba32f	-0.04580992
124	0x3c0539d8	0.008131467
125	0xbde87a56	-0.11351459
126	0x3e5393f3	0.20661907
127	0xbe8f10f7	-0.2794263
128	0x3c2728d3	0.010202604
129	0xbd899cc6	-0.06719355
130	0xbdb5e0a2	-0.08880736
131	0xbe5d0d9a	-0.2158722
132	0xbcfd6ba9	-0.030935125
133	0xbcfdbf30	-0.030974954
134	0xbdb88650	-0.09009993
135	0xbda0a178	-0.07843298
136	0xbe5cad28	-0.21550429
137	0xbdc81706	-0.09770016
138	0x3e0433fd	0.12910457
139	0xbdbff6da	-0.09373255
140	0x3c8d7711	0.01726869
141	0xbd13abf4	-0.03605266
142	0x3c52e9b2	0.0128731
143	0x3dceb123	0.1009238
144	0xbe30dbb0	-0.17271304
145	0x3dd844e0	0.10560012
146	0x3e687246	0.22699842
147	0xbe1c79dd	-0.15280862
148	0xbe134f68	-0.1438576
149	0xbe033a9a	-0.12815323
150	0x3e29259d	0.16518255
151	0x3d2eb687	0.04265454
152	0x3e17c6af	0.14821886
153	0xbdc5c667	-0.09656983
154	0xbd5e2f5e	-0.05424439
155	0x3c05b33b	0.008160408
156	0x3cb7806e	0.022400107
157	0xbc73d505	-0.014882331
158	0x3cc8bf5e	0.024505313
159	0x3e004e69	0.12529911
160	0x3e5f5956	0.21811423
161	0xbc83c4be	-0.016085025
162	0x3d41a9df	0.047281142
163	0x3e7e995a	0.24863186
164	0x3e5e6496	0.21718058
165	0xbde95c0d	-0.113945104
166	0x3e525149	0.2053882
167	0x3cec3c75	0.028837422
168	0xbec1da5a	-0.37861902
169	0xbe1648af	-0.14676164
170	0xbd72b2c5	-0.05925252
171	0x3d87b661	0.06626583
172	0x3da03bdf	0.078239195
173	0xbcb5f84f	-0.02221313
174	0x3e0cbb52	0.13743332
175	0xbd775cc0	-0.060391188
176	0x3e5cf5c2	0.21578124
177	0xbdb84689	-0.089978285
178	0x3d0e6fa0	0.034774423
179	0xbe0fed25	-0.14055307
180	0x3e103ff6	0.14086899
181	0x3d251102	0.040299423
182	0x3c501320	0.012699872
183	0xbd209850	-0.039207757
184	0xbe256c56	-0.16154608
185	0xbc200de1	-0.009768934
186	0xbe566979	-0.20938672
187	0xbcb90150	-0.022583634
188	0xbdb48542	-0.088144794
189	0xbe0bb2c1	-0.13642408
190	0x3d379de0	0.044828296
191	0xbcbb83ce	-0.022889998
192	0xbeac4039	-0.33642748
193	0xbb46c251	-0.0030328224
194	0x3ddfb782	0.10923673
195	0xbe5a4645	-0.21315868
196	0xbd50d524	-0.050984517
197	0xbd9a0432	-0.075203314
198	0xbda1eacb	-0.07906111
199	0x3d3aeea8	0.045637757
200	0x3e187814	0.14889556
201	0xbdad15b3	-0.084514044
202	0x3d78672e	0.060645275
203	0x3e1372f8	0.14399326
204	0x3d1ba2cc	0.037997052
205	0xbda0dfcb	-0.07855185
206	0x3dbd0256	0.09228961
207	0x3e2dc5ef	0.16970037
208	0xbc94f9e1	-0.018185558
209	0xbe60549e	-0.21907279
210	0xbe651f85	-0.22375305
211	0x3daf0b57	0.08547085
212	0xbe1091b9	-0.14118089
213	0x3d0fbf5d	0.035094608
214	0x3def2671	0.11677254
215	0x3e06f2d6	0.13178572
216	0xbdd54289	-0.10413081
217	0x3e02fee9	0.12792553
218	0x3e2d1601	0.16902925
219	0x3d5ffa97	0.05468234
220	0x3e410ac2	0.1885176
221	0xbe0dfa00	-0.13864899
222	0xbd25e84b	-0.040504735
223	0x3c7f7c15	0.015593548
224	0xbdeb5106	-0.11490063
225	0xbe42ba79	-0.19016446
226	0x3e03facb	0.12888639
227	0x3e0927f9	0.13394155
228	0xbd57ecbd	-0.052716006
229	0x3db385ba	0.08765741
230	0x3c272a69	0.010202982
231	0xbe5307d0	-0.20608449
232	0x3db1c67b	0.08680435
233	0xbd6dbf6b	-0.05804388
234	0xbdf370a1	-0.11886717
235	0xbdf63896	-0.12022512
236	0xbe09672a	-0.1341826
237	0x3df9c217	0.12195223
238	0xbe0e741b	-0.13911478
239	0x3d7946da	0.060858585
240	0x3d046279	0.032320473
241	0x3ccf7108	0.025322452
242	0xbd28732c	-0.04112546
243	0x3e1be2b3	0.15223198
244	0x3e0fd319	0.14045371
245	0xbdb4ddb6	-0.088313505
246	0x3d514377	0.05108973
247	0x3dcfe656	0.10151355
248	0xbe710ffd	-0.23541255
249	0xbde497f8	-0.11161798
250	0xbdf7d776	-0.12101643
251	0x3e5c2e90	0.21502137
252	0xbc8f7562	-0.017512027
253	0x3c80fd3c	0.015745752
254	0xbda1def2	-0.079038516
255	0xbd928d50	-0.071558595

gru.weight_hh_l0 f4 [300, 100]
0	0xbe75bee4	-0.239986
1	0x3e18704f	0.14886592
2	0x3deca5da	0.11555071
3	0x3d9d3d97	0.07677763
4	0x3d34bf86	0.044127963
5	0xbd0b94e3	-0.034077536
6	0xbe3ad6cd	-0.18246002
7	0x3cef7dfe	0.029234882
8	0xbe030eef	-0.12798665
9	0xbeb4acff	-0.35288236
10	0x3d012e30	0.03153819
11	0xbd839dfa	-0.06426616
12	0xbe0e5d7b	-0.13902847
13	0xbe1b9a07	-0.15195476
14	0xbe2366e1	-0.15957214
15	0x3d502cad	0.050823856
16	0xbdc45671	-0.095868
17	0xbeaad796	-0.33367604
18	0xbc9581c3	-0.018250352
19	0x3e32e6c2	0.1747084
20	0x3e21e279	0.15809049
21	0x3df1a9cd	0.11799965
22	0xbe051e48	-0.12999833
23	0x3dc824b6	0.09772627
24	0x3d1c4a55	0.038156826
25	0x3e88f5ba	0.26749974
26	0xbe5c4c77	-0.21513544
27	0xbd457322	-0.048205502
28	0x3d3c072a	0.04590527
29	0xbe7bf375	-0.2460459
30	0x3c083d60	0.008315414
31	0x3deb720c	0.11496362
32	0xbe6c0bb0	-0.23051333
33	0xbdfb6cc5	-0.122766055
34	0x3e15ead2	0.14640358
35	0xbe1a9f1e	-0.15099761
36	0xbe05c86c	-0.13064736
37	0xbd97e3d8	-0.074165046
38	0x3d986f44	0.07443097
39	0x3d6db2e6	0.05803194
40	0x3e26fdec	0.16307801
41	0x3e5bd049	0.21466173
42	0x3d81b916	0.063341305
43	0x3e872ffb	0.26403794
44	0x3e243468	0.16035616
45	0x3d9be959	0.07612867
46	0x3e69ff6b	0.2285134
47	0xbe6c0496	-0.23048624
48	0xbec3b73f	-0.38225743
49	0x3de0ea3b	0.10982176
50	0x3d508ab6	0.050913535
51	0x3d5b86fd	0.05359553
52	0xbdfe87a0	-0.12428212
53	0x3e083514	0.13301498
54	0x3def48a1	0.11683775
55	0x3dffb4a3	0.124856256
56	0xbda88f6f	-0.08230483
57	0xbe6283fa	-0.22120658
58	0x3e4e3b27	0.20139752
59	0xbe02bcd6	-0.12767348
60	0x3e56621c	0.20935863
61	0x3e1fd645	0.15609081
62	0xbd503293	-0.05082948
63	0xbc6a361e	-0.014295129
64	0x3ce835ca	0.028345961
65	0x3d276992	0.040872164
66	0x3d8fec4e	0.070274934
67	0x3e32f546	0.17476377
68	0x3e2965f2	0.16542795
69	0xbd8e42a6	-0.06946306
70	0x3dd56f92	0.10421671
71	0xbe018804	-0.12649542
72	0xbe1a1188	-0.1504575
73	0xbe7beb68	-0.24601519
74	0xbd342b65	-0.043986697
75	0x3e5fe244	0.21863657
76	0xbe5f7690	-0.21822572
77	0xbd69dbf4	-0.05709453
78	0x3d17350e	0.03691583
79	0x3dd4992c	0.10380778
80	0x3e8709aa	0.2637456
81	0xbe58a263	-0.21155696
82	0xbe5b961c	-0.21443981
83	0x3d913728	0.07090598
84	0xbe1816fd	-0.1485252
85	0xbd3f288c	-0.046669528
86	0xbe1e5837	-0.15463339
87	0x3dabfe95	0.08398167
88	0x3e4f5d07	0.20250331
89	0xbe813a53	-0.2523981
90	0x3def2ba9	0.116782494
91	0x3a121a2a	0.0005573357
92	0x3db87854	0.09007326
93	0xbda89331	-0.082311995
94	0xbdcf6354	-0.10126367
95	0xbd7c2298	-0.06155643
96	0xbddef5c4	-0.1088672
97	0xbdc09731	-0.094038375
98	0xbe16abcd	-0.14713974
99	0xbdcac4aa	-0.09900792
100	0x3ee89d50	0.4543252
101	0xbe4f1cd6	-0.20225844
102	0xbd7356e6	-0.059409045
103	0xbe283bd7	-0.16429077
104	0xbbb7bb77	-0.0056070643
105	0xbdc01a3f	-0.09380006
106	0x3d948d99	0.0725357
107	0xbd529146	-0.051408075
108	0x3e87e3d0	0.26540995
109	0xbeac9dfa	-0.33714277
110	0x3e3badf7	0.18328081
111	0x3d9ea22c	0.077457756
112	0x3e75d325	0.24006326
113	0x3db0b22a	0.08627732
114	0x3ea4fda3	0.3222476
115	0xbd31fc13	-0.043453287
116	0x3e513187	0.2042905
117	0xbe9514d6	-0.2911746
118	0xbe936f67	-0.2879593
119	0x3e4b3270	0.19843459
120	0xbce1fb9f	-0.027585803
121	0x3eaff782	0.3436852
122	0x3bb04ce2	0.005380259
123	0xbd4d728a	-0.05015806
124	0xbcfa3af8	-0.030545697
125	0xbc24989b	-0.01004615
126	0x3d8fbd14	0.07018486
127	0xbe1d4837	-0.15359579
128	0xbe0ec3d5	-0.13941891
129	0x3f11b238	0.56912565
130	0xbdf4f75c	-0.119612426
131	0x3de8a3c4	0.11359361
132	0xbe861c5d	-0.26193514
133	0xbe220cd5	-0.15825208
134	0xbc5453ac	-0.012959402
135	0xbe4a7619	-0.19771613
136	0xbd152926	-0.036416195
137	0x3d914afe	0.07094382
138	0xbe2ef001	-0.17083742
139	0xbe6d4494	-0.23170692
140	0xbd5cf379	-0.05394313
141	0xbe57c46b	-0.21071021
142	0x3e401154	0.1875661
143	0xbe1b82d7	-0.1518663
144	0xbe96af9c	-0.29430854
145	0xbed79003	-0.4210206
146	0xbe791d4e	-0.24327585
147	0xbe48e28e	-0.19617674
148	0x3d7d8f1e	0.061904065
149	0x3ee5f893	0.4491621
150	0x3eb45a6d	0.3522524
151	0xbe4ccaf0	-0.1999929
152	0x3e9fc874	0.3120762
153	0xbec266dd	-0.37969103
154	0x3eea215f	0.45728585
155	0xbe835b07	-0.25655386
156	0xbe0110d1	-0.12604071
157	0x3ea3486a	0.31891185
158	0x3e9ca8b6	0.30597466
159	0x3e3ec7b6	0.18630871
160	0x3e2a294d	0.16617317
161	0x3e68e912	0.2274516
162	0x3e5a64f1	0.21327569
163	0x3dc1e1c1	0.09466887
164	0xbe379ec7	-0.17931662
165	0x3e8c4063	0.27392873
166	0x3dda4e11	0.10659421
167	0x3d900bc9	0.07033498
168	0xbd805588	-0.06266314
169	0xbea0c377	-0.31399128
170	0x3ebe510b	0.37171206
171	0xbc3bcf19	-0.01146295
172	0x3eb1792a	0.34662753
173	0x3d5a3bae	0.05327957
174	0xbdab90da	-0.083772376
175	0xbde2e647	-0.11079078
176	0xbbc315ec	-0.005953541
177	0x3e919348	0.2843268
178	0xbe236124	-0.15955025
179	0xbeb9beac	-0.36278284
180	0xbe4a051a	-0.19728509
181	0x3e27ea17	0.16397892
182	0xbe25d709	-0.1619531
183	0x3e41dbcb	0.189315
184	0x3d7401cd	0.05957203
185	0x3e39f273	0.18158893
186	0xbe23d7f5	-0.1600035
187	0x3e35fc4f	0.1777203
188	0xbeb91bad	-0.36153927
189	0x3d8e0449	0.06934411
190	0xbdddb46c	-0.10825428
191	0x3df08e82	0.11745931
192	0xbdd1822c	-0.102299064
193	0x3dcb4cc9	0.09926755
194	0x3da9e033	0.08294716
195	0x3eb88d2f	0.36045215
196	0x3eaaed60	0.33384228
197	0xbe4830a8	-0.19549811
198	0x3e179584	0.1480313
199	0xbe093ac0	-0.13401318
200	0xbe4d5761	-0.20052864
201	0x3e69e9fa	0.22843161
202	0xbceb06ca	-0.02868976
203	0xbdf87385	-0.121314086
204	0xbe35caa0	-0.17753077
205	0x3d827752	0.06370415
206	0xbd2a4974	-0.041573957
207	0xbbf61ffd	-0.0075111375
208	0x3c843d7e	0.016142603
209	0x3e034194	0.12817985
210	0x3e9f0457	0.31058
211	0xbe2fabcf	-0.17155384
212	0xbde39a83	-0.11113455
213	0xbe123d63	-0.1428123
214	0xbdc8f215	-0.098117985
215	0x3e0d398d	0.13791485
216	0xbe80f78b	-0.2518886
217	0xbb47b477	-0.0030472556
218	0x3da929d5	0.08259932
219	0x3cdf9390	0.027292043
220	0x3e31ab3d	0.17350478
221	0x3ddd3df5	0.10802833
222	0x3c69e4a2	0.014275702
223	0x3df27890	0.11839402
224	0xba859469	-0.0010191324
225	0x3e789e11	0.24279048
226	0x3da05e37	0.0783047
227	0x3e5330b6	0.2062405
228	0xbdaecb16	-0.08534829
229	0xbdbe8b0a	-0.09303863
230	0x3e07f9f4	0.13278943
231	0x3d8825d1	0.06647838
232	0xbe67c8fc	-0.22635263
233	0xbcb118a4	-0.021618195
234	0x3d023a2b	0.031793755
235	0x3e68f2c9	0.22748865
236	0xbd0e10f7	-0.034684148
237	0xbde628e0	-0.11238265
238	0x3db8580d	0.09001169
239	0x3e23b1f7	0.15985857
240	0x3de54111	0.11194051
241	0x3e1a83e8	0.1508938
242	0xbecb6d59	-0.39731863
243	0x3dc797b7	0.09745734
244	0x3d372696	0.044714533
245	0x3de75585	0.112956084
246	0x3e2b447d	0.16725345
247	0xbda0098f	-0.07814323
248	0xbad9da0b	-0.0016620768
249	0xbe60395b	-0.2189688
250	0x3dbb5c32	0.09148444
251	0x3e1f7482	0.15571788
252	0xbc2af8fc	-0.010435339
253	0xbcc60299	-0.02417116
254	0x3d7f0a4c	0.06226568
255	0xbc25bdfa	-0.010116095

gru.bias_ih_l0 f4 [300]
0	0x3e100f34	0.140683
1	0xbd50e647	-0.05100086
2	0x3d95cdcd	0.07314644
3	0xbd4fc5d5	-0.050725777
4	0x3df547e8	0.11976606
5	0xbe0a8f30	-0.13531184
6	0xbd90fd56	-0.0707957
7	0xbc7c8c9b	-0.015414382
8	0x3e00e25b	0.12586348
9	0xbd570a4a	-0.052500047
10	0xbd77331f	-0.060351487
11	0x3d1247ea	0.035713114
12	0xbdeee349	-0.11664445
13	0x3cffd511	0.031229528
14	0x3d8a00da	0.06738444
15	0x3cb11886	0.021618139
16	0x3c448525	0.011994635
17	0x3dd45299	0.10367317
18	0x3dfa0e6a	0.122097805
19	0x3e172495	0.14760049
20	0xbc5b7988	-0.0133956745
21	0x3e1729eb	0.14762084
22	0x3d097ed0	0.033568203
23	0x3e582ee7	0.21111642
24	0xbdbd765e	-0.092510924
25	0x3e7a5d8e	0.24449751
26	0x3ea01b9b	0.3127106
27	0x3d0ccfa5	0.034377713
28	0x3e0b80ad	0.13623305
29	0x3e8dcd19	0.2769554
30	0xbde8ab05	-0.113607444
31	0x3da2c3c9	0.07947499
32	0x3e47d945	0.19516475
33	0x3d76ee27	0.060285714
34	0xbe30036e	-0.17188808
35	0x3e7f24fd	0.24916454
36	0xbd6e0626	-0.058111332
37	0xbd29f195	-0.041490156
38	0xbc35003e	-0.011047421
39	0x3de4b4a9	0.11167271
40	0x3e0d77ac	0.13815182
41	0xbe74e20b	-0.23914354
42	0x3e88863c	0.26664913
43	0x3df8fcee	0.121576175
44	0x3e28d29d	0.16486593
45	0x3d88c18b	0.066775404
46	0x3ea43d52	0.32078034
47	0x3c33bca9	0.010970273
48	0xbd908d6d	-0.07058225
49	0x3e8b602a	0.27221805
50	0x3cd22cb2	0.025656078
51	0x3e0b8f13	0.13628797
52	0x3db8ff7f	0.09033107
53	0xbd3751d4	-0.04475577
54	0xbe09a052	-0.13440064
55	0x3d0e16d9	0.034689758
56	0x3d870f77	0.065947466
57	0xbcb55093	-0.022133147
58	0x3e44139c	0.19148105
59	0x3e226a15	0.1586078
60	0xbde1b6ff	-0.11021232
61	0x3db3c1a1	0.08777166
62	0xbc1e051b	-0.009644772
63	0xbc96ed91	-0.018423827
64	0xbbd0113d	-0.006349711
65	0xbdbad2e6	-0.09122257
66	0x3c1a27ca	0.0094089005
67	0xbc3c76d7	-0.011502943
68	0x3e1eb796	0.1549972
69	0x3d221c14	0.03957756
70	0x3df8aa06	0.121418044
71	0xbe105e2b	-0.14098422
72	0xbd18ac67	-0.03727379
73	0x3e0969d3	0.13419275
74	0x3de16d72	0.11007203
75	0xbd9c8f6e	-0.076445445
76	0x3d32c872	0.04364819
77	0x3e04466e	0.12917492
78	0x3d30edd1	0.04319555
79	0x3e0ae057	0.13562141
80	0xbcc634d3	-0.02419511
81	0xbde6cd84	-0.11269668
82	0xbe8a465a	-0.270068
83	0x3d61cc26	0.05512633
84	0x3e2a11f6	0.16608414
85	0x3d97802b	0.07397493
86	0x39549dfe	0.00020276752
87	0xbd92e30e	-0.071722135
88	0x3cb08435	0.021547416
89	0xbbe1c612	-0.006890067
90	0xbe08577b	-0.13314621
91	0x3da8c3df	0.082404844
92	0xbdade403	-0.084907554
93	0x3e04ea04	0.12979895
94	0x3ea7b4ef	0.3275523
95	0x3d85ac83	0.065270446
96	0x3e8a48b3	0.2700859
97	0x3e3ee1d4	0.18640834
98	0xbc25ae80	-0.010112405
99	0x3e558efc	0.20855325
100	0x3cc7b8f4	0.024380185
101	0xbe842be0	-0.25814724
102	0x3ab148d8	0.0013525737
103	0x3e22bf2a	0.15893236
104	0xbd707724	-0.05870737
105	0x3cb2f4b2	0.021845195
106	0x3cfc7257	0.03081624
107	0xbe24a6ae	-0.16079208
108	0xbe971762	-0.29510027
109	0xbc0825aa	-0.008309761
110	0x3e19da9e	0.15024802
111	0xbd4ee72e	-0.05051344
112	0xbe8f9407	-0.28042623
113	0x3e606b5e	0.21915957
114	0xbd8c5f1a	-0.06854077
115	0x3da87d51	0.08227027
116	0x3eccdae8	0.40010762
117	0x3dc6efe3	0.097137235
118	0x3d94e7c7	0.072707705
119	0xbe7b6a1c	-0.24552196
120	0xbe20126b	-0.15632026
121	0xbe491e33	-0.19640426
122	0xbd51cd36	-0.051221095
123	0x3e7f971c	0.24959987
124	0x3db74cf6	0.08950226
125	0xbea7c1f2	-0.32765156
126	0x3e1f0936	0.15530857
127	0x3d8dc8e6	0.06923084
128	0xbd1b1b69	-0.037867937
129	0xbd8e55d4	-0.06949964
130	0xbe16ca54	-0.1472562
131	0x3ba6593b	0.005076555
132	0xbe64d68c	-0.22347468
133	0x3d7901e0	0.060792804
134	0x3dbbe93f	0.091753475
135	0x3da41650	0.08012068
136	0xbeabfe47	-0.33592436
137	0xbcbe6f57	-0.02324645
138	0xbd859910	-0.06523335
139	0xbe27b85a	-0.16378918
140	0xbe692410	-0.22767663
141	0x3dd25817	0.10270708
142	0xbe8e8b13	-0.2784048
143	0x3ecf5c5f	0.4050016
144	0xbebe0932	-0.3711639
145	0xbe2c619f	-0.16834114
146	0xbe733698	-0.23751295
147	0xbdd08b6f	-0.10182845
148	0xbeb0c680	-0.34526443
149	0xbe6cc0ec	-0.23120469
150	0x3d98b1c1	0.07455779
151	0xbe103a4d	-0.1408474
152	0xbe848838	-0.25885177
153	0x3de4d005	0.11172489
154	0xbe261432	-0.16218641
155	0x3d3d5f2f	0.046233352
156	0x3d273b0a	0.04082779
157	0x3d978a10	0.0739938
158	0xbe4f5ab7	-0.20249449
159	0xbea3cb41	-0.31991008
160	0x3cfc5e15	0.03080658
161	0xbe4a6bb3	-0.19767646
162	0x3c1f3cf2	0.00971912
163	0x3d288d21	0.041150216
164	0x3e7a48f3	0.2444189
165	0x3df76279	0.12079329
166	0x3e87d725	0.2653133
167	0xbc093b2c	-0.008375924
168	0xbe0957bd	-0.13412376
169	0x3e006f4d	0.12542458
170	0xbeabedb4	-0.3357979
171	0x3ea6fe29	0.32615784
172	0xbe54a179	-0.20764722
173	0xbe2f1f0b	-0.17101686
174	0xbdc6c738	-0.09705967
175	0x3e133f54	0.14379627
176	0xbd82a2f5	-0.06378738
177	0xbe5509bb	-0.20804493
178	0xbe69326a	-0.22773138
179	0xbe96f2fd	-0.2948226
180	0xbea9e3bd	-0.33181563
181	0x3bebe548	0.0071989633
182	0xbd7bddd6	-0.061490856
183	0x3cc26514	0.023729838
184	0xbd351528	-0.04420963
185	0xbd7692b7	-0.060198512
186	0xb9347257	-0.00017208733
187	0xbe1c6c8a	-0.1527578
188	0xbe920681	-0.28520587
189	0xbdd5915c	-0.10428116
190	0xbe3edf9c	-0.18639988
191	0x3e05b5ed	0.1305768
192	0xbe3a1e27	-0.18175565
193	0xbece0dae	-0.40244812
194	0x3c264bac	0.0101498775
195	0xbda336ef	-0.07969462
196	0xbea6e2d5	-0.32594934
197	0xbe4a0b50	-0.19730878
198	0x3c8ed16c	0.017433845
199	0x3c6a57bd	0.014303145
200	0x3e0acce9	0.1355473
201	0x3e0d94a7	0.13826238
202	0x3cd5fc68	0.026121333
203	0xbd2dd984	-0.042443767
204	0xbd676f64	-0.056502715
205	0x3e7aa7f5	0.24478133
206	0xbbc5e318	-0.0060390346
207	0xbdb75ef3	-0.08953657
208	0xbe9086c3	-0.28227815
209	0xbe7133b8	-0.23554885
210	0x3d9e309b	0.077241145
211	0xbe7a7498	-0.2445854
212	0xbd3abb39	-0.045588706
213	0xbe2ac9e1	-0.16678573
214	0xbdb5103f	-0.08840989
215	0x3db8e897	0.09028738
216	0xbd8e17fc	-0.069381684
217	0xbcb63f6b	-0.022247037
218	0xbe22a86d	-0.15884562
219	0x3d5fb151	0.05461246
220	0x3d10877d	0.03528546
221	0x3df9fa31	0.12205923
222	0xbd7a0c1f	-0.061046716
223	0x3db394cd	0.08768616
224	0x3e25311e	0.16132018
225	0x3dafea3d	0.08589599
226	0xbe18ad25	-0.149098
227	0xbd94972d	-0.07255397
228	0xbcc8c400	-0.024507523
229	0x3d029acf	0.03188592
230	0xbd8e9fc0	-0.06964064
231	0x3e92d91b	0.28681263
232	0xbe429dae	-0.19005463
233	0x3e0ee618	0.13954961
234	0xbd6197de	-0.055076472
235	0xbdff5d36	-0.124689505
236	0x3e2720f9	0.16321172
237	0x3dba615e	0.091006026
238	0x3ed58508	0.41703057
239	0x3c5d8b16	0.01352193
240	0x3e016328	0.12635481
241	0x3e04d546	0.12971982
242	0x3d9a48f4	0.07533446
243	0xbda21c64	-0.07915571
244	0x3d361744	0.04445578
245	0x3e280b0d	0.16410466
246	0x3c84e615	0.016222993
247	0xbe239756	-0.15975699
248	0x3e1f28bf	0.15542887
249	0x3e351bfb	0.17686455
250	0x3e2ddffd	0.16979976
251	0x3e906016	0.28198308
252	0xbd7b7c3c	-0.061397776
253	0xbdc85736	-0.09782259
254	0x3dd45b8a	0.10369022
255	0x3d83e4c9	0.06440122

gru.bias_hh_l0 f4 [300]
0	0x3e3d32ef	0.18476461
1	0x3d72bc1f	0.059261438
2	0x3c2cdf39	0.010551267
3	0xbe281152	-0.16412857
4	0x3dc306bc	0.09522769
5	0xbdbcef8c	-0.092253774
6	0xbe1e8a8b	-0.15482537
7	0xbd030975	-0.03199144
8	0x3e966566	0.29374236
9	0xba19358d	-0.00058444665
10	0xbe161a66	-0.14658508
11	0x3e381f5d	0.17980714
12	0xbe1da831	-0.15396191
13	0x3d71193a	0.05886195
14	0x3d8db25a	0.069187835
15	0x3d57f872	0.05272717
16	0xbca42d0c	-0.020041011
17	0x3da0848e	0.07837783
18	0x3d11294a	0.035439767
19	0x3e04d984	0.129736
20	0x3ce0e1b6	0.027451377
21	0x3dfa6919	0.12227077
22	0x3d4d9e98	0.050200075
23	0x3e961b87	0.29317877
24	0xbde7524f	-0.11294996
25	0x3e7a720e	0.24457571
26	0x3e6eb33a	0.23310557
27	0xbc195b53	-0.009360152
28	0x3dc328f6	0.09529297
29	0x3e7a36be	0.24434945
30	0xbd92fb18	-0.071767986
31	0x3d2c44ed	0.04205792
32	0x3e303d54	0.17210895
33	0x3d856a45	0.0651441
34	0xbe12c34e	-0.14332315
35	0x3e37529a	0.17902604
36	0x3c47bccb	0.012191008
37	0x3def29fd	0.116779305
38	0xbd8ae1aa	-0.06781323
39	0xbcbf85c8	-0.023379222
40	0x3d2890f2	0.041153856
41	0xbe5eeab2	-0.21769217
42	0x3e8d5d85	0.27610412
43	0x3c7dc2b2	0.0154883135
44	0x3d8083cc	0.06275138
45	0xbde29085	-0.11062721
46	0x3e856dce	0.26060337
47	0x3db88ff7	0.09011834
48	0x3d990a46	0.07472663
49	0x3eb6653c	0.3562411
50	0x3d4de836	0.05027028
51	0x3d9de166	0.07709007
52	0x3de7cade	0.11317991
53	0xbd97e040	-0.07415819
54	0xbc96181a	-0.01832204
55	0x3e132cd5	0.14372571
56	0x3c5ce27c	0.013481732
57	0xbe273a67	-0.16330872
58	0x3d97b869	0.0740822
59	0x3e224ad1	0.15848853
60	0x3c337883	0.010954025
61	0x3dca25de	0.09870504
62	0xbe07b197	-0.13251339
63	0xbda704e7	-0.08155232
64	0x3db7ef2e	0.08981167
65	0xbdc9259b	-0.09821626
66	0x3d0629cb	0.0327547
67	0xbdacb623	-0.08433177
68	0x3e840571	0.257854
69	0x3c3a8f58	0.011386715
70	0x3e09081b	0.13381998
71	0xbcfacc7a	-0.03061508
72	0x3d088f3d	0.033339728
73	0x3e031aac	0.12803143
74	0x3db98d47	0.0906015
75	0xbbe1c082	-0.006889404
76	0xbdb247ab	-0.08705076
77	0x3e193edd	0.14965387
78	0x3e1a8d33	0.15092926
79	0x3d8079df	0.06273245
80	0x3ddc6883	0.107621215
81	0xbdb04344	-0.0860658
82	0xbe821066	-0.25403136
83	0x3e5f1a56	0.2178739
84	0x3d96bd22	0.07360293
85	0x3d022eee	0.031783037
86	0xbc7a247b	-0.015267487
87	0xbce4bc82	-0.027921919
88	0xb9faadb8	-0.00047813146
89	0xbd6445d7	-0.055730667
90	0xbd47653a	-0.04868052
91	0x3d9ee91a	0.07759304
92	0xbdc1d566	-0.09464531
93	0x3e2531df	0.16132306
94	0x3e9d8c44	0.30771077
95	0xbd03ee10	-0.032209456
96	0x3ec4d7c9	0.3844588
97	0x3e300205	0.1718827
98	0xbc8f2e0a	-0.017478008
99	0x3eb630c0	0.35584068
100	0x3d8e6298	0.06952399
101	0xbe1481dc	-0.14502662
102	0x3c991a34	0.018689252
103	0x3e7640b1	0.24048115
104	0xbda49846	-0.08036856
105	0xbd085af2	-0.033289857
106	0x3e00fc06	0.1259614
107	0xbe385384	-0.18000609
108	0xbe889f73	-0.2668415
109	0x3cd624a5	0.02614052
110	0x3dd7b3d5	0.10532347
111	0xbde2a301	-0.11066247
112	0xbe419aa8	-0.18906653
113	0x3e5d2ce2	0.21599153
114	0xbd949540	-0.0725503
115	0x3d534d6f	0.05158752
116	0x3e989e46	0.29808253
117	0xbc996f32	-0.01872978
118	0x3dee8a3e	0.11647461
119	0xbebb7d5c	-0.3661908
120	0xbe112029	-0.14172424
121	0xbe8fd83e	-0.28094667
122	0xbc97ae37	-0.01851569
123	0x3e222fe4	0.15838581
124	0xbd1e3faf	-0.038634952
125	0xbec6109b	-0.38684544
126	0x3e0a7170	0.13519835
127	0xbb9b2394	-0.004734466
128	0x3d123b2d	0.035700966
129	0xbd194b59	-0.037425373
130	0xbe27576d	-0.16341944
131	0x3dd563df	0.104194395
132	0xbe4041ee	-0.1877515
133	0x3ce75d49	0.028242724
134	0x3d8b1229	0.06790573
135	0xbb44f9ba	-0.0030056075
136	0xbe40c0f5	-0.18823607
137	0xbdc8a969	-0.097979374
138	0xbe547948	-0.2074939
139	0xbe38f85d	-0.18063493
140	0xbe7e9bae	-0.24864075
141	0x3d111bda	0.035426952
142	0xbe84a6cb	-0.25908503
143	0x3eb2b6aa	0.34904987
144	0xbe96da33	-0.29463348
145	0xbe849436	-0.25894326
146	0xbe9e1e18	-0.30882335
147	0xbd93f968	-0.07225305
148	0xbe7fc674	-0.24978048
149	0xbe2627e9	-0.16226162
150	0xbd93e6a9	-0.07221729
151	0xbe975085	-0.2955362
152	0xbe8ad015	-0.2711188
153	0x3e7059d6	0.2347177
154	0xbd39cc0c	-0.04536061
155	0x3ceea5dd	0.029131824
156	0xbd5cfbf4	-0.05395122
157	0x3e43518f	0.19074081
158	0xbe35ab70	-0.1774118
159	0xbe5f9e3d	-0.21837707
160	0x3e0798e0	0.13241911
161	0xbe4cdf8f	-0.20007156
162	0x3e1e9e8e	0.15490171
163	0x3e15e5dc	0.14638466
164	0x3e7a1462	0.24421838
165	0x3dd1547b	0.102211915
166	0x3e93234a	0.2873786
167	0x3d05bc02	0.03265
168	0xbdc38593	-0.09546962
169	0x3d8fb011	0.07016004
170	0xbe391d70	-0.18077636
171	0x3eb6759f	0.35636613
172	0xbe719488	-0.23591816
173	0xbe2d9bd6	-0.16953978
174	0xbe374177	-0.17896067
175	0x3e635f7e	0.22204396
176	0xbde2d0dc	-0.11074993
177	0xbe86bfa5	-0.26318088
178	0xbdc21777	-0.09477132
179	0xbe4a4a47	-0.19754897
180	0xbe5aa5cc	-0.21352309
181	0x3d65ffa2	0.056151994
182	0xbe40337c	-0.1876964
183	0x3dcacc86	0.09902291
184	0xbd196208	-0.037447006
185	0x3cf14073	0.029449677
186	0xbce5bcc9	-0.028044121
187	0xbd34d4f4	-0.0441484
188	0xbe270d1d	-0.16313596
189	0xbd995188	-0.07486254
190	0xbe658dfa	-0.22417441
191	0xbca08054	-0.019592442
192	0xbd8fb2bc	-0.07016513
193	0xbe824711	-0.25444844
194	0xbdc2a720	-0.09504533
195	0xbe2ba50e	-0.16762182
196	0xbeaccfc9	-0.33752277
197	0xbd450bdc	-0.048107013
198	0xbe0952d5	-0.13410504
199	0xbd94a6e3	-0.072583936
200	0x3da4f7ac	0.08055052
201	0xbcbc8861	-0.02301425
202	0x3d0de314	0.034640387
203	0xbb8da492	-0.004322597
204	0xbe6d4e9d	-0.2317452
205	0x3e058bb2	0.13041571
206	0xbd2e66e4	-0.042578593
207	0xbdf02d6c	-0.117274135
208	0xbd2c77ef	-0.042106565
209	0xbe3f97c6	-0.1871024
210	0x3de38fae	0.11111389
211	0xbeb448b6	-0.35211724
212	0xbe396af2	-0.18107203
213	0xbe91c2ef	-0.28469035
214	0xbd65cf5c	-0.056105956
215	0x3e15135e	0.14558169
216	0x3e0cb553	0.13741045
217	0xbdd6972b	-0.10478052
218	0xbd9b373d	-0.07578895
219	0x3e62c963	0.22147135
220	0x3d880f3f	0.06643533
221	0xbda75690	-0.08170807
222	0xbe168ccd	-0.14702149
223	0x3e657ce8	0.22410929
224	0x3d35c485	0.04437687
225	0xbce9787b	-0.028499832
226	0xbde77464	-0.113014966
227	0xbe626317	-0.22108112
228	0xbc03544f	-0.008015706
229	0x3e21a1c3	0.15784363
230	0xbe5cb5c0	-0.21553707
231	0xbe0a000f	-0.13476585
232	0xbe642f1a	-0.22283593
233	0x3dc3be65	0.09557799
234	0xbd0af4fd	-0.033925045
235	0x3cc243dd	0.023714
236	0x3e187086	0.14886674
237	0x3c4dc41a	0.012558961
238	0x3e75a26d	0.23987742
239	0x3dd0ab50	0.10188925
240	0x3e22a13b	0.15881817
241	0x3d70271f	0.05863106
242	0xbc7005f4	-0.014649857
243	0xbd8194c4	-0.06327203
244	0x3e1f154a	0.15535465
245	0x3e054598	0.13014829
246	0x3dd824a1	0.105538614
247	0x3d7fac5f	0.062420245
248	0x3b01e3a2	0.0019819518
249	0x3df9cf3e	0.121977314
250	0xbd0a3592	-0.033742495
251	0x3e36d06f	0.17852949
252	0x3d319c66	0.043362044
253	0xbe26a729	-0.16274704
254	0x3c25cabc	0.010119136
255	0xbd5df212	-0.054185934

out.weight f4 [36, 200]
0	0x3e764365	0.24049146
1	0x3e67b961	0.2262931
2	0xbe23d48d	-0.1599905
3	0x3de4ecc5	0.11177973
4	0x3e037f31	0.12841488
5	0xbebcfb2c	-0.3691038
6	0xbeadee22	-0.33970743
7	0x3d80d268	0.06290132
8	0x3ed0eb99	0.40804747
9	0xbe20269b	-0.15639727
10	0xbd415bcb	-0.04720668
11	0xbdfa8e0c	-0.122341245
12	0x3e5c7b02	0.21531299
13	0x3f1ca46b	0.6118838
14	0xbda7c6d5	-0.08192221
15	0x3defc88a	0.11708172
16	0x3d89bc78	0.06725401
17	0xbe72c174	-0.23706609
18	0xbdf603e5	-0.120124616
19	0xbe99e21b	-0.30055317
20	0xbf03b149	-0.5144239
21	0x3dc0c94a	0.09413393
22	0xbcc9061a	-0.024539042
23	0xbf254db0	-0.64571667
24	0x3d4870c7	0.048935678
25	0x3d9adad9	0.07561273
26	0x3f5c3f78	0.86034346
27	0x3d8f4f3d	0.069975354
28	0x3d2b385d	0.0418018
29	0x3e7a639f	0.24452065
30	0x3ee3cd1c	0.44492424
31	0x3d80eb1a	0.06294842
32	0x3e2bd5c3	0.16780762
33	0x3e17f25f	0.14838551
34	0x3ced376e	0.028957095
35	0xbe5a0307	-0.21290217
36	0xbd767b07	-0.06017592
37	0x3e114910	0.14188027
38	0xbe6ff4aa	-0.23433176
39	0x3ea61419	0.32437208
40	0xbe02c146	-0.1276904
41	0xbe51e651	-0.20498015
42	0xbea19d9d	-0.31565562
43	0xbe1d271c	-0.1534695
44	0xbe81ccde	-0.25351614
45	0xbdbb8921	-0.09157015
46	0x3dc7cb0f	0.09755527
47	0x3ef54928	0.47907376
48	0x3da612a7	0.081090264
49	0xbe92ceb3	-0.28673324
50	0xbe66ad50	-0.22527051
51	0xbe4b827e	-0.19873998
52	0xbd20a6d0	-0.039221585
53	0xbddf484d	-0.10902462
54	0xbec9304d	-0.39294663
55	0x3cac3695	0.02102212
56	0x3c599603	0.0132803945
57	0x3ed5a828	0.41729856
58	0xbd77944a	-0.060444154
59	0x3e88e42d	0.26736584
60	0xbef25b81	-0.47335437
61	0x3e34b757	0.17648064
62	0x3e310ef0	0.17290854
63	0x3ef0d0ec	0.47034395
64	0xbf000873	-0.5001289
65	0x3eca9b26	0.39571494
66	0x3c895d43	0.016768103
67	0x3e410b06	0.18851861
68	0xbe078ee2	-0.13238099
69	0xbefc850d	-0.4932026
70	0x3e6e8dbf	0.2329626
71	0x3f63e3d4	0.89019513
72	0x3e127e61	0.14306022
73	0xbcff830e	-0.031190421
74	0x3e058286	0.13038072
75	0xbf030496	-0.5117887
76	0xbd4b82c7	-0.049685266
77	0xbdbf3ae4	-0.09337404
78	0x3b9866ff	0.00465095
79	0x3cfc5144	0.03080047
80	0x3db8f89a	0.09031792
81	0x3f4a18e0	0.78944206
82	0x3d92741a	0.07151051
83	0x3e13f0e6	0.14447364
84	0xbe143359	-0.14472713
85	0xbd708f90	-0.058730662
86	0xbe53d614	-0.20687133
87	0x3eb7397a	0.3578604
88	0xbd9cb12c	-0.0765098
89	0xbdf8e6d5	-0.12153403
90	0xbe92015e	-0.28516668
91	0xbe27471f	-0.16335724
92	0xbe96c4fd	-0.29447165
93	0x3e95bd25	0.29245868
94	0xbe9c2475	-0.30496565
95	0xbdaad48d	-0.08341322
96	0x3d6d2d90	0.05790478
97	0x3ee96cea	0.45590907
98	0x3f15e6ed	0.5855549
99	0x3d814577	0.063120775
100	0xbd4ddce1	-0.050259475
101	0xbe0ef4e3	-0.13960604
102	0x3b84e4b7	0.0040555852
103	0x3d1f98ca	0.03896407
104	0x3ea574b9	0.32315615
105	0x3d289255	0.041155178
106	0x3daed6dc	0.08537075
107	0x3eac2e1b	0.33628926
108	0xbd13c1a7	-0.036073353
109	0x3e366a39	0.17813958
110	0xbe34464b	-0.1760494
111	0xbd0f5e15	-0.035001833
112	0x3ecc9d8b	0.39963946
113	0x3df73911	0.120714314
114	0xbd099272	-0.033586927
115	0xbe09e9b3	-0.13468055
116	0x3e4df6e5	0.20113714
117	0xbd2a70e6	-0.041611575
118	0x3d9326f7	0.07185166
119	0xbf02e415	-0.51129276
120	0x3ec8fd87	0.39255926
121	0xbeb33b76	-0.35006303
122	0x3dabcb55	0.08388392
123	0x3e362521	0.17787601
124	0xbdfae65f	-0.12250971
125	0xbebeb4bd	-0.37247267
126	0x3eea1bfc	0.45724475
127	0x3d03ffa8	0.032226235
128	0x3e5f9d8e	0.21837446
129	0xbe01b3fe	-0.12666318
130	0xbe6982a0	-0.22803736
131	0xbcf641d4	-0.030060686
132	0xbb7fdfa3	-0.003904321
133	0xbd16a53a	-0.036778666
134	0xbe3b866b	-0.18312995
135	0x3df67000	0.12033081
136	0xbe5047cc	-0.20339888
137	0xbd977de0	-0.073970556
138	0xbec490cc	-0.3839172
139	0xbe85abc5	-0.26107612
140	0xbec10452	-0.3769861
141	0x3d8ccefd	0.068754174
142	0x3dabe6c8	0.083936274
143	0x3e80e013	0.25170955
144	0xbd9f098d	-0.077654935
145	0xbda2bd35	-0.079462446
146	0xbbd58b85	-0.006516876
147	0xbc93ca35	-0.018040756
148	0xbeb8a524	-0.36063492
149	0xbe2b72b0	-0.16742969
150	0x3dd810db	0.1055009
151	0xbdafd14d	-0.08584843
152	0x3db0d1fa	0.086338
153	0x3d0225c9	0.031774316
154	0x3e1c4fa7	0.1526476
155	0x3e11aa7b	0.1422519
156	0x3e126373	0.1429575
157	0xbbf0dfc1	-0.0073508923
158	0x3cb3270f	0.02186921
159	0x3eb8413a	0.35987264
160	0x3c2e9223	0.010654959
161	0x3e4d8d90	0.20073533
162	0xbd4c09aa	-0.049813904
163	0x3dc46029	0.095886536
164	0xbd63c1d6	-0.05560478
165	0xbc2aa218	-0.010414623
166	0x3e8fdc14	0.28097594
167	0xbd197d34	-0.03747292
168	0xbe8cc963	-0.27497396
169	0xbe09c0c0	-0.13452435
170	0x3ed9863b	0.42485222
171	0x3e45b02d	0.19305487
172	0x3edc97ae	0.43084472
173	0x3e00678d	0.12539501
174	0xbe9e5c90	-0.30929995
175	0xbf0f0de3	-0.55880564
176	0x3e19bd61	0.15013649
177	0x3db43472	0.08799066
178	0xbde27894	-0.11058155
179	0xbdf10a1e	-0.11769508
180	0x3e712260	0.2354827
181	0x3db96992	0.09053339
182	0x3c918bbc	0.017766826
183	0x3b445f97	0.0029964203
184	0x3c4f822c	0.012665313
185	0x3ea6b03f	0.3255634
186	0xbd3ea0f3	-0.046540212
187	0xbde3e375	-0.11127368
188	0xbe85f89a	-0.2616623
189	0x3e07963a	0.132409
190	0xbe25bb01	-0.16184618
191	0xbe6292a3	-0.2212625
192	0xbd7d54be	-0.061848395
193	0x3da5e3ba	0.08100076
194	0x3db41d0d	0.087946035
195	0x3c0b5214	0.008503456
196	0x3e3684ad	0.1782405
197	0x3e7cb4dc	0.24678367
198	0x3eb37f16	0.35057896
199	0x3e465809	0.1936952
200	0x3ea580b3	0.32324752
201	0xbdc44e4a	-0.09585245
202	0xbe42bf5b	-0.19018309
203	0xbe3ebc98	-0.1862663
204	0xbe20f66f	-0.15719007
205	0x3dd0c3be	0.10193585
206	0x3e49759d	0.19673772
207	0x3eae22bd	0.34010878
208	0x3eb9524a	0.36195594
209	0xbe24fcde	-0.16112086
210	0x3e73d48d	0.2381155
211	0xbe86d1b5	-0.2633187
212	0xbe3a0d5f	-0.18169163
213	0xbe65953c	-0.2242021
214	0x3ea44ba8	0.3208897
215	0xbd3fcb75	-0.04682489
216	0x3e123551	0.14278151
217	0xbe268cff	-0.16264723
218	0xbde887f9	-0.1135406
219	0xbe3fe297	-0.18738781
220	0xbe66a37f	-0.22523306
221	0x3eb0429c	0.3442582
222	0xbe4cb8cb	-0.19992368
223	0x3e4dee5b	0.20110457
224	0x3d86f53b	0.06589743
225	0xbe827589	-0.25480297
226	0x3ef737e1	0.4828482
227	0xbea34674	-0.3188969
228	0xbe33f147	-0.17572509
229	0x3e2a11c9	0.16608347
230	0x3e3d3400	0.18476868
231	0x3e5f373b	0.21798413
232	0xbcbb1b6f	-0.02284023
233	0xbe268c21	-0.16264392
234	0x3f49b64d	0.78793794
235	0xbe02f56d	-0.12788935
236	0x3cad95a8	0.021189526
237	0x3e5a2d83	0.21306424
238	0x3e5f22bb	0.21790592
239	0xbe4ce1f8	-0.20008075
240	0xbd0c6b30	-0.03428191
241	0xbecbea3f	-0.39827153
242	0x3e2ee10a	0.17078033
243	0xbf24573e	-0.6419562
244	0xbeb73401	-0.35781863
245	0xbe00f202	-0.12592319
246	0xbedb3ae4	-0.42818367
247	0xbe7d5d39	-0.24742593
248	0xbe204c33	-0.15654068
249	0x3e0df8c6	0.13864431
250	0x3d7b9c16	0.061428152
251	0xbc8f96a5	-0.017527888
252	0xbdbff7fa	-0.0937347
253	0xbe6be286	-0.2303563
254	0x3f061a63	0.5238401
255	0x3df17669	0.11790163

out.bias f4 [36]
0	0xbeb4e5cd	-0.35331574
1	0x3e333988	0.17502415
2	0xbec34cbc	-0.3814448
3	0x3e2b83bb	0.1674947
4	0xbe93d1c3	-0.28870973
5	0xbee77a0e	-0.45210308
6	0x3e65e7b1	0.22451665
7	0xbee5ae43	-0.44859514
8	0xbefea172	-0.49732548
9	0xbecd636f	-0.40114924
10	0x3d4b38db	0.04961477
11	0xbed13be4	-0.40866005
12	0xbeaf8c62	-0.3428679
13	0xbed02ad6	-0.4065768
14	0xbec2df16	-0.38060826
15	0xbeb9028b	-0.36134753
16	0x3ec69c3a	0.38791066
17	0xbe2feea6	-0.17180881
18	0xbe49c79c	-0.19705051
19	0x3dfa014c	0.122072786
20	0xbe52b30a	-0.2057611
21	0x3e99c9c9	0.30036762
22	0xbdd66744	-0.10468915
23	0xbeb846a9	-0.3599141
24	0xbec07602	-0.37590033
25	0xbf1e5117	-0.61842483
26	0xbe1ea14c	-0.15491217
27	0x3e18427f	0.14869116
28	0x3ca16f71	0.01970646
29	0xbe19c1a2	-0.15015271
30	0x3cf61a33	0.03004179
31	0xbee5223b	-0.44752678
32	0xbeb2dec2	-0.34935576
33	0xbe77d970	-0.2420404
34	0xbee5db70	-0.4489398
35	0x3e5366ef	0.20644735
