modules/prn_gen/exp/id/models/bigram/FIN-encoder-wdecay_1e_5-attn_dot-emb_64-hddn_32-layers_1-epoch_70.pth (torch, 161332 bytes, 5 tensors)

embedding.weight f4 [474, 64]
00000000: b59c 0600 ca65 0500 266e 0500 9265 0500
00000010: 5b57 0500 0b5e 0580 2959 0500 345f 0580
00000020: 0359 0500 1060 0500 3659 0580 3c62 0580
00000030: 9c64 0500 415f 0500 e057 0580 31b6 0580
00000040: 8760 0500 5a59 0580 1c63 0500 6b59 0500
00000050: 3969 0500 ea5d 0500 628a 0580 2a61 0580
00000060: cb5e 0580 6167 0580 105f 0580 135b 0580
00000070: fd60 0580 5959 0580 c85a 0580 f75d 0580
00000080: c068 0500 1cae 0680 2586 0500 e359 0580
00000090: fa57 0500 a065 0580 5660 0500 8d61 0500
000000a0: 5661 0580 0f62 0580 4663 0580 2f5f 0500
000000b0: 0a65 0580 d961 0500 e05c 0580 227c 0600
000000c0: 5c7f 0600 a85e 0580 ca62 0500 3c5b 0500
000000d0: 4957 0580 0e5a 0580 025e 0500 5b5b 0580
000000e0: 815e 0500 ea5f 0580 2061 0580 8c2b 0680
000000f0: 9763 0580 0058 0500 1865 0500 955d 0580
00000100: f56f bbbe aa35 153f d45d 20bf 54a2 413f
00000110: 5115 a43d 65a6 2d3f 0a58 adbe a085 77bf
00000120: c522 a73f 0e21 70bf d2d3 e6bd 54f2 a13f
00000130: bd09 39c0 56d7 0640 7501 81be 4982 3cbf
00000140: 4152 6a3f bfb0 0abf 4e07 223f 8773 14bf
00000150: 64a4 a13d 9b5d edbe f550 e3bf c8af 95bf
00000160: 1eca e53e 6df5 6cbf 9015 c43e c0df 45bf
00000170: 5a2d a3be a13d b63c e94b 053f eb9d 5fbe
00000180: 57dc 533f bfad d43d cfbb bb3f 7116 9fbf
00000190: 2722 243e 1c2f f2bd 7e55 d7be 2824 79bf
000001a0: 7786 963f faa6 91be 9614 55bf 7d3b bdbd
000001b0: f832 bcbf 73c2 b23f b586 273e 7093 593d
000001c0: eedc be3e 8200 2f3f 7ec8 7fbe b32c 033f
000001d0: 158b 25bf a7d5 d53e 6d47 d53f ac2b 8cbe
000001e0: 38bb a13f e852 80be f8b7 703f 16d5 21be
000001f0: 424c 2ebe 6e4e 7ebf e36c 4d3e f61d 7d3d
00000200: e14f 8bbf 9e86 ae3e c065 25be 7a5f a93f
00000210: 3db6 8b3f 540d 843f 2196 c4bf 7c5f 64be
00000220: bcea aabf 56ad 45bf e6f1 663f 3b8b 33bf
00000230: 4da4 8fbf 04f8 ea3e 8d52 c8bf c956 833f
00000240: 130b 3bbf e215 dbbf b2e2 d5be da26 a3bf
00000250: aa17 b33e 085d 063f b4b4 b73f f359 adbf
00000260: f3c5 03bf 0654 08bf a895 9a3f 5d9e 63bf
00000270: e6a6 1abf a174 83be 4d6a 4b3f 2526 97be
00000280: 1715 2b3f 94a3 89bf 6fb2 a9bd 949b 673d
00000290: 61a4 793f cd5d b63d 0ab3 843d 8206 7d3f
000002a0: 070e 023f 224f c3bf fa93 8dbf cfe6 04bf
000002b0: dc6d 0b3e 0068 fdbe a862 3ebf 329e ab3f
000002c0: 7391 213f 95b5 69bf cbe7 8b3f bf1a 2d3f
000002d0: a56b 3f3f 207d 713f be74 123f dca5 4a3f
000002e0: 7412 a4be b5ea b2be e654 d1bd 05e7 f3be
000002f0: fa9e 1340 494d d43e 3fd9 1c3f f7dc 833f
00000300: d860 0500 e058 0500 fa61 0500 fb61 0500
00000310: 3b60 0500 a064 0580 2758 0580 4c5f 0580
00000320: 0159 0580 d460 0580 d259 0580 345f 0580
00000330: ef61 0580 bc62 0580 4f5f 0500 c35c 0500
00000340: 5158 0580 b06f 0500 b757 0580 3b5e 0580
00000350: bc58 0580 d958 0500 03a6 0500 a65a 0500
00000360: c335 0680 8957 0580 3532 0680 8762 0500
00000370: 7763 0580 c15c 0500 b457 0580 a761 0500
00000380: d15a 0580 3e58 0500 dd60 0580 3c62 0500
00000390: 1464 0500 9657 0500 a462 0500 9261 0500
000003a0: 7ac5 0580 fa5a 0580 df63 0580 5a5b 0500
000003b0: 8a5c 0580 0a70 0500 ba6d 0500 d55e 0500
000003c0: 51a2 0680 2264 0580 755b 0500 e55d 0580
000003d0: 0369 0580 cc67 0500 8483 0600 875b 0500
000003e0: 5064 0500 f761 0500 dc65 0580 3159 0580
000003f0: 8c58 0500 ea63 0580 dd63 0500 bd62 0500
6.07229e-40 4.95693e-40 4.98691e-40 4.95614e-40 4.90515e-40 -4.92914e-40 4.91162e-40 -4.9333e-40
4.91109e-40 4.93638e-40 -4.9118e-40 -4.94417e-40 4.9527e-40 4.93348e-40 -4.90701e-40 -5.24535e-40
4.93805e-40 -4.91231e-40 4.94731e-40 4.91255e-40 4.96924e-40 4.92867e-40 -5.0882e-40 -4.94033e-40
-4.93183e-40 -4.96263e-40 -4.9328e-40 -4.91849e-40 -4.9397e-40 -4.9123e-40 -4.91744e-40 -4.92886e-40
4.96755e-40 -6.13472e-40 5.073e-40 -4.91423e-40 4.90738e-40 -4.95634e-40 4.93736e-40 4.94172e-40
-4.94095e-40 -4.94354e-40 -4.9479e-40 4.93323e-40 -4.95423e-40 4.94279e-40 -4.92495e-40 5.95543e-40
5.96701e-40 -4.93134e-40 4.94616e-40 4.91906e-40 -4.9049e-40 -4.91483e-40 4.92901e-40 -4.9195e-40
4.93079e-40 -4.93585e-40 -4.9402e-40 -5.66635e-40 -4.94904e-40 4.90746e-40 4.95443e-40 -4.92748e-40
-0.36608854 0.5828501 -0.6264317 0.7563832 0.08011878 0.6783202 -0.3385623 -0.9668827
1.3057486 -0.9380044 -0.1127087 1.2652078 -2.8912194 2.106893 -0.25196424 -0.736363
0.9153176 -0.54175943 0.63292396 -0.5798878 0.07892683 -0.46360478 -1.7759081 -1.1694269
0.44880766 -0.9256199 0.382977 -0.7729454 -0.31870538 0.022246184 0.52068955 -0.21837585
0.82758087 0.10384702 1.466669 -1.2428724 0.16028653 -0.11825392 -0.42057413 -0.97320795
1.1759785 -0.28447706 -0.83234537 -0.09239862 -1.4703054 1.3965591 0.1635998 0.053119123
0.3727793 0.6836015 -0.24978825 0.5124008 -0.6466535 0.41764566 1.6662422 -0.2737707
1.263526 -0.25063252 0.94030714 -0.15803942 -0.17021278 -0.99338424 0.20061068 0.06179615
-1.0883752 0.3408708 -0.16152096 1.3232262 1.091499 1.0316567 -1.5358316 -0.2230205
-1.3352885 -0.77217615 0.9021286 -0.70134324 -1.1222016 0.45892346 -1.5650192 1.026086
-0.7306377 -1.7116053 -0.41774517 -1.2746232 0.34978992 0.52485704 1.4352021 -1.3543075
-0.5147392 -0.5325321 1.2076921 -0.8891352 -0.60410917 -0.25674918 0.7945908 -0.2952129
0.66829056 -1.0753045 -0.08285987 0.056544855 0.9751645 0.0890461 0.064794615 0.98838055
0.50802654 -1.5258524 -1.1060784 -0.51914686 0.13616127 -0.49493408 -0.7436929 1.3407652
0.6311256 -0.912927 1.0930113 0.67618936 0.7477363 0.9433155 0.57209384 0.7915933
-0.3204533 -0.34944692 -0.10221271 -0.4763719 2.3065782 0.41465214 0.6126899 1.0301808
4.93918e-40 4.9106e-40 4.94325e-40 4.94326e-40 4.93698e-40 -4.95275e-40 -4.908e-40 -4.93364e-40
-4.91106e-40 -4.93913e-40 -4.91399e-40 -4.9333e-40 -4.9431e-40 -4.94597e-40 4.93368e-40 4.92454e-40
-4.9086e-40 4.99243e-40 -4.90644e-40 -4.92981e-40 -4.9101e-40 4.9105e-40 5.18731e-40 4.91696e-40
-5.70299e-40 -4.90579e-40 -5.69024e-40 4.94522e-40 -4.94859e-40 4.92451e-40 -4.9064e-40 4.94209e-40
-4.91756e-40 4.90833e-40 -4.93925e-40 4.94417e-40 4.95079e-40 4.90597e-40 4.94563e-40 4.94179e-40
-5.30019e-40 -4.91814e-40 -4.95004e-40 4.91948e-40 -4.92374e-40 4.9937e-40 4.9854e-40 4.93197e-40
-6.09241e-40 -4.95098e-40 4.91986e-40 -4.9286e-40 -4.96849e-40 4.96413e-40 5.98192e-40 4.92011e-40
4.95163e-40 4.9432e-40 -4.95718e-40 -4.91173e-40 4.90942e-40 -4.9502e-40 4.95002e-40 4.94598e-40

gru.weight_ih_l0 f4 [96, 64]
00000000: cccf e8bc 2e23 2fbe 6f0d b1bc 2fb9 c63e
00000010: c6c6 8e3e 2fb4 743e c806 19be a9b3 6fbe
00000020: a273 c4bb 566a ce3e 8690 1e3c e617 47be
00000030: cd7d 6abe 4272 b63d 4731 08bd a423 92be
00000040: b2cd b33d 9899 3dbe 38ac ae3a e0a8 493e
00000050: 8862 783d bda5 52bd c33f a63c 0159 86be
00000060: 6bcd 5dbd ff2d 1abd f7e8 0fbd d68c 20be
00000070: 7e52 ddbd ea08 a0be ff4e 0bbd 649b aebd
00000080: 011d 0bbe 8d9b f8bd fc84 c13d 068e 2abe
00000090: 15a7 163d d005 5cbe 55c2 083e 7b96 d23d
000000a0: 4f7e 893e daaf 48be 65b4 7bbe 1109 0a3e
000000b0: 0a90 b63d 5c37 df3b 4ced b43d 610a 37be
000000c0: d817 0fbe 5f4e 653d 6376 c03d 94de 50be
000000d0: e668 6d3e bdec cebc 8148 2a3e 89a0 4e3e
000000e0: 1941 9dbe cc14 ca3d 8936 aabd cc07 04be
000000f0: 0af8 7f3d d65c 7dbd 235e 473e 0b84 96be
00000100: d487 543e c772 f13d b409 3d3e ae58 a63b
00000110: 188c 0fbe 8a6c 613d 1514 b2bc d809 b13d
00000120: 6280 1e3e b78b 4f3d fa7e b93e 9376 8e3d
00000130: e4b4 80bb 7d73 8d3e 3454 2cbe 8879 4ebd
00000140: 6ffd 52bd d7f8 d23c 6e07 7cbd 7413 bbbe
00000150: 9bea c6be b273 abbe 0ad5 aa3d efb8 093d
00000160: e10d 283d 2ba9 563e 4537 8d3e f0f2 443d
00000170: 1a43 84be bb1c 73be efe3 7f3e b396 e8bd
00000180: 18da 8fbd 8180 53be 5a19 8dbe 51eb 433e
00000190: 5525 e5bc 84a8 adbe 52d8 f4bd 9bb2 f7bd
000001a0: 4e17 7b3d 7f4b 13be 8e68 0bbe de2b a4bc
000001b0: a79f b53c 42c1 75be a6a6 7ebd 3ec0 9d3b
000001c0: aaea 48be 6403 d63d bae3 83bd caaf 193c
000001d0: 96f7 5dbb 60bf d4bc c45c 133e 9d94 143c
000001e0: 7a99 04be 9a6a 62be e93d 5b3e 2e5c 2dbe
000001f0: 08f2 adbd be16 103e 3068 19be fe83 813e
00000200: e5a4 01be bff1 f33d 0549 543e 622a ba3d
00000210: b25a 2e3e d83e 203d 3ec0 bcbd ae9d 2cbe
00000220: 5f9e 0a3c c0c2 3c3e 0b1b a73d a438 b0be
00000230: 9e9c 293d 6a84 8abe dc4e 663e 0980 163c
00000240: 54ae 4e3c 0c9b 26be cf0b 10bd 871b 9fbd
00000250: 2d45 c3bb 75d9 273e 9f3d c6bb 6dca 4abe
00000260: aa0a dfbc f389 e53d c5f0 c5be c26a 4bbe
00000270: c302 17bd 2611 51be 99f4 37bd afea fcbb
00000280: b0c9 113d 8057 4dbe 6936 4c3e 57c7 9f3d
00000290: 1cf5 96bd 4d7d 7cbe ffbb d4bd 495a 7d3e
000002a0: e97c 3f3d 8ade 28be 4055 253e 5418 d23e
000002b0: b8d6 a83e d0a8 b23d c9d3 943d 7fbd 5fbc
000002c0: e2df 19be dd27 ee3d b82b 503d b159 a5bd
000002d0: 95f0 363e a89a 0f3e 9b3a 233e eb7e ca3d
000002e0: 3afd 6f3e dbd4 68bd b352 6abe dafa 33be
000002f0: 6e9d 34bd dab2 c43d 701c 4c3e e2bf ffba
00000300: e422 e93e d12d 833c 146a 93bd a73a 03be
00000310: a761 34be cf3f 133e e5ed 923d 689a 4abe
00000320: c897 b63d 9708 a53d 8634 b4be 7ceb 93bc
00000330: 43b8 d0bd 178e acbd cb92 ad3d 4be6 e03c
00000340: 7053 16bd 995e 0abd a39b ffbc 75be 1f3e
00000350: b6c1 d3bd a4ee c83e 2ba5 d8bd 34ef bbbe
00000360: 4ad1 3cbd 8aa6 923c 406f f9bb 14b1 04be
00000370: d8a5 28be 6a2b f9bc 8c39 85bd 561d b6bc
00000380: ff1f 65be 5409 34be 9271 36bd 95f4 29bd
00000390: d696 9c3b bc8d d0bd e09d dcbd dd5a 95be
000003a0: ad05 863d 0ab7 4c3e 0b14 f53c 969d cf3d
000003b0: 0134 71be 177d eabc 32c4 903d 8839 8cbd
000003c0: 8d29 c3bd 93f6 b13d 8a5b 8a3d 5ebe bbbc
000003d0: 4a38 dcbd e028 c3bd 980e 69bb e85c 5cbe
000003e0: 2c45 083e 4671 dd3d b313 ddbd b6d3 cdbd
000003f0: 45e5 2fbe cd5e 8ebd 4561 49bd 89b0 52be
-0.028419398 -0.17103264 -0.021612851 0.3881316 0.27886027 0.2389686 -0.14943993 -0.23408379
-0.00599523 0.40315503 0.009678012 -0.1944271 -0.22899552 0.08908512 -0.03325012 -0.28542817
0.08779468 -0.18515623 0.0013326472 0.19693327 0.06064084 -0.05142759 0.020294076 -0.2623978
-0.05415098 -0.03764152 -0.035134282 -0.15678725 -0.1080675 -0.312568 -0.034010883 -0.08525732
-0.13585283 -0.12139044 0.09449193 -0.1665574 0.036780436 -0.21486592 0.13355382 0.10282608
0.26854178 -0.19598332 -0.24580534 0.13480021 0.08914192 0.0068120193 0.08834323 -0.17875053
-0.1397394 0.055982944 0.093975805 -0.20397407 0.23184547 -0.02525937 0.1662922 0.20178427
-0.30713728 0.09867248 -0.08311183 -0.128936 0.062492408 -0.061856113 0.19469504 -0.29397616
0.2075494 0.1178947 0.18460733 0.0050764894 -0.14018285 0.05503515 -0.021738091 0.08644456
0.15478662 0.05067035 0.36229688 0.0695621 -0.003927814 0.27627173 -0.16828996 -0.05040887
-0.051511224 0.025753422 -0.061530523 -0.3653828 -0.38850865 -0.33486706 0.08341415 0.033623632
0.04102886 0.2096297 0.2758123 0.048083246 -0.25832444 -0.23741429 0.24989294 -0.113568686
-0.0702402 -0.20654489 -0.27558404 0.19132735 -0.027971903 -0.3391763 -0.11955322 -0.12094613
0.061301522 -0.14384268 -0.13614103 -0.020040449 0.022170855 -0.23999503 -0.062170647 0.004814177
-0.19620767 0.104498655 -0.0643992 0.00938029 -0.0033869497 -0.025970161 0.14390856 0.009068635
-0.12949172 -0.22110978 0.21410336 -0.16929695 -0.084934294 0.14071175 -0.1498115 0.25296015
-0.12660559 0.11911344 0.2073098 0.09090115 0.17026785 0.039122432 -0.09216355 -0.16857025
0.00846061 0.18433666 0.08159455 -0.34418213 0.041409127 -0.2705415 0.2249102 0.009185799
0.012614805 -0.16270083 -0.03516751 -0.07768922 -0.005959174 0.16391547 -0.0060498263 -0.19803782
-0.027226765 0.11207952 -0.38660255 -0.19864944 -0.03686787 -0.20416698 -0.044911 -0.007718406
0.035592735 -0.2005291 0.19942631 0.07801693 -0.0737097 -0.24657173 -0.1038742 0.24741472
0.046749983 -0.16491142 0.16145802 0.41034186 0.32976317 0.08723605 0.07266957 -0.013656019
-0.15026811 0.11628697 0.050822943 -0.08073748 0.17865212 0.1402384 0.15940325 0.09887489
0.23436442 -0.05684362 -0.2288311 -0.17576161 -0.04409545 0.09604426 0.19932723 -0.0019512142
0.45534432 0.016013058 -0.07197967 -0.12815343 -0.17615376 0.1437981 0.07174281 -0.19785464
0.08915669 0.08058279 -0.35196322 -0.018056624 -0.10191395 -0.08425539 0.08475264 0.027453562
-0.036700666 -0.03378162 -0.031202143 0.15599997 -0.10339682 0.39244568 -0.10578378 -0.36705935
-0.04609803 0.017901678 -0.007612139 -0.12958175 -0.16469514 -0.03041621 -0.06505117 -0.022230785
-0.22375487 -0.17581683 -0.044541903 -0.041493017 0.004778723 -0.10183284 -0.107723 -0.29170886
0.06544051 0.19991699 0.029916784 0.10137479 -0.23554994 -0.0286241 0.07068671 -0.06846911
-0.095294096 0.086896084 0.06755741 -0.022917923 -0.10752924 -0.09529281 -0.0035561677 -0.21519816
0.13307637 0.10812621 -0.10794773 -0.10050146 -0.17177303 -0.069516756 -0.04916503 -0.20575155

gru.weight_hh_l0 f4 [96, 32]
00000000: 8998 a1be 37a1 8bbe de50 763e 3fbd da3d
00000010: ba28 d2bd 86dd b9bd 68a6 0d3e 8c2e 33be
00000020: 716e 663d 6e7f 32be a05b 203e 901e 6c3e
00000030: 5b74 9b3c 7b86 663e b1b0 20be 3845 9bbd
00000040: 5c38 5abe 6285 adbe 120e 973d 65e8 d93e
00000050: 6a01 66be ffc1 0dbb f253 4d3d c3c7 283d
00000060: 45ac f6bd fc17 1abe 7565 0e3e a63a d5be
00000070: e970 373d e894 41be 726e 233c 44cb dc3d
00000080: 8ea7 93be b07f 6f3e d1b3 353e 0818 6bbd
00000090: d9a9 8a3e 57a1 9bbe df7b 02bc a283 33be
000000a0: d94f 623e 9cd0 04be 7ba7 21be a378 263b
000000b0: b62f 8dbc c4ef 743e 50b5 80bd aa50 3e3e
000000c0: eb89 65bd c873 c8bc 806b 8d3e 9552 1f3e
000000d0: a2bb 80be 045b 03bd 9744 b2bd c9ba 57be
000000e0: 664c b0be fd49 78bd a02c 48bd 6573 afbe
000000f0: a009 2e3e 6a2f efbc a506 a2bd 267e 9cbe
00000100: 3737 5fbe 9fc4 40be 3327 233f 1194 85be
00000110: ac51 abbe 786e cbbd 1bbb b4bc f38b f43c
00000120: 441b f4bd eab4 4bbe 9233 bf3d f6b2 143c
00000130: 6a29 22be 70c2 b5bd bba5 cbbe 78e8 883e
00000140: 15d1 ad3d d2d2 b9be 088c 06be 6f46 fd3d
00000150: f2df 3ebe 932c cfbc 40af 5bbe 3b8a 85be
00000160: 48b5 95bd 0903 12bf fe07 473e cce6 2fbf
00000170: 1067 a3bd f77b 3fbe a450 cf3d 94d1 48be
00000180: 15b1 13be 2a4f 513e 1ab8 063f 0923 a2be
00000190: 4e38 08bd fbfa 993e 312f 3ebe b7bd a43c
000001a0: df3b 4dbd 2737 0bbd 6eb0 4d3e 7274 563e
000001b0: b47f 553d b1a9 8dbe a214 9fbe 494d 57be
000001c0: 13ac 293e cfcb 99bc 8d38 c53e 52c7 2b3e
000001d0: b35f a8be 239f 35bb af0e 063d d104 95be
000001e0: 559a 133d 78c1 b03b e57c 1dbe 9836 bdbe
000001f0: 27c0 2c3e bca9 b6be 8df7 fa3d 8278 6cbe
00000200: 74ac 1dbe 1657 29be 630e 873d c005 0b3d
00000210: aed0 99bd a664 c3be 220b 1dbe b021 e5bd
00000220: a323 15be 6620 a4be 802a 0ebd be71 06be
00000230: 5006 e6bc ea4f 093e 687e 8b3d c42d 36bd
00000240: 6e21 393e 42b3 813c 3953 863d 28ce 2cbe
00000250: dd57 b9bd b148 b73d 8ad0 313e 47a3 85be
00000260: d222 203e 4e2b 363c d821 ccbd b08f b23b
00000270: 4393 dfbe 6c7d 7abd 676b d4bd ce9e 9bbd
00000280: e45c b93d d333 183e c147 c4bc 0b29 b33e
00000290: 6224 0f3e 4644 29be 475e b3bd b8a1 473d
000002a0: 37ea 5a3e 1c63 26be 6dc8 05be 5a7d 9bbe
000002b0: 2aad ecbd a9b1 763e 16bf afbd 8e95 e9bd
000002c0: 30ac c8be 57cb 613e 7f63 8dbd 742e 06be
000002d0: bec1 29be c1f4 57bc 62de 513e 3b9f ffbd
000002e0: 455c 24be 677f dabd 605a 853d c9b7 ccbd
000002f0: e414 1fbd 45ac 92be 2554 96be 70a4 dd3d
00000300: d732 353e 996d 9a3d 0e41 993d 0f75 9e3e
00000310: 8338 b53e a869 8ebd 2d3f a4be 51ff 4a3e
00000320: 0a33 ca3e 582d ca3e d343 c4be b69b a9be
00000330: df0d cabd 2ee3 82be bebf ea3d b340 01be
00000340: e04d 1c3d 4155 bf3e 3146 053e b535 c1bd
00000350: d9da e63d 2e78 883d a5da dc3d a36a f1bd
00000360: 2bbb 03be abfb ec3b fe76 30be 4f44 8f3e
00000370: cf4c 033f 5f52 3ebe 0e82 34be 885f b7bd
00000380: ff6f a5be 4029 723e a676 043f ecaa 24be
00000390: 972f 80be 1f85 70be 8d02 57be 7f07 3a3e
000003a0: 8b37 ae3d 580e c43d 2363 3c3e 2f02 563e
000003b0: 6bbe 883d 11b5 263e e5dd 63be 47c3 623e
000003c0: a49f e3bb 29cc fbbd b4e1 0d3d f8cb 213d
000003d0: c5b4 9bbe 0728 a6bc da09 43be 8a13 1a3e
000003e0: 3231 e63c c1ea 90be b419 0ebe c9fc eebe
000003f0: 55af d43d 4094 203c c3fc 773d fe2f 40be
-0.31561688 -0.27271435 0.24054286 0.10680627 -0.10261674 -0.09075455 0.1383301 -0.17498225
0.05625767 -0.17431423 0.15659952 0.23058534 0.018976381 0.22512238 -0.15692402 -0.07581562
-0.21310562 -0.33890826 0.073757306 0.42560115 -0.22461477 -0.0021630523 0.050128885 0.041206133
-0.120445766 -0.15048212 0.1390589 -0.41646308 0.044785414 -0.1890446 0.009975063 0.10780957
-0.28838772 0.23388553 0.17744376 -0.057395965 0.27082708 -0.3039653 -0.0079641035 -0.17530683
0.22100772 -0.12970203 -0.15786545 0.0025401495 -0.017234664 0.23919588 -0.062845826 0.18585458
-0.056039732 -0.024469271 0.27621078 0.15558846 -0.25143152 -0.03206922 -0.08704489 -0.21067347
-0.34433287 -0.060617436 -0.048870683 -0.34267727 0.16995859 -0.029197413 -0.079114236 -0.30564994
-0.21798407 -0.18825005 0.6373169 -0.26089528 -0.33460748 -0.099331796 -0.022061875 0.02985189
-0.11919263 -0.19893232 0.09336008 0.009075871 -0.1583611 -0.08874977 -0.3977488 0.2673986
0.08487145 -0.36293656 -0.13139355 0.1236695 -0.18640116 -0.02528981 -0.21453571 -0.26082024
-0.07309967 -0.5703588 0.19436643 -0.68711543 -0.07978642 -0.18699633 0.10122803 -0.19611198
-0.1442302 0.20440355 0.52624667 -0.31667355 -0.03325682 0.30074295 -0.1857269 0.020109994
-0.050105926 -0.033988144 0.20086834 0.20942858 0.05212374 -0.27668527 -0.3107043 -0.21025576
0.16569547 -0.018773941 0.38519707 0.16775253 -0.32885513 -0.002771326 0.032728847 -0.29105237
0.036035854 0.005394157 -0.15379675 -0.36955714 0.16870175 -0.35676372 0.12254248 -0.23092845
-0.15397817 -0.16537127 0.06594541 0.03394103 -0.075105056 -0.38162726 -0.15336278 -0.11188066
-0.14564376 -0.32055968 -0.0347085 -0.13129327 -0.028079182 0.13409391 0.068112195 -0.04447724
0.18079159 0.015832547 0.06558842 -0.16875517 -0.09049962 0.08949412 0.17364708 -0.26101133
0.15638283 0.011118723 -0.09967393 0.005449258 -0.4366704 -0.061154768 -0.10372048 -0.07598649
0.090509206 0.1486352 -0.023959996 0.3499225 0.13978723 -0.1652995 -0.08758216 0.04873821
0.21378408 -0.16248745 -0.13064738 -0.30369073 -0.11556466 0.2409121 -0.085813686 -0.114054784
-0.3919387 0.22050224 -0.06903743 -0.13103658 -0.16577813 -0.0131809125 0.20494989 -0.12481543
-0.16050823 -0.10668831 0.06511378 -0.09995992 -0.038838282 -0.28647056 -0.29361072 0.108223796
0.17695175 0.07540435 0.07483111 0.30948684 0.35394678 -0.06953746 -0.3207945 0.19823958
0.39492065 0.3948772 -0.38332996 -0.3312661 -0.09865927 -0.2556395 0.11462353 -0.12622337
0.038160205 0.3736973 0.13015057 -0.09434072 0.11272211 0.066635475 0.10783891 -0.117879175
-0.12864368 0.0072321496 -0.17232892 0.27981803 0.51289076 -0.1858611 -0.17627737 -0.08953768
-0.3231201 0.23648548 0.51743543 -0.16080827 -0.25036308 -0.23488282 -0.20997067 0.18166922
0.08506688 0.09573048 0.18397193 0.2089927 0.06676944 0.16280009 -0.22252615 0.22144805
-0.006946521 -0.122948 0.034639075 0.03950116 -0.30411354 -0.020282758 -0.19046727 0.15046516
0.02809963 -0.28304103 -0.13876992 -0.46677235 0.103850044 0.009800971 0.060543787 -0.18768308

gru.bias_ih_l0 f4 [96]
00000000: 862f 323e baca 703e 2050 033e 2e19 203d
00000010: a5b8 253f a532 613d 1735 b2be cfff 443e
00000020: fde3 b03e 915e 193e ec6c 9c3e f610 0c3e
00000030: 6038 e43b 5974 4b3e 5438 1b3e 8aa8 113e
00000040: 2de3 b0be b0c6 ea3e a4b3 e2bd eb07 d6bd
00000050: 73e8 933d 08e0 5d3d eabc c53e 3a76 a33d
00000060: 9438 923c 33d8 c73e 2841 d43e 3d4b a53e
00000070: a931 e2bd b22d 7e3d 3c1d 08be 048a ce3d
00000080: 549f a7bc ba59 0fbf 8c9c 1ebe 1929 0abe
00000090: e2c3 31bf 856a 27bf 5ddd c3be cfac 0abf
000000a0: e774 02bf aa20 37bf 4ed3 abbe 00eb 8dbe
000000b0: e4f6 1bbf be42 1bbf 45c8 56be bfa2 cabe
000000c0: de5c 15bf 5318 88bf 1747 26bf 1fc4 37bf
000000d0: d419 00bf f452 00bf 7cbc 8bbe 48dd 65bf
000000e0: 873c f3be dbdf 1cbf d96e f1be 1e65 b9be
000000f0: bd49 c1be 9b6d bdbe 9793 e5be 13b0 97bd
00000100: 4bba 4b3d 080c eebd a1ae e3be b8d5 95be
00000110: 9c6c 763e 3e01 e13d adce 903e 9aa3 c2be
00000120: 5b60 65be ce97 ab3d 2743 a2bd 10d8 a73d
00000130: ac41 f4ba 11be 0fbd b559 2dbd de16 abbb
00000140: f175 153d 8814 18bf 965e b6be a22e 023e
00000150: c77d c33e ffd7 c6bd 7d1f c2be 54ab 643d
00000160: 7cc5 80bd cf12 cd3d f9fa 053f 925a 033f
00000170: 4555 dc3d e24d 6e3e 6033 9a3c a4e7 3f3d
0.17400941 0.23514834 0.12823534 0.039086513 0.6473487 0.05497994 -0.3480613 0.19238208
0.3454894 0.1497748 0.3055185 0.13678345 0.0069647282 0.19868602 0.15158206 0.14224449
-0.3454832 0.45854712 -0.1106942 -0.10450729 0.072220705 0.05416873 0.38620692 0.07981534
0.017849244 0.39032134 0.4145596 0.32283965 -0.11044628 0.062055297 -0.13292402 0.10084918
-0.020461716 -0.55996287 -0.15489405 -0.1349224 -0.6943952 -0.6539691 -0.38254824 -0.54169935
-0.5095963 -0.71534216 -0.3355965 -0.27718353 -0.609236 -0.60648715 -0.20974834 -0.3957729
-0.5834483 -1.0632423 -0.64952224 -0.7178363 -0.5003941 -0.50126576 -0.2729224 -0.89790773
-0.47507116 -0.61279076 -0.47154883 -0.3620996 -0.3775157 -0.36997685 -0.44839165 -0.0740663
0.04973821 -0.116233885 -0.4446917 -0.29264617 0.24064869 0.10986565 0.2828268 -0.38015443
-0.22400038 0.08378564 -0.079229645 0.081955075 -0.0018635294 -0.03509337 -0.04232188 -0.005221232
0.03648943 -0.5940633 -0.35619038 0.12713102 0.38181898 -0.09709167 -0.3791465 0.055827454
-0.06287667 0.10013353 0.5233608 0.51310074 0.10758451 0.23271897 0.018823326 0.04685177

gru.bias_hh_l0 f4 [96]
00000000: 20c4 363d df24 923e 24cd e73d 7545 2a3e
00000010: b8ce 003f bff8 6e3c 0bb9 a0be 5596 5f3e
00000020: ddb2 9c3e b9c0 99bd ae89 fd3e da9f f43d
00000030: 6bbb ec3d b641 4c3e b6b5 0e3e a343 9e3d
00000040: 4d07 96be 5a33 cf3e 741d 15be 19a7 56be
00000050: defe cdbc 5c11 f33d ccbe d03e 2b19 46bc
00000060: f237 24bd cba2 c53e b093 6f3e 678a f83e
00000070: 870a 113e 1281 dabd f175 5bbe 3723 943d
00000080: c2c1 90be bc7c 0dbf fbae b6be f104 31be
00000090: a555 32bf 7ff0 12bf c8cf b7be 1b8d c5be
000000a0: e7b7 0abf c191 31bf 727a 10bf 1d5b 89be
000000b0: c917 43bf 749e 31bf b516 95be 6ae3 b0be
000000c0: 99ae 14bf 0283 86bf 4070 05bf fa70 16bf
000000d0: 1920 afbe f59e d9be 9595 8cbe 9f64 39bf
000000e0: 6173 f1be 6094 ebbe 38e1 06bf e918 f2be
000000f0: 79eb b1be bacb cabe 1f55 fcbe 1c5c 1bbe
00000100: d8e3 073e 0608 fc3b ffd8 2ebe 0ee1 acbe
00000110: d450 8f3d ae42 88bd 6994 0c3e 1f8f 45bd
00000120: a8ce 1ebf efa8 14bf 6785 cdbb 98a7 073e
00000130: 8691 443d 5c70 cc3d 6120 38bd 913a 10be
00000140: 159b c9bd 5c06 40bf 8c2c e5be e580 85be
00000150: 3ff9 1a3e 9e42 d63b 6ccb 6bbf 9108 883e
00000160: 454e 2d3f c4ff 653e 4a04 0f3f 63c0 f13e
00000170: aaf1 c53b 8fdf e93e 4494 103e d112 69be
0.044620633 0.28543755 0.11318424 0.16628058 0.5031543 0.014585673 -0.31391177 0.21834691
0.30605212 -0.07507462 0.49519104 0.11944552 0.11559185 0.19946942 0.13936505 0.077277444
-0.29302445 0.40468866 -0.14562017 -0.2096218 -0.025145944 0.118685454 0.40770566 -0.012090961
-0.040092416 0.38600764 0.23396182 0.48543093 0.14164172 -0.106691495 -0.2143171 0.07233279
-0.28272825 -0.55268455 -0.35680375 -0.17287041 -0.69661933 -0.5739822 -0.35900712 -0.38584217
-0.5418686 -0.6936303 -0.56436837 -0.26827326 -0.7620817 -0.69382405 -0.29118887 -0.34548503
-0.58078915 -1.050873 -0.52124405 -0.5876614 -0.34204176 -0.42504087 -0.27457872 -0.7241916
-0.4715834 -0.4601164 -0.52687407 -0.4728463 -0.34749964 -0.39608556 -0.49283692 -0.15171856
0.13270509 0.007691386 -0.17074965 -0.33765453 0.069978386 -0.06653343 0.13728489 -0.048232194
-0.6203408 -0.5807027 -0.0062720063 0.13247526 0.047990344 0.09982368 -0.044952754 -0.14084841
-0.09844033 -0.75009704 -0.4476055 -0.260749 0.15134142 0.006538703 -0.9210727 0.26569036
0.67697555 0.22460848 0.5586592 0.47217092 0.0060407715 0.45678374 0.14119059 -0.22761084
