modules/prn_gen/exp/id/models/bigram/train+val-decoder-wdecay_1e_5-attn_dot-emb_64-hddn_32-layers_1-epoch_94.pth (torch, 71584 bytes, 7 tensors)

embedding.weight f4 [36, 64]
1.0331311 -0.5719329 0.27153176 0.18152362 -3.1546721 0.38039815 -0.8101103 -1.6702348
0.29836303 -0.49912357 -0.1609357 -0.3231571 0.37543476 1.0233766 -1.5029294 -0.019406747
0.4038776 0.86959344 0.059448108 0.02969295 0.5062608 1.3215522 0.101632714 0.10083671
0.19669685 0.9271308 0.17454067 0.95187014 0.031778757 0.8022993 1.6088161 -1.7688066
-0.44642317 -0.6035211 -1.1477357 0.45825717 0.16643025 0.633079 -0.027874522 0.82310116
0.81993705 -0.08037743 -0.39551583 -1.1392229 -1.0695325 -0.2347938 0.024042599 -0.23205575
0.40883037 -1.8740963 1.0101079 1.1625837 -0.08112342 -0.005712499 -0.32101575 -0.6956957
-1.441261 -0.15170704 0.8475081 -0.02186576 -0.014247414 0.120726034 1.1111965 0.82374877
0.6417501 0.5509014 0.7408263 0.13648963 0.031023499 -0.20144808 0.398576 0.5232258
0.37483922 0.20852762 0.6934183 1.0883957 -0.59563255 0.04393889 1.1532986 -0.038695615
-0.8293269 -0.46238163 0.52116054 -0.1242291 -0.37778574 0.7101749 0.34888804 -0.26245987
0.68810815 -0.5495268 -0.52967197 -0.9233556 -0.42015076 0.6899731 0.3530709 0.5384614
0.6734538 -0.19010961 -0.023553792 0.16877691 -0.48209536 1.1629205 0.41972628 -0.17733906
0.62798965 -0.3376215 -0.60081756 0.5609502 0.8035389 -0.10917624 1.1215681 0.76865333
-0.11234743 -0.09762621 0.14047949 0.54871005 -0.48661476 -0.5924911 -0.0021859275 -0.6546997
-0.8506547 0.10010437 0.33140266 0.30882114 0.019422578 0.4709705 0.29958043 -0.14272504
4.94646e-40 4.91096e-40 -4.94287e-40 -4.9316e-40 -4.92779e-40 -4.92301e-40 -4.94616e-40 -6.12587e-40
-4.91744e-40 4.94843e-40 -4.90908e-40 -4.91856e-40 -6.03e-40 4.92883e-40 -4.92104e-40 -4.91329e-40
4.94155e-40 -4.91309e-40 4.90525e-40 4.92254e-40 4.90838e-40 4.91857e-40 4.92607e-40 4.9227e-40
-4.93271e-40 4.93932e-40 4.90715e-40 -4.90459e-40 4.92449e-40 4.9448e-40 -4.90931e-40 4.91213e-40
4.91304e-40 4.94406e-40 -4.93408e-40 4.94221e-40 -4.92122e-40 4.93712e-40 4.91465e-40 4.92904e-40
-4.91442e-40 -4.95018e-40 4.90478e-40 4.90872e-40 4.95412e-40 -5.70446e-40 4.92465e-40 -4.95352e-40
-4.90674e-40 -6.29999e-40 -4.91539e-40 -4.93261e-40 -4.90746e-40 -4.93631e-40 4.94131e-40 -4.9426e-40
-4.94011e-40 -5.11027e-40 4.92032e-40 4.90866e-40 4.93875e-40 -4.91615e-40 -4.9192e-40 -4.95237e-40
-0.35632697 -0.44651768 0.1702653 0.36079475 -0.47376713 -0.13225362 0.56246173 -0.310882
0.49770033 -1.7833143 0.9349583 -0.10049017 0.5166412 0.085530005 -0.23081864 -0.43953004
-0.097127944 -0.2541796 0.103378266 -0.14776716 -1.0202525 -0.12544394 0.5753454 0.90252084
1.2410543 0.102534786 -0.07152031 -0.276455 0.461172 0.23334183 0.2444735 -0.564187
0.08614606 -1.9249301 0.58086246 -0.30080345 -0.46013105 0.21555665 -0.62451893 1.8669808
0.037331678 -0.015298228 1.3694769 0.25678176 -0.53877395 0.9220351 1.1269205 0.24381873
-0.66029066 0.8001602 0.85502434 -0.9186902 0.47499013 -0.0021499356 -0.63148755 0.63292927
-0.43309662 -0.08209056 0.48165327 0.30971685 0.32248434 -0.22829439 -0.105330504 -0.53773856
00000000: a43d 843f 326a 12bf 3606 8b3e 54e1 393e
00000010: 26e6 49c0 8cc3 c23e 6363 4fbf 41ca d5bf
00000020: 0ac3 983e 208d ffbe 54cc 24be d974 a5be
00000030: fc38 c03e 01fe 823f fe5f c0bf e6fa 9ebc
00000040: 0bc9 ce3e ad9d 5e3f dc7f 733d a13e f33c
00000050: 4f9a 013f 9f28 a93f d024 d03d 7a83 ce3d
00000060: e66a 493e 7258 6d3f caba 323e c3ad 733f
00000070: 712a 023d 7d63 4d3f b0ed cd3f 4168 e2bf
00000080: 9491 e4be 5c80 1abf 01e9 92bf afa0 ea3e
00000090: b16c 2a3e 7711 223f 1c59 e4bc c2b6 523f
000000a0: 65e7 513f ec9c a4bd 0d81 cabe 0ed2 91bf
000000b0: 71e6 88bf c96d 70be fcf4 c43c 06a0 6dbe
000000c0: 3752 d13e 63e2 efbf 374b 813f 8bcf 943f
000000d0: 0924 a6bd ea2f bbbb 2d5c a4be 1d19 32bf
000000e0: 3e7b b8bf 1759 1bbe 4af6 583f d31f b3bc
000000f0: fc6d 69bc 363f f73d b03b 8e3f 33e1 523f
00000100: bc49 243f e007 0d3f cba6 3d3f f0c3 0b3e
00000110: fe24 fe3c 6848 4ebe 2712 cc3e 20f2 053f
00000120: edea bf3e 4488 553e dd83 313f 8d50 8b3f
00000130: 607b 18bf 44f9 333d 4a9f 933f 4b7f 1ebd
00000140: c54e 54bf 49bd ecbe c76a 053f d46b febd
00000150: 226d c1be 06ce 353f 74a1 b23e 2461 86be
00000160: db27 303f caad 0cbf 9598 07bf 0861 6cbf
00000170: 001e d7be 14a2 303f b6c5 b43e 9bd8 093f
00000180: 7867 2c3f 18ac 42be e2f3 c0bc dbd3 2c3e
00000190: 34d5 f6be 94da 943f 5de6 d63e 5f98 35be
000001a0: eec3 203f badc acbe 2ecf 19bf 6f9a 0f3f
000001b0: bab4 4d3f cb97 dfbd 8b8f 8f3f 77c6 443f
000001c0: 6916 e6bd 40f0 c7bd dbd9 0f3e 4378 0c3f
000001d0: 9225 f9be 7fad 17bf c741 0fbb 669a 27bf
000001e0: 82c4 59bf 8503 cd3d 9cad a93e ce1d 9e3e
000001f0: 191c 9f3c 0c23 f13e 9b62 993e 8326 12be
00000200: df62 0500 fa58 0500 df61 0580 bb5e 0580
00000210: ab5d 0580 565c 0580 ca62 0580 a5ab 0680
00000220: c85a 0580 6c63 0500 7458 0580 185b 0580
00000230: eb90 0680 f55d 0500 c95b 0580 a059 0580
00000240: 8161 0500 9259 0580 6257 0500 345c 0500
00000250: 4258 0500 195b 0500 305d 0500 405c 0500
00000260: 0a5f 0580 e260 0500 ea57 0500 3357 0580
00000270: bf5c 0500 6962 0500 8458 0580 4d59 0500
00000280: 8e59 0500 3462 0500 6c5f 0580 b061 0500
00000290: d65b 0580 4560 0500 015a 0500 045e 0500
000002a0: f159 0580 e963 0580 4157 0500 5a58 0500
000002b0: 0265 0500 2c36 0680 cb5c 0500 d764 0580
000002c0: cd57 0580 2edc 0680 365a 0580 035f 0580
000002d0: 0058 0580 0b60 0580 7061 0500 cc61 0580
000002e0: 1a61 0580 8990 0580 965b 0500 5658 0500
000002f0: b960 0500 6c5a 0580 465b 0580 8564 0580
00000300: 7d70 b6be f79d e4be 075a 2e3e 17ba b83e
00000310: 9b91 f2be 7e6d 07be 7efd 0f3f ed2b 9fbe
00000320: 94d2 fe3e a543 e4bf 6d59 6f3f cacd cdbd
00000330: 9942 043f 5b2a af3d b95b 6cbe 150a e1be
00000340: 04eb c6bd d423 82be fcb7 d33d 4650 17be
00000350: a297 82bf 6074 00be d649 133f 9b0b 673f
00000360: deda 9e3f c2fd d13d 3e79 92bd 828b 8dbe
00000370: bd1e ec3e 29f1 6e3e 4357 7a3e 8f6e 10bf
00000380: 586d b03d 1c64 f6bf 67b3 143f e902 9abe
00000390: 4c96 ebbe e2ba 5c3e 79e0 1fbf 3af9 ee3f
000003a0: 1ae9 183d 6ba5 7abc 054b af3f e678 833e
000003b0: 17ed 09bf 7e0a 6c3f ee3e 903f 9eab 793e
000003c0: cf08 29bf 4dd7 4c3f e0e2 5a3f 482f 6bbf
000003d0: e831 f33e efe5 0cbb 2ba9 21bf a707 223f
000003e0: d7be ddbe 181f a8bd 429b f63e 3593 9e3e
000003f0: ab1c a53e 01c6 69be 85b7 d7bd 3ca9 09bf

gru.weight_ih_l0 f4 [96, 96]
0.26685774 0.02105501 -0.019773342 -0.072967686 -0.24295452 0.02812059 0.14414777 -0.0011219335
0.06819459 -0.19783618 0.07499784 0.020211017 0.097886525 -0.18954615 0.1842103 -0.02568919
-0.025466984 0.13355002 0.12905923 0.09373821 -0.063649066 0.14967884 -0.16895488 0.15254787
-0.00466771 -0.07991702 -0.01401515 0.01608432 0.15373035 -0.039902695 0.18723865 0.03253031
0.06571837 -0.11013859 -0.1928153 0.26085606 -0.03278132 0.06941398 -0.01863247 -0.05299602
0.21571091 -0.18082082 -0.10254971 -0.122552596 0.061341275 -0.018960392 -0.072883934 0.043558516
0.076810926 -0.019933572 -0.16777538 -0.040418964 0.03010455 -0.012034646 -0.010934997 0.13172305
-0.0025220518 0.1426555 0.10339613 -0.166416 -0.19882397 0.0935956 -0.03490766 -0.2527812
-0.01397384 -0.44419032 -0.17583334 0.118966594 0.02544456 -0.19153714 -0.18377937 -0.21107413
0.035345133 0.03640643 -0.0064464672 0.19238898 0.19618551 -0.0064902506 -0.2505815 -0.05687737
-0.15848398 0.07552109 0.43811876 0.050513305 -0.27586168 -0.14556783 -0.1632178 0.1845164
-0.36414883 0.1015095 0.08137384 0.053437702 -0.15490481 -0.03446411 -0.26697984 0.025536323
0.117487326 0.1502285 0.13413025 -0.03496909 0.0052466006 -0.12050026 0.03122095 -0.18101777
-0.07902837 -0.1893558 0.00010687148 -0.015351323 0.052646086 -0.027723752 -0.20288013 -0.028518131
-0.13640562 -0.08653237 -0.05221481 0.053846523 0.085637175 -0.05772531 -0.029289352 0.119111836
0.09364283 0.056231923 0.03799106 -0.16284578 0.22246572 0.07360973 -0.0257184 -0.12159064
0.0054842276 0.056261677 -0.18839405 0.071532965 0.019971851 0.10152097 0.12954016 -0.047030184
0.043667216 -0.102466576 0.0019947307 0.017318495 -0.022897277 -0.017162684 -0.115868405 -0.2307044
-0.007719211 -0.20668535 0.1076294 0.0018007236 0.17431127 -0.020794548 0.1551528 0.04828086
0.07814836 0.11025991 -0.06990603 0.033495188 -0.10807194 -0.081270784 0.020522881 0.15970935
0.10446757 0.0057513425 -0.014091954 -0.013740808 0.18190582 -0.21355654 0.12685388 -0.2618607
-0.04936832 -0.0037596112 0.107711084 -0.014274943 -0.27582762 0.17714283 0.23920786 -0.15135454
-0.17813112 0.04413601 0.00782894 -0.06041645 0.2925154 0.1973529 -0.28004915 -0.0014273075
0.00959382 -0.00082961883 0.26113045 0.14062805 -0.0025734624 -0.041834358 -0.13975202 0.07979424
0.014031287 -0.045043014 0.13634017 0.039566793 -0.2985566 -0.21360965 0.0129924305 -0.1628304
0.24311998 -0.26253483 0.03571744 0.08025419 0.068501875 0.022075525 0.016871562 -0.04245124
0.16548882 -0.07504736 -0.032235134 -0.07554939 -0.22807582 0.019573333 0.14630689 0.26392087
0.13154706 -0.15552403 -0.06729957 -0.25045073 -0.20278248 0.115967974 0.085473046 0.11927512
0.08773608 -0.28509974 0.055200525 0.08290956 -0.09699222 -0.18394925 -0.12166158 0.17471416
0.3320015 0.124028005 0.21582234 -0.08376583 0.009359164 -0.13310318 0.054745317 0.105368435
0.024512507 -0.001943343 0.11032787 0.10886179 0.32184336 -0.001052143 0.24106945 0.0050395695
-0.15794875 0.20206581 -0.07886256 0.21499835 0.17169075 0.05197868 0.21432203 -0.083174296
00000000: 94a1 883e 8e7b ac3c b4fb a1bc 1570 95bd
00000010: 12c9 78be 275d e63c 799b 133e d70d 93ba
00000020: 9ba9 8b3d 9195 4abe 7898 993d 9391 a53c
00000030: bb78 c83d 6318 42be a0a1 3c3e 2372 d2bc
00000040: 23a0 d0bc 56c1 083e 1a28 043e d2f9 bf3d
00000050: 715a 82bd 6945 193e 8202 2dbe 8235 1c3e
00000060: 97f3 98bb 89ab a3bd cd9f 65bc 44c3 833c
00000070: 7d6b 1d3e 0271 23bd 7dbb 3f3e 813e 053d
00000080: 5a97 863d 5790 e1bd 6071 45be ed8e 853e
00000090: b545 06bd eb28 8e3d 1fa3 98bc 5b12 59bd
000000a0: 52e3 5c3e 1829 39be 9505 d2bd dbfc fabd
000000b0: fd40 7b3d d352 9bbc 2c44 95bd 6a6a 323d
000000c0: 0c4f 9d3d bb4b a3bc 4fcd 2bbe 5b8e 25bd
000000d0: d19d f63c f72c 45bc b428 33bc 68e2 063e
000000e0: 0249 25bb 4914 123e 5ac1 d33d f568 2abe
000000f0: 8398 4bbe 0daf bf3d 56fb 0ebd 8a6c 81be
00000100: 88f2 64bc ea6c e3be a80d 34be c2a4 f33d
00000110: 1c71 d03c 5022 44be a930 3cbe d123 58be
00000120: 0fc6 103d e91e 153d e33c d3bb 9e01 453e
00000130: dbe4 483e 2bac d4bb 384c 80be 3ff8 68bd
00000140: a049 22be cdaa 9a3d 1a51 e03e 0ae7 4e3d
00000150: be3d 8dbe bc0f 15be 9122 27be def1 3c3e
00000160: b771 babe 36e4 cf3d 54a7 a63d 7ee1 5a3d
00000170: 5e9f 1ebe 3d2a 0dbd 95b1 88be 8d31 d13c
00000180: 329d f03d 80d5 193e 7159 093e c03b 0fbd
00000190: adeb ab3b d7c8 f6bd 14c3 ff3c b95c 39be
000001a0: a0d9 a1bd 7de6 41be 3020 e038 1e84 7bbc
000001b0: 6ca3 573d ec1c e3bc cfbf 4fbe db9e e9bc
000001c0: eaad 0bbe e237 b1bd 32df 55bd 2c8e 5c3d
000001d0: 8b62 af3d 6071 6cbd 39f0 efbc e8f0 f33d
000001e0: d0c7 bf3d 7253 663d 849c 1b3d 0bc1 26be
000001f0: 0ece 633e b3c0 963d 65af d2bc 8304 f9bd
00000200: 09b5 b33b a572 663d 5fea 40be e07f 923d
00000210: 029c a33c 3aea cf3d 2da6 043e b9a2 40bd
00000220: 65dc 323d ffd9 d1bd 07ba 023b 84df 8d3c
00000230: 1293 bbbc c298 8cbc 6a4c edbd c63d 6cbe
00000240: 6ff1 fcbb 53a5 53be ce6c dc3d 4206 ec3a
00000250: a77e 323e 5459 aabc 60e0 1e3e 27c2 453d
00000260: 3f0c a03d f3cf e13d e52a 8fbd 4032 093d
00000270: d254 ddbd 4c71 a6bd 9a1f a83c d98a 233e
00000280: 18f3 d53d c275 bc3b f0e1 66bc 2021 61bc
00000290: 8545 3a3e 91ae 5abe fce5 013e 9b12 86be
000002a0: 6f36 4abd cf63 76bb a197 dc3d 73e1 69bc
000002b0: 4739 8dbe ee64 353e e8f2 743e affc 1abe
000002c0: 0168 36be f6c7 343d f444 003c 3d77 77bd
000002d0: 94c4 953e e116 4a3e 9a62 8fbe 7e14 bbba
000002e0: 662f 1d3c c77a 59ba e4b2 853e cd00 103e
000002f0: 89a7 28bb 815a 2bbd 271b 0fbe 2a6b a33d
00000300: 7ce3 653c 067f 38bd c29c 0b3e ca10 223d
00000310: 69dc 98be 7dbc 5abe 34de 543c 03bd 26be
00000320: 72f4 783e f76a 86be 734c 123d 4f5c a43d
00000330: b64a 8c3d bbd7 b43c 3b36 8a3c 5ae1 2dbd
00000340: e775 293e 6eb2 99bd fd08 04bd a3b9 9abd
00000350: b58c 69be 4158 a03c 79d1 153e a320 873e
00000360: 46b4 063e b141 1fbe 5bd4 89bd 143b 80be
00000370: 36a6 4fbe 9e80 ed3d 7e0c af3d 8446 f43d
00000380: f9ae b33d 98f8 91be f219 623d 7dcc a93d
00000390: dba3 c6bd 315d 3cbe b529 f9bd 45e8 323e
000003a0: 1afc a93e 6502 fe3d 8800 5d3e 6b8d abbd
000003b0: 2e57 193c 334c 08be a03c 603d 68cb d73d
000003c0: 74ce c83c c5b7 feba 94f3 e13d eef2 de3d
000003d0: a7c8 a43e 10e8 89ba e9da 763e f922 a53b
000003e0: 51bd 21be 57ea 4e3e b282 a1bd 8728 5c3e
000003f0: b3cf 2f3e 99e7 543d 3c77 5b3e 4957 aabd

gru.weight_hh_l0 f4 [96, 32]
0.10248413 -0.08457467 -0.20900154 -0.06827467 0.04516706 0.27526364 -0.09610061 -0.20513955
-0.30443048 0.17380677 -0.10451884 -0.053352416 0.01740879 -0.28965202 -0.0028480159 -0.18891113
0.011141369 0.0085283285 0.1818779 -0.021078402 -0.05630935 0.024061633 -0.06554763 -0.112864666
0.18514234 0.33905464 0.010101832 0.018845795 0.0033272805 0.0021356004 0.054142103 -0.080449775
0.136637 -0.11221168 -0.11380911 0.13584733 0.1992606 -0.0414687 -0.1992333 0.01288878
-0.35755813 -0.42871857 0.002523368 -0.045185577 -0.15327507 0.27834338 0.04036309 -0.034433994
-0.10989103 0.0133019155 0.058828484 -0.016925229 0.1903748 -0.10027913 -0.14762697 -0.21986526
0.11125772 0.13132612 -0.09957555 0.24402843 0.014113165 -0.06872043 -0.08959454 0.10404672
0.0028379944 -0.08443616 -0.1799581 0.020482862 0.32509857 0.07901265 0.124099724 -0.0623961
-0.006449455 0.061980322 -0.21675566 0.03515184 0.019612798 -0.20750459 -0.007757307 -0.30183983
-0.0354638 0.18100834 0.090700686 -0.06399249 0.14764868 0.023509061 0.02409018 -0.019949358
0.09501967 -0.0064756353 0.06138988 0.1433772 0.13503575 -0.080022864 0.06703658 -0.107802436
0.074839294 -0.16711919 -0.06140765 -0.072026215 0.0075161736 -0.032568622 0.04999627 0.025690038
-0.024718387 0.14137933 0.06019453 0.07688419 -0.035827033 0.1576597 0.1412808 0.06281153
0.10385171 -0.17623982 0.028689062 0.081419475 -0.016812982 -0.03885343 -0.060194712 -0.17636794
0.2640722 0.1497709 0.08764787 0.11244055 -0.07586675 -0.010993016 0.058786992 0.055919293
0.06943092 -0.03357166 0.022787815 0.06515489 -0.1022001 0.034986157 0.12506138 -0.14928354
-0.021715472 -0.23233 0.042450696 -0.09262644 -0.12028311 -0.14290164 0.05422059 0.06336565
-0.1399216 0.15861303 0.00081096054 -0.22482209 0.11095692 0.23338975 -0.14117712 0.09943121
-0.04771296 0.17038788 -0.025405852 -0.02992966 0.04801476 -0.0073676854 -0.017389502 0.13681497
0.43634647 -0.14241908 -0.20765997 0.14238788 0.3324939 -0.27205062 -0.03955067 -0.15674414
-0.12522854 0.07720462 -0.18744008 -0.040276688 0.10914083 0.2416426 -0.060755458 -0.046903428
0.052759085 -0.09563295 0.034751866 0.098905124 0.07347332 -0.25193608 0.11740234 -0.0665677
0.07459589 0.24032974 -0.09380071 -0.022100413 -0.02094564 0.00983794 0.3536906 -0.13757314
0.20745707 -0.14289585 0.008135512 0.19185813 0.105304584 -0.10305112 -0.2441954 -0.27202377
0.1978268 -0.11246875 0.0063063684 0.023241071 0.19192101 0.21234106 -0.02094516 0.066695064
0.20708199 0.011157787 -0.053223137 -0.28031674 0.13830651 -0.054175436 -0.090259746 0.0034358024
0.054246508 0.33212608 -0.15134558 0.05174514 0.11100811 -0.16755703 -0.06482787 0.034529578
-0.0037202518 0.010970721 -0.250486 -0.15848342 -0.25368622 0.038565524 -0.14703925 0.07735882
-0.0037703593 0.05296838 0.4485636 0.11737044 -0.09404434 0.26489985 -0.016009657 -0.14429677
0.25252077 -0.12479807 0.031104695 -0.079962164 0.1520359 0.014398156 0.0506409 0.15374428
0.16534808 0.07949304 -0.30618992 0.3968955 0.30209026 -0.10890446 0.1906261 0.18031457
00000000: 33e3 d13d 7c35 adbd 8004 56be 97d3 8bbd
00000010: 1801 393d 5bef 8c3e 66d0 c4bd 1a10 52be
00000020: 50de 9bbe 67fa 313e f90d d6bd 1088 5abd
00000030: e19c 8e3c 454d 94be c7a5 3abb eb71 41be
00000040: 4a8a 363c 67ba 0b3c 333e 3a3e 9dac acbc
00000050: a2a4 66bd e71c c53c d63d 86bd 9725 e7bd
00000060: f495 3d3e 9298 ad3e 2882 253c 7f62 9a3c
00000070: 810e 5a3b 6ef5 0b3b 1cc4 5d3d dac2 a4bd
00000080: 92ea 0b3e 3dcf e5bd c014 e9bd 901b 0b3e
00000090: f90a 4c3e 15db 29bd d003 4cbe 762b 533c
000000a0: dc11 b7be 0081 dbbe 175f 253b 8314 39bd
000000b0: 24f4 1cbe 0683 8e3e c453 253d a90a 0dbd
000000c0: 8c0e e1bd 47f0 593c 23f6 703d c7a6 8abc
000000d0: 9df1 423e 255f cdbd 862b 17be 5c24 61be
000000e0: 16db e33d 5b7a 063e 44ee cbbd 97e2 793e
000000f0: e83a 673c 4cbd 8cbd 587d b7bd 7216 d53d
00000100: a5fd 393b deec acbd f046 38be adcb a73c
00000110: 5273 a63e 62d1 a13d ff27 fe3d 0e93 7fbd
00000120: f355 d3bb 14df 7d3d 32f5 5dbe 60fb 0f3d
00000130: 05ab a03c 157c 54be 0231 febb c08a 9abe
00000140: 7d42 11bd 405a 393e 48c1 b93d 7f0e 83bd
00000150: 3731 173e 1396 c03c c558 c53c d66c a3bc
00000160: ac99 c23d 9131 d4bb f473 7b3d 79d1 123e
00000170: d046 0a3e 07e3 a3bd 794a 893d 86c7 dcbd
00000180: 5845 993d 4b21 2bbe 9786 7bbd 7b82 93bd
00000190: 3c4a f63b ad66 05bd e4c8 4c3d ea73 d23c
000001a0: 377e cabc bec5 103e 8a8e 763d 7575 9d3d
000001b0: 5ebf 12bd 8b71 213e eaab 103e 55a3 803d
000001c0: 35b0 d43d 3678 34be 5305 eb3c 41bf a63d
000001d0: 61bb 89bc c624 1fbd bb8e 76bd cc99 34be
000001e0: 7934 873e 8b5d 193e ba80 b33d 3b47 e63d
000001f0: 0760 9bbd 0d1c 34bc a1ca 703d a10b 653d
00000200: cc31 8e3d 7082 09bd 83ad ba3c ed6f 853d
00000210: 494e d1bd a54d 0f3d 1710 003e c9dd 18be
00000220: a5e4 b1bc eae7 6dbe c8e0 2d3d eeb2 bdbd
00000230: fe56 f6bd cf54 12be 6916 5e3d dac5 813d
00000240: 9c47 0fbe 746b 223e a496 543a c337 66be
00000250: 623d e33d b9fd 6e3e bc90 10be 97a2 cb3d
00000260: aa6e 43bd 297a 2e3e ef1f d0bc 0c2f f5bc
00000270: 20ab 443d a06c f1bb 6e74 8ebc 3919 0c3e
00000280: ce68 df3e 4fd6 11be d1a4 54be 21ce 113e
00000290: a43c aa3e 384a 8bbe e2ff 21bd 8981 20be
000002a0: e93b 00be 751d 9e3d 4bf0 3fbe 2bf9 24bd
000002b0: 3a85 df3d 2871 773e b7da 78bd cf1d 40bd
000002c0: e919 583d 35db c3bd f957 0e3d c58e ca3d
000002d0: 2e79 963d c4fd 80be a370 f03d a554 88bd
000002e0: bbc5 983d 0019 763e 961a c0bd ed0b b5bc
000002f0: 3196 abbc 502f 213c ef16 b53e f9df 0cbe
00000300: a06f 543e 4a53 12be cf4a 053c 7576 443e
00000310: eea9 d73d 770c d3bd 5c0e 7abe b346 8bbe
00000320: 1c93 4a3e 0456 e6bd a7a5 ce3b 0f64 be3c
00000330: f186 443e ef6f 593e 2f95 abbc 6c97 883d
00000340: 4d0d 543e 27cf 363c 8100 5abd ad85 8fbe
00000350: 39a0 0d3e 10e7 5dbd 1ada b8bd 332b 613b
00000360: 9631 5e3d 6e0c aa3e 56fa 1abe b6f2 533d
00000370: 3858 e33d 1294 2bbe 79c4 84bd e36e 0d3d
00000380: 78cf 73bb 8abe 333c b33f 80be 7a49 22be
00000390: 29e3 81be e2f6 1d3d 7591 16be 4d6e 9e3d
000003a0: 2218 77bb 5ff5 583d 21aa e53e ea5f f03d
000003b0: 529a c0bd f4a0 873e af26 83bc 88c2 13be
000003c0: 674a 813e 2196 ffbd 46cf fe3c 34c3 a3bd
000003d0: 4daf 1b3e 3ee6 6b3c d56c 4f3d 246f 1d3e
000003e0: 0251 293e 3fcd a23d edc4 9cbe e335 cb3e
000003f0: 93ab 9a3e 4d09 dfbd 7d33 433e 62a4 383e

gru.bias_ih_l0 f4 [96]
0.060101822 0.1192183 0.17787573 0.1364478 -0.017296549 0.07599148 0.17101336 0.090391345
-0.002608428 0.014767044 0.028220315 0.09564689 -0.008037403 0.0545743 0.257972 0.08788529
0.07866224 -0.043868117 0.030736389 0.09911578 0.0076473067 0.03422644 0.0571507 0.03648436
0.07850031 0.04395495 -0.10230605 0.008142574 0.20924647 0.024255767 0.13482198 0.1668715
-0.08464951 0.1329793 -0.35116485 0.06594296 0.18922496 -0.33791703 -0.70014125 -0.21755008
-0.47752568 -0.5999228 -0.29733223 -0.12684634 -0.49697068 -0.118264355 0.012519377 -0.1429518
0.06457371 0.29188085 -0.17834397 -0.31945997 0.07988184 -0.48380566 -0.24711056 -0.1628021
-0.24038558 -0.4229926 0.060405113 -0.19523339 -0.25628722 -0.20001295 -0.22584815 -0.035708643
-0.036749642 0.014524772 -0.2822637 0.05915157 -0.09346194 -0.17266053 -0.2374647 -0.20826946
-0.009017912 -0.078914054 0.33945194 -0.06158053 -0.13754474 0.06197799 -0.0061464505 -0.08450043
0.25744358 0.24110095 -0.10813319 0.4209769 0.13437599 -0.23916401 0.17127644 -0.3159497
0.18700802 -0.019628534 -0.06537424 -0.056824725 0.14774087 0.00772455 0.20708595 0.010233582
00000000: 542d 763d b928 f43d 0e25 363e f9b8 0b3e
00000010: 7eb1 8dbc 6ca1 9b3d 201e 2f3e 191f b93d
00000020: 29f2 2abb 79f1 713c 4a2e e73c 84e2 c33d
00000030: 50af 03bc 4d89 5f3d e814 843e 34fd b33d
00000040: ab19 a13d 0eaf 33bd e1ca fb3c 37fd ca3d
00000050: 4296 fa3b 0631 0c3d da16 6a3d a070 153d
00000060: c5c4 a03d 1b0a 343d d685 d1bd 6e68 053c
00000070: b544 563e 08b4 c63c c60e 0a3e 5de0 2a3e
00000080: b95c adbd ba2b 083e e1cb b3be 1a0d 873d
00000090: 30c4 413e 7603 adbe 753c 33bf 73c5 5ebe
000000a0: 3f7e f4be 8a94 19bf ee3b 98be 02e4 01be
000000b0: f172 febe 9534 f2bd 131e 4d3c f561 12be
000000c0: 393f 843d 6871 953e cd9f 36be 4290 a3be
000000d0: 1799 a33d 60b5 f7be 8d0a 7dbe 98b5 26be
000000e0: a327 76be 7c92 d8be 5a6b 773d 43eb 47be
000000f0: 1438 83be 32d0 4cbe bd44 67be 3a43 12bd
00000100: cb86 16bd 4ff9 6d3c de84 90be eb48 723d
00000110: f968 bfbd eccd 30be f229 73be 9744 55be
00000120: ddbf 13bc b19d a1bd a5cc ad3e de3b 7cbd
00000130: 87d8 0cbe a2dc 7d3d 2a68 c9bb 900e adbd
00000140: a5cf 833e 2be3 763e ef74 ddbd 498a d73e
00000150: dc99 093e 69e7 74be 1763 2f3e 29c4 a1be
00000160: 087f 3f3e 05cc a0bc eee2 85bd 0bc1 68bd
00000170: 6249 173e 391e fd3b 570e 543e c1aa 273c

gru.bias_hh_l0 f4 [96]
0.06716589 0.035639536 -0.032682586 0.10801309 -0.014377541 0.092709504 0.054999385 0.009898237
0.01771211 -0.13190694 0.14230713 0.12052372 -0.041533373 -0.043149587 0.17494375 -0.12153554
0.039918702 -0.02856656 0.074293606 0.14056404 -0.00874202 0.047280062 -0.059027724 0.038268764
0.00581054 -0.105646 -0.03305082 0.09418772 0.10447182 -0.10585997 0.035480846 0.2678951
0.17532772 0.108091764 -0.15160583 -0.06858723 0.034727324 -0.44738367 -0.5059006 -0.28915185
-0.42243177 -0.6206572 -0.49348843 -0.23274729 -0.207347 -0.21823631 0.23397703 -0.20378946
0.028521251 0.15450108 -0.26428962 -0.32489422 0.14614803 -0.528001 -0.012286063 -0.15010121
-0.4080895 -0.33727077 0.15563238 -0.12685125 -0.35338408 -0.0776272 -0.19338828 -0.0063650818
0.10680565 -0.07817145 0.031940684 0.120459765 0.014155605 -0.021053867 0.055295266 -0.15311432
0.15492363 0.07728968 0.2127773 -0.27449158 0.066559926 -0.027426168 -0.1196555 0.19553247
0.042163372 0.030863885 0.12446939 0.23792522 -0.11863207 0.20369041 0.059917483 -0.07769113
0.0061206757 0.045548495 -0.16794056 -0.12621455 -0.04447324 0.18770927 0.15343632 -0.1478178
00000000: 458e 893d c3fa 113d 2dde 05bd f835 dd3d
00000010: c78f 6bbc 7bde bd3d 0947 613d 372c 223c
00000020: fd18 913c 9d12 07be f6b8 113e 24d5 f63d
00000030: e61e 2abd 9fbd 30bd 7424 333e a0e7 f8bd
00000040: cb81 233d 6b04 eabc 3f27 983d 05f0 0f3e
00000050: b13a 0fbc bda8 413d 0ec7 71bd b5bf 1c3d
00000060: 5866 be3b ee5c d8bd 4c60 07bd 7ee5 c03d
00000070: 52f5 d53d 1dcd d8bd 5d54 113d 8c29 893e
00000080: 1c89 333e 375f dd3d 8f3e 1bbe 7677 8cbd
00000090: 3d3e 0e3d 790f e5be b482 01bf b60b 94be
000000a0: fa48 d8be 64e3 1ebf 84aa fcbe 4e55 6ebe
000000b0: c652 54be 5779 5fbe ad97 6f3e 2fae 50be
000000c0: 66a5 e93c 8835 1e3e f850 87be 8958 a6be
000000d0: d4a7 153e 132b 07bf 7c4b 49bc 22b4 19be
000000e0: 1bf1 d0be c1ae acbe 185e 1f3e 4be5 01be
000000f0: c2ee b4be 02fb 9ebd 9407 46be 2d92 d0bb
00000100: ecbc da3d 5a18 a0bd 3cd4 023d 9cb3 f63d
00000110: e9ec 673c 2979 acbc 4a7d 623d 00ca 1cbe
00000120: 4da4 1e3e 0d4a 9e3d 4be2 593e 298a 8cbe
00000130: 9250 883d d8ac e0bc f10d f5bd aa39 483e
00000140: 80b3 2c3d 42d6 fc3c cfe9 fe3d aba2 733e
00000150: 5ff5 f2bd 3894 503e 096c 753d 871c 9fbd
00000160: f38f c83b 0f91 3a3d 9cf8 2bbe 633e 01be
00000170: 9229 36bd dc36 403e 691e 1d3e 8d5d 17be

out.weight f4 [36, 64]
-0.056641474 0.13023022 0.041404992 0.08218352 -0.003010935 0.01200752 -0.10334524 0.022003036
0.009930937 0.009873563 -0.047856085 0.0008724028 0.017061874 -0.038178075 -0.11373699 0.013623524
-0.025971863 0.08615832 -0.030203063 -0.017381063 -0.065977216 -0.11783415 -0.11244301 0.11227351
-0.05501542 -0.010144543 -0.12876709 -0.056998257 0.05151338 0.004707681 -0.09759966 -0.09169658
-0.02475405 0.08973344 0.056914363 0.026909081 0.011409371 0.036898565 -0.03487473 -0.022238467
-0.0250444 0.035066377 -0.15889154 0.06518468 0.07449377 0.049909502 -0.057503212 -0.01808199
-0.07872661 -0.103324294 -0.055142406 0.15695916 -0.03853568 -0.071481474 0.01947046 0.025239024
0.10076097 -0.019340115 -0.0008662178 -0.093239814 -0.08059247 -0.00086973014 -0.123464085 0.008376686
-0.7357986 0.6537961 -0.672082 0.35908708 -1.610789 -0.39485803 -0.06482787 -0.50676286
-0.39805886 -0.5773599 -0.8814549 -0.32889798 -0.53532314 -1.080554 -0.7961077 0.47391665
0.3386319 0.21954192 -0.4251466 0.82012135 -0.22823527 0.2611482 0.38715765 -0.22577131
-1.3145331 0.6572101 -0.16971637 -0.7602433 0.67814934 0.1834826 0.4351364 -0.37919158
-0.019617803 0.90865475 -0.42335883 -0.396714 -0.35912812 0.75701076 0.2079441 0.78007895
-0.13879028 -0.69666797 0.39120126 -0.041806474 -0.3402838 0.19053023 0.10578966 0.23626217
0.45110583 -0.0029963076 0.5068168 -0.40802544 0.8528284 0.2448328 -0.20799881 -0.16324052
-0.38218683 0.52797973 0.3627464 0.495913 0.46996766 0.51401055 0.35861364 -0.6294106
-0.056641474 0.13023022 0.04140499 0.08218351 -0.003010935 0.012007521 -0.10334523 0.022003034
0.009930938 0.0098735625 -0.04785608 0.0008724013 0.017061876 -0.038178075 -0.11373699 0.013623524
-0.025971863 0.08615832 -0.030203063 -0.017381063 -0.065977216 -0.11783415 -0.11244301 0.11227351
-0.05501542 -0.010144542 -0.1287671 -0.056998257 0.051513378 0.00470768 -0.09759966 -0.09169659
-0.024754047 0.08973344 0.05691436 0.026909083 0.01140937 0.036898565 -0.03487473 -0.022238469
-0.0250444 0.035066377 -0.15889156 0.06518468 0.07449378 0.049909502 -0.057503212 -0.01808199
-0.07872661 -0.103324294 -0.055142406 0.15695916 -0.03853568 -0.071481474 0.01947046 0.025239024
0.10076097 -0.019340115 -0.00086621835 -0.093239814 -0.08059247 -0.0008697305 -0.123464085 0.008376687
-0.0072081536 -0.066983804 0.27403605 0.013973998 0.6552728 0.33002684 -0.94236207 0.67714095
-0.86179477 -1.907383 0.12934375 0.31321478 0.1424238 0.18634634 0.15277137 -1.311844
0.012659596 -0.046034213 0.16816886 0.9149742 0.38977945 0.2438941 -0.02316254 0.014571072
1.2131596 -0.67510456 -0.0964885 0.66778064 -0.67200065 0.043607675 0.3164203 0.2212673
-0.10020931 -0.72151303 0.56707495 -0.41863945 1.372085 0.18233344 -0.20562093 0.095976494
-1.3169954 -0.4815158 0.99408334 -0.17664054 -0.9060258 -0.8115172 -0.11611249 0.21903971
0.7707013 0.30079803 -0.44767535 -1.1173921 -0.20004542 0.21988475 -0.87055993 -0.35140112
-0.2739816 -1.0478109 -1.000507 -0.12858878 -0.20600216 0.23120825 -0.33144677 -1.3922313
00000000: e400 68bd 125b 053e 4898 293d d54f a83d
00000010: 1b53 45bb 30bb 443c aba6 d3bd b63f b43c
00000020: 5eb5 223c bac4 213c be04 44bd f6b1 643a
00000030: 58c5 8b3c 9d60 1cbd f0ee e8bd 3435 5f3c
00000040: f2c2 d4bc c673 b03d 6a6c f7bc bb62 8ebc
00000050: 101f 87bd 0853 f1bd 8548 e6bd a7ef e53d
00000060: d957 61bd 4c35 26bc 85db 03be 0177 69bd
00000070: b2ff 523d e442 9a3b 55e2 c7bd 6bcb bbbd
00000080: 01c9 cabc 2ac6 b73d 091f 693d 6f70 dc3c
00000090: 5fee 3a3c f322 173d ced8 0ebd 722d b6bc
000000a0: ea29 cdbc c3a1 0f3d 77b4 22be 8c7f 853d
000000b0: 3190 983d e86d 4c3d 7d88 6bbd ae20 94bc
000000c0: 6b3b a1bd b09b d3bd 01dd 61bd e7b9 203e
000000d0: 97d7 1dbd e164 92bd 8480 9f3c 12c2 ce3c
000000e0: c45b ce3d 296f 9ebc e412 63ba 84f4 bebd
000000f0: aa0d a5bd 9afe 63ba bdda fcbd 5e3e 093c
00000100: 4c5d 3cbf 2e5f 273f 910d 2cbf 43da b73e
00000110: 552e cebf d52a cabe 79c4 84bd 36bb 01bf
00000120: 5fce cbbe dccd 13bf 07a7 61bf 5165 a8be
00000130: f00a 09bf 984f 8abf b7cd 4bbf 34a5 f23e
00000140: 2961 ad3e 99cf 603e d1ac d9be 79f3 513f
00000150: 82b6 69be 38b5 853e 8739 c63e 9830 67be
00000160: 9f42 a8bf ec3e 283f 21ca 2dbe 4e9f 42bf
00000170: 329b 2d3f dde2 3b3e 33ca de3e 6625 c2be
00000180: 84b5 a0bc 999d 683f 7dc2 d8be 191e cbbe
00000190: a4df b7be 75cb 413f 4cef 543e 41b3 473f
000001a0: 0a1f 0ebe d558 32bf 884b c83e 443d 2bbd
000001b0: ae39 aebe 5b1a 433e 40a8 d83d b6ee 713e
000001c0: 58f7 e63e b35d 44bb bfbe 013f b6e8 d0be
000001d0: f652 5a3f 73b5 7a3e a4fd 54be 8628 27be
000001e0: fead c3be ae29 073f e5b9 b93e 4fe8 fd3e
000001f0: 9a9f f03e 3296 033f 359c b73e 0e21 21bf
00000200: e400 68bd 125b 053e 4798 293d d44f a83d
00000210: 1b53 45bb 32bb 443c aaa6 d3bd b53f b43c
00000220: 5fb5 223c b9c4 213c bd04 44bd dcb1 643a
00000230: 59c5 8b3c 9d60 1cbd f0ee e8bd 3435 5f3c
00000240: f2c2 d4bc c673 b03d 6a6c f7bc bb62 8ebc
00000250: 101f 87bd 0853 f1bd 8548 e6bd a7ef e53d
00000260: d957 61bd 4b35 26bc 86db 03be 0177 69bd
00000270: b1ff 523d e242 9a3b 55e2 c7bd 6ccb bbbd
00000280: 00c9 cabc 2ac6 b73d 081f 693d 7070 dc3c
00000290: 5eee 3a3c f322 173d ced8 0ebd 732d b6bc
000002a0: ea29 cdbc c3a1 0f3d 78b4 22be 8c7f 853d
000002b0: 3290 983d e86d 4c3d 7d88 6bbd ae20 94bc
000002c0: 6b3b a1bd b09b d3bd 01dd 61bd e7b9 203e
000002d0: 97d7 1dbd e164 92bd 8480 9f3c 12c2 ce3c
000002e0: c45b ce3d 296f 9ebc ee12 63ba 84f4 bebd
000002f0: aa0d a5bd a0fe 63ba bdda fcbd 5f3e 093c
00000300: 6032 ecbb ce2e 89bd 744e 8c3e 32f3 643c
00000310: f5bf 273f 47f9 a83e a43e 71bf 1c59 2d3f
00000320: 959e 5cbf 2025 f4bf b072 043e b05d a03e
00000330: 8bd7 113e 93d1 3e3e 1970 1c3e 81ea a7bf
00000340: 326a 4f3c 5f8e 3cbd 7534 2c3e c03b 6a3f
00000350: 2c91 c73e 60bf 793e 5ebf bdbc 81bb 6e3c
00000360: d048 9b3f a7d3 2cbf c39b c5bd acf3 2a3f
00000370: 3c08 2cbf f69d 323d d701 a23e e593 623e
00000380: 8a3a cdbd 14b5 38bf d32b 113f e957 d6be
00000390: 7ba0 af3f 9eb5 3a3e 4b8e 52be 538f c43d
000003a0: 4e93 a8bf 3d89 f6be 3f7c 7e3f 42e1 34be
000003b0: 4ff1 67bf 97bf 4fbf 63cc edbd f24b 603e
000003c0: ae4c 453f 3302 9a3e b435 e5be b406 8fbf
000003d0: b5d8 4cbe 7829 613e 04dd 5ebf d9ea b3be
000003e0: 5147 8cbe ab1e 86bf 9d10 80bf c7ac 03be
000003f0: 3bf2 52be dbc1 6c3e 64b3 a9be a334 b2bf

out.bias f4 [36]
-0.25507414 0.2199795 -0.25507414 0.04677412 -0.09778327 -0.4210911 -0.4035228 -0.30321312
0.13662091 -0.1044408 -0.39453998 -0.115888596 -0.2312843 -0.22414623 -0.23435691 -0.40475002
0.27139097 -0.11606749 0.34372494 -0.1314115 0.13910173 0.20627242 -0.105897956 0.15704788
-0.10340848 0.15667039 -0.1866006 0.2155317 -0.3538793 -0.04972805 -0.26398873 0.36578253
0.045816984 -0.16116221 -0.12608208 -0.021438127
00000000: 1499 82be 4e42 613e 1499 82be 3896 3f3d
00000010: 9842 c8bd 4199 d7be 8a9a cebe c03e 9bbe
00000020: 5ae6 0b3e 0fe5 d5bd 2501 cabe 0057 edbd
00000030: cbd5 6cbe 9786 65be 42fb 6fbe 653b cfbe
00000040: c2f3 8a3e cbb4 edbd b7fc af3e bc90 06be
00000050: af70 0e3e 1439 533e 07e1 d8bd 29d1 203e
00000060: d3c7 d3bd 346e 203e 3a14 3fbe 58b4 5c3e
00000070: ab2f b5be a4af 4bbd 8829 87be d947 bb3e
00000080: 97aa 3b3d b507 25be a91b 01be 039f afbc
