modules/prn_gen/exp/id/models/bigram/train-encoder-wdecay_1e_5-attn_dot-emb_64-hddn_32-layers_1-epoch_63.pth (torch, 163456 bytes, 5 tensors)

embedding.weight f4 [482, 64]
0	0x00055c38	4.9226e-40
1	0x80055dcc	-4.92825e-40
2	0x80055db8	-4.92797e-40
3	0x00055e86	4.93086e-40
4	0x80055ca7	-4.92415e-40
5	0x000557b9	4.90646e-40
6	0x80055abb	-4.91725e-40
7	0x800645fb	-5.76117e-40
8	0x000568e2	4.96802e-40
9	0x80056151	-4.94088e-40
10	0x000561ab	4.94214e-40
11	0x80059d5e	-5.1563e-40
12	0x800560b5	-4.9387e-40
13	0x00056814	4.96514e-40
14	0x800564bc	-4.95314e-40
15	0x8005608b	-4.9381e-40
16	0x80055aa4	-4.91693e-40
17	0x0005b39d	5.2361e-40
18	0x00055e3f	4.92987e-40
19	0x00056384	4.94877e-40
20	0x800585a4	-5.07119e-40
21	0x8005574c	-4.90494e-40
22	0x00055f9c	4.93476e-40
23	0x8005b95b	-5.2567e-40
24	0x800563b7	-4.94948e-40
25	0x00056222	4.94381e-40
26	0x80055db3	-4.9279e-40
27	0x80055d35	-4.92614e-40
28	0x00056179	4.94144e-40
29	0x800561b9	-4.94234e-40
30	0x80055b2a	-4.91881e-40
31	0x000562c8	4.94614e-40
32	0x80056034	-4.93689e-40
33	0x80055a03	-4.91468e-40
34	0x8005f983	-5.48685e-40
35	0x800560d5	-4.93914e-40
36	0x80055e65	-4.9304e-40
37	0x80056512	-4.95435e-40
38	0x00055d08	4.92551e-40
39	0x00055ec8	4.93179e-40
40	0x00056ed8	4.98941e-40
41	0x00055b35	4.91896e-40
42	0x00056d13	4.98306e-40
43	0x8005c3f9	-5.29479e-40
44	0x80055b74	-4.91985e-40
45	0x0005a81f	5.19488e-40
46	0x00056342	4.94784e-40
47	0x80055b4e	-4.91931e-40
48	0x00055eb6	4.93153e-40
49	0x80055e58	-4.93022e-40
50	0x800560cb	-4.939e-40
51	0x000593a1	5.12137e-40
52	0x80055e95	-4.93107e-40
53	0x800565cc	-4.95695e-40
54	0x000561d9	4.94279e-40
55	0x00055c32	4.92251e-40
56	0x000559a7	4.91339e-40
57	0x80055904	-4.9111e-40
58	0x00056521	4.95456e-40
59	0x80055d7b	-4.92712e-40
60	0x80055a86	-4.91651e-40
61	0x0005624f	4.94444e-40
62	0x80055b82	-4.92004e-40
63	0x80055d61	-4.92676e-40
64	0xbe16b299	-0.14716567
65	0x3f825ee3	1.0185207
66	0x400d44f5	2.2073338
67	0xbefcbac4	-0.4936124
68	0xbedc0ff2	-0.42980915
69	0xbefa886c	-0.48932207
70	0x3e69d27c	0.228342
71	0xbee31e1f	-0.44358918
72	0xbed46799	-0.4148529
73	0xbf0a10d9	-0.5393196
74	0x3f511842	0.8167764
75	0x3edb95dd	0.42887774
76	0xbeb420a8	-0.35181165
77	0xbda82193	-0.08209529
78	0xbeb9e08a	-0.36304122
79	0xbde3a86f	-0.111161105
80	0x3f1dba4d	0.616124
81	0x3fa0a346	1.2549827
82	0x3f57f30e	0.8435525
83	0x3f8b60e7	1.0888947
84	0xbed6da59	-0.4196346
85	0x3eb90b5d	0.36141482
86	0xbdfa2391	-0.12213815
87	0xbe0389d8	-0.12845552
88	0x3e78e0c8	0.24304497
89	0xbf311a84	-0.69181085
90	0x3e360cf5	0.1777838
91	0xbf27d33c	-0.65556693
92	0x3eb35474	0.3502537
93	0xc02bf687	-2.6869218
94	0xbf0cb1e9	-0.5495897
95	0x3d6804c6	0.056645177
96	0xbf150733	-0.5821411
97	0x3da36741	0.079786785
98	0xbf17fa80	-0.5936661
99	0x3a9f2288	0.0012141028
100	0xbeb358e0	-0.35028744
101	0x3e2afa48	0.16697037
102	0xbfd5358b	-1.6656965
103	0xbe99dce4	-0.3005134
104	0xbfbfecbe	-1.4994123
105	0xbe9a7c2f	-0.3017287
106	0xbd3bb34e	-0.045825295
107	0x3f2ec503	0.68269366
108	0xbd71b576	-0.059010945
109	0xbef852b9	-0.48500612
110	0x3f171d8a	0.5902945
111	0x3f0e3da9	0.55562836
112	0x3fafef38	1.3744879
113	0xbdd16c21	-0.10225702
114	0x3bc088b6	0.005875672
115	0xbfbaf986	-1.4607399
116	0xbf8f537b	-1.1197351
117	0xbe71051f	-0.2353711
118	0xbfaff0c9	-1.3745357
119	0xc045a3e5	-3.0881283
120	0x3efd2bbf	0.49447438
121	0xbf2af0c2	-0.6677362
122	0xbe7b56cb	-0.24544828
123	0xbf8c1ef6	-1.0946949
124	0xbdf75eda	-0.120786384
125	0x3ede194d	0.43378678
126	0x3f96eaab	1.1790365
127	0xbd9da050	-0.07696593
128	0x3f8d2cfa	1.1029351
129	0x3fbde905	1.4836737
130	0x3fa34c8d	1.2757736
131	0xbf366502	-0.71247876
132	0x3e589025	0.21148737
133	0xbfe98525	-1.8243757
134	0xbf189476	-0.59601533
135	0x3df444a2	0.11927153
136	0xbf409cfd	-0.75239545
137	0xbf94592f	-1.1589717
138	0xbfef593e	-1.869911
139	0xbf14a561	-0.5806485
140	0x3e1bcc7e	0.15214726
141	0xbf95214e	-1.1650789
142	0xbfaf3328	-1.3687487
143	0x3f3ffea2	0.74997914
144	0xbeabcfbb	-0.33556923
145	0x3ead84e4	0.3389045
146	0x3f874fc8	1.0571222
147	0xbee98c0b	-0.45614657
148	0x3e1ca973	0.15299015
149	0xbea7164b	-0.32634196
150	0xbf460332	-0.77348626
151	0xbecc0510	-0.39847612
152	0xbf930937	-1.1487187
153	0x3ebf6957	0.37385055
154	0x3edb195b	0.42792782
155	0x3ebc39ba	0.36762792
156	0xbef4d96a	-0.47822124
157	0xbfc5288b	-1.5402998
158	0x3f1a9f38	0.603992
159	0xbd62c45b	-0.05536304
160	0xbeb989fd	-0.3623809
161	0xbe8d74a2	-0.27628046
162	0xbf287961	-0.6581021
163	0x3ebae7e5	0.36505046
164	0x3f9e8da5	1.2386976
165	0xbe0b9dbc	-0.1363439
166	0x3ecd3cd2	0.40085465
167	0xbeb8c672	-0.36088902
168	0x3f0e3d04	0.5556185
169	0x3f0caddd	0.54952794
170	0x3f463c51	0.77435786
171	0x3f8b0ef1	1.0863935
172	0xbd8c0b1c	-0.068380564
173	0xbf0db196	-0.553491
174	0xbead0f0e	-0.33800548
175	0xbf063daa	-0.5243784
176	0x3b8f819e	0.0043794652
177	0xbdf6c425	-0.1204913
178	0xbf33e565	-0.70271903
179	0x3f7eabaf	0.9948072
180	0x3e46da46	0.19419202
181	0x3eb2261a	0.34794694
182	0xbf40093d	-0.75014096
183	0x3f04ba3b	0.51846665
184	0x400194e5	2.0247128
185	0x3dfa557c	0.12223336
186	0x3fed2c47	1.8529137
187	0x3f0751e3	0.52859324
188	0xbd92d441	-0.071693905
189	0xbd115d7e	-0.03548955
190	0x3e25660c	0.16152209
191	0x3fbc32eb	1.4703039
192	0x00055e57	4.9302e-40
193	0x000579b9	5.02843e-40
194	0x800561f3	-4.94315e-40
195	0x000579c4	5.02859e-40
196	0x800564e8	-4.95376e-40
197	0x00055783	4.90571e-40
198	0x00055d1d	4.9258e-40
199	0x00056120	4.9402e-40
200	0x00055838	4.90824e-40
201	0x80055f4f	-4.93368e-40
202	0x80056466	-4.95194e-40
203	0x00055bbb	4.92084e-40
204	0x80055a90	-4.91665e-40
205	0x800560aa	-4.93854e-40
206	0x00055e8f	4.93099e-40
207	0x800559f1	-4.91442e-40
208	0x00055c39	4.92261e-40
209	0x80056131	-4.94043e-40
210	0x00055f2a	4.93316e-40
211	0x80055b0c	-4.91839e-40
212	0x000562fa	4.94684e-40
213	0x000559b1	4.91353e-40
214	0x80055eee	-4.93232e-40
215	0x000561b5	4.94228e-40
216	0x00056fa0	4.99221e-40
217	0x80055fef	-4.93592e-40
218	0x00055e74	4.93061e-40
219	0x80067944	-5.94515e-40
220	0x80056121	-4.94021e-40
221	0x00055804	4.90752e-40
222	0x800564ac	-4.95292e-40
223	0x0006bb65	6.18237e-40
224	0x00055cc7	4.9246e-40
225	0x000558f9	4.91095e-40
226	0x00056173	4.94136e-40
227	0x0005590a	4.91119e-40
228	0x8005719a	-4.9993e-40
229	0x00056410	4.95073e-40
230	0x00055f8c	4.93453e-40
231	0x000564ea	4.95379e-40
232	0x00055e9a	4.93114e-40
233	0x8005628e	-4.94532e-40
234	0x00055b46	4.9192e-40
235	0x0005647b	4.95223e-40
236	0x00055d50	4.92652e-40
237	0x80055881	-4.90927e-40
238	0x00056b13	4.97588e-40
239	0x00059157	5.11316e-40
240	0x0006a4c3	6.10118e-40
241	0x00056057	4.93738e-40
242	0x80055f0d	-4.93275e-40
243	0x80055e0e	-4.92918e-40
244	0x8005650b	-4.95425e-40
245	0x00055b59	4.91947e-40
246	0x00055b08	4.91833e-40
247	0x800663a4	-5.86757e-40
248	0x8005cf40	-5.33525e-40
249	0x80056859	-4.9661e-40
250	0x00060c64	5.55458e-40
251	0x00056518	4.95443e-40
252	0x80055b6d	-4.91975e-40
253	0x80055c38	-4.9226e-40
254	0x80055c82	-4.92363e-40
255	0x80056be4	-4.97881e-40

gru.weight_ih_l0 f4 [96, 64]
0	0x3e35b20f	0.17743705
1	0xbe499353	-0.19685106
2	0x3d8bf101	0.06833077
3	0x3d3fc4b3	0.046818446
4	0xbdbb696f	-0.09150969
5	0xbc231c4e	-0.009955479
6	0xbc9187eb	-0.017765006
7	0xbe7bd6c4	-0.24593645
8	0x3e5256c5	0.20540912
9	0xbde6a756	-0.112623855
10	0x3de25193	0.11050715
11	0x3e842ffe	0.25817865
12	0x3cfbb8fb	0.030727854
13	0xbc3e17d9	-0.011602365
14	0x3cd5504f	0.02603927
15	0xbe16761b	-0.14693491
16	0x3ddf505a	0.10903998
17	0xbd74d46a	-0.059772886
18	0xbd89c283	-0.06726553
19	0xbe4b6f41	-0.19866659
20	0xbd98756b	-0.07444271
21	0xbc4fab5a	-0.012675131
22	0x3e462284	0.19349104
23	0x3d76dc80	0.06026888
24	0x3ed19611	0.40934804
25	0x3d53391d	0.05156814
26	0xbd0f9fae	-0.03506439
27	0x3eab6986	0.33478945
28	0xbebcc775	-0.36870924
29	0xbcaf9f2d	-0.021438206
30	0x3eac4c73	0.33652076
31	0x3e69c48a	0.2282888
32	0x3e98ad7e	0.29819864
33	0xbdfe0df1	-0.12405003
34	0xbee3391a	-0.44379503
35	0x3e037e98	0.1284126
36	0xbdff2819	-0.1245882
37	0xbdef8c10	-0.11696637
38	0xbdc8dbe8	-0.09807569
39	0x3e5ff772	0.21871737
40	0x3e823888	0.25433755
41	0xbe1c8aa8	-0.15287268
42	0x3e3c158e	0.18367597
43	0xbe83fce6	-0.25778884
44	0xbe002464	-0.12513882
45	0xbeabb5f8	-0.3353727
46	0xbe0b5a18	-0.13608587
47	0xbe2ad416	-0.16682467
48	0x3e45df4d	0.19323464
49	0xbe8bf475	-0.27334943
50	0xbe0167ac	-0.12637204
51	0x3e43bfc1	0.19116117
52	0xbd07c1f1	-0.03314394
53	0xbe34c8c2	-0.17654708
54	0x3b86bc09	0.004111771
55	0xbda44f43	-0.080229305
56	0x3e5d6e43	0.21624093
57	0x3d26dbe4	0.040737048
58	0x3e57689b	0.21035998
59	0xbd8100bd	-0.06298969
60	0x3d51f2b1	0.05125684
61	0x3e02288a	0.12710777
62	0xbf136d11	-0.575883
63	0x3e567260	0.20942068
64	0x3e065166	0.13116989
65	0x3e489ba6	0.19590625
66	0xbcec2c06	-0.028829586
67	0xbe98df61	-0.29857925
68	0xbeaa01de	-0.3320455
69	0xbe47c115	-0.19507249
70	0x3d449c97	0.0480009
71	0xbd83c557	-0.06434124
72	0xbe9a4ab6	-0.30135125
73	0x3c0619ba	0.008184845
74	0xbd2e498c	-0.04255061
75	0x3da0aaf7	0.07845109
76	0x3e0b410f	0.13599037
77	0xbeb56213	-0.35426387
78	0xbe4eeaf3	-0.20206814
79	0x3e68750e	0.22700903
80	0xbe51b40a	-0.20478836
81	0x3e685e53	0.22692232
82	0xbc6a5680	-0.01430285
83	0xbe3bdd3c	-0.18346113
84	0xbe2bc756	-0.1677526
85	0xbdd4ca35	-0.103901304
86	0x3e891b36	0.26778573
87	0x3e8e2b26	0.27767295
88	0x3ed18801	0.40924075
89	0xbd9b00a3	-0.07568481
90	0x3f103244	0.563267
91	0xbd9623de	-0.0733106
92	0x3dd3dbbf	0.103446476
93	0xbea33af4	-0.31880915
94	0x3e41007c	0.18847841
95	0x3e4d0bc6	0.20024022
96	0xbd020d34	-0.031750873
97	0xbe216117	-0.15759693
98	0x3dee0ff9	0.1162414
99	0xbd8862d1	-0.06659473
100	0x3e2820b1	0.16418721
101	0xbea23db2	-0.31687695
102	0xbdc2e4e7	-0.09516316
103	0x3e8b6812	0.27227837
104	0xbe3d2650	-0.18471646
105	0x3e0f9982	0.14023402
106	0xbe95ebfb	-0.292816
107	0xbe596d94	-0.21233207
108	0x3e80b134	0.25135195
109	0xbf08ceca	-0.53440535
110	0x3dfdf6d5	0.12400595
111	0x3e099ad1	0.13437964
112	0xbe1292b0	-0.1431377
113	0x3e7f6a4a	0.2494289
114	0xbd717726	-0.05895152
115	0xbe74e3f4	-0.23915082
116	0x3e0341e9	0.12818111
117	0x3dc27d70	0.094965816
118	0xbe6fdcb6	-0.23424038
119	0x3e244596	0.1604217
120	0x3db3880a	0.08766182
121	0x3e2b9ff4	0.16760236
122	0xbafedddd	-0.0019444783
123	0xbe819bcd	-0.2531418
124	0xbd93fc3a	-0.07225843
125	0x3df836df	0.12119841
126	0xbc9a5439	-0.018838989
127	0xbd67dc28	-0.05660644
128	0x3e9e9f26	0.30980796
129	0x3e23f683	0.16012006
130	0xbe99c775	-0.30034986
131	0xbd23c769	-0.039985094
132	0xbe5a4d58	-0.21318567
133	0x3ec331f6	0.38124055
134	0x3e734ae5	0.23759039
135	0xbe699dad	-0.22814055
136	0x3e086915	0.13321336
137	0x3dab48f6	0.083635256
138	0x3f210978	0.62905073
139	0xbd017eff	-0.031615254
140	0x3d17087e	0.036873333
141	0x3dc73916	0.09727685
142	0xbd448ab1	-0.04798383
143	0xbeb8f45d	-0.36123934
144	0x3df1190f	0.11772358
145	0x3d82011b	0.06347867
146	0xbdc12c91	-0.094323285
147	0x3e5c9ef3	0.2154501
148	0x3e706590	0.23476243
149	0x3e296361	0.16541816
150	0xbe305889	-0.17221273
151	0x3de14367	0.10999184
152	0xbe1c9f87	-0.1529523
153	0x3e042c43	0.1290751
154	0x3e43f1ed	0.19135256
155	0xbecb4f0b	-0.39708742
156	0xbf4766a1	-0.77890974
157	0xbd33af3e	-0.043868296
158	0x3e2eca5c	0.17069381
159	0x3d177bc1	0.036983255
160	0x3dee605b	0.11639472
161	0x3e23003e	0.15918061
162	0xbe68b181	-0.22723962
163	0xbe128bf4	-0.143112
164	0xbea1f5e3	-0.3163291
165	0xbebed7c7	-0.37274
166	0xbdcd74a5	-0.10032014
167	0xbc91fbfd	-0.017820353
168	0xbe08ec61	-0.13371421
169	0x3ecf4420	0.40481663
170	0x3d0c8b0e	0.0343123
171	0xbd265cb9	-0.04061577
172	0x3e821cd8	0.2541263
173	0xbdb3965b	-0.087689124
174	0x3ece10c1	0.40247157
175	0xbde45455	-0.111488976
176	0xbddecbf5	-0.108787455
177	0x3ebac1fc	0.36476123
178	0x3edfd5b1	0.4371772
179	0xbdbc7da3	-0.09203651
180	0xbf069e13	-0.5258495
181	0x3d5be6e0	0.053686976
182	0xbd0bdd35	-0.034146506
183	0x3e24fa90	0.16111207
184	0x3d9ae757	0.07563656
185	0x3e764c35	0.24052508
186	0x3e984a0a	0.29743987
187	0xbe3e7409	-0.18598951
188	0x3e1359e1	0.14389755
189	0x3deca9f6	0.11555855
190	0x3e5070c3	0.20355515
191	0xbed19d17	-0.40940163
192	0xbddcd032	-0.107818976
193	0x3e3341e7	0.17505608
194	0xbe6bfe05	-0.2304612
195	0xbdbdb860	-0.09263682
196	0x3dc9c53e	0.09852074
197	0x3c9c5891	0.0190852
198	0x3e6bf12c	0.23041219
199	0xbcae4b10	-0.021276027
200	0xbe2cebba	-0.16886798
201	0xbe097e48	-0.13427079
202	0x3e3e5247	0.18586074
203	0xbd9e08f2	-0.0771655
204	0x3d97b73b	0.07407995
205	0xbe5cbd29	-0.21556534
206	0x3e05ab20	0.1305356
207	0x3dcbbbbc	0.09947917
208	0x3e161572	0.14656618
209	0xbdfe404a	-0.12414606
210	0x3ee80dd2	0.45323044
211	0xbed619b9	-0.418165
212	0x3db76b71	0.0895604
213	0xbf27a7ec	-0.65490603
214	0xbe8c00b2	-0.2734428
215	0xbe0435a7	-0.12911092
216	0xbd49a957	-0.04923376
217	0xbda52645	-0.0806394
218	0xbec49059	-0.3839138
219	0x3e923113	0.28553066
220	0x3e95f739	0.29290178
221	0x3e12130c	0.14265078
222	0x3dc53bdd	0.09630559
223	0xbe729807	-0.23690806
224	0xbe06dbda	-0.13169804
225	0xbe94d574	-0.29069102
226	0xbc33145a	-0.010930145
227	0x3e1292f8	0.14313877
228	0x3e2bcd0a	0.16777435
229	0xbcfe81a7	-0.031067682
230	0xbe9341dc	-0.28761184
231	0xbdf38308	-0.118902266
232	0xbe3ab305	-0.18232353
233	0x3ea75de3	0.32688817
234	0xbd6681a8	-0.056275994
235	0xbd04ba25	-0.032404084
236	0xbd969993	-0.07353511
237	0xbd442540	-0.047887087
238	0x3e70f151	0.23529555
239	0xbecedbf3	-0.40402183
240	0x3e01a194	0.12659293
241	0xbd530e73	-0.05152745
242	0x3e4030c8	0.18768609
243	0x3e5feae4	0.21866947
244	0x3e878931	0.26471856
245	0x3ea277ab	0.31731924
246	0xbbe3cc25	-0.006951826
247	0x3e5aa997	0.21353756
248	0x3f07fe4b	0.53122395
249	0x3e9282ae	0.28615326
250	0x3e9b08aa	0.30280048
251	0xbdbea99f	-0.093096964
252	0x3b3f7f3b	0.0029220122
253	0x3e60237b	0.21888535
254	0x3e7a2dfc	0.24431604
255	0x3db4514a	0.08804567

gru.weight_hh_l0 f4 [96, 32]
0	0xbf061adf	-0.5238475
1	0xbd68dae5	-0.05684938
2	0xbd22bd0e	-0.039731078
3	0x3e57e2e8	0.21082652
4	0x3ea3db2e	0.32003158
5	0x3d41ee9d	0.0473467
6	0xbdcb2c95	-0.09920613
7	0xbe0cb35d	-0.13740297
8	0xbe6a70b2	-0.22894552
9	0x3d034333	0.032046508
10	0x3dd86381	0.10565854
11	0x3c258492	0.010102408
12	0xbe6a0ac5	-0.22855671
13	0x3e2703ed	0.16310091
14	0xbda14bef	-0.07875811
15	0xbce3ed5e	-0.027823146
16	0xbefe6e7e	-0.49693674
17	0xbcbca5f8	-0.023028359
18	0xbe0c5ea7	-0.13707982
19	0xbddec345	-0.108770885
20	0xbe42179c	-0.18954319
21	0xbd9e83f9	-0.077400155
22	0xbd503801	-0.05083466
23	0xbdbc1535	-0.091837324
24	0xbdbab509	-0.09116561
25	0xbe253ee0	-0.16137266
26	0xbe96ff68	-0.29491735
27	0x3dd36ec2	0.1032386
28	0xbd617414	-0.05504234
29	0xbe508b0f	-0.20365547
30	0x3db2ac59	0.08724279
31	0x3c5b359b	0.01337948
32	0x3e1166ab	0.14199321
33	0x3d8c5dde	0.06853841
34	0xbebd9b83	-0.3703271
35	0x3e5c53f3	0.21516399
36	0x3eb6fdf1	0.35740617
37	0x3e28723b	0.16449825
38	0xbe376834	-0.17910844
39	0xbe58de13	-0.21178465
40	0xbe3dfc8b	-0.18553369
41	0xbd3521d3	-0.04422171
42	0xbe1df7da	-0.15426579
43	0x3d1582fe	0.036501877
44	0xbd8852a0	-0.066563845
45	0x3e5220bb	0.20520298
46	0xbcb06d2d	-0.021536434
47	0x3e321e3f	0.1739435
48	0xbea4afbf	-0.32165334
49	0xbd71d04b	-0.059036534
50	0x39bef6f1	0.0003642361
51	0xbe5e324b	-0.21698873
52	0x3d95956f	0.07303893
53	0x3e08dc4b	0.13365285
54	0x3e671e4f	0.22570156
55	0x3d4b2f0b	0.04960541
56	0xbe8ce5b5	-0.27519003
57	0xbb5e3dff	-0.0033911464
58	0xbe55efb1	-0.20892216
59	0x3ddeba05	0.10875324
60	0x3e42f4eb	0.19038741
61	0x3d09d6b1	0.03365201
62	0x3e95fb40	0.2929325
63	0xbe2d9d95	-0.16954644
64	0x3dd6db92	0.104910985
65	0x3d144a73	0.036203813
66	0xbeef6882	-0.4675942
67	0x3cbc0237	0.022950275
68	0xbddf483a	-0.10902448
69	0xbc8d95f7	-0.017283423
70	0x3d2cb2f5	0.042162854
71	0x3e01513e	0.12628648
72	0xbe08f394	-0.13374168
73	0x3dfd7faf	0.12377869
74	0xbd8b3601	-0.0679741
75	0x3e072110	0.13196206
76	0x3e60d2de	0.2195544
77	0x3dab8eeb	0.08376869
78	0xbea0b8e7	-0.3139107
79	0x3c655703	0.013997796
80	0xbbff27bc	-0.007786719
81	0x3d56ebe1	0.052471045
82	0x3e94dcc7	0.2907469
83	0x3e35b8c6	0.17746267
84	0xbd890404	-0.06690219
85	0xbe0e1e0d	-0.13878651
86	0xbe5a0049	-0.21289171
87	0xbe77c2ec	-0.2419545
88	0xbd33b67c	-0.043875203
89	0x3e6c2ec1	0.2306471
90	0x3e4615e3	0.19344287
91	0x3d68cde8	0.056836993
92	0x3e1b0c4d	0.15141411
93	0x3db2bc4e	0.087273225
94	0xbe5372a8	-0.20649207
95	0xbe79b2ba	-0.24384585
96	0xbdadeab8	-0.08492035
97	0x3e84ef64	0.2596389
98	0x3e18d557	0.14925133
99	0xbd0669a9	-0.03281561
100	0x3e882d0a	0.26596862
101	0xbbd7b33a	-0.006582645
102	0x3de730a5	0.11288575
103	0xbb3bef48	-0.0028676558
104	0xbdbc7306	-0.092016265
105	0xbd15ab84	-0.036540523
106	0x3e3cfb0b	0.1845514
107	0xbeacee77	-0.33775684
108	0x3ebad62d	0.36491528
109	0x3e3ebab2	0.18625906
110	0xbe4a4328	-0.1975218
111	0x3dade4f1	0.08490933
112	0x3df6e104	0.12054637
113	0xbd5bd951	-0.053674046
114	0x3c169382	0.009190442
115	0x3e35b817	0.17746006
116	0x3e3df409	0.18550123
117	0x3e8bc0a7	0.2729542
118	0x3da59e2b	0.08086809
119	0x3e52cedb	0.20586722
120	0xbe2d1f39	-0.16906442
121	0xbd91a075	-0.07110683
122	0xbe2a9f60	-0.16662359
123	0x3da7e33a	0.08197637
124	0xbd840f2e	-0.06448208
125	0xbebe9c19	-0.37228468
126	0x3d118e50	0.03553611
127	0xbea432d3	-0.32070026
128	0xbe48499d	-0.19559331
129	0xbdc86ded	-0.09786592
130	0xbdfef775	-0.124495424
131	0xbd1b11eb	-0.037858885
132	0x3e8af80b	0.27142367
133	0xbe0fc6c3	-0.14040665
134	0x3d8230b4	0.06356946
135	0xbe0ac04f	-0.13549922
136	0x3ea67f8c	0.32519186
137	0xbd397a9e	-0.045282952
138	0x3dfb7606	0.122783706
139	0xbe23a80b	-0.15982072
140	0xbec8b756	-0.39202374
141	0xbe08baed	-0.13352557
142	0xbe5f3871	-0.21798874
143	0xbdc0a834	-0.09407082
144	0xbdab1be7	-0.08354931
145	0xbe18e525	-0.14931162
146	0xbe758ed3	-0.23980264
147	0xbe95d4be	-0.29263872
148	0x3cbe7063	0.02324695
149	0x3d28d345	0.041217107
150	0xbda5e09b	-0.08099481
151	0xbdb8793f	-0.09007501
152	0xbc77d6b2	-0.015126871
153	0xbd4a583a	-0.049400546
154	0xbcc5aae7	-0.024129344
155	0x3e71ff72	0.23632601
156	0xbc8d7557	-0.017267866
157	0xbe444c6f	-0.19169782
158	0xbdf5f5a3	-0.12009742
159	0x3e4c7181	0.19965173
160	0x3d4ecf29	0.050490532
161	0x3e21cfcc	0.15801924
162	0xbe741530	-0.23836207
163	0xbcbc1405	-0.022958765
164	0x3e00e47f	0.12587164
165	0xbe88a125	-0.26685444
166	0x3e871700	0.26384735
167	0x3e10e00c	0.14147967
168	0x3e50d70f	0.20394538
169	0x3e11eb48	0.14249909
170	0xbd31016c	-0.043214247
171	0xbe28510a	-0.16437164
172	0xbe625b91	-0.22105242
173	0xbe0b78fe	-0.13620374
174	0xbea00657	-0.31254837
175	0x3dab8409	0.08374793
176	0x3e9080b1	0.28223184
177	0xbd3618a4	-0.044457093
178	0xbd947d4e	-0.072504625
179	0xbdc9b991	-0.09849847
180	0xbe962c52	-0.2933069
181	0xbe55e835	-0.20889361
182	0x3ea4b04f	0.32165763
183	0x3e18b783	0.14913754
184	0x3c9099f6	0.01765154
185	0x3dd8946c	0.10575184
186	0x3e10504a	0.14093128
187	0xbd792fa5	-0.060836453
188	0xbe5e82e7	-0.21729623
189	0x3e902755	0.28155008
190	0xbdc8b4f3	-0.09800138
191	0xbddca577	-0.107737474
192	0xbc8ceff6	-0.017204266
193	0x3d90a08d	0.07061873
194	0xbe224f20	-0.15850496
195	0xbc97a318	-0.018510386
196	0xbe4cbb0a	-0.19993225
197	0x3a0b5194	0.0005314585
198	0xbe8f28d2	-0.2796083
199	0xbe08f13d	-0.13373275
200	0x3e1e7a8b	0.15476434
201	0xbdd45c68	-0.103691876
202	0x3da5d83b	0.08097883
203	0xbebc3699	-0.36760405
204	0x3e846e65	0.25865474
205	0x3c623703	0.013807061
206	0xbe73adca	-0.23796764
207	0xbe83ffbb	-0.25781044
208	0xbd6a7734	-0.057242587
209	0x3df26646	0.11835913
210	0x3e91f7ef	0.2850947
211	0x3d9e8db3	0.07741871
212	0xbdbe7e9a	-0.09301491
213	0xbe44f131	-0.19232632
214	0xbe41493f	-0.18875597
215	0x3b94466f	0.004524998
216	0xbe8db794	-0.27679121
217	0xbe50e730	-0.20400691
218	0x3c553a66	0.013014412
219	0x3d64bd15	0.055844385
220	0x3e2330f0	0.15936637
221	0x3e969aa3	0.29414853
222	0x3e98dcda	0.29855996
223	0xbeba463a	-0.36381704
224	0xbdb17888	-0.08665568
225	0x3e3f6757	0.18691765
226	0x3e9d8baa	0.30770618
227	0xbf14c7b2	-0.5811721
228	0xbd83b776	-0.06431477
229	0xbc9b860c	-0.018984817
230	0xbe2d2c19	-0.16911353
231	0x3e3e4b1a	0.18583336
232	0x3e3c245b	0.18373244
233	0xbeb0ef74	-0.34557688
234	0xbe4dc14b	-0.20093267
235	0xbe290bc0	-0.16508389
236	0xbd9aae1a	-0.075527385
237	0xbd84a7cc	-0.06477317
238	0xbeffc9e2	-0.49958712
239	0x3e043ae4	0.1291309
240	0xbdea88d7	-0.114518814
241	0xbda922b2	-0.08258571
242	0xbe3e069d	-0.1855721
243	0x3d866c0b	0.06563576
244	0xbe87cd01	-0.26523593
245	0x3e33ef41	0.17571737
246	0x3e2bca5c	0.16776413
247	0xbcadf1d9	-0.021233486
248	0xbe18f308	-0.14936459
249	0xbe063020	-0.13104296
250	0xbe5fb456	-0.21846136
251	0xbe6c6db3	-0.23088722
252	0xbdbc2b2e	-0.09187923
253	0x3e65ee50	0.2245419
254	0x3e85bcca	0.26120597
255	0x3e60ca02	0.2195206

gru.bias_ih_l0 f4 [96]
0	0x3ec06bf2	0.37582356
1	0x3d6411d6	0.055681072
2	0x3dbfbeb4	0.093625456
3	0x3dcd627b	0.10028549
4	0x3ea8c5aa	0.32963306
5	0x3ecd8e67	0.40147707
6	0x3ef0d9ff	0.47041318
7	0x3e796211	0.24353816
8	0x3ec8bd0f	0.3920674
9	0xbd0ec3f0	-0.03485483
10	0x3d55901a	0.05213938
11	0x3ec18e7d	0.37804022
12	0x3d35d9e6	0.044397257
13	0x3e9bc1e3	0.3042136
14	0x3e3f0ff6	0.18658432
15	0x3e620c24	0.22074944
16	0x3f0db2ac	0.55350757
17	0x3ea7117f	0.32630536
18	0x3d11c966	0.03559246
19	0xbd4b54b6	-0.049641334
20	0x3eaa68af	0.33282992
21	0x3e539065	0.20660551
22	0x3e3191e0	0.17340803
23	0x3e1c06ad	0.15236922
24	0x3e19601b	0.14978068
25	0x3e61965d	0.22030015
26	0x3e1ab842	0.15109351
27	0x3d5a8f28	0.05335918
28	0x3da459d7	0.08024948
29	0x3bb01713	0.0053738444
30	0x3e7f61ec	0.24939698
31	0x3d8ae357	0.06781643
32	0xbeab6094	-0.3347212
33	0xbe9c3086	-0.3050577
34	0xbf2de2bc	-0.67924094
35	0xbf00dec1	-0.50339895
36	0xbf1c2eea	-0.61009085
37	0xbf4ec992	-0.8077632
38	0xbf6547f5	-0.8956292
39	0xbf1e7937	-0.6190371
40	0xbf2ca108	-0.67433214
41	0xbe95e79d	-0.2927827
42	0xbec6774e	-0.38762897
43	0xbeb070db	-0.34461102
44	0xbf706870	-0.9390936
45	0xbf2e0e86	-0.6799091
46	0xbf0e4186	-0.5556873
47	0xbf3f7401	-0.7478638
48	0xbe3d9a3d	-0.18515868
49	0xbf286159	-0.6577354
50	0xbf631e80	-0.88718414
51	0x3c7a8e88	0.015292771
52	0xbf0735a6	-0.52816236
53	0xbf15bb18	-0.5848861
54	0xbf59b28b	-0.8503806
55	0xbf8b5554	-1.0885415
56	0xbe722479	-0.23646726
57	0x3dfbf6f3	0.12302961
58	0xbefc8d7a	-0.49326688
59	0xbf07ddb8	-0.5307269
60	0xbf5b4f46	-0.85667837
61	0xbf1e66e6	-0.6187576
62	0xbe2f3894	-0.17111427
63	0xbf350d22	-0.70723164
64	0x3ea3e30e	0.32009166
65	0x3d12d53a	0.03584788
66	0xbdcbd836	-0.09953348
67	0xbea7bc3f	-0.32760808
68	0xbe57edeb	-0.21086852
69	0xbeacfe4a	-0.33787757
70	0xbe2d152b	-0.16902606
71	0xbe5602c3	-0.20899491
72	0x3e52d1b8	0.20587814
73	0x3c61b1b0	0.013775274
74	0xbe906850	-0.28204584
75	0xbed5b5d4	-0.41740286
76	0xbe13adf1	-0.14421822
77	0xbebc7e73	-0.36815223
78	0x3e361001	0.17779543
79	0x3e52243c	0.20521635
80	0x3e428f93	0.19000082
81	0x3ebffbf5	0.37496915
82	0xbedd561d	-0.43229762
83	0xbeb0429e	-0.34425825
84	0xbea94273	-0.3305851
85	0x3e1d3c6d	0.15355082
86	0x3ea574dd	0.32315722
87	0xbef92c31	-0.48666528
88	0x3bac851c	0.0052648913
89	0x3c8393e4	0.01606173
90	0x3dcec197	0.10095518
91	0xbe32a99f	-0.17447518
92	0x3dce7f02	0.100828186
93	0x3d631a77	0.05544516
94	0xbd09111d	-0.033463586
95	0x3ea643b7	0.32473537

gru.bias_hh_l0 f4 [96]
0	0x3ec852db	0.39125714
1	0x3e051080	0.12994576
2	0x3ea7143b	0.32632622
3	0x3e997fd8	0.2998035
4	0x3f0dc577	0.5537943
5	0x3edee180	0.43531418
6	0x3ea8dfb9	0.32983187
7	0x3ea43b4b	0.32076487
8	0x3f15a28e	0.58451164
9	0xbe8b5134	-0.2721039
10	0x3e0a18c5	0.13486011
11	0x3ee10664	0.43950188
12	0xbdfb9ac4	-0.122853786
13	0x3e356342	0.17713645
14	0x3d436f6a	0.047713675
15	0x3e047c7c	0.12938112
16	0x3edd9bf2	0.4328304
17	0x3da4c4f3	0.080453776
18	0x3d1b276f	0.037879404
19	0xbc06f5d4	-0.008237321
20	0x3eaa16cc	0.33220518
21	0x3d9bf9a5	0.07615975
22	0x3d029256	0.031877838
23	0x3c983f7f	0.018584965
24	0x3e1ed4c0	0.15510845
25	0x3e4d0a52	0.20023468
26	0x3ca135a1	0.019678893
27	0x3e0ebcc6	0.13939199
28	0x3e369f49	0.178342
29	0x3e8c5c4e	0.27414173
30	0x3e210aa5	0.15726717
31	0x3c2b558f	0.0104574105
32	0xbf09d4d5	-0.5384038
33	0xbed5de87	-0.41771337
34	0xbf0e6ef8	-0.55638075
35	0xbf40c7d9	-0.75304943
36	0xbf0f3a03	-0.55947894
37	0xbf2ffddc	-0.68746734
38	0xbf829b68	-1.0203676
39	0xbf05094b	-0.51967305
40	0xbf2f110e	-0.683854
41	0xbede6a1d	-0.43440333
42	0xbe5602cb	-0.20899503
43	0xbefc3b01	-0.49263766
44	0xbf82e177	-1.0225056
45	0xbf5eb47c	-0.8699415
46	0xbf1afbdc	-0.60540557
47	0xbf4d371d	-0.8016222
48	0xbe355a16	-0.17710146
49	0xbefcf04f	-0.4940209
50	0xbf387e43	-0.7206766
51	0xbdb1b64d	-0.08677349
52	0xbee72414	-0.45144713
53	0xbf04c948	-0.5186963
54	0xbf61f615	-0.88266116
55	0xbf796e58	-0.97433996
56	0xbebfd815	-0.37469545
57	0x3e3bead0	0.18351293
58	0xbee8b540	-0.45450783
59	0xbf1f8d2e	-0.623248
60	0xbf6aef24	-0.9177115
61	0xbf54df5a	-0.8315331
62	0xbe803375	-0.2503926
63	0xbf2a2260	-0.664587
64	0x3e87c156	0.2651469
65	0x3cd4f4f0	0.025995702
66	0xbdc290d1	-0.09500278
67	0xbe839690	-0.25700808
68	0xbed321ec	-0.41236818
69	0xbef8854b	-0.48539194
70	0xbed81657	-0.42204544
71	0xbeae9b80	-0.34103012
72	0x3d6557c0	0.055991888
73	0x3d96c6da	0.07362147
74	0xbe938028	-0.28808713
75	0xbe71ef80	-0.23626518
76	0xbf1c29a6	-0.6100105
77	0xbde7250c	-0.11286363
78	0x3e6d9948	0.23203003
79	0x3f0b294a	0.5435988
80	0x3d563ada	0.05230222
81	0x3efafbeb	0.49020323
82	0xbeeb6365	-0.4597427
83	0xbe7fefd2	-0.24993828
84	0xbebc10d7	-0.36731598
85	0x3e964eec	0.29357088
86	0x3e893551	0.2679849
87	0xbf48934e	-0.7834977
88	0x3e71a1ad	0.2359683
89	0xbd3fb632	-0.046804614
90	0x3d88ea40	0.06685305
91	0x3e0143a1	0.12623455
92	0xbe68d7ac	-0.22738522
93	0x3c5a6bbf	0.013331353
94	0xbda22dd0	-0.07918894
95	0x3e84a0fe	0.25904077
