modules/prn_gen/exp/id/models/bigram/train-decoder-wdecay_1e_5-attn_dot-emb_64-hddn_32-layers_1-epoch_63.pth (torch, 71664 bytes, 7 tensors)

embedding.weight f4 [36, 64]
000000 22 a9 1c 3f 23 8b 10 bf 4b 74 44 be 24 d5 12 3f
       0.61195576 -0.56462306 -0.19184987 0.57356477
000010 9d 3f 0b 3f e7 2e ac 3f f4 6e b0 3f 1c cf 58 3f
       0.5439394 1.3451813 1.378386 0.84691024
000020 04 fe e8 3e e0 93 4f bf f3 6e 15 3b ae 9b 8f 3e
       0.455063 -0.81085014 0.0022801727 0.28048462
000030 c3 63 11 3f cd 72 89 bf b6 6f 87 3f 8a 9f 2a 3d
       0.5679285 -1.073816 1.0580966 0.041656055
000040 fd f5 ea 3e 10 89 f0 3e b2 08 08 40 f6 20 b4 3d
       0.458908 0.4697957 2.1255307 0.08795349
000050 b2 97 76 bf 99 1e 59 3f 0b 42 f9 3f 68 b0 84 bf
       -0.9632522 0.84812313 1.947328 -1.0366335
000060 74 5c b5 bf e3 be 57 3f 0b 65 47 3f 4d c4 ca be
       -1.416884 0.84275645 0.77888554 -0.3960289
000070 7a b2 0a 3f dd 32 16 bf a6 0f 10 3f f3 3b 12 bf
       0.54178584 -0.5867136 0.5627388 -0.57122725
000080 40 0d 18 3f f2 bf 9e bf 45 88 09 40 78 cf b8 3f
       0.5939522 -1.2402327 2.1489422 1.4438314
000090 4e b2 c5 3f a5 91 80 3f 0b b4 32 be 41 70 8c 3f
       1.5445039 1.0044447 -0.17451493 1.0971757
0000a0 ef d8 17 3e 1a 9f af 3e 27 ed cc be 6c c0 ef be
       0.14828847 0.34301072 -0.40024683 -0.46826494
0000b0 30 a6 dc bf 4a dd 85 be 39 e1 60 bf b9 b8 f2 3d
       -1.7238216 -0.26145393 -0.8784366 0.11851639
0000c0 91 0c bf bf 5b a5 67 3f 63 22 64 ba 83 38 11 3f
       -1.492571 0.9048669 -0.0008702634 0.56726855
0000d0 16 eb 1e bf fb 3c e3 3f 6f 6a e7 bf 27 ac 0e bb
       -0.6207746 1.7752985 -1.8079356 -0.0021770091
0000e0 1a 9b 43 3e aa ad 42 3d bf b5 be 3f 9f 16 8a 3f
       0.19102135 0.0475289 1.4899215 1.0788153
0000f0 36 c5 ba be f3 d8 34 bf 2d 88 0c 3e 0c 85 43 bf
       -0.36478585 -0.7064354 0.13723822 -0.7637489
000100 aa b9 27 3e bd b1 2c 3f 94 b1 3c bf 64 d5 51 3d
       0.16379419 0.6745871 -0.7370846 0.051228896
000110 7f 44 b1 3e 7c ad 59 3e 50 6a 58 3e 45 b9 ef be
       0.3462257 0.21257585 0.21134305 -0.46821037
000120 28 b1 4a bf 0c aa a7 3c ed 6f 01 3f 73 21 15 3e
       -0.7917657 0.020466827 0.5056141 0.14563541
000130 e2 2a c5 bd 8e 9b 15 3c f2 74 b4 bf 50 c5 46 3f
       -0.0962732 0.009131325 -1.4098189 0.77644825
000140 c0 a0 43 bf 80 d5 f9 be a9 e6 f3 3e 8f 03 0b 3f
       -0.7641716 -0.487957 0.47636917 0.54302305
000150 2d 4c cb bc 99 2d 56 3d ee 51 e9 3e b5 af ce 3e
       -0.024816597 0.05228958 0.4557032 0.4036843
000160 b4 d4 32 3e 09 75 cf bf 7b 45 65 3f 38 6e 13 3f
       0.17463952 -1.6207591 0.89559144 0.57590055
000170 82 80 38 3c 12 4a a1 bf b3 92 d4 3e 84 91 6e be
       0.011261107 -1.260073 0.41518173 -0.23297697
000180 cc 59 66 3f 8e f3 6f 3e bd dd d7 3e 34 2e 84 be
       0.8998077 0.23432752 0.4216136 -0.258165
000190 67 73 86 be d7 af 46 3f cf b0 d3 3d bd ca 86 3e
       -0.2625992 0.7761206 0.10336458 0.26326552
0001a0 a8 e2 60 bf 70 64 4d bf ea 0d be 3e 28 22 64 3e
       -0.8784585 -0.8023138 0.3711999 0.22278655
0001b0 31 d1 3c bf c5 0b 55 bf 6e a1 7e bc 86 b9 9f be
       -0.737567 -0.83221084 -0.0155414175 -0.3119623
0001c0 91 bd 84 be 10 02 8a 3f 75 69 8b bf c9 6a 27 3f
       -0.25925878 1.078188 -1.0891558 0.65397316
0001d0 78 a0 a2 bf 35 e7 9f bf 5a 6c da 3e 41 f2 bf bf
       -1.2705221 -1.2492434 0.4266079 -1.4995805
0001e0 50 8e 16 3f ae f1 a0 be 73 f5 6a 3f fb ab b8 bc
       0.588109 -0.31434387 0.91780776 -0.022542944
0001f0 ea 04 b2 3e 86 70 dd 39 03 71 b4 3f 93 ca da be
       0.34769374 0.0004223624 1.4096988 -0.42732677
000200 05 62 05 00 a5 5f 05 00 88 60 05 00 e7 64 05 00
       4.9434e-40 4.93488e-40 4.93806e-40 4.95374e-40
000210 48 58 05 00 82 63 05 00 f2 5a 05 00 6b 60 05 00
       4.90847e-40 4.94874e-40 4.91803e-40 4.93766e-40
000220 8a 61 05 80 6d 5c 05 80 b7 60 05 80 e8 5d 05 80
       -4.94168e-40 -4.92334e-40 -4.93872e-40 -4.92865e-40
000230 f3 63 05 80 da 58 05 00 e9 5b 05 00 11 64 05 00
       -4.95033e-40 4.91051e-40 4.92149e-40 4.95075e-40
000240 33 57 05 00 5d 59 05 00 10 63 05 00 57 59 05 80
       4.90459e-40 4.91235e-40 4.94714e-40 -4.91227e-40
000250 46 59 05 80 8d 60 05 80 ea 5c 05 80 9b 60 05 00
       -4.91203e-40 -4.93813e-40 -4.92509e-40 4.93833e-40
000260 aa 60 05 80 34 59 05 00 59 62 05 80 2f 65 05 00
       -4.93854e-40 4.91178e-40 -4.94458e-40 4.95475e-40
000270 26 5b 05 00 36 63 05 80 b5 64 05 80 67 5b 05 80
       4.91875e-40 -4.94768e-40 -4.95304e-40 -4.91966e-40
000280 bc 62 05 80 81 5a 05 80 e7 60 05 80 3f 57 05 00
       -4.94597e-40 -4.91644e-40 -4.9394e-40 4.90475e-40
000290 7b 60 05 80 53 62 05 00 2c 5a 05 00 6c 59 05 80
       -4.93788e-40 4.9445e-40 4.91525e-40 -4.91256e-40
0002a0 92 58 05 80 ef 61 05 80 f6 5d 05 00 89 5b 05 80
       -4.9095e-40 -4.9431e-40 4.92884e-40 -4.92014e-40
0002b0 f6 5d 05 80 31 e5 05 80 93 59 05 80 ef 58 05 00
       -4.92884e-40 -5.41396e-40 -4.9131e-40 4.91081e-40
0002c0 43 5a 05 80 69 5d 05 00 57 61 05 00 1d 61 05 00
       -4.91557e-40 4.92687e-40 4.94096e-40 4.94015e-40
0002d0 4b 61 05 00 e2 57 05 80 2d 61 05 80 04 9e 06 80
       4.9408e-40 -4.90704e-40 -4.94038e-40 -6.07698e-40
0002e0 c3 a8 06 00 da c3 06 80 de 39 06 80 cf 5d 05 80
       6.11553e-40 -6.21271e-40 -5.71772e-40 -4.9283e-40
0002f0 fd 59 05 00 e5 3a 06 80 07 61 05 80 e6 62 05 00
       4.91459e-40 -5.7214e-40 -4.93984e-40 4.94656e-40
000300 af 5b a6 3f 18 cf e0 be f5 87 06 3f f1 75 59 bf
       1.299673 -0.43908 0.52551204 -0.8494559
000310 71 21 a7 3f d1 12 43 3f e5 f6 2a 3f 01 bf c5 be
       1.305708 0.76200587 0.6678298 -0.38622287
000320 20 2d 17 3e 73 bc a2 bf 0f 2c 60 3c 69 40 99 3f
       0.14763308 -1.271376 0.013682379 1.1972781
000330 38 d4 7d 3f 02 45 09 3f 91 cc 5a bf b0 c5 c7 be
       0.99151945 0.5362092 -0.85468394 -0.3901801
000340 2b ce 69 3d d6 c3 b1 bd 34 c4 4c 3e 17 ac d7 3f
       0.057081383 -0.08679931 0.1999672 1.6849393
000350 4a 56 9b bf 06 74 10 bf 5c a3 8a be d3 8f 30 3e
       -1.2135708 -0.5642704 -0.27077758 0.17242365
000360 22 a5 01 bf c9 c8 86 bf b1 1e 60 bf bd 6d 86 bf
       -0.506426 -1.0530025 -0.8754683 -1.050224
000370 a9 7e 88 3e 55 73 71 bf 32 29 9f bc f6 5f 19 bf
       0.26659134 -0.9431661 -0.019428823 -0.5991205
000380 33 f8 08 be 05 d3 7e 3e a5 82 35 be f0 8c 6c bf
       -0.1337593 0.24885185 -0.17725618 -0.92402554
000390 5d b1 ec 3e ba e9 83 bf 99 c5 06 bf 0e 02 c8 bf
       0.46229067 -1.0305703 -0.5264526 -1.5625627
0003a0 0c 48 3a 3f 62 39 ab be e7 40 11 40 bc 63 8f 3f
       0.72766185 -0.33442217 2.2695863 1.1202312
0003b0 b2 f7 a9 be 8d b6 8d 3e 5c 90 ad 3e 8f 28 5d 3f
       -0.3319679 0.27678338 0.338992 0.8639001
0003c0 88 65 34 bf 9f eb 6b bf 28 3c dd be ab a5 2d bf
       -0.70467424 -0.92156404 -0.43209958 -0.67830914
0003d0 7b d4 0c bf fc 88 fb 3d 75 5d 21 bf 6f 6c ac 3e
       -0.5501172 0.12281987 -0.6303323 0.33676478
0003e0 f6 25 fa 3e f1 6d 84 be 0b ee 03 be f7 a5 0e 3e
       0.48857087 -0.2586513 -0.12883775 0.13930498
0003f0 cb 39 ae be 9f 45 8e bd 76 e6 c8 be 62 34 dc bf
       -0.34028468 -0.06946873 -0.39238328 -1.7203486

gru.weight_ih_l0 f4 [96, 96]
000000 5c 46 0d 3d 28 ed 80 bd 60 e9 af bc 53 26 3d bd
       0.034490928 -0.06295234 -0.021473587 -0.046179127
000010 1b 84 a5 3d c0 05 95 bd 10 2c af bd 8e 45 79 bd
       0.08081838 -0.07276487 -0.08553326 -0.06085735
000020 4f 69 cf 3d 69 65 30 bd 79 ff 33 3d 3b c1 9b 3e
       0.10127508 -0.043065462 0.04394481 0.3042086
000030 f4 f7 35 3d d1 ab 68 3e 8b 53 3b bd 21 1b 2b bd
       0.04442592 0.22721793 -0.04573397 -0.04177392
000040 50 ab 79 3c 00 d3 18 be f2 8f b6 bd 2d aa 88 3e
       0.015238598 -0.1492424 -0.08914174 0.26692334
000050 8d b6 d7 3c 01 83 03 3e 56 0e 37 be ad b9 e0 3c
       0.026332164 0.12842943 -0.17876562 0.027432287
000060 69 3e 08 3e 61 86 40 3d 84 8b e0 bd 42 60 bb bd
       0.13305058 0.047003154 -0.109641105 -0.09149219
000070 a1 94 95 3d 22 89 28 be 65 ae 01 3d ae 57 77 3d
       0.07303739 -0.16458562 0.031660456 0.060386352
000080 61 3a 66 3e 75 aa 7f 3e b4 28 14 be a4 54 1c be
       0.22483207 0.24967368 -0.14468652 -0.15266663
000090 d6 c2 6f bd 18 3d 20 be 42 1a 14 be bf 73 52 bd
       -0.05853542 -0.15648305 -0.14463142 -0.051379915
0000a0 0c 83 83 3e ce b1 17 bd 9b ad 98 3d 9f 4c 4e 3c
       0.25685918 -0.037034802 0.074549876 0.01259151
0000b0 5a b5 88 3d ee 04 14 3d f3 fa a1 3c 85 5f c5 3d
       0.06675215 0.036137514 0.019772982 0.096373595
0000c0 81 12 fa bd 3d 73 37 bd ff bf bb 3d 34 6d 65 be
       -0.122105606 -0.044787634 0.0916748 -0.22404939
0000d0 98 5d 13 be 03 76 c4 bd f4 a7 7b 3c 6f 46 c8 3d
       -0.14391172 -0.095928214 0.015359867 0.09779059
0000e0 bb 0a f2 bd 69 01 41 bd 0e 59 eb bd 15 54 e8 3d
       -0.11818453 -0.047120485 -0.11491595 0.113441624
0000f0 7e 3a 12 3e 90 d9 63 3c db 3e 32 be b1 ff 3a be
       0.14280125 0.013906851 -0.1740679 -0.18261601
000100 44 de 04 be 8d f2 92 38 c8 67 a5 3d 3d 32 ea 3c
       -0.12975413 7.007001e-05 0.08076435 0.028588409
000110 ba 3f b4 3c d9 83 5e be b9 5e c3 bd 41 f2 c3 bc
       0.022003043 -0.21729983 -0.09539551 -0.023919227
000120 ca 77 10 3e 89 6c b6 3d 26 04 7c 3d fc 90 fa bd
       0.14108196 0.0890742 0.061527394 -0.12234685
000130 8a ab 8a be af 21 a9 3d 57 2d 0a 3e f9 39 0d bd
       -0.27084 0.08258378 0.13493858 -0.034479115
000140 52 f7 84 3c b5 b2 98 3e b8 3f f1 bd 6f 67 93 be
       0.016231213 0.29823843 -0.117797315 -0.2878985
000150 8b 68 f1 3c 9f d2 8c 3d f9 9b 1c 3e 29 10 3b be
       0.029468795 0.0687611 0.15293874 -0.18267883
000160 ad 95 21 bc 67 19 34 be a9 1a 5e be 3c c4 64 3e
       -0.009862346 -0.17587815 -0.21689858 0.22340482
000170 13 85 fe bc f9 bd 25 be a5 c2 11 be 05 11 27 3d
       -0.031069314 -0.1618575 -0.14234407 0.040787715
000180 51 70 a7 3e c2 c4 f7 3d 38 70 10 3e 8c 4c d3 3b
       0.32702878 0.120980754 0.14105308 0.006448334
000190 05 99 37 3e 6e 07 ad 3d 0f 22 2a 3e 94 11 96 bc
       0.17929466 0.08448683 0.16614555 -0.018318929
0001a0 7d a1 3d 3e fc d6 3e 3c c0 47 44 bd a2 ff 5a 3e
       0.18518634 0.011647936 -0.04791999 0.21386579
0001b0 c9 ca 60 3c 86 b5 ae 3d 13 84 c9 bd 55 3a 5f bd
       0.013720223 0.085307166 -0.09839644 -0.05449899
0001c0 0a 45 01 3e b3 8e ae 3d 8e 94 fa 3d d6 47 82 3c
       0.12623993 0.085233115 0.12235366 0.015903395
0001d0 52 72 57 be 50 b6 00 3e 21 e0 a8 be 22 d1 89 be
       -0.21039703 0.12569547 -0.32983497 -0.26917368
0001e0 a1 da 6c 3d 15 b2 ac 3c 5e 17 04 bd 3f bb 77 bd
       0.05782569 0.02108101 -0.032248847 -0.060481306
0001f0 0f dd 60 3e 8c c6 7a 3e 79 0f 48 be 00 4c 23 3e
       0.21959327 0.24489802 -0.19537152 0.1594696
000200 64 06 7f 3e 98 bc e8 bd 35 e6 57 3e 6e 4c 07 bf
       0.24904782 -0.113640964 0.21083911 -0.52851
000210 96 34 0b 3e 6d 64 26 bd 7d 3f d0 ba 51 80 2b bd
       0.13594279 -0.040623117 -0.0015888062 -0.04187042
000220 2c 2d aa bd d5 7f bd 3d e7 01 f0 3d 30 25 41 3e
       -0.08309397 0.09252898 0.11719113 0.18861842
000230 26 9e b3 3d 16 3d 3a 3d 65 05 a5 be 9f 3f 8b 3e
       0.08770399 0.045468412 -0.32230678 0.27196977
000240 51 86 7f be 4c 5e 3a be b1 8c eb 3d c6 97 12 3c
       -0.24953581 -0.18200034 0.11501444 0.008947318
000250 d4 b9 1a 3a 68 d9 ea 3d bd aa b6 bb 77 4b d4 3d
       0.00059023243 0.11467248 -0.005574553 0.10365956
000260 00 06 f6 bd 7d 93 1a be 6a 7a 06 bc a1 97 22 bb
       -0.12012863 -0.15095325 -0.008207897 -0.0024809616
000270 24 39 c4 3c ba 24 56 bd bb 5a 2b be 88 3c 04 bb
       0.023953028 -0.05228112 -0.1673383 -0.002017768
000280 f6 bb 0f bd 60 ab b4 3e d2 31 5b 3e 97 aa 8d bd
       -0.035091363 0.35287 0.21405724 -0.06917303
000290 7d 4a f5 be 2b fb a9 3e 75 5d 1f 3f 56 6b 21 bc
       -0.47908393 0.33199438 0.6225198 -0.009852251
0002a0 b0 2d 99 bd 25 f6 88 be 8d 7b ae bd 02 c9 d1 bb
       -0.07479417 -0.26750293 -0.08519659 -0.006402136
0002b0 35 2f ac 3e ab 3e 6f 3e a5 40 b5 3e 62 9f ce bd
       0.33629766 0.2336375 0.35400882 -0.100889936
0002c0 8e fc 3a be b0 1d e2 3c da cd f1 3d 1a 63 ce bd
       -0.18260404 0.027602047 0.11806841 -0.10077496
0002d0 17 49 85 be 53 ed a0 3d 25 76 28 3e 7c 3c 1c 3d
       -0.26032326 0.07857766 0.16451319 0.03814362
0002e0 17 9f ca 3d c6 c3 ae 3d bd c0 e4 bd f0 58 e7 bb
       0.09893625 0.085334346 -0.111695744 -0.0070601627
0002f0 4e 04 91 3d 51 60 0d be 4b 19 f4 3b 4a 23 71 bb
       0.07080899 -0.13806273 0.007449304 -0.0036794716
000300 47 69 8f 3e 55 da b2 3d f0 c2 df 3d c8 95 45 3e
       0.28010008 0.0873305 0.10925853 0.19295418
000310 80 e4 bd 3d ed 4f ea 3d 49 8a 2d 3e 98 00 54 3c
       0.092720985 0.11441026 0.16947283 0.012939595
000320 3c 75 e0 bc 8c e8 41 be ac b8 5d be 4f 84 26 3e
       -0.027399652 -0.18936366 -0.21652478 0.16261409
000330 5e e8 9e 3c 23 82 33 3c 32 72 00 be bf 9f da bc
       0.01939791 0.01095632 -0.12543562 -0.026687501
000340 67 99 3a bd e0 74 02 3e 6e e8 b1 3d 0c 02 1f bd
       -0.045556452 0.12739897 0.086869106 -0.03882031
000350 11 33 9b bd cf ab 91 3d 3f c7 d4 3d 78 78 0f be
       -0.075780995 0.07112848 0.10389566 -0.14010799
000360 c3 ce d2 bd 80 bc 6b bc b4 96 36 be f8 52 50 bd
       -0.10293343 -0.014388204 -0.17830926 -0.050860375
000370 45 e8 90 ba 16 84 66 be df bd b8 bd 4b 81 07 bd
       -0.001105555 -0.22511324 -0.0902059 -0.033082288
000380 85 c9 aa bd b8 90 f6 bc 1d a0 53 bd e5 10 07 3c
       -0.08339218 -0.030098304 -0.051666368 0.008243774
000390 e6 a2 3b 3e 74 77 29 be 20 07 21 3d e9 6b 0e be
       0.1832386 -0.16549474 0.039313436 -0.13908352
0003a0 e3 2b 28 be 50 ee 03 bc 6f 16 6e 3e 7c 4d eb 3d
       -0.16422991 -0.008052424 0.23250745 0.11489388
0003b0 cb ae 89 3c d9 52 fa bd 95 4e ab 3c 5b 9a c6 3d
       0.01680698 -0.12222833 0.020911494 0.0969741
0003c0 e6 b6 e5 bd 5b 0b 0c 3c e2 ac 78 bd 53 40 9f bc
       -0.11216526 0.008547629 -0.06071175 -0.019439852
0003d0 18 c7 62 bb 26 78 99 be c6 23 59 be 9e f6 cb bd
       -0.0034603532 -0.29974478 -0.21205053 -0.09959148
0003e0 4a 1e 29 3e fa 22 aa bc e2 8a 52 be 8e 95 2e 3e
       0.1651546 -0.020768631 -0.20560792 0.17049238
0003f0 4e 29 38 be cb 61 68 be 52 85 17 3d 32 05 25 be
       -0.17984506 -0.22693555 0.03699238 -0.16115263

gru.weight_hh_l0 f4 [96, 32]
000000 25 e9 74 3d 93 6e bc 3d b3 1b c5 3d 00 cc 2f be
       0.059792656 0.09200778 0.09624424 -0.17167664
000010 65 16 d3 3c 82 bc af bd 41 a8 c5 3d a3 8a 1b 3e
       0.025767514 -0.08580877 0.096512325 0.15189604
000020 c2 92 fe bd ab d3 bd bd 07 b6 4c 3e e1 df 8d be
       -0.124303356 -0.09268888 0.19991313 -0.2770987
000030 dc e8 64 bd fa 59 ed 3c ee b7 79 3e c5 3b 2c 3e
       -0.055886135 0.028973568 0.2438657 0.16819675
000040 f9 ab 62 3e 40 63 71 3e 0a 93 3f be 2f dd 0e be
       0.22135915 0.23573017 -0.18708435 -0.13951562
000050 75 f2 31 3d 80 29 9c be e9 3a 84 3d e4 d1 01 be
       0.043444116 -0.30500412 0.06456549 -0.12677723
000060 d1 16 73 be 6b 7b 8f 3d b9 83 1f bc 48 10 4d 3e
       -0.23739173 0.07005962 -0.009735995 0.20025742
000070 f8 ad e3 3d e6 df 04 be af 10 fe bd c9 39 51 3e
       0.11117166 -0.12976035 -0.12405526 0.204322
000080 59 41 80 3e 89 c3 24 3d 22 c2 26 3e fc f7 b7 bd
       0.25049856 0.04022554 0.16284993 -0.08982846
000090 31 be 92 3d b3 76 8d bd 59 ba 52 bd cd 27 d1 bc
       0.071651824 -0.06907406 -0.051447246 -0.025531674
0000a0 ae 5b 2c be 33 ee 78 3e 67 c9 c5 3d 7a 37 d2 bd
       -0.16831848 0.24309616 0.09657555 -0.102644876
0000b0 e9 d3 69 be 5c de 73 3d f8 86 51 3e e6 23 a2 3d
       -0.22834744 0.05953823 0.20461643 0.07917003
0000c0 dc 7d cf 3d 41 60 da 3d 29 34 a6 be 5a f6 9e 3d
       0.10131428 0.1066289 -0.3246167 0.077618316
0000d0 9a f4 a9 be ad f8 82 3d 07 79 dd 3d 82 d4 ed bd
       -0.3319443 0.063950874 0.108141 -0.11612798
0000e0 2c 1a 31 be 7e 38 9e 3e bf d1 73 3d e5 02 a9 bd
       -0.1729514 0.30902475 0.0595262 -0.08252505
0000f0 4a a8 07 bd 67 6f 33 be 2e 96 aa bd 98 82 85 bd
       -0.033119477 -0.17522965 -0.08329426 -0.065190494
000100 4e 68 8a bd 64 17 0f bd 32 4c 14 3e f0 6f 84 3e
       -0.06758176 -0.034934416 0.14482191 0.25866652
000110 99 2e 5f 3e c6 1d 90 3e 2c 53 5e bd 66 35 00 bd
       0.2179512 0.28147715 -0.054278538 -0.031300925
000120 64 27 5b 3d f6 e5 ed bd 1f 6c 03 3e 63 9f 90 bc
       0.053504363 -0.11616127 0.12834214 -0.017654127
000130 09 f9 a1 bd a0 10 97 3e db 7b 49 be f4 f3 bc bd
       -0.07908828 0.2950487 -0.19676153 -0.09226218
000140 f7 6e fc bd 53 b3 8a bd 31 a5 bc 3c 51 14 ac be
       -0.12325852 -0.06772485 0.023027988 -0.3360925
000150 34 2e f0 bd 74 2a 55 3e 18 79 2f be bd 40 96 bc
       -0.117275625 0.20816976 -0.17136037 -0.018341416
000160 9d eb 8f bd e7 68 25 be 42 22 19 be a7 50 b1 3c
       -0.070273615 -0.16153298 -0.14954475 0.021644903
000170 2e d7 2f 3d 3c 7b 57 be ac 91 e5 3d e9 02 8e be
       0.04292982 -0.21043104 0.11209425 -0.27736595
000180 af 1a 2d bc 3d a8 45 3e a1 48 6b 3e aa 60 4a 3e
       -0.010565444 0.19302459 0.22976924 0.19763437
000190 e0 ec 40 bd 01 95 8f bd 53 12 48 bd 6f 79 ca 3c
       -0.0471009 -0.07010842 -0.0488456 0.024716107
0001a0 40 84 16 be 56 6e b0 be 64 07 a3 3e 78 6b 0d 3e
       -0.14698887 -0.3445918 0.31841576 0.13810527
0001b0 27 eb d3 3b 87 6e 25 3e 9a 35 10 be d1 a9 ef bb
       0.0064672413 0.16155444 -0.14082947 -0.007313945
0001c0 7c ac 97 3d 0d 35 e2 bc 31 98 58 be 6c 36 ec 3d
       0.07405946 -0.027613187 -0.21151806 0.11533818
0001d0 bf 9e 93 ba ed 9a 6d 3c 1b a7 72 be 14 3c a7 bc
       -0.001126252 0.014502269 -0.23696558 -0.02041439
0001e0 0a cf 22 3e 41 6e 4e be 92 e2 64 be 07 83 d4 3c
       0.15899292 -0.20159246 -0.22352055 0.025941385
0001f0 12 b6 4f 3e 49 5c 87 be 07 ff 4f 3d 65 be 33 3e
       0.20284298 -0.26437595 0.050780322 0.17553098
000200 28 7b f0 3d c8 a0 4d 3e 46 85 85 3d a9 80 9d bd
       0.1174224 0.20080864 0.065195605 -0.076905556
000210 39 e4 e9 3d c5 70 40 3d 21 3a 1f 3e cc 80 49 3d
       0.11420483 0.046982545 0.15549518 0.049195096
000220 4e f7 ba 3d 61 0e dd be 37 9d 45 be e8 86 bb 3d
       0.09129201 -0.43175033 -0.19298254 0.09156591
000230 c1 0b a1 3e 0d fc ab bd 17 78 89 be 08 f6 e0 3d
       0.3145428 -0.08397684 -0.26849434 0.10984427
000240 83 8b 5f bd 31 59 0f 3e a8 f4 c2 be b5 5c 92 be
       -0.054576408 0.13998868 -0.38077283 -0.28586355
000250 c2 13 80 3d db a5 ce 3d bf eb e2 bd 85 f8 1c be
       0.062537685 0.10090228 -0.11080121 -0.15329178
000260 af 55 4f 3e d8 00 af be 71 8a 19 3e c1 65 78 bd
       0.2024753 -0.3418033 0.14994217 -0.060643915
000270 36 64 0a bd fb b4 4f be d4 4e 3e bd 61 f8 10 3e
       -0.033786975 -0.20283882 -0.046461895 0.14157249
000280 9a af 42 3c 1f e9 c2 3d 11 4d 2f 3b 2a 17 28 bd
       0.011882687 0.095171206 0.0026748816 -0.041037716
000290 2e f2 34 3d e2 94 70 3d 24 0d 1a 3e 5f 76 e5 3d
       0.044176273 0.058735736 0.15044075 0.11204218
0002a0 c0 26 7c 3c 03 67 44 bc 9e fc 85 bc 1e 91 52 bd
       0.015390098 -0.0119874505 -0.016355809 -0.051407926
0002b0 63 f6 7d 3d 06 61 29 3e 62 52 12 3d 4c 26 cf 3c
       0.06200255 0.16540918 0.035723098 0.025286816
0002c0 11 05 9c be de c4 a4 bd dd 63 4f bd e6 85 1d be
       -0.30472615 -0.08045362 -0.050632346 -0.1538311
0002d0 db af 0e 3e 91 ce de bd 37 ad 97 3d f7 cf df bc
       0.13934271 -0.10879243 0.07406085 -0.027320845
0002e0 cb 6a 6a 3e e1 9f 85 bd a0 dc ae 3c f3 5d 90 3e
       0.22892301 -0.06524635 0.021345437 0.28196678
0002f0 2d 64 af 3d 49 f7 2d bd 05 18 21 3e 76 d5 4b 3e
       0.08564029 -0.042472158 0.15731819 0.19905648
000300 ee 6b 64 bc ee 15 57 3e 5d 81 e3 3e 7e 27 2a 3e
       -0.013941748 0.2100446 0.44434634 0.16616628
000310 60 ca 21 3e 38 7c 93 3b 21 05 48 3e 4d 15 67 3e
       0.15799856 0.004500892 0.19533207 0.2256672
000320 4b 9b 84 be 3d 7b b8 3d 26 0b 9f be 3a d5 1b 3e
       -0.2589973 0.09007881 -0.31063193 0.15218058
000330 12 bc 16 be 76 53 10 3e a7 5d a8 bd c0 d3 84 bc
       -0.1472018 0.14094338 -0.08220988 -0.016214252
000340 aa d6 87 be f0 a6 20 3e d6 f8 e5 3d 49 3d 5d 3d
       -0.26530963 0.15688682 0.11229102 0.054013524
000350 9a b9 bd bd da 0e b8 bd 0b e1 b1 be a8 1e e5 bd
       -0.09263916 -0.08987208 -0.34742007 -0.11187488
000360 c1 82 0f 3e c7 47 a0 3d 36 aa 70 3d 20 3a b6 3d
       0.14014722 0.078261904 0.058756076 0.08897805
000370 8d 90 83 3e d9 ca 47 be ee 6a a2 3d 1e 88 13 3c
       0.2569622 -0.19510974 0.079305515 0.009004621
000380 5a c3 c9 bd 51 b5 3b be 7e f3 8c 3d b7 85 66 3e
       -0.098517135 -0.18330885 0.0688238 0.22511946
000390 92 ed a8 3e 10 2d 32 3d 96 27 37 bd 9c c3 93 be
       0.32993752 0.043500006 -0.044715486 -0.28860176
0003a0 2f ed 68 3e be 80 ee bd a9 ef 54 3b dd 2e b3 3e
       0.22746728 -0.116456494 0.0032491481 0.3499669
0003b0 32 f0 5b 3e 89 2a fc be cb a9 55 3e 50 ab 4f 3e
       0.21478346 -0.49251202 0.20865552 0.20280194
0003c0 c9 d0 18 bd 9b 07 cb 3e ca c2 4b 3c b4 12 91 bd
       -0.037308488 0.3965424 0.012436578 -0.070836455
0003d0 b5 d2 07 bf 56 cf 01 3e d6 66 85 bd 38 33 71 be
       -0.5305589 0.12676749 -0.06513755 -0.23554695
0003e0 80 8d 48 3e 97 94 12 3e 5f 1d 1b 3e 20 71 40 be
       0.19585228 0.14314495 0.15147923 -0.18793154
0003f0 97 5c 9f be 3a a7 46 bd a2 39 3c 3d 5a 04 8b 3e
       -0.31125328 -0.048499323 0.0459534 0.27151757

gru.bias_ih_l0 f4 [96]
000000 04 19 be 3d d0 b3 2a 3e d9 f5 e5 bd 57 db 74 3e
       0.09282115 0.16670156 -0.11228532 0.23911797
000010 03 a4 ce bd 1a 12 41 3d 2c b7 f0 3b d8 7d d3 3d
       -0.100898765 0.047136404 0.0073460545 0.10326737
000020 af 7f 23 be e0 02 ca 3d 60 98 0e be c7 da 09 3d
       -0.15966676 0.098638296 -0.13925314 0.033655908
000030 1d 3b 3f 3e 38 7a 24 bd d9 f2 a7 3d 17 5d 05 3e
       0.18674894 -0.04015562 0.082006164 0.13023792
000040 76 0e 34 3e 63 85 03 3e ee 5b d9 bc 98 be 6b 3d
       0.17583641 0.12843852 -0.026533093 0.05755481
000050 42 84 8b 3e 28 13 da bd 3a a9 ba bd f0 5d 10 3e
       0.27249342 -0.10648185 -0.09114309 0.14098334
000060 4a 42 87 3d e6 3e d0 3d 5c 36 88 3d f7 8a 83 3e
       0.066044405 0.10168247 0.06650993 0.2569196
000070 96 74 17 be 9b 5b c9 3b ae ce cf bc 09 58 09 3d
       -0.14790568 0.0061449534 -0.025367107 0.033531222
000080 3e 74 50 bd c8 83 9f be fc 9e 54 be bc 3e ed be
       -0.050892107 -0.3115523 -0.20763773 -0.46336925
000090 00 b8 37 be e2 b2 2b 3e 0c 58 68 be ef ff a2 be
       -0.17941284 0.16767457 -0.22689837 -0.31835887
0000a0 b9 1d 99 be ab 1f 85 be b1 4b 94 be b4 20 c2 3d
       -0.2990549 -0.26000723 -0.28963998 0.09478894
0000b0 7d 0d 02 be 74 21 8d be d2 d3 6f be a3 c8 44 3e
       -0.12700458 -0.27564585 -0.23420647 0.19217162
0000c0 86 c7 a7 be b2 a9 16 be 78 80 74 bd b8 e6 c7 3d
       -0.32769412 -0.14713171 -0.05969283 0.09760803
0000d0 0b 6f 29 bc b5 fc 6c be 80 93 9a be f6 05 3e 3c
       -0.010341416 -0.23143275 -0.3019066 0.011598101
0000e0 ba 15 84 be 0c d0 9c 3e 39 b7 63 be 0d 65 39 be
       -0.25797826 0.30627477 -0.22237863 -0.18104954
0000f0 fa 7d fd be 2a e9 8d be 36 9c 9d 3d 96 d8 1c bf
       -0.49510175 -0.27716953 0.076958105 -0.61267984
000100 7e 08 0c 3d 87 53 93 3d ca 33 8e 3e 65 8d 81 3e
       0.034187786 0.07193666 0.27773887 0.25303188
000110 3f c3 71 3c 3d 82 7b 3e 37 4d 9d bc e2 54 65 3d
       0.014756023 0.245614 -0.019201858 0.055989154
000120 66 38 2a be ea ce bb 3d fd 95 1a be 2e 80 27 be
       -0.16623077 0.09170325 -0.15096278 -0.1635749
000130 09 61 0c 3d 56 57 47 3d ec 37 4d bb 4c c0 9f 3c
       0.034272227 0.048667274 -0.003131385 0.019500874
000140 a0 37 a6 3c da 3e fb 3d 54 45 b8 bc 59 02 e2 3c
       0.020290196 0.12267847 -0.022493996 0.02758901
000150 67 b4 4f 3e 04 57 25 bd cc c2 9f 3d 51 27 15 3e
       0.20283662 -0.040366188 0.078008264 0.1456578
000160 91 fd 3c 3d 2e 52 1e 3e c6 13 f5 bd f8 a7 a5 bd
       0.046140257 0.15461037 -0.11966662 -0.08088678
000170 69 ad 33 3e d1 a2 aa bc d6 c6 8b 3e 5c 39 3e 3e
       0.1754662 -0.02082959 0.27300137 0.18576568

gru.bias_hh_l0 f4 [96]
000000 84 65 5b 3e ea e0 89 bd 6e 84 c7 bd 3f 54 18 3e
       0.21425444 -0.06732352 -0.09742056 0.14875887
000010 e2 0c 02 3e 99 b0 22 3d 47 6c fc 3c e1 0e 47 bd
       0.12700227 0.039719198 0.03081335 -0.048598174
000020 41 28 59 be 2a eb ce bc 0e 12 31 bd 94 56 9d 3d
       -0.21206762 -0.02525862 -0.04323011 0.07682529
000030 eb 54 2f 3e 88 b7 d9 bb e4 6e f6 3d 94 28 06 3e
       0.17122237 -0.006644193 0.120328695 0.13101417
000040 56 43 42 3b 0a 09 7d bc 7e 81 5e bd 35 fc fb bd
       0.0029642186 -0.01544405 -0.054322712 -0.12303964
000050 29 27 a5 3e cb ae 12 be 0e 38 7f 3d 5a 96 37 bc
       0.3225644 -0.1432449 0.062309317 -0.01120528
000060 d5 6d d4 bd d5 af 6c 3c eb 7b 0b 3e 51 cb 16 3e
       -0.10372511 0.0144462185 0.1362149 0.14725997
000070 96 ae 2a 3d 2d 0b dc bd 6a c1 3d 3e 0f f6 91 3d
       0.041670404 -0.10744319 0.18530813 0.0712701
000080 97 5b 16 be 32 a6 9f be 59 a1 31 be 08 d2 d0 be
       -0.14683376 -0.31181484 -0.17346705 -0.4078524
000090 5b 08 a7 bc 67 01 3b 3d 98 07 80 be b5 79 ec be
       -0.020389726 0.045655634 -0.25005794 -0.46186605
0000a0 6e 6d 35 be 2e b1 40 be 4b 02 4d be b1 3c dc bd
       -0.17717525 -0.18817589 -0.20020406 -0.107537635
0000b0 03 fa 6c 3d 5f e8 35 bd 5c 59 03 bf 24 41 22 3e
       0.057855617 -0.04441106 -0.51308227 0.15845162
0000c0 4f 6a ec be f8 4b 90 be ef 5f b5 3d 36 d5 0a 3e
       -0.46174857 -0.2818296 0.088561885 0.13557896
0000d0 35 51 48 be b1 08 c0 bc 82 e7 d3 bd 01 e6 33 bd
       -0.19562228 -0.023441644 -0.10346891 -0.04392052
0000e0 55 0a 87 be 24 7c c3 3e 68 af b9 be 30 6e 80 be
       -0.2637507 0.3818065 -0.36266637 -0.25084066
0000f0 f7 5b e9 be 0c 06 85 be f4 b7 0c bd b8 ec 14 bf
       -0.45577976 -0.25981176 -0.03435512 -0.58173704
000100 79 9e 3e be 72 28 42 3e 4f 1d d9 3d 80 7b 58 3a
       -0.1861514 0.18960741 0.10601293 0.0008258149
000110 79 2c ad bc ed 26 28 3e f1 a1 42 3e 9a 34 31 3e
       -0.02113937 0.16421099 0.19007088 0.17305222
000120 80 84 4a bd 08 9b 94 3e c2 7c 02 be 8a d0 0f be
       -0.049442768 0.2902453 -0.12742904 -0.14044395
000130 6d 97 69 bd d0 38 65 3e f8 b8 55 be 34 ce a6 bc
       -0.057029177 0.22384953 -0.20871341 -0.020361997
000140 e9 2c b8 be c7 42 ec bd 88 bb 0f 3e 71 02 ec bd
       -0.35971764 -0.11536174 0.14036381 -0.11523903
000150 7a d7 48 3e 39 0d 13 bd b4 8a 8c bd 3b ae f8 3d
       0.19613448 -0.035901282 -0.06862393 0.12142607
000160 46 c4 85 bd e8 7b 56 3e 6a 73 d9 bd 53 d0 01 3d
       -0.06531577 0.20945704 -0.106177166 0.031692814
000170 4c 52 96 ba 56 28 46 be 77 67 b5 3c b4 da 89 3e
       -0.0011468618 -0.19351324 0.022144062 0.2692467

out.weight f4 [36, 64]
000000 66 60 de bc 50 38 12 be b3 98 32 be e7 bf 37 bd
       -0.027145576 -0.14279294 -0.17441063 -0.044860747
000010 48 bc 5f 3c 92 92 62 bd 82 43 c5 bd ee e9 df bd
       0.01365573 -0.05531556 -0.09632017 -0.109332904
000020 f0 9f c6 3d f0 9d f5 bc 0e ee 86 3d 77 16 6c 3d
       0.096984744 -0.029982537 0.06588374 0.05763861
000030 9e 96 c0 3d 34 87 7f 3d f3 63 3e 3c 05 4b fa bd
       0.09403728 0.0623848 0.011620509 -0.1222134
000040 0b f6 8b 3d 86 5a 9c bd 0b 72 2f 3e bf ad 83 3b
       0.06834038 -0.076344535 0.17133348 0.004018515
000050 3b 84 36 bd 5d a2 02 3e 14 d0 16 bc 8a ba 2c 3e
       -0.0445597 0.12757249 -0.009204883 0.16868034
000060 4b 0f c9 bc 7f b9 be bd af 7c 01 3e a3 06 72 bd
       -0.024543425 -0.09312724 0.1264522 -0.05908836
000070 ce a6 ef bd 43 37 fe 3c c3 f4 ac bd 4c 95 2f be
       -0.11701737 0.03103221 -0.08445122 -0.17146796
000080 ed 64 a6 3c 94 ae d2 3d 9f 34 02 be 01 a2 01 bc
       0.020311797 0.102872044 -0.12715386 -0.00791216
000090 73 de 4f bc 10 61 9a bc f7 a9 09 be 03 55 f2 3c
       -0.012687313 -0.018845111 -0.13443743 0.029581552
0000a0 57 14 f0 3c ab 1c 97 bc 44 28 f4 3b 36 6e 89 3c
       0.029306574 -0.018446287 0.007451089 0.016776185
0000b0 ad 18 25 3e 1d ca 3f 3d 82 c8 8d bd ea 77 00 3c
       0.16122694 0.04682361 -0.069230095 0.00784109
0000c0 e0 9f 57 3e a1 fc cc bd 7a 1a 0c 3e 32 7b 0c 3e
       0.21057081 -0.10009123 0.13681975 0.1371887
0000d0 db f2 e8 3d a0 c3 0c bd 98 1f 42 bc 30 ad 11 3e
       0.11374446 -0.03436625 -0.011848353 0.14226222
0000e0 88 05 84 3d 4c ae 80 3d eb 57 77 bc d5 1a 1b bd
       0.064463675 0.062832445 -0.015096645 -0.037867386
0000f0 83 15 fb bb 32 cf a8 3d c0 db ba bd fb b2 14 bd
       -0.0076624765 0.08242644 -0.09123945 -0.0363035
000100 27 4a 5e be cb 06 65 3f df 00 52 3e 5d ea 53 3f
       -0.21707974 0.8946349 0.20508145 0.82779485
000110 f4 bf cf bc 76 58 45 3e ee 68 b1 3e 1d 28 74 3f
       -0.025360085 0.19272026 0.34650367 0.9537371
000120 ef a6 36 bf 92 b8 22 3f aa fa d4 be 6f 37 4d be
       -0.7134847 0.6356288 -0.41597492 -0.20040677
000130 a7 fe 6f be ad 71 73 3f d6 89 6e bf 75 18 e9 be
       -0.23436986 0.9509533 -0.9317907 -0.45526472
000140 e2 be 08 bf f8 63 a7 bf 78 e7 29 3f 13 02 70 3f
       -0.53416264 -1.3077383 0.6636882 0.93753165
000150 be 94 be 3e 41 5d f1 be 77 1c d3 3c c1 9b af 3f
       0.37222856 -0.4714146 0.025770409 1.3719407
000160 a2 f4 e5 be 88 5e 38 3f 98 2f 45 3f 54 25 c0 3e
       -0.44913203 0.72019243 0.7702575 0.3752848
000170 93 b4 0f be 7f d5 b3 be 50 b0 ca 3e 68 e6 df be
       -0.14033727 -0.35123822 0.3958764 -0.43730474
000180 40 0c 60 3e eb 15 b0 be fb b2 ca 3e c3 9d 78 be
       0.21879673 -0.34391722 0.39589676 -0.24278931
000190 8d cd 9a be 28 24 39 be 75 13 c5 3e 3a e1 67 be
       -0.30234948 -0.18080199 0.38491407 -0.22644511
0001a0 2b 8b 8c be a4 bf ae be 6b 64 b7 3d 0a 1f 1c bf
       -0.27449927 -0.34130585 0.089547 -0.6098486
0001b0 ac 6d f5 be e6 10 c4 be 7c 62 4e 3f 2c 7f 81 be
       -0.47935236 -0.38294142 0.80619025 -0.25292337
0001c0 78 76 87 be c3 99 e3 3e b4 b3 02 be 35 3a 0d 3f
       -0.26457572 0.44453248 -0.12763864 0.5516694
0001d0 6c 84 7b 3e d7 1a 0a 3f 8d e8 89 3e 0d 2a 3a bd
       0.24562234 0.53947204 0.26935235 -0.04545026
0001e0 41 2b c3 3d 15 8b 74 3e 02 3b 60 3e 1e c7 9a be
       0.095297344 0.2388118 0.2189751 -0.3023004
0001f0 46 44 d4 be d4 52 91 be bf 92 c8 be a6 7a 2e 3d
       -0.41458338 -0.28383505 -0.39174458 0.042597435
000200 6b 60 de bc 5e 38 12 be c6 98 32 be de bf 37 bd
       -0.027145585 -0.14279315 -0.17441091 -0.044860713
000210 20 bc 5f 3c a5 92 62 bd 7b 43 c5 bd f7 e9 df bd
       0.013655692 -0.055315632 -0.096320115 -0.10933297
000220 0b a0 c6 3d 2c 9e f5 bc 1e ee 86 3d 70 16 6c 3d
       0.096984945 -0.029982649 0.06588386 0.057638586
000230 aa 96 c0 3d 3c 87 7f 3d e8 63 3e 3c 0d 4b fa bd
       0.09403737 0.06238483 0.011620499 -0.12221346
000240 04 f6 8b 3d 84 5a 9c bd 08 72 2f 3e cc ad 83 3b
       0.06834033 -0.07634452 0.17133343 0.004018521
000250 40 84 36 bd 5a a2 02 3e dd cf 16 bc 85 ba 2c 3e
       -0.044559717 0.12757245 -0.009204832 0.16868027
000260 42 0f c9 bc 8f b9 be bd b0 7c 01 3e 9f 06 72 bd
       -0.024543408 -0.09312736 0.12645221 -0.059088346
000270 d4 a6 ef bd 36 37 fe 3c c1 f4 ac bd 47 95 2f be
       -0.11701742 0.031032186 -0.084451206 -0.17146789
000280 e0 64 a6 3c 88 ae d2 3d 9b 34 02 be c4 a1 01 bc
       0.020311773 0.102871954 -0.1271538 -0.007912103
000290 38 de 4f bc 00 61 9a bc f5 a9 09 be 0b 55 f2 3c
       -0.012687258 -0.018845081 -0.1344374 0.029581567
0002a0 58 14 f0 3c 81 1c 97 bc 27 28 f4 3b 4c 6e 89 3c
       0.029306576 -0.018446209 0.0074510756 0.016776226
0002b0 a1 18 25 3e 19 ca 3f 3d 82 c8 8d bd 12 78 00 3c
       0.16122676 0.046823595 -0.069230095 0.007841127
0002c0 d6 9f 57 3e 9b fc cc bd 75 1a 0c 3e 2c 7b 0c 3e
       0.21057066 -0.10009118 0.13681968 0.13718861
0002d0 d6 f2 e8 3d 9c c3 0c bd ad 1f 42 bc 2d ad 11 3e
       0.11374442 -0.034366235 -0.011848372 0.14226218
0002e0 83 05 84 3d 44 ae 80 3d f9 57 77 bc cf 1a 1b bd
       0.06446364 0.062832385 -0.015096658 -0.037867364
0002f0 92 15 fb bb 2c cf a8 3d ba db ba bd f9 b2 14 bd
       -0.0076624835 0.0824264 -0.09123941 -0.036303494
000300 bd 94 d2 3c c5 d0 e1 be 04 ce dc 3d ae 61 12 3f
       0.02570569 -0.4410459 0.10781482 0.571803
000310 00 10 b9 3e 54 c0 98 3e 8f 2c 26 bf 1d 7c 73 be
       0.3614502 0.29834235 -0.6491174 -0.23777814
000320 40 1f 74 be 1f b6 c1 3f 2b d9 b3 bf f1 84 2e bf
       -0.23840046 1.5133704 -1.405065 -0.681716
000330 ca 58 c2 be 22 07 fc 3d ab c1 d4 be 60 53 89 3f
       -0.37958366 0.12306048 -0.41554007 1.0728569
000340 88 00 26 3d 26 81 bf 3f 7e 67 9d be 9e 43 60 bf
       0.04052785 1.4961288 -0.3074302 -0.87603176
000350 16 f1 d8 be 58 51 f4 be 21 fe 09 bf fa db 57 bf
       -0.42371434 -0.4771831 -0.53903395 -0.8432003
000360 86 55 a9 be 68 c7 10 3e 15 05 69 be bc c7 91 3e
       -0.33073062 0.14138567 -0.22755845 0.28472698
000370 60 c5 52 bd a7 e6 4a 3e 23 6f 20 be 20 ae 62 3f
       -0.051457763 0.1981455 -0.15667395 0.88546944
000380 ee ed 7c 3d 4a b1 21 3f f5 f8 8e 3e bf fc e0 bf
       0.061750345 0.63161147 0.27924314 -1.7577132
000390 50 0e 67 bf c1 dc 61 be 69 4f bd bd c2 21 6d bf
       -0.90256214 -0.22056867 -0.09243662 -0.92629635
0003a0 10 b0 b8 be 5b 78 02 bf 6a 85 83 3f 9c 39 72 be
       -0.36071825 -0.509649 1.027509 -0.23654789
0003b0 36 67 bc 3e 8c c8 e4 bf 3c 21 7f bf 42 8e 1e c0
       0.36797494 -1.7873702 -0.99660087 -2.4774327
0003c0 c2 45 99 be dd f4 7a 3f 6e 0d 6a 3d a3 52 2f be
       -0.29936033 0.9802988 0.057141714 -0.17121367
0003d0 4f 7f 33 3f 53 1f 01 3d f3 1d b2 bd 63 b5 9f be
       0.7011613 0.031524014 -0.086971186 -0.31193075
0003e0 c9 f4 8b bf 77 f0 53 bf 68 0e 96 bf 3c 35 77 3f
       -1.0934078 -0.82788795 -1.1723146 0.96565604
0003f0 7e f8 5b 3e 7e a4 09 3e 46 33 6c 3f 1d 73 a9 bf
       0.21481511 0.13441655 0.9226574 -1.3238255

out.bias f4 [36]
000000 28 4f bf be 91 82 87 3e 39 4f bf be 71 b4 2f 3e
       -0.3736508 0.26466802 -0.3736513 0.17158677
000010 52 d4 be be ce be 10 bf de d3 0d 3c fb 15 b9 be
       -0.37271363 -0.56541145 0.00865647 -0.36149582
000020 12 40 cc be 6b 1f 23 bf e1 c5 bd be bf 6a bb 3c
       -0.39892632 -0.63719815 -0.37065032 0.022878049
000030 02 a3 8b be 5d 50 74 be a6 ca c8 be f8 fe 14 be
       -0.27272803 -0.23858781 -0.39217108 -0.14550388
000040 88 67 30 3d 29 0e 10 be 75 bb 06 be 05 65 94 be
       0.043067485 -0.14067902 -0.13157447 -0.28983322
000050 63 a5 0f be 19 75 72 3e f2 8d 4a be 57 fd 0d be
       -0.14027934 0.23677482 -0.1978071 -0.13866173
000060 46 6d 81 be 8f 2f db bd ae 38 86 3e a4 28 d9 bb
       -0.25278682 -0.107024305 0.26215118 -0.006627159
000070 e2 78 a7 3c a4 99 50 3d b2 75 42 3e f9 c1 fc bd
       0.020443384 0.050927773 0.1899021 -0.12341685
000080 3e af 06 be f4 09 24 be 26 0a 95 be b8 55 aa be
       -0.13152787 -0.16019422 -0.29109305 -0.33268523
