modules/prn_gen/exp/id/models/unigram/FIN-decoder-wdecay_1e_5-attn_dot-emb_64-hddn_50-layers_1-epoch_72.pth (torch, 126496 bytes, 7 tensors)

embedding.weight f4 [36, 64]
0.92823845 -0.32490402 0.5523795 0.07641879 0.28345692 -0.062573195 -0.004079487 -0.19396952
1.9413842 0.11591171 1.8941712 1.0798897 1.7592212 -0.604887 0.79293615 1.2325128
-0.09573736 -1.297267 -0.2954059 -0.10281852 0.82625717 1.1287968 0.5668868 0.46114528
0.8354695 -0.97191113 -0.38246626 0.88804615 0.2860235 -0.17772782 -1.4446256 2.0902202
-1.4436822 0.5121245 -0.0049991375 1.0648781 0.0007887192 -0.037928935 0.4227519 -0.4076928
-1.0184659 -0.07960283 0.06662736 0.0221684 0.098859 0.019053532 0.5245454 -0.69573885
-0.23120211 1.4180988 -1.4082843 -1.6762197 0.5424243 -0.28287435 -0.5918249 -0.6965015
1.27241 -0.7786138 0.2581299 0.9081585 1.5182863 0.15447131 -0.80943596 0.11208827
0.494393 0.5515457 1.0833669 -0.07330196 -1.18995 -0.1653476 -0.48581487 -0.49111056
-1.1755484 0.16422942 0.14680761 -0.33563116 0.7289776 0.9352888 -0.30672184 -0.29149663
-0.3293688 -0.9714702 0.038449474 0.05005595 -1.2287099 0.089597575 -0.37871337 -1.0817105
0.2929435 0.92468804 0.19070475 0.99136657 -0.09884786 -0.08096384 -0.8015546 0.474337
0.96782094 -0.7657842 0.2229351 0.10557042 0.7175965 0.23388247 -0.4878935 -0.28252557
-0.407112 0.5998391 0.45790195 1.5449075 0.1878559 0.16045983 0.22305223 0.1240992
-0.51566035 -0.24865857 -0.5889132 1.045212 0.0943825 -0.34660837 0.43742824 -0.94328994
-0.40343234 0.20844384 0.113032736 -0.86888224 0.050148357 -0.27797744 0.12926017 -0.19271001
-4.91627e-40 -4.9398e-40 4.94797e-40 -4.92401e-40 -4.90901e-40 -4.93125e-40 -4.915e-40 6.05191e-40
6.1806e-40 -4.95013e-40 4.93373e-40 4.94071e-40 -4.92879e-40 -4.91738e-40 4.93214e-40 -4.94674e-40
-4.92306e-40 4.93972e-40 -5.1437e-40 -4.9503e-40 -4.91322e-40 -4.93006e-40 -4.91731e-40 -4.90795e-40
-4.93327e-40 -4.94608e-40 -4.92538e-40 -4.94189e-40 4.90467e-40 4.94269e-40 -4.94665e-40 4.92584e-40
4.95254e-40 -6.22112e-40 -4.91961e-40 -4.9701e-40 -4.91546e-40 4.92123e-40 4.92933e-40 -4.9385e-40
5.68899e-40 -4.91105e-40 -4.93628e-40 -4.92645e-40 -4.9129e-40 -4.9301e-40 -4.91438e-40 4.92315e-40
-4.91678e-40 4.94839e-40 4.92702e-40 4.90553e-40 6.17266e-40 4.93916e-40 -4.92821e-40 4.94721e-40
-4.91584e-40 -4.9147e-40 -4.90959e-40 -4.94577e-40 -4.9119e-40 -4.94113e-40 4.95401e-40 4.92603e-40
1.186248 0.8276959 -1.2290051 0.49372563 0.24428275 -1.0686394 -0.7331454 0.9901341
0.42546389 -0.74741507 0.15453725 -1.3185914 -0.4856318 -0.19565412 -0.104132086 1.1392999
0.61353385 -1.6902163 0.64208746 -0.41752478 -0.87957746 0.6395801 0.17371519 1.3234067
-0.45658618 0.03682243 -1.0236498 0.15447572 -0.44290903 0.17732337 0.9206659 -2.0034654
0.045045085 0.40416658 0.32613057 -0.7105886 0.3949643 0.10965441 0.4540732 -2.4234478
-0.15706547 -0.017235303 -0.32606813 0.560614 1.9370484 0.17801647 -0.9899688 1.1008902
-0.6760393 -0.350436 -1.077441 1.3506479 -0.79985046 -0.01136831 -0.5825918 -0.3482914
2.4925838 -1.3516636 0.045529526 1.9786153 -0.1883625 -0.50238955 -0.27359563 0.08025977
00000000: 09a1 6d3f d259 a6be be68 0d3f 7481 9c3d
00000010: 4421 913e 6026 80bd 38ad 85bb f29f 46be
00000020: 477f f83f 1e63 ed3d 3474 f23f d339 8a3f
00000030: 292e e13f e0d9 1abf ddfd 4a3f fbc2 9d3f
00000040: f311 c4bd d80c a6bf 713f 97be 8492 d2bd
00000050: 9785 533f 6a7c 903f 7e1f 113f 3c1b ec3e
00000060: 54e1 553f 2bcf 78bf 9ed2 c3be fe56 633f
00000070: ac71 923e 48fe 35be 7ee9 b8bf 2bc6 0540
00000080: 94ca b8bf 971a 033f cecf a3bb ed4d 883f
00000090: 0dc2 4e3a 5f5b 1bbd f072 d83e 1cbd d0be
000000a0: 175d 82bf cf06 a3bd ed73 883d 819a b53c
000000b0: 9676 ca3d 2716 9c3c 9b48 063f f11b 32bf
000000c0: 3fc0 6cbe 4384 b53f a942 b4bf 5e8e d6bf
000000d0: 52dc 0a3f e8d4 90be d681 17bf ec4d 32bf
000000e0: 55de a23f 3c53 47bf 9a29 843e 137d 683f
000000f0: 3557 c23f ba2d 1e3e 3237 4fbf 898e e53d
00000100: 1421 fd3e 1932 0d3f c4ab 8a3f 571f 96bd
00000110: 4850 98bf e250 29be babc f8be d872 fbbe
00000120: 5f78 96bf c22b 283e bc54 163e d9d7 abbe
00000130: 479e 3a3f 166f 6f3f a50a 9dbe 0c3f 95be
00000140: 07a3 a8be 45b2 78bf 327d 1d3d 7807 4d3d
00000150: 5e46 9dbf ef7e b73d b8e6 c1be 7d75 8abf
00000160: b1fc 953e 5bb8 6c3f 1b48 433e 33ca 7d3f
00000170: bf70 cabd 5fd0 a5bd af32 4dbf 4ddc f23e
00000180: 1dc3 773f 6f0a 44bf 1949 643e 4e35 d83d
00000190: 67b4 373f e37e 6f3e 2dcd f9be 31a7 90be
000001a0: fc70 d0be 0e8f 193f 2072 ea3e 87bf c53f
000001b0: 4c5d 403e 954f 243e ce67 643e b927 fe3d
000001c0: 5102 04bf 5aa0 7ebe 04c3 16bf 82c9 853f
000001d0: 9d4b c13d a776 b1be 98f6 df3e 737b 71bf
000001e0: af8e cebe 4d72 553e b57d e73d 116f 5ebf
000001f0: 5d68 4d3d 0f53 8ebe c75c 043e c655 45be
00000200: 755a 0580 0461 0580 4b63 0500 9d5c 0580
00000210: 6f58 0580 a25e 0580 1a5a 0580 0797 0600
00000220: e6ba 0600 e563 0580 535f 0500 4561 0500
00000230: f25d 0580 c45a 0580 e15e 0500 f362 0580
00000240: 595c 0580 fe60 0500 db99 0580 f163 0580
00000250: 9b59 0580 4d5e 0580 bf5a 0580 2358 0580
00000260: 325f 0580 c462 0580 ff5c 0580 9961 0580
00000270: 3957 0500 d261 0500 ed62 0580 205d 0500
00000280: 9164 0500 32c6 0680 635b 0580 7669 0580
00000290: 3b5a 0580 d75b 0500 195e 0500 a760 0580
000002a0: dc31 0600 0059 0580 0960 0580 4b5d 0580
000002b0: 8459 0580 505e 0580 ee59 0580 605c 0500
000002c0: 995a 0580 6963 0500 745d 0500 7657 0500
000002d0: b0b8 0600 d660 0500 c95d 0580 1563 0500
000002e0: 565a 0580 055a 0580 9858 0580 ae62 0580
000002f0: 3d59 0580 6361 0580 fa64 0500 2d5d 0500
00000300: f9d6 973f e1e3 533f 0a50 9dbf 9bc9 fc3e
00000310: 4225 7a3e 2dc9 88bf 6baf 3bbf 6e79 7d3f
00000320: 67d6 d93e 9856 3fbf 033f 1e3e 9ac7 a8bf
00000330: bba4 f8be 8e59 48be 3443 d5bd 94d4 913f
00000340: 8e10 1d3f 0259 d8bf d85f 243f cfc5 d5be
00000350: fd2b 61bf 85bb 233f 65e2 313e 6465 a93f
00000360: aac5 e9be 1ed3 163d f506 83bf e22e 1e3e
00000370: f9c4 e2be 4294 353e c3b0 6b3f c738 00c0
00000380: 3281 383d ecee ce3e 96fa a63e 22e9 35bf
00000390: c338 ca3e 7e92 e03d 487c e83e c519 1bc0
000003a0: c5d5 20be 0d31 8dbc 67f2 a6be 6684 0f3f
000003b0: 34f1 f73f f349 363e 986e 7dbf f8e9 8c3f
000003c0: e910 2dbf 596c b3be 96e9 89bf 08e2 ac3f
000003d0: 00c3 4cbf 2642 3abc bc24 15bf 4053 b2be
000003e0: 7e86 1f40 5003 adbf 2b7d 3a3d 4443 fd3f
000003f0: 19e2 40be 9a9c 00bf ba14 8cbe 3c5f a43d

gru.weight_ih_l0 f4 [150, 114]
0.015739527 0.04721498 -0.013255885 -0.022155399 -0.03295626 -0.01150254 0.059147187 -0.020760888
-0.0133003285 0.0351595 -0.02262459 0.03270103 -0.022589589 -0.0007796569 0.054025613 -0.011876639
-0.0053157452 0.011911755 -0.014609034 -0.016767409 -0.0011585795 0.007429481 -0.013323048 -0.0066832136
-0.0052092713 -0.03961963 -0.002147715 -0.039813146 -0.009763122 -0.022508183 -0.03126316 -0.020168588
0.014987954 0.027076164 -0.008327696 0.0069412356 -0.025141574 0.0012542263 0.005716577 0.0074032294
0.017251577 -0.009907341 -0.008586487 -0.046053465 0.015983231 0.021596327 -0.046023447 0.044271547
0.027906053 -0.010253474 -0.008178839 0.002295813 0.026760392 0.032376833 -0.0036342158 0.030687481
-0.01190868 -0.0065895556 0.020112513 0.010339956 -0.0073376414 -0.018894967 -0.021682736 0.016800214
-0.00426648 -0.025420323 -0.004202205 -0.044499204 0.013953026 0.016411379 0.01654134 -0.048907902
0.058070466 0.007745959 0.04170511 -0.026998559 0.00855808 -0.0096846875 -0.016318476 0.029834822
-0.0074622063 -0.03514501 0.016672704 -0.021777904 -0.013075456 -0.015585622 -0.046406813 0.010886297
-0.022766646 -0.023578046 -0.0021986528 -0.01683405 0.029214725 -0.0068776365 -0.011310037 0.035866022
0.019243978 -0.059864882 0.00093727943 0.03183924 -0.03366122 -0.02727716 -0.04357385 0.017174944
0.0026543448 0.0015729292 0.035181485 0.036600504 -0.015355417 0.016296357 0.041330434 0.027699059
0.0025404717 -0.05730002 0.054161493 0.07534049 0.12499839 -0.0015555726 0.0064762863 0.05156031
0.0656524 -0.014508164 0.15820938 -0.023533346 0.079019316 0.115538195 0.14332137 0.0032173817
0.05425906 0.008103093 -0.045292687 -0.077195086 -0.07063479 -0.013577321 0.07063806 0.08797227
-0.053694822 0.0016584209 0.045400914 -0.12219738 -0.039503258 0.03728916 -0.029223608 0.022055756
-0.11000289 0.17659695 -0.015221531 0.07276398 0.02472816 0.06960926 -0.13329366 -0.042950656
0.076664075 -0.0645586 -0.08485165 0.02059921 0.008085646 0.027757151 -0.019198505 0.07052936
-0.044757564 -0.013897487 -0.03804238 0.059092894 -0.08862984 -0.14408645 0.06943759 0.019580543
-0.008640561 -0.014041591 0.101391025 -0.0642013 -0.044632368 -0.003370274 0.15371874 0.05512742
-0.068746455 -0.05882816 -0.011847299 0.08073846 -0.04045734 -0.06313447 -0.029730922 -0.04341976
0.040362753 -0.02920626 0.029946225 -0.036382366 0.025485648 0.010838387 0.019951168 0.0028302579
-0.0050039454 0.075622305 0.0021517873 -0.017044686 0.013532227 -0.0044326573 0.026791537 -0.028808886
-0.034241915 -0.030400546 -0.07025803 -0.012395786 0.028778458 -0.10175257 0.046012197 -0.010409708
0.03301421 0.02085223 -0.026408914 -0.0872924 0.013638278 0.019133553 0.012324362 0.03861852
-0.004247952 0.011827849 -0.04400161 0.005132891 0.041341346 0.026583163 -0.024565773 -0.01862967
-0.028981188 0.03784878 0.014961365 -0.031491637 -0.026486166 0.022112707 0.035060566 0.09246783
0.034355585 0.10301448 0.0011544664 0.06554221 0.08105521 -0.07228253 0.081947275 -0.27113283
0.011453396 0.049070768 0.1344696 0.11910195 -0.20358147 -0.22255898 0.036120147 -0.10507754
0.099719554 0.013727107 -0.2371547 -0.018276416 0.109424 0.067255564 -0.00823344 0.025798729
00000000: 2ef0 803c 7f64 413d 362f 59bc 3d7f b5bc
00000010: 25fd 06bd 2675 3cbc 5244 723d bd12 aabc
00000020: 9fe9 59bc 6803 103d 3457 b9bc 84f1 053d
00000030: cd0d b9bc e461 4cba f649 5d3d 3c96 42bc
00000040: b42f aebb 8629 433c bb5a 6fbc ce5b 89bc
00000050: 7adb 97ba 0173 f33b ea48 5abc dcfe dabb
00000060: 89b2 aabb 3148 22bd aec0 0cbb 1c13 23bd
00000070: 80f5 1fbc 1563 b8bc cd0d 00bd 9838 a5bc
00000080: 0990 753c d5ce dd3c e370 08bc 4e73 e33b
00000090: b4f5 cdbc da64 a43a 2052 bb3b ca96 f23b
000000a0: 2e53 8d3c 6652 22bc 56ae 0cbc 8fa2 3cbd
000000b0: 44ef 823c c8ea b03c 1583 3cbd 1556 353d
000000c0: 3c9b e43c 30fe 27bc 8a00 06bc 5a75 163b
000000d0: 9c38 db3c 929d 043d 062c 6ebb 5064 fb3c
000000e0: a01c 43bc 33ed d7bb ffc2 a43c eb68 293c
000000f0: 9970 f0bb 9ec9 9abc fe9f b1bc 9aa0 893c
00000100: d4cd 8bbb 483e d0bc a7b2 89bb cc44 36bd
00000110: 3c9b 643c 2871 863c b481 873c a753 48bd
00000120: 4cdb 6d3d d0d1 fd3b fad2 2a3d 152c ddbc
00000130: 3037 0c3c 86ac 1ebc 53ae 85bc 2868 f43c
00000140: 8685 f4bb 37f4 0fbd 3295 883c 9367 b2bc
00000150: 703a 56bc d65a 7fbc 1215 3ebd 705c 323c
00000160: 1e81 babc bf26 c1bc 4617 10bb 90e7 89bc
00000170: b853 ef3c cc5d e1bb bc4d 39bc 40e8 123d
00000180: 8ca5 9d3c e134 75bd c2b3 753a dd69 023d
00000190: 59e0 09bd 5a74 dfbc 7e7a 32bd 78b2 8c3c
000001a0: 84f4 2d3b bf2a ce3a 761a 103d 69ea 153d
000001b0: 4995 7bbc f07f 853c 1a4a 293d 23e9 e23c
000001c0: 0b7e 263b 6db3 6abd 71d8 5d3d 1d4c 9a3d
000001d0: 28ff ff3d 5be4 cbba 0737 d43b e730 533d
000001e0: c474 863d a6b3 6dbc a401 223e 01c9 c0bc
000001f0: e1d4 a13d 4a9f ec3d d6c2 123e b5da 523b
00000200: c03e 5e3d d6c2 043c d384 39bd 7518 9ebd
00000210: f9a8 90bd 6973 5ebc b0aa 903d ce2a b43d
00000220: 1aef 5bbd 5f5f d93a 4ff6 393d 9f42 fabd
00000230: 2bce 21bd 85bc 183d 5966 efbc 46ae b43c
00000240: 3249 e1bd d5d5 343e ba63 79bc 4805 953d
00000250: b692 ca3c 4d8f 8e3d 227e 08be 07ed 2fbd
00000260: 0e02 9d3d 4d37 84bd b4c6 adbd adbf a83c
00000270: a879 043c f762 e33c 2f46 9dbc b271 903d
00000280: b553 37bd 49b2 63bc 54d2 1bbd 640b 723d
00000290: 9083 b5bd 668b 13be 4c35 8e3d 6067 a03c
000002a0: 2491 0dbc b40e 66bc 19a6 cf3d f97b 83bd
000002b0: 6ed0 36bd d1df 5cbb 7268 1d3e 4acd 613d
000002c0: f1ca 8cbd ccf5 70bd 2c1b 42bc 355a a53d
000002d0: 99b6 25bd a54c 81bd 438e f3bc ebd8 31bd
000002e0: 6a53 253d f741 efbc c951 f53c ad05 15bd
000002f0: 47c7 d03c 7d93 313c a270 a33c d97b 393b
00000300: 23f8 a3bb dedf 9a3d 0005 0d3b 4ca1 8bbc
00000310: 46b6 5d3c d33f 91bb ed79 db3c 9d00 ecbc
00000320: 4041 0cbd 910a f9bc 71e3 8fbd b217 4bbc
00000330: cdc0 eb3c a763 d0bd 4977 3c3d 7b8d 2abc
00000340: e939 073d 4cd2 aa3c 8257 d8bc 5cc6 b2bd
00000350: 1573 5f3c f8bd 9c3c 1fec 493c 742e 1e3d
00000360: 6732 8bbb 98c9 413c 083b 34bd cf31 a83b
00000370: 8b55 293d efc4 d93c 293e c9bc 409d 98bc
00000380: f569 edbc 5307 1b3d 8320 753c 60fd 00bd
00000390: 84f9 d8bc b525 b53c ab9b 0f3d c65f bd3d
000003a0: 71b8 0c3d 41f9 d23d 7751 973a ff3a 863d
000003b0: 4600 a63d dd08 94bd f9d3 a73d ecd1 8abe
000003c0: 06a7 3b3c 6efe 483d 66b2 093e b9eb f33d
000003d0: a977 50be 80e6 63be b8f2 133d e532 d7bd
000003e0: c439 cc3d a9e7 603c afd8 72be 6cb8 95bc
000003f0: b119 e03d 49bd 893d 8de5 06bc db57 d33c

gru.weight_hh_l0 f4 [150, 50]
0.0043230173 0.0041674543 -0.017720662 0.05005599 0.048082065 -0.022870686 0.011779032 -0.03148915
0.050512094 0.038425446 0.059059408 -0.0005866865 0.0114479875 -0.022192413 -0.020737858 -0.004294317
-0.010992372 -0.003968694 -0.02129952 -0.0007369595 0.02708742 0.010764779 0.007020568 -0.0130681
-0.015038444 -0.032799903 0.005994873 -0.010732673 0.010880232 -0.058734108 0.00195994 0.0562089
0.002525115 -0.018524032 0.026186323 0.046413343 0.06437794 0.010975661 -0.061486475 0.0032269892
0.015974563 -0.04948123 0.030670974 0.035855502 0.019161459 0.028625887 0.021061221 0.01382747
0.08017111 -0.061421864 -0.035812628 0.0400331 0.0050313096 -0.040838417 -0.017401012 -0.047201347
0.056661233 -0.008699878 0.004591766 -0.07007279 -0.021154154 0.023108594 -0.0003567234 -0.059978895
0.009070415 -0.03168005 -0.03490057 -0.04580687 -0.00420863 -0.058177073 -0.058383793 -0.0074483124
0.06229009 -0.042615786 0.015400823 -0.03748622 -0.011901814 -0.039294697 0.08094707 0.01968028
0.017941471 0.046171583 0.013806838 -0.011523746 0.018263727 -0.044420637 0.025422541 -0.016130488
0.017147552 -0.02397073 -0.025021598 -0.008386332 -0.055340108 0.044276293 -0.043861106 0.031445947
0.03568657 0.067448385 0.0746507 0.05697166 0.18874855 -0.0574835 0.17093252 0.016796552
0.062328633 -0.05046425 -0.24813403 -0.017274542 0.015751276 -0.02153933 -0.05393099 0.009984866
-0.04508103 -0.08262503 -0.056258935 -0.11428657 -0.10352472 -0.07261151 -0.03938992 -0.13897045
0.017810963 -0.0012182619 -0.02572219 0.0603949 0.02980094 -0.0062318733 0.08935644 0.0041243113
0.085283935 0.21239963 0.004812206 0.021322519 -0.0005021134 0.108211204 0.07331786 -0.023268605
0.11781908 -0.0064924085 0.037908476 -0.049939647 0.17340213 -0.028016614 0.005629583 -0.05321798
0.017916415 -0.07261789 -0.04260231 0.018791208 0.16458212 0.13348588 -0.051593337 -0.061419494
0.16305816 0.052735582 -0.107824035 0.19141793 -0.09493308 0.066426024 -0.08123133 -0.13333267
-0.17465277 0.054139975 -0.017055137 0.20196387 0.02823741 0.120747976 -0.07108996 0.11387209
-0.073372744 0.014876461 0.0515941 -0.102089964 0.03841645 0.1429593 -0.15651351 0.18704253
-0.0996426 -0.115863785 -0.09413766 -0.096664004 -0.094178535 0.0011453625 0.020444244 0.013555608
0.11135781 -0.07458246 0.07409612 -0.057057973 -0.05169423 -0.09325559 -0.22954477 0.106856674
-0.2504642 0.03311366 -0.045609035 -0.2010307 0.25868025 0.0689528 0.11120942 -0.13179663
-0.109674044 0.019364102 -0.0076965895 -0.030783607 -0.012357249 -0.020509962 -0.013035272 -0.030383931
0.052250493 0.0474041 0.008999362 0.022767141 0.09121341 0.045776844 -0.08072343 0.11213451
0.10344008 0.08872953 0.041940182 -0.10488387 -0.060523015 -0.079351306 -0.03463364 0.27124214
-0.025259513 -0.06304853 -0.10295942 -0.004592119 0.07957748 0.07198219 0.018719425 0.09651841
0.028263805 -0.10767321 -0.030383848 0.115256354 0.06302 -0.038100168 -0.08018788 -0.111577086
-0.0594749 -0.057167638 0.07534409 0.0879858 0.034699734 0.098456204 -0.04792518 0.04513027
-0.015458714 -0.16447 0.19144784 -0.20349014 0.009000212 -0.21772605 0.050524183 0.24413876
00000000: 19a8 8d3b 248f 883b ec2a 91bc 8307 4d3d
00000010: b3f1 443d 4e5b bbbc d7fc 403c c4fa 00bd
00000020: c5e5 4e3d 0064 1d3d 47e8 713d ddcb 19ba
00000030: 5790 3b3c ddcc b5bc 71e2 a9bc 58b7 8cbb
00000040: 5a19 34bc d10b 82bb 557c aebc 8430 41ba
00000050: 70e6 dd3c c15e 303c cb0c e63b 961b 56bc
00000060: ce63 76bc 3159 06bd a470 c43b 18d8 2fbc
00000070: 0043 323c 2d93 70bd 5672 003b 4e3b 663d
00000080: 667c 253b b6bf 97bc b384 d63c eb1b 3e3d
00000090: 95d8 833d 42d3 333c 3ed9 7bbd e57b 533b
000000a0: 16dd 823c d5ac 4abd b241 fb3c 38dd 123d
000000b0: 7ef8 9c3c d680 ea3c 9588 ac3c 9d8c 623c
000000c0: c030 a43d 7e95 7bbd 43b0 12bd bff9 233d
000000d0: afdd a43b 2f46 27bd 918c 8ebc 3356 41bd
000000e0: 9c15 683d ef89 0ebc 8676 963b 5382 8fbd
000000f0: 7a4b adbc 3c4e bd3c 9b06 bbb9 6eac 75bd
00000100: 149c 143c f1c2 01bd e6f3 0ebd fc9f 3bbd
00000110: 8ce8 89bb 154b 6ebd d823 6fbd f910 f4bb
00000120: e523 7f3d e48d 2ebd bc53 7c3c 278b 19bd
00000130: d3ff 42bc 7af3 20bd 94c7 a53d 8a38 a13c
00000140: fef9 923c 6a1e 3d3d 1336 623c 18ce 3cbc
00000150: d09d 953c 6af2 35bd ef42 d03c 1624 84bc
00000160: 0679 8c3c 445e c4bc 18fa ccbc d366 09bc
00000170: 4fac 62bd 0f5b 353d b4a7 33bd 77cd 003d
00000180: 152c 123d 6122 8a3d 77e2 983d 1e5b 693d
00000190: 4d47 413e d273 6bbd ef08 2f3e ec98 893c
000001a0: 4f4c 7f3d 9ab3 4ebd d916 7ebe 5783 8dbc
000001b0: d208 813c 4073 b0bc bee6 5cbd 9097 233c
000001c0: e3a6 38bd 5037 a9bd c56f 66bd 140f eabd
000001d0: c504 d4bd 58b5 94bd 5357 21bd 454e 0ebe
000001e0: 4ce8 913c 16ae 9fba 58b7 d2bc a560 773d
000001f0: 1a21 f43c be34 ccbb 8200 b73d 3b25 873b
00000200: 58a9 ae3d 4a7f 593e b6af 9d3b 90ac ae3c
00000210: 43a0 03ba d69d dd3d ad27 963d cd9d bebc
00000220: 214b f13d 45be d4bb eb45 1b3d 848d 4cbd
00000230: 5490 313e 1983 e5bc 5d78 b83b 19fb 59bd
00000240: 72c5 923c b0b8 94bd c37f 2ebd 05f0 993c
00000250: 3788 283e 86b0 083e 8953 53bd 0293 7bbd
00000260: b8f8 263e 4401 583d d9d2 dcbd 1003 443e
00000270: 466c c2bd 5e0a 883d 9d5c a6bd 5c88 08be
00000280: 2dd8 32be e1c1 5d3d 37b7 8bbc 9ecf 4e3e
00000290: 2452 e73c b74a f73d 9d97 91bd c535 e93d
000002a0: 7344 96bd 66bc 733c 5654 533d 8b14 d1bd
000002b0: 915a 1d3d ec63 123e 1445 20be 1488 3f3e
000002c0: 6b11 ccbd fe49 edbd 3fcb c0bd c7f7 c5bd
000002d0: ade0 c0bd fd1f 963a b07a a73c 5718 5e3c
000002e0: 900f e43d b0be 98bd b5bf 973d 9fb5 69bd
000002f0: 54bd 53bd c9fc bebd c90d 6bbe acd7 da3d
00000300: d83c 80be 30a2 073d 8ad0 3abd feda 4dbe
00000310: bd71 843e 2037 8d3d c4c1 e33d b2f5 06be
00000320: c99c e0bd 77a1 9e3c ac33 fcbb e72d fcbc
00000330: 0f76 4abc 8204 a8bc e591 55bc b9e7 f8bc
00000340: 9d04 563d cd2a 423d 0f72 133c 2882 ba3c
00000350: 19ce ba3d 8080 3b3d 5352 a5bd c7a6 e53d
00000360: 65d8 d33d d4b7 b53d 78c9 2b3d 5bcd d6bd
00000370: fbe6 77bd f082 a2bd 01dc 0dbd 40e0 8a3e
00000380: 0aed cebc 961f 81bd 63dc d2bd 7c79 96bb
00000390: 85f9 a23d 666b 933d 7b59 993c 72ab c53d
000003a0: 7f89 e73c c683 dcbd 8ce7 f8bc 860b ec3d
000003b0: a110 813d ec0e 1cbd 8b39 a4bd 8782 e4bd
000003c0: f49b 73bd 9d28 6abd 014e 9a3d e631 b43d
000003d0: 4f21 0e3d 68a3 c93d 324d 44bd 85da 383d
000003e0: 8c46 7dbc d36a 28be e70a 443e b85f 50be
000003f0: a075 133c 94f3 5ebe 72f2 4e3d 83ff 793e

gru.bias_ih_l0 f4 [150]
-0.0070246565 0.027229449 -0.0023128553 0.090588905 -0.05932707 -0.00279945 -0.052180454 0.15976714
-0.020322448 0.026924076 -0.073210694 -0.023540048 -0.052198574 0.06223185 0.01838531 0.04824414
0.13002813 0.0396814 0.06262385 0.05873894 -0.0050346395 0.049626485 0.0163195 0.013903253
0.03872496 0.15282483 0.043790597 -0.043219805 0.04080569 -0.11909809 0.02386094 0.07399238
0.009531716 0.1252451 -0.085933834 0.055832215 -0.11417475 0.033246733 0.0118590025 -0.1529068
-0.08214467 0.040799342 -0.07659953 0.24884714 -0.0054414333 0.018072208 0.16407837 -0.011015799
-0.04927113 0.0785226 0.19996873 0.08888989 -0.11616946 0.019974496 0.043163817 0.011736836
0.12826554 -0.2835761 -0.13736778 -0.02897541 -0.16815265 -0.107141964 0.11857839 -0.040071987
-0.12177841 -0.34986687 -0.16679747 0.11421108 -0.21114387 -0.3808531 -0.013622844 -0.20420049
-0.21796972 -0.30309036 0.071156085 0.00479276 0.07657582 -0.15022321 -0.15753351 -0.3826539
-0.12716652 0.05632763 -0.2464406 -0.2794035 -0.2938027 0.028583461 -0.159949 -0.1396046
-0.05799428 -0.036798432 -0.08930356 0.09721835 -0.044563264 -0.12548608 -0.2780335 0.020748468
-0.036599252 0.19375116 0.068216935 0.0063586654 0.039718058 0.06736378 -0.02957346 -0.12462197
-0.12809041 -0.04362683 0.08621953 0.13536903 -0.12534013 -0.16814114 -0.11549748 0.15989555
-0.013266531 0.15555684 -0.056480512 -0.098710544 -0.17536846 0.031193618 0.096817896 -0.13290583
0.17472805 -0.16437045 0.18397442 -0.14045097 -0.016280191 0.06223449 -0.027710944 -0.16809295
0.12802121 0.06456383 -0.13320345 -0.024844224 -0.23151158 0.084530175 0.12109966 -0.0692523
-0.07692978 -0.08817707 0.16033608 -0.07851392 -0.049592774 -0.0062848795 -0.0047476413 -0.023548564
0.06611144 0.022289572 0.061693773 -0.15411264 -0.0034576051 -0.101218864
00000000: 172f e6bb 4b10 df3c 4693 17bb ad86 b93d
00000010: f100 73bd fa76 37bb 2cbb 55bd ff99 233e
00000020: 437b a6bc e18f dc3c 7def 95bd 0fd7 c0bc
00000030: 2cce 55bd d3e6 7e3d ca9c 963c a69b 453d
00000040: 1826 053e f788 223d ef40 803d 3e98 703d
00000050: 9ef9 a4bb 2445 4b3d 79b0 853c 78ca 633c
00000060: 109e 1e3d 1d7e 1c3e c55d 333d 4007 31bd
00000070: de23 273d b3e9 f3bd 0578 c33c 5189 973d
00000080: ea2a 1c3c 4040 003e 14fe afbd 52b0 643d
00000090: 74d4 e9bd ba2d 083d 434c 423c 9a93 1cbe
000000a0: 773b a8bd 361d 273d 37e0 9cbd c9d1 7e3e
000000b0: 0d4e b2bb 2b0c 943c 2904 283e 9c7b 34bc
000000c0: 86d0 49bd 75d0 a03d 9ac4 4c3e e70b b63d
000000d0: 41ea edbd 8ea1 a33c 8bcc 303d dc4b 403c
000000e0: 0b58 033e e330 91be 24aa 0cbe d75d edbc
000000f0: 3530 2cbe 3f6d dbbd 3ad9 f23d 8622 24bd
00000100: f666 f9bd c021 b3be f5cc 2abe 80e7 e93d
00000110: 1936 58be 2dff c2be 5932 5fbc ef19 51be
00000120: 7433 5fbe a92e 9bbe 48ba 913d 960c 9d3b
00000130: c9d3 9c3d 1dd4 19be 7750 21be 36eb c3be
00000140: f137 02be cdb7 663d ed5a 7cbe fa0d 8fbe
00000150: 4f6d 96be dd27 ea3c acc9 23be 82f4 0ebe
00000160: 698b 6dbd f4b9 16bd c9e4 b6bd 6a1a c73d
00000170: f887 36bd 6c7f 00be 685a 8ebe b1f8 a93c
00000180: 19e9 15bd b466 463e 52b5 8b3d 5a5c d03b
00000190: 67af 223d 06f6 893d 0a44 f2bc ce39 ffbd
000001a0: 222a 03be 0cb2 32bd dd93 b03d 2e9e 0a3e
000001b0: 2a59 00be 312d 2cbe f189 ecbd a9bb 233e
000001c0: dd5b 59bc 4b4a 1f3e 1c58 67bd c128 cabd
000001d0: ca93 33be c289 ff3c 7648 c63d 7718 08be
000001e0: e9eb 323e ba50 28be ca63 3c3e 61d2 0fbe
000001f0: 095e 85bc 98e9 7e3d 1002 e3bc 8f20 2cbe
00000200: fe17 033e 0b3a 843d 7c66 08be 1d86 cbbc
00000210: 5f11 6dbe 281e ad3d 1903 f83d 26d4 8dbd
00000220: 5c8d 9dbd 2e96 b4bd 242f 243e e8cb a0bd
00000230: cb21 4bbd 64f1 cdbb 1a92 9bbb ebe8 c0bc
00000240: 6f65 873d 9f98 b63c 9cb2 7c3d b4cf 1dbe
00000250: fd98 62bb d64b cfbd

gru.bias_hh_l0 f4 [150]
-0.031248687 0.0053345608 0.09829985 0.08485441 0.042591676 -0.00968394 -0.013257714 0.17672117
-0.012012316 -0.033809625 -0.07986759 -0.04158353 -0.019353975 0.06145143 0.02893648 0.03195226
0.18467721 0.037178267 0.12564728 0.06555846 0.11835448 -0.055299293 0.0039069657 0.018393354
0.023746034 0.12189934 0.055178374 -0.093603104 0.10589042 -0.14450733 -0.019712586 0.15577619
-0.10874551 0.045036964 -0.1200648 0.061704732 -0.0067382865 0.03254036 0.08382042 0.0051551326
0.054196518 -0.018468257 -0.070969254 0.18777484 0.114826195 0.0060896953 0.102916166 0.011908181
-0.0084874565 0.1165807 0.15225312 0.05545995 -0.11229773 -0.07473335 0.027005957 -0.049947847
0.032276236 -0.108531035 0.080791295 -0.025904125 -0.118734635 -0.13196085 0.1683929 0.11637919
-0.19352797 -0.3443197 -0.15189509 0.17099832 -0.3109263 -0.28817105 0.0060506687 -0.06367284
-0.2417908 -0.31215382 -0.12127415 -0.0009928274 0.012012565 -0.331652 -0.18366703 -0.31590438
-0.102247864 0.017288988 -0.2680071 -0.25098345 -0.33726043 -0.079107784 -0.044858065 -0.040647976
0.05726837 0.015113328 -0.13516445 0.1887286 -0.06731016 -0.010279711 -0.10866068 0.0025676317
-0.062106088 0.16104814 -0.11160955 0.001953679 -0.079318754 -0.0410166 0.12427956 -0.07529902
-0.10677533 -0.109693356 0.13278516 -0.023768848 -0.053037606 0.051063124 -0.21966226 0.0656963
0.06822831 0.02678651 0.1422464 0.09133446 -0.058211263 0.08024879 0.0090315705 -0.021960607
0.044881694 -0.21222834 0.0068279845 -0.071060255 0.12623057 0.15403509 0.09319535 0.027036028
-0.102458686 -0.0018458334 -0.17602856 -0.012279848 0.09765524 0.026677659 0.08119431 -0.09999705
-0.16634658 0.05555474 0.006787602 -0.032204937 -0.009352497 0.006905352 0.011002285 0.09821864
-0.023685703 0.024650374 -0.15037917 -0.06293411 0.077282295 0.060760103
00000000: 3ffd ffbc 8acd ae3b 6f51 c93d 26c8 ad3d
00000010: 9c74 2e3d 63a9 1ebc e236 59bc 65f6 343e
00000020: 4ecf 44bc f67b 0abd 9e91 a3bd 7e53 2abd
00000030: 3a8c 9ebc 7fb4 7b3d 320c ed3c 5fe0 023d
00000040: 061c 3d3e 3d48 183d aea9 003e 8443 863d
00000050: d563 f23d 8381 62bd 0106 803b a9ad 963c
00000060: 0b87 c23c 5ca6 f93d b802 623d fcb2 bfbd
00000070: 14dd d83d bbf9 13be 4a7c a1bc cb83 1f3e
00000080: f7b5 debd ae78 383d 89e4 f5bd 1abe 7c3d
00000090: d8cc dcbb 0a49 053d 0aaa ab3d 63ec a83b
000000a0: 2bfd 5d3d be4a 97bc 5458 91bd 0c48 403e
000000b0: ff29 eb3d 118c c73b b6c5 d23d 881a 433c
000000c0: f90e 0bbc ddc1 ee3d 3ee8 1b3e f929 633d
000000d0: 5afc e5bd cc0d 99bd 993b dd3c 1d96 4cbd
000000e0: 1634 043d 8545 debd e875 a53d e334 d4bc
000000f0: 252b f3bd bf20 07be 306f 2c3e 3658 ee3d
00000100: 322c 46be ac4a b0be 638a 1bbe 2f1a 2f3e
00000110: bb31 9fbe 288b 93be b044 c63b e866 82bd
00000120: 0298 77be a0d2 9fbe 955e f8bd c221 82ba
00000130: 59d0 443c 4ace a9be 3613 3cbe 38be a1be
00000140: 5467 d1bd a3a1 8d3c 3a38 89be e780 80be
00000150: 66ad acbe 4303 a2bd 17bd 37bd 7e7e 26bd
00000160: 3d92 6a3d e49d 773c 8d68 0abe 1242 413e
00000170: e9d9 89bd 3c6c 28bc 7e89 debd b645 283b
00000180: f462 7ebd cee9 243e 8c93 e4bd 4b09 003b
00000190: df71 a2bd 0601 28bd 4886 fe3d 5f36 9abd
000001a0: 06ad dabd e9a6 e0bd d5f8 073e e3b6 c2bc
000001b0: f63d 59bd 9127 513d 25ef 60be c88b 863d
000001c0: 49bb 8b3d 626f db3c 0aa9 113e 900d bb3d
000001d0: ef6e 6ebd 7a59 a43d 27f9 133c bbe6 b3bc
000001e0: ded5 373d 6352 59be 49bd df3b 0a88 91bd
000001f0: 9642 013e 60bb 1d3e 34dd be3d a97a dd3c
00000200: dcd5 d1bd e4ef f1ba d540 34be 6a31 49bc
00000210: 78ff c73d 1b8b da3c 3449 a63d 41cb ccbd
00000220: c256 2abe 5e8d 633d 886a de3b 53e9 03bd
00000230: 373b 19bc 4b46 e23b ee42 343c db26 c93d
00000240: 8508 c2bc 95ef c93c fffc 19be 99e3 80bd
00000250: 2e46 9e3d 96df 783d

out.weight f4 [36, 100]
0.025185456 -0.012155494 -0.041597594 0.05181079 0.005378898 0.06568505 0.0189931 -0.0053934366
-0.01788569 0.0034485385 0.010951157 -0.09151021 0.121554084 0.040473513 -0.074327104 0.017708197
0.11119298 0.05305689 0.0094177965 -0.010116546 -0.087332204 0.049915932 0.001071361 0.07494804
-0.0052386113 -0.1014586 -0.05931183 0.03827389 -0.022660222 0.05727122 0.059418574 0.05290044
0.002736961 -0.059680603 -0.020685589 0.016929192 0.04927043 -0.004596749 -0.04618478 0.054402225
0.0036796965 -0.0891854 0.017441511 -0.0067543904 0.030335018 -0.035890304 -0.018636856 0.12283441
0.053400397 -0.02113262 -0.11475559 -0.023187118 -0.054646075 -0.052813917 0.016247265 0.016170155
-0.015036361 -0.13302246 0.021577034 0.021408468 0.02337165 0.02629876 0.09670553 0.028177409
-0.024831308 -0.0049378625 -0.02620193 -0.008351443 0.031985197 -0.050583534 0.0370992 -0.0013413435
-0.07934766 0.05599945 -0.035318077 -0.043793425 -0.008057499 -0.011128572 0.0018012096 -0.0064881565
0.04569712 0.06981668 -0.011239589 -0.12891573 -0.012274196 0.037782673 -0.06301587 0.05498217
0.01044401 0.035199672 -0.058430444 -0.067687586 0.13216339 0.071077354 0.075770795 0.05388417
-0.010163327 0.02516779 -0.0027397925 -0.0890105 -0.46610934 -0.19068713 0.28805497 -0.33484593
-0.2550819 -0.2541003 0.1554063 -0.3288283 -0.33047011 -0.15049048 -0.019580003 -0.12663321
0.22009186 0.27178472 0.46316928 0.38313562 -0.10641099 0.2656528 -0.23236339 -0.41012955
-0.24051294 -0.20220171 -0.1878211 0.28695652 -0.1400935 -0.2733627 -0.2860937 -0.55755097
-0.06079109 -0.1103331 0.09505574 0.23052184 -0.17239012 0.27251187 0.3596974 -0.22291155
0.017126817 -0.12460149 0.13791122 -0.096108615 -0.018222462 -0.24892972 -0.070275955 0.3153819
-0.3860744 -0.20170186 -0.21897815 0.019784397 -0.10630913 0.12714712 -0.8656403 0.15367721
0.17948067 0.043329373 -0.7166018 -0.22938123 0.55261964 0.36112276 -0.07130651 -0.21417707
0.018704886 0.23859453 -0.19993629 -0.637453 0.15222943 -0.8005879 -0.5576907 -0.18648109
-0.05040225 -0.5536489 -0.19359706 -0.10018864 0.39716914 -0.16598666 0.393183 0.15561657
-0.32153678 -0.15954016 0.89852214 0.6891517 -0.68948 -0.3565817 0.12366367 0.30583537
0.30775157 -0.18766104 0.15509336 -0.20633616 0.32437518 -0.26067266 0.5841823 0.4122693
-0.33827528 -0.4154666 0.005587105 -0.47697732 0.23462626 0.84688747 0.84210974 0.28903252
0.025185456 -0.0121554965 -0.041597594 0.05181079 0.005378897 0.06568505 0.018993104 -0.0053934385
-0.017885689 0.0034485382 0.010951158 -0.09151021 0.12155408 0.040473513 -0.074327104 0.017708195
0.11119298 0.05305689 0.0094178 -0.0101165455 -0.087332204 0.049915932 0.0010713595 0.074948035
-0.0052386117 -0.1014586 -0.05931183 0.03827389 -0.022660218 0.057271224 0.059418574 0.05290044
0.0027369608 -0.059680603 -0.020685589 0.016929196 0.049270425 -0.0045967484 -0.04618478 0.054402225
0.0036796944 -0.0891854 0.017441511 -0.0067543876 0.030335017 -0.035890296 -0.018636858 0.1228344
0.053400397 -0.021132622 -0.11475559 -0.02318712 -0.05464607 -0.05281393 0.016247265 0.016170159
00000000: bb51 ce3c d627 47bc 3d62 2abd 8d37 543d
00000010: 7741 b03b e285 863d 6b97 9b3c 6dbb b0bb
00000020: 0385 92bc e000 623b 7b6c 333c b469 bbbd
00000030: 59f1 f83d 8ec7 253d cf38 98bd c810 913c
00000040: 25b9 e33d 2e52 593d 1a4d 1a3c dfbf 25bc
00000050: 3adb b2bd a674 4c3d e96c 8c3a 5c7e 993d
00000060: a8a8 abbb 87c9 cfbd f6f0 72bd 15c5 1c3d
00000070: eea1 b9bc 3a95 6a3d e460 733d 22ae 583d
00000080: 965e 333b a673 74bd d374 a9bc 17af 8a3c
00000090: cacf 493d 53a0 96bb 402c 3dbd ded4 5e3d
000000a0: 1027 713b d6a6 b6bd 80e1 8e3c ef53 ddbb
000000b0: 2581 f83c b601 13bd 52ac 98bc 9b90 fb3d
000000c0: 60ba 5a3d 511e adbc fb04 ebbd e9f2 bdbc
000000d0: 90d4 5fbd 6853 58bd fc18 853c 4677 843c
000000e0: 125b 76bc 0a37 08be 52c2 b03c d060 af3c
000000f0: e775 bf3c 7f70 d73c 8d0d c63d 4fd4 e63c
00000100: 076b cbbc cbcd a1bb 6ea5 d6bc 7ed4 08bc
00000110: e902 033d ae30 4fbd 55f5 173d 05d0 afba
00000120: 0781 a2bd ae5f 653d b0a9 10bd bc60 33bd
00000130: 9a03 04bc 9d54 36bc 9116 ec3a 9a9a d4bb
00000140: e72c 3b3d 0cfc 8e3d 4126 38bc 7c02 04be
00000150: b619 49bc 01c2 1a3d 770e 81bd fc34 613d
00000160: 5a1d 2b3c 882d 103d c354 6fbd ca9f 8abd
00000170: d755 073e 0191 913d b82d 9b3d a6b5 5c3d
00000180: 1584 26bc ae2c ce3c 178e 33bb 234b b6bd
00000190: e2a5 eebe 7d43 43be f17b 933e ed70 abbe
000001a0: 189a 82be 6f19 82be d422 1f3e 2f5c a8be
000001b0: 6133 a9be 2d1a 1abe 3e66 a0bc 23ac 01be
000001c0: c35f 613e 5e27 8b3e 8624 ed3e 5a2a c43e
000001d0: 01ee d9bd a503 883e abf0 6dbe 80fc d1be
000001e0: 0649 76be f70d 4fbe 2d54 40be f7eb 923e
000001f0: ac74 0fbe 32f6 8bbe e07a 92be a9bb 0ebf
00000200: 1400 79bd 52f6 e1bd 95ac c23d eb0d 6c3e
00000210: 0987 30be ad86 8b3e 422a b83e ed42 64be
00000220: 8a4d 8c3c 112f ffbd 9938 0d3e 98d4 c4bd
00000230: 4647 95bc 6fe7 7ebe d7ec 8fbd bd79 a13e
00000240: 8bab c5be ef8a 4ebe cf3b 60be e312 a23c
00000250: 9ab8 d9bd db32 023e 9a9a 5dbf 8f5d 1d3e
00000260: c8c9 373e 247a 313d 3773 37bf eae2 6abe
00000270: 7b78 0d3f 15e5 b83e 2609 92bd 3c51 5bbe
00000280: fd3a 993c 2052 743e 19bc 4cbe 1f30 23bf
00000290: 08e2 1b3e 54f3 4cbf d1c4 0ebf e6f4 3ebe
000002a0: 9772 4ebd efbb 0dbf 4f3e 46be b42f cdbd
000002b0: c159 cb3e 68f8 29be 484f c93e f359 1f3e
000002c0: 78a0 a4be 7f5e 23be 8c05 663f 3f6c 303f
000002d0: c381 30bf e091 b6be 6143 fd3d 7496 9c3e
000002e0: 9d91 9d3e 372a 40be cbd0 1e3e c949 53be
000002f0: 8114 a63e e376 85be f98c 153f f614 d33e
00000300: 6b32 adbe 0ab8 d4be 0914 b73b 5f36 f4be
00000310: de41 703e 9ecd 583f 8194 573f 12fc 933e
00000320: bb51 ce3c d927 47bc 3d62 2abd 8d37 543d
00000330: 7541 b03b e285 863d 6d97 9b3c 71bb b0bb
00000340: 0285 92bc df00 623b 7c6c 333c b469 bbbd
00000350: 58f1 f83d 8ec7 253d cf38 98bd c710 913c
00000360: 25b9 e33d 2e52 593d 1e4d 1a3c debf 25bc
00000370: 3adb b2bd a674 4c3d dc6c 8c3a 5b7e 993d
00000380: a9a8 abbb 87c9 cfbd f6f0 72bd 15c5 1c3d
00000390: eca1 b9bc 3b95 6a3d e460 733d 22ae 583d
000003a0: 955e 333b a673 74bd d374 a9bc 19af 8a3c
000003b0: c9cf 493d 52a0 96bb 402c 3dbd ded4 5e3d
000003c0: 0727 713b d6a6 b6bd 80e1 8e3c e953 ddbb
000003d0: 2481 f83c b401 13bd 53ac 98bc 9a90 fb3d
000003e0: 60ba 5a3d 521e adbc fb04 ebbd eaf2 bdbc
000003f0: 8fd4 5fbd 6b53 58bd fc18 853c 4877 843c

out.bias f4 [36]
-0.1924925 0.25291422 -0.19249253 0.16494164 -0.013785931 -0.38974696 -0.09601864 -0.41133103
-0.0021426198 -0.13184974 -0.08726559 -0.026194073 -0.16037066 -0.02792628 -0.3888586 -0.07593717
0.19272332 -0.1889725 0.03241593 -0.10900868 0.020640053 0.2332849 -0.17752771 -0.086879045
-0.08465197 -0.10247883 -0.074703306 0.13640185 0.048690613 -0.17301396 -0.014188442 -0.101742916
-0.0055235135 -0.10783804 0.0013339138 -0.11780774
00000000: c11c 45be f97d 813e c31c 45be 76e6 283e
00000010: 63de 61bc ea8c c7be 6ca5 c4bd fb99 d2be
00000020: 326b 0cbb 9e03 07be 4db8 b2bd f494 d6bc
00000030: 3538 24be a7c5 e4bc 7918 c7be f284 9bbd
00000040: 4359 453e 0282 41be 91c6 043d f13f dfbd
00000050: 5415 a93c 3de2 6e3e d3c9 35be a4ed b1bd
00000060: 035e adbd 6ce0 d1bd 0cfe 98bd edac 0b3e
00000070: cf6f 473d 922a 31be a476 68bc 975e d0bd
00000080: 97fe b4bb 31da dcbd b8d6 ae3a 2f45 f1bd
