modules/prn_gen/exp/id/models/unigram/FIN-encoder-wdecay_1e_5-attn_dot-emb_64-hddn_50-layers_1-epoch_72.pth (torch, 79924 bytes, 5 tensors)

embedding.weight f4 [31, 64]
00000000: d55f 0500 46ae 0580 8b5a 0500 755a 0580
00000010: 2b62 0580 6163 0580 035b 0500 3c61 0500
00000020: cc5a 0580 e85a 0500 2e5f 0580 e658 0500
00000030: 0458 0500 4b58 0580 875a 0580 575e 0500
00000040: df5d 0580 cd6a 0580 f960 0580 095c 0580
00000050: 0962 0580 3d64 0580 9460 0580 0a5b 0580
00000060: 8d5e 0580 485a 0580 6e62 0500 3f5c 0500
00000070: 3157 0500 ab57 0580 e95b 0500 ac61 0500
00000080: 3557 0500 cf63 0500 1f64 0580 9e61 0500
00000090: d158 0500 476a 0580 615f 0500 4e59 0580
000000a0: 7a58 0500 8065 0580 8c60 0580 3c58 0500
000000b0: dc9f 0500 365f 0500 f85d 0500 a964 0580
000000c0: f563 0500 f0a4 0500 e05f 0580 2363 0500
000000d0: a159 0500 e060 0580 126f 0500 8057 0580
000000e0: 8804 0680 6664 0580 7457 0500 6969 0500
000000f0: 9861 0500 536d 0580 b364 0500 ea59 0580
00000100: c48a ab3e 510d a13e 24ee 6b3f 1798 30bf
00000110: 795d 423f 4ab4 abbe 0d4a 753f faaa 0e3f
00000120: d201 853f 354f 95bf 4f0b ab3f 829c b2be
00000130: 3475 35bf 45ca a33d 836f b8bf a9c2 8abf
00000140: 3db2 813c a99e aabe fc01 14bf 46f0 9dbf
00000150: 2c69 57bf 3e6c 493f bb29 163c e340 8d3f
00000160: 35ef 21be 4587 783d 9fc6 48be b240 c4bd
00000170: 9315 423e 5c07 9bbe b8c9 0dc0 25cf e13f
00000180: f0a3 b7bf 565e ddbe b846 1f3f 9f41 0340
00000190: 41e6 3a3f 5034 cfbf 341b 96bf 7b4a 79bf
000001a0: e818 783e 0d72 a0be ae57 f7be 61a7 063f
000001b0: 5996 d6bd f666 3a3e f970 21be 253e 9d3e
000001c0: e528 a23e a644 7b3f 4d93 bc3d fe72 953f
000001d0: 953a e23e 053d aebe 43b3 0fbf 4631 c63e
000001e0: 1202 3c3f f92f 93bd 46d2 0dbf 0427 5b3e
000001f0: 8e4f af3f 1e9f a6be afb4 f03c 67ee 89bf
00000200: ec50 2bbc a780 573d 05b3 233c a9eb b13d
00000210: b6b9 b63e 28f5 5cbf cc61 4b3f b688 24bd
00000220: 3a49 98bf a77a 09bd 0245 803f fd58 afbe
00000230: 865e 0fbf 92dd b83f 3e31 4d3f 7cc6 b73e
00000240: 016f 6a3e fc1d 613f 15fa 01bf 25c5 35bf
00000250: 0d93 a4bf d6cd f63f 5e4d 1a3f 547f 753f
00000260: 67ed 12bf 26c6 07bf cd2c 8b3d 9dca 573e
00000270: 1a8c 3cbf 384d 8dbb 9b0a 84be 2a3b 2d3f
00000280: cb99 e83f a54c 83bf 6cfc e4be 81ca b0bb
00000290: b29d 0e3e d3d7 1bbf 70a8 5bbf 2406 5d3f
000002a0: dd04 453f c042 ff3e 0c6b 12bd 94b7 183f
000002b0: 81c8 c3be 7cf6 83bf e273 7cbd 55db 50bf
000002c0: e585 80bf 1ccf 683f 564d fe3d 9e65 c43e
000002d0: 0faa 86bf 2255 393f 6862 e3be 6c67 86bf
000002e0: 6c20 32bf ee1a 513f c56a 103d 2884 373f
000002f0: 7127 81bf 0237 aabd c0bc c5be c3ce 373d
00000300: 7b59 0500 e072 0580 176c 0580 3362 0500
00000310: df60 0580 2c58 0500 bd57 0500 ee61 0500
00000320: e271 0580 af60 0580 895f 0500 de06 0600
00000330: 6c64 0580 23f4 0500 2d59 0580 445c 0500
00000340: af61 0580 a59b 0580 4364 0500 0c5b 0580
00000350: 6b57 0580 5361 0580 f25d 0580 ef5d 0580
00000360: e060 0580 9359 0500 2e5d 0500 d262 0500
00000370: f85a 0500 3359 0500 cc58 0580 b55a 0500
00000380: 0f58 0580 ae81 0500 375f 0500 fc5e 0580
00000390: f892 0500 cdc5 0500 1f8b 0580 8c63 0500
000003a0: 1d63 0580 1f59 0580 28f2 0580 ad57 0500
000003b0: cf57 0580 8166 0580 7865 0580 fc5c 0580
000003c0: 4979 0680 6f72 0500 2461 0580 ba5b 0500
000003d0: df60 0500 e25e 0500 8e57 0500 7d5b 0500
000003e0: ce5a 0580 a857 0580 e55a 0500 df59 0500
000003f0: d35d 0500 af5b 0500 a15d 0500 965f 0580
4.93556e-40 -5.21695e-40 4.91658e-40 -4.91627e-40 -4.94394e-40 -4.94828e-40 4.91826e-40 4.94059e-40
-4.91749e-40 4.91788e-40 -4.93322e-40 4.91068e-40 4.90752e-40 -4.90851e-40 -4.91653e-40 4.9302e-40
-4.92852e-40 -4.9749e-40 -4.93965e-40 -4.92193e-40 -4.94346e-40 -4.95136e-40 -4.93823e-40 -4.91836e-40
-4.93096e-40 -4.91564e-40 4.94487e-40 4.92269e-40 4.90456e-40 -4.90627e-40 4.92149e-40 4.94216e-40
4.90461e-40 4.94982e-40 -4.95094e-40 4.94196e-40 4.91039e-40 -4.97303e-40 4.93393e-40 -4.91214e-40
4.90917e-40 -4.95589e-40 -4.93812e-40 4.9083e-40 5.16524e-40 4.93333e-40 4.92887e-40 -4.95288e-40
4.95035e-40 5.18346e-40 -4.93571e-40 4.94741e-40 4.9133e-40 -4.9393e-40 4.99022e-40 -4.90567e-40
-5.52638e-40 -4.95194e-40 4.9055e-40 4.96992e-40 4.94188e-40 -4.98396e-40 4.95302e-40 -4.91433e-40
0.33504307 0.31455472 0.9216025 -0.6898207 0.7592388 -0.33535987 0.9581612 0.5572964
1.039118 -1.1664797 1.3362826 -0.3488503 -0.7088196 0.07997564 -1.4409031 -1.0840656
0.015832061 -0.33324173 -0.5781553 -1.2338951 -0.84144855 0.7868079 0.009165223 1.1035427
-0.15813906 0.060675878 -0.19607018 -0.09582652 0.18953542 -0.30279052 -2.215437 1.764134
-1.4346905 -0.43236035 0.62217283 2.0508802 0.7300759 -1.618784 -1.1727052 -0.97379273
0.24228251 -0.31337014 -0.48309082 0.5259915 -0.10477895 0.18203339 -0.15765752 0.30711475
0.31671825 0.98151624 0.09207783 1.1675718 0.4418532 -0.3403093 -0.56132907 0.38709468
0.7344066 -0.071868844 -0.55398977 0.21401602 1.3696153 -0.32543272 0.029383032 -1.077588
-0.010456305 0.052612927 0.009991412 0.08687527 0.3568856 -0.8631158 0.794461 -0.04016944
-1.1897347 -0.033564236 1.002106 -0.3424758 -0.56003606 1.4442618 0.8015326 0.3589362
0.22893907 0.8793638 -0.5077222 -0.71003944 -1.2857376 1.9281566 0.602743 0.9589741
-0.573935 -0.53036726 0.067956544 0.21073385 -0.7365128 -0.0043121837 -0.2578934 0.676684
1.8171934 -1.0257765 -0.44723833 -0.005395234 0.13927343 -0.60876197 -0.8580389 0.86337495
0.76960546 0.49855614 -0.03574662 0.5965512 -0.3823891 -1.0309596 -0.061633952 -0.81584674
-1.0040861 0.90941024 0.124170944 0.38358778 -1.0520648 0.7239553 -0.44411016 -1.0500312
-0.6958072 0.81681716 0.035258073 0.7168603 -1.0090162 -0.08311273 -0.38620567 0.044874918
4.91277e-40 -5.00387e-40 -4.97953e-40 4.94405e-40 -4.93928e-40 4.90808e-40 4.90652e-40 4.94308e-40
-5.00031e-40 -4.93861e-40 4.93449e-40 5.53476e-40 -4.95202e-40 5.46757e-40 -4.91168e-40 4.92276e-40
-4.9422e-40 -5.15012e-40 4.95145e-40 -4.91839e-40 -4.90537e-40 -4.94091e-40 -4.92879e-40 -4.92875e-40
-4.9393e-40 4.9131e-40 4.92604e-40 4.94628e-40 4.91811e-40 4.91176e-40 -4.91032e-40 4.91717e-40
-4.90767e-40 5.05698e-40 4.93334e-40 -4.93251e-40 5.119e-40 5.30135e-40 -5.09085e-40 4.94888e-40
-4.94733e-40 -4.91148e-40 -5.46047e-40 4.9063e-40 -4.90677e-40 -4.95949e-40 -4.95578e-40 -4.92534e-40
-5.94522e-40 5.00229e-40 -4.94025e-40 4.92083e-40 4.93928e-40 4.93215e-40 4.90586e-40 4.91997e-40
-4.91752e-40 -4.90623e-40 4.91784e-40 4.91417e-40 4.92835e-40 4.92067e-40 4.92765e-40 -4.93467e-40

gru.weight_ih_l0 f4 [150, 64]
00000000: 0c07 f6bc 2d2e 61bd 6c2e bf3c 9a6f 70bd
00000010: ec6f 3bbd 5029 303e e88e dabd 26c8 513d
00000020: 7498 70bc e461 103c d4de 1fbe 9a56 a9bc
00000030: 1971 223e 2b35 0c3c 53de af3d 5de2 ab3d
00000040: 6c1b 0cbe f7fc 05be ee4b c23b 3828 d2bb
00000050: efab 73bc 68fe abbc 3512 d13c 492d 903d
00000060: 448a a6bd 319a a83d eaa1 bebc 7520 143e
00000070: c0fb d5bb 3ead 783d dd64 cf3d dd71 1b3d
00000080: 7368 183d 7c41 e5ba bfbe 6ebb 457a 583d
00000090: f702 5cbd 16a6 e63d 65b6 013e b63a 883d
000000a0: 0819 0fbc 97b4 acbc 9d12 0ebe 3660 47bd
000000b0: 8415 e93d d22e ca3d b62d e63c d4c6 d83d
000000c0: 011a 103d b9b6 01be 106b 58bd 6649 d13c
000000d0: 768f 1b3a c53f 263d 04ad fc3d ad31 03be
000000e0: 2887 353d 3b5d 94bc 26f1 8e3d 2a71 42bd
000000f0: 598f b13d c34e d0bd 517e b53d 279f 163c
00000100: 595c 143e 80d8 4e3d a295 aabd 6caf 4abe
00000110: c223 b33e 3ec6 143d 6739 16bd 6702 f4bd
00000120: 12c4 38bd 80bb 68be e0e6 b93e 23b8 9b3d
00000130: a7c2 b4bc d03a b63d 2a8a acbd ddda ea3d
00000140: ec0a cebd 08a8 1dbe 12ca adbd f721 3bbd
00000150: b8c7 4abc a5d0 1bbe f9ae 263d a2ec 4e3e
00000160: 59d0 763d f106 1bbe 455e 97bc 3472 fb3c
00000170: 5786 ec3c 3087 0e3e 7e37 bbbd 1f0c 113d
00000180: d1ba a3bd 3f6a 82bc 81d1 b23d 1a50 bd3e
00000190: 78e7 e63b 2fc3 5ebe a95a a0bc 391a 89be
000001a0: b6e6 eabd 5c2e dbbd 1826 14bd 5d45 e73b
000001b0: be5d 893d 950d 0f3e dd9a 183c f33d 6f3d
000001c0: ac94 48bd a2aa 223e 7c19 74bd 52d5 34bd
000001d0: 8c57 403d 9b3e a23d 2490 ecbd 6c48 363c
000001e0: 1bde fd3d 9d3b 02be 0274 53be 118b 1d3a
000001f0: 41e3 183c bc3c 8d3c bace 143d 634a 97bc
00000200: 1877 2fbe ecf2 913d a58c c63c cc5c 2cbe
00000210: 5c4a 153d 9236 1ebe c3ec 8cbd 3689 c03b
00000220: 2e82 2bbd df6d 8abe e4b1 94bd d92f 7a3d
00000230: 4fa2 8abd 8213 a73c 4c98 81bd cf47 a83d
00000240: ed77 113d 0dae 973d 7d1c e13d 5684 173e
00000250: 0bad d63c 460b 3c3e eb3d 63be 00db aebd
00000260: 0828 89bd d0df db3d 9879 2c3d f034 ae3e
00000270: e334 02bc 9d9b 8bbe cc8a a2be d01f 13bd
00000280: 999d 26be cf04 9ebd 23d3 c93d 5dab 34bd
00000290: 6608 6f3e a740 21bd a1c1 3f3e 8403 aebd
000002a0: cf91 36be 4bca d1bd 92ed fe3d 9ff7 d8bc
000002b0: 686d 81bd 2819 ab3e 93b5 a0be 713f 063c
000002c0: b75b 203d 9214 1abb c868 f1bc 9f90 643e
000002d0: c239 40bd 6914 953d 39e5 09be b753 413e
000002e0: 3a74 833c 150b 9d3c b290 683c a0b2 5a3c
000002f0: 14ef d43c b069 8ebe 745d b1bd 0d87 a53d
00000300: a76d 09bd f6b8 1bbd 4976 243d acbd 55be
00000310: c6da b9bd 6241 843d fdda 033d 32bd bb3d
00000320: a85b a63c 0b0a e8bd 31b5 163c 872d d9bd
00000330: e971 2abe b943 05bd f12c b63d 25ab 27be
00000340: 4a92 e3bd 1be4 b4bd 063a e93b 8a64 99bd
00000350: eeac 5dbe 7d0d c23d 1a5e d0bc 5fd0 a4bd
00000360: 3d8b 8b3d ecd9 463e 356e 51bd 10f2 943d
00000370: 48b8 a73c 7246 49be 2a61 fa3c ce21 93bd
00000380: b124 56be 0e4b 0bbe ef91 0cbc 2bc3 803d
00000390: 650f 3e3d de42 a73d 7a78 4abd 21bf 7fbb
000003a0: 4fdd 96be 597a e33b 2666 3abe 06fa febc
000003b0: d2da 2fbe eb0e 93bc 88a6 9ebc 669d 9cbd
000003c0: 0b62 2dbe 08ce 04bd fe8d a3bc dc55 583e
000003d0: 5328 743b 31ac 473e f07b 6f3d 6746 6ebd
000003e0: 9c18 163d 9571 c1ba 7998 7e3c ca20 0d3d
000003f0: 3759 00be 09c8 d6bd 9e29 113e 54f0 9d3d
-0.030032657 -0.054975677 0.023337565 -0.05870018 -0.045761034 0.1720326 -0.106717885 0.051216267
-0.014684785 0.008812401 -0.15612346 -0.020671178 0.15863456 0.008557598 0.08587327 0.08392785
-0.13682336 -0.1308478 0.0059294617 -0.006413486 -0.014872535 -0.020995334 0.025521377 0.070398875
-0.08131841 0.08232535 -0.023270566 0.14465506 -0.006530255 0.06071209 0.1012666 0.037950385
0.037208986 -0.0017490829 -0.0036429612 0.05285098 -0.053713765 0.11262147 0.12667234 0.06651823
-0.008733995 -0.021082206 -0.13874288 -0.04867574 0.11381057 0.098722115 0.028097969 0.105847985
0.03518105 -0.1266736 -0.052836478 0.025547694 0.0005934158 0.04058816 0.123376876 -0.12811919
0.04431835 -0.018110862 0.06979589 -0.047471203 0.086699195 -0.101712726 0.088619836 0.009193218
0.14488353 0.05049944 -0.083293214 -0.1979348 0.3498822 0.03632187 -0.036675837 -0.11914521
-0.045108862 -0.22727776 0.36308956 0.07603481 -0.022065474 0.08897936 -0.0842479 0.11467526
-0.10060677 -0.1539613 -0.084858075 -0.04568669 -0.012376718 -0.1521631 0.04069421 0.20207456
0.06025729 -0.15139367 -0.018477568 0.030694105 0.028872652 0.13918757 -0.09141444 0.03541195
-0.07994617 -0.015919803 0.08731366 0.36975175 0.007046636 -0.21754144 -0.01957448 -0.2677782
-0.11469786 -0.10702202 -0.03616914 0.0070578293 0.06707333 0.13970025 0.009314266 0.05840869
-0.04896991 0.15885404 -0.059594616 -0.04414875 0.04695849 0.07922097 -0.1155093 0.011125665
0.12395879 -0.12718053 -0.20649722 0.0006009797 0.009331525 0.017240874 0.036329962 -0.018468088
-0.17135274 0.07126412 0.024236986 -0.16832274 0.036447868 -0.15450504 -0.06881096 0.005875732
-0.041872196 -0.2703695 -0.072604924 0.061080787 -0.06769239 0.020395044 -0.063278764 0.082168214
0.03551476 0.074062444 0.10991762 0.14796576 0.02620556 0.18363675 -0.22191589 -0.08537865
-0.066970885 0.10736048 0.04210815 0.34024763 -0.0079471795 -0.2726716 -0.3174652 -0.03591901
-0.16271056 -0.07715761 0.09854724 -0.044108737 0.23343047 -0.039368298 0.18726207 -0.08496764
-0.17829059 -0.102436624 0.12447657 -0.026485262 -0.06319696 0.3341763 -0.3138853 0.008193837
0.039149966 -0.0023510796 -0.029468909 0.22320794 -0.046930082 0.072792836 -0.13466348 0.18879591
0.016046632 0.019170323 0.014194654 0.013348252 0.025992908 -0.27815008 -0.08660403 0.080823995
-0.03355184 -0.03801819 0.040151868 -0.20873135 -0.09074931 0.06457783 0.032191265 0.091669455
0.020307377 -0.113300405 0.009198473 -0.10604387 -0.16645016 -0.03253529 0.08895291 -0.1637388
-0.11111887 -0.0883257 0.0071175126 -0.074898794 -0.21647999 0.09475229 -0.025435496 -0.08047556
0.06813667 0.19419068 -0.051130492 0.07272732 0.020473614 -0.19655779 0.03056391 -0.07184182
-0.20912434 -0.1360285 -0.008579715 0.06287225 0.0464014 0.08167051 -0.0494313 -0.0039023834
-0.2946572 0.006942075 -0.18203029 -0.03112508 -0.17173317 -0.01795145 -0.019366518 -0.07647209
-0.16931932 -0.03242305 -0.019965168 0.21126503 0.003725548 0.1949928 0.058467805 -0.05817261
0.036644563 -0.0014758582 0.015539282 0.0344551 -0.12534033 -0.104873724 0.14176032 0.077118546

gru.weight_hh_l0 f4 [150, 50]
00000000: c05c 2d3e ce34 24be b794 f5bc 96d5 093d
00000010: e96d a1bb 4edd 26be 39f2 f83d 347c 263e
00000020: bc3d 03be 7a05 60be c349 0ebe 15f4 66be
00000030: 7ee1 bcbd 292a 653e c63b 923d 325e d13d
00000040: 0382 a2bd 2bc6 153e 7922 39be f624 303e
00000050: 3082 8bbc 90c9 fa3c 0553 5c3d 5b0b a0bd
00000060: 5c9c 10be 98a1 d03d 6a1f 10be bdde acbd
00000070: ba4b 2dbd 72d7 0fbe d50f 893e 7a98 9f3d
00000080: 1518 4dbe f509 263e 75e7 0b3e f591 72be
00000090: 8f6a 903d c9cc e2bd 6fd4 a63d 2190 733d
000000a0: d9e2 043e 69d8 f3bc 9c32 98bd dff2 a83c
000000b0: c37b b1bd f4ad 1b3e a41e ab3e 4895 a5bd
000000c0: b890 16be 6696 483e 1df5 d23d 82f9 33bd
000000d0: 84c3 813c ed4a 95be 3b39 6b3e c0c3 a33e
000000e0: a8b0 f43c 66e5 973d db2f 88be 8025 9ebe
000000f0: 3c72 433c 5344 b938 a5c2 e5bd 9bfc 893e
00000100: e7e2 d7bd 0156 a8be dbea a2be 1c90 5d3e
00000110: 002f 9a3e 8588 f13d d694 c93d 7fb0 cabc
00000120: 0012 013e 73b1 4e3d 22d3 7cbe 8701 d03d
00000130: c897 58be 3ad6 86be 706b 38be 0f41 2ebe
00000140: c5c1 d43c 36fb 22be 7029 ce3c 6b13 513e
00000150: 3f61 51be 824e eabd 7ed9 91be 5150 e4be
00000160: 9f7c 96be 7c79 37be e4e5 25be 587c 053e
00000170: 9c3a 6ebe ee72 413e 8762 43be 05ce d3bc
00000180: 91f7 663e bd68 85bd 45ab 0d3e 6a9b b73e
00000190: ea20 173d 64a5 2039 51bd 54be 503b 71be
000001a0: 95d1 3e3e fd92 ac3e 582e 813d 2dce ddbd
000001b0: 05a3 8fbd 9dce 9ebd bb17 aa3d b563 96be
000001c0: a289 f63d 4ff9 053e a909 5a3e 52af fa3d
000001d0: 18c1 013c 584b 093d 2c51 09bd 5c50 af3d
000001e0: ba59 fb3d 81bc a53d ba3c 923d 8dcb c9bd
000001f0: 8082 27be 124a 353d a9dd d6bd bb52 c6bd
00000200: c72d 5d3d 184d f2bd ec6d 6f3e b81a e73d
00000210: 1ba5 53bd f951 133d 966c f8bd d01d f1bd
00000220: fb90 93be 9fad 3cbe c8a3 50bd 000d 0f3e
00000230: 60fc 97bd 232e d5bd c9a7 f13d 3b3e 6d3e
00000240: 2faa 0c3a 89ef f1bc 8b9b 3d3e 0769 0d3e
00000250: de88 323e d43c 753d 7b05 6bbd 85f8 b5bd
00000260: a47e 57bc 90a2 28bc 1859 d23d 5416 493e
00000270: 5433 00bd 83f6 45bd b8ee 0d3e 0448 953d
00000280: be1b 073e 9ee7 e83c ee76 af3c 3c0b 853b
00000290: 24cd 2d3e d58f 123c 18d8 8bbd d1bf c7bc
000002a0: 12f2 173e 266c 503d 1f34 173e 11ba 233e
000002b0: 7406 513c 6b91 d2bd 3a1a 11bd 8e1f 50bc
000002c0: 87e6 843d 61a0 e5bc f0fc 10bd 47ee bcbd
000002d0: e75e dcbc 8d0b d93d c96e 113e 06ea 303c
000002e0: 57e6 02be 8a09 d03d 4ecd 35bd 2ea4 48bc
000002f0: b949 993d e24d 11bb e68c 853d c2bf f1bd
00000300: 900d 333d f76a 3bbd e860 893d baf2 ecbd
00000310: 65ea 65be 2dde c3bb ed79 acbc 65e3 83bb
00000320: 9f55 09be 3a1e 4fbd e4f7 bc3c ff61 01be
00000330: 9466 e13d c5e8 cbbd b6a9 54bd db72 7c3c
00000340: 046b 94be 4fd6 79be adf2 a0bb 2651 25be
00000350: 1008 2e3d f906 af3d 96bd a9bc 8416 41bd
00000360: 8640 123d 167b 453e 42c6 b6bd 945b 03bd
00000370: dab7 1a3e 6106 043e 721b d6bd ca71 363e
00000380: d66b 503e 7ab6 0a3e dc2e b2bd 6ec7 39bd
00000390: d798 97bc 35ba 1c3e 9abf 143d ee13 95bd
000003a0: 613b 81bc 0a01 42bb ef37 47be d17f 7cbd
000003b0: 20fa a03c c723 973d 2f37 3ebc f0c2 7ebd
000003c0: 2916 8bbd 9434 06be 8dd9 cd3c e534 023e
000003d0: aaff abbd 810e 48bd 92c4 803c 7167 87bd
000003e0: 4409 f8bd cadb a13d 3cc6 3bbc b619 af3d
000003f0: 7245 76be 1d8e 94be 52c0 eb3d 690d 543d
0.16929913 -0.16035768 -0.02997814 0.033650957 -0.0049264324 -0.16295359 0.12155575 0.16258317
-0.12816519 -0.21877089 -0.13895325 -0.22554047 -0.09222697 0.22379364 0.07140307 0.102230445
-0.07934954 0.14626376 -0.18079557 0.172016 -0.017029852 0.03061369 0.05379011 -0.07814666
-0.14122146 0.101870716 -0.14074484 -0.084409215 -0.042308547 -0.1404703 0.2676989 0.077927545
-0.20028718 0.16214736 0.13662513 -0.2368849 0.070515744 -0.11074216 0.08145987 0.059463624
0.1297716 -0.029766278 -0.07431528 0.020623622 -0.08666184 0.15203077 0.33421814 -0.08085114
-0.14703643 0.19588622 0.10300658 -0.04393912 0.0158403 -0.29158726 0.2297105 0.31985283
0.029869393 0.07416801 -0.2659901 -0.30887985 0.011929091 8.834214e-05 -0.11218766 0.26950535
-0.10541325 -0.32878116 -0.31819806 0.21637005 0.30113983 0.11793617 0.09842841 -0.024742363
0.12604523 0.050462198 -0.24689916 0.10156541 -0.2115165 -0.26335317 -0.18009734 -0.17017005
0.025971303 -0.15916142 0.025166243 0.20417564 -0.20447253 -0.114407554 -0.28486246 -0.44592527
-0.29391953 -0.17917436 -0.16200978 0.13035715 -0.23264545 0.18891498 -0.19080554 -0.025855074
0.22555377 -0.06514118 0.13834865 0.3586076 0.036896624 0.00015320402 -0.20775343 -0.23557782
0.18634637 0.33705893 0.063076675 -0.108303405 -0.070135154 -0.07754252 0.083053075 -0.29372945
0.1203797 0.13083385 0.21292748 0.12240471 0.007919572 0.03351912 -0.033524677 0.08560249
0.12272973 0.08092595 0.07140489 -0.09853277 -0.16358376 0.044260092 -0.10491497 -0.09683748
0.053998735 -0.11831111 0.23381776 0.11284393 -0.05167113 0.035966847 -0.12130086 -0.117732644
-0.2882155 -0.18425606 -0.050937444 0.13969803 -0.074211836 -0.104091905 0.117995806 0.2316827
0.00053659355 -0.029533165 0.18516366 0.13809596 0.17435023 0.059872463 -0.057378273 -0.08885292
-0.013152752 -0.010292664 0.102708995 0.19637424 -0.03129895 -0.048330795 0.13860595 0.072891265
0.13194177 0.028430756 0.021419015 0.004060177 0.16972786 0.008945425 -0.06828326 -0.024383457
0.14838436 0.05088439 0.14765976 0.15988947 0.012757886 -0.102816425 -0.035425402 -0.012702836
0.06489282 -0.028030576 -0.03539747 -0.09225135 -0.026900722 0.10597906 0.14202417 0.010797983
-0.1278318 0.101580694 -0.044385247 -0.012246175 0.074847646 -0.0022171666 0.06521015 -0.11804153
0.043714106 -0.045756306 0.067079365 -0.11569734 -0.22452696 -0.005977413 -0.021054232 -0.0040249103
-0.13411568 -0.050565936 0.023067422 -0.12635039 0.11005893 -0.09956507 -0.05191966 0.015408243
-0.28987896 -0.24398158 -0.0049117417 -0.16144237 0.042488158 0.08546252 -0.020720284 -0.047140613
0.035706066 0.19285235 -0.089245334 -0.032069758 0.15109196 0.12893058 -0.104544535 0.17816845
0.20353636 0.13546172 -0.08700344 -0.045356207 -0.018505497 0.15305407 0.036315538 -0.07279192
-0.015775384 -0.002960267 -0.1945493 -0.061645333 0.019650519 0.07379871 -0.0116098365 -0.062197626
-0.06791336 -0.13105994 0.02512815 0.1271549 -0.083983734 -0.048841957 0.015718732 -0.06611527
-0.12111142 0.079032496 -0.011460837 0.08549826 -0.24049929 -0.29014674 0.115112916 0.0517706

gru.bias_ih_l0 f4 [150]
00000000: fb83 943b b6f7 5e3e 95dc 13bd 55e0 2c3d
00000010: fb9a b33d 9a2d e23d de08 08be a6f0 f13d
00000020: f820 513d ef77 2b3e 38ce 373e 7a6b 903c
00000030: 81f7 c0bd cce0 233e 8f19 443d 691c 56bd
00000040: 858f 3f3a 3c95 293e 1c59 4b3d 9b30 2f3e
00000050: 4675 ef3d 793e 673e eb32 8b3e 770e 723e
00000060: 2cbe 19bd 4e73 82bd 0257 9f3d 0c55 8fbd
00000070: 7d45 7b3c 3abb 823e a52d 833d 562e 643e
00000080: 6712 de3d f919 b33e ca15 5c3e 83d0 4f3e
00000090: 4b10 a53d c9ff 64bc b0cb 1e3e 4858 473e
000000a0: ff28 363e c2e5 4c3d a789 a93e de04 713e
000000b0: eed4 bf3d 84f3 c93d d9db a33e 9d14 a8bc
000000c0: e661 513e bc85 913e 7176 cc3c d463 93be
000000d0: 82c9 edbe 95a3 37bd e52b c0be 246e 73be
000000e0: 09a4 64be 8ba3 833c 25ae 94be 85c4 8fbe
000000f0: b6ba a9be 6d63 65be 83ef f4be 0407 e5bd
00000100: 28d7 263a dcf9 cabd 717e b6be 9502 50be
00000110: fb2c a7bd b509 8f3d c1c3 31be 0091 97be
00000120: b646 dbbe 47da 14bf 2464 debd 4082 4ebe
00000130: 5802 70be 7394 ddbd 3a05 dbbe 9c96 05bf
00000140: ca84 c6be 4ef1 e0bc ef52 86be 6605 15be
00000150: 5398 f4be dd26 a3be f726 edbe 3629 4ebe
00000160: a90a e6be 1c84 d6be afe8 a4ba 3359 8abe
00000170: c1d9 39be 0594 77bd 1c6a 7abe 7ffa e2be
00000180: c5d1 91be 8a06 e9be b81c a4be b78c 0ebe
00000190: 6e9a 1f3e 380a 9bbc 8358 02be 55af 0e3c
000001a0: 9c22 933d c8dd 88bd c569 743c 1cfc e33d
000001b0: 1c7b 523e bf81 0d3e e3c6 9e3d 5f65 82bd
000001c0: b874 fabd 8b61 02be 5394 033e 5005 b9bd
000001d0: e6cc 013e bb29 55bd b898 9a3d ff2c 113e
000001e0: 8952 b63d 5430 d6bd 49f1 ad3d 5093 b7be
000001f0: 3739 1b3e 2804 6a3e cc01 4b3d b5d9 bdbd
00000200: bd42 193e 50d8 b73d c8fd 7fbd 1241 35be
00000210: aba5 46bc fae3 59be d560 2f3e 20ff 143e
00000220: a367 f93b f27d 263e 6c71 33be 1840 00be
00000230: 5b6a d83d 5010 123e 6c60 e6bd e754 07bc
00000240: f690 0a3e 1a17 c53d 6fac 053e 2dd1 24bd
00000250: 7943 7e3d 2a21 7fbe
0.004532335 0.21774182 -0.036099035 0.042206127 0.087697946 0.11043854 -0.13284633 0.11813478
0.051056832 0.1674497 0.1794976 0.017629374 -0.094222076 0.16003722 0.047875937 -0.052273188
0.0007307458 0.16560835 0.04964553 0.17108385 0.1169229 0.22582425 0.27187285 0.2363833
-0.037534878 -0.06369649 0.07780267 -0.06998643 0.0153363915 0.25533468 0.064051904 0.22283301
0.10843354 0.34980753 0.21492687 0.20294385 0.08059748 -0.013977 0.15507388 0.1946727
0.17789076 0.0500238 0.33112833 0.23537013 0.09366785 0.098609 0.32003668 -0.020517642
0.20447502 0.28422344 0.024958821 -0.287871 -0.464428 -0.04483374 -0.3753349 -0.23772484
-0.223282 0.016069194 -0.29039112 -0.2807962 -0.33150262 -0.22401209 -0.47838983 -0.11182979
0.0006364458 -0.09910938 -0.35643342 -0.20313485 -0.08162876 0.06984273 -0.1735983 -0.29602814
-0.42827386 -0.58145565 -0.10858944 -0.20166874 -0.23438394 -0.1081933 -0.42777425 -0.52182937
-0.38773185 -0.027458813 -0.26235148 -0.1455284 -0.47772464 -0.31865588 -0.4631879 -0.20132908
-0.44930008 -0.41897666 -0.0012581552 -0.2702118 -0.18149473 -0.060443897 -0.2445454 -0.44331738
-0.28480354 -0.455128 -0.3205316 -0.13920866 0.15586254 -0.018925771 -0.12729077 0.008708795
0.071843356 -0.066829264 0.014917796 0.111320704 0.20554775 0.13819025 0.077527784 -0.06366991
-0.122292936 -0.12732522 0.1284955 -0.090342164 0.12675819 -0.05204175 0.0754866 0.14177321
0.08902461 -0.104584366 0.08493287 -0.35854578 0.15158544 0.22853148 0.04956226 -0.0927004
0.14966865 0.08976805 -0.062497884 -0.17700604 -0.012124459 -0.21278372 0.17126782 0.14550447
0.0076112314 0.16258982 -0.17523736 -0.1252445 0.10567161 0.14264035 -0.1124886 -0.008259988
0.1353186 0.09623547 0.1305406 -0.040238548 0.062076066 -0.24914995

gru.bias_hh_l0 f4 [150]
00000000: da1c f33c 7939 df3d 1ac9 1a3e 3a01 9f3c
00000010: 17ac 9abd 833d d33c 410b 9d3b d4d7 233b
00000020: 7559 463e c37f ab3d 9d4b 3c3e 3196 553d
00000030: 39bf 5c3d 3bc9 0e3e 2ac8 ea3d 8d1f a53d
00000040: 9efd 4e3d 42b8 4e3e db85 933d 2d97 953e
00000050: be80 40bb bc72 563e 4921 1b3e 5feb ca3e
00000060: 0cbb 303d 733b adbd 15a0 ab3d d49a 123d
00000070: bbfb 313e 69b2 c73e e730 433e 52e4 603e
00000080: 9b11 b23d 7aab a13e eb52 9d3d 415a 8c3e
00000090: 06df 643e ef31 353d aab1 0b3e c274 553e
000000a0: e327 9f3e 6a4b 163e 02b1 4d3e 0643 a33d
000000b0: e382 fe3b 75ff 303d 8c7c 9e3e 566e 9b3d
000000c0: 58ee c03d 34f6 b23e 0717 a4bd 74b3 f9bd
000000d0: b787 00bf ac38 89be 764b 08be 07a9 84be
000000e0: 2f2a 23be 5852 403e 20ce 4cbe ec85 adbe
000000f0: e880 5ebe 9a20 54be 65ab 01bf 76ef 82bd
00000100: d7ff da3d 7222 f3bd 184a 71be 1a05 70be
00000110: 1de6 d9bd a7de 6abd af37 9abd 8796 08be
00000120: f7e9 dabe 7fd4 00bf 479f 20be f6ba 83be
00000130: fbb0 a6be b165 32be 6d3f b8be dabb f9be
00000140: 30e6 01bf 8390 66be 75d6 54be 1278 76be
00000150: c538 d6be dc88 a4be e98e 90be 23c2 6cbe
00000160: 131a 7bbe 1011 c7be 87f4 e63c 738e 6abe
00000170: d0c6 91be 30d1 89be 5f62 cebe a082 00bf
00000180: 7f6a 91be 0a2e f9be 92f9 89be dc12 bebe
00000190: ecb5 793d 253c 6b3e a767 c7bd d720 b83d
000001a0: 9c62 2d3e 5d6d 93bc 9373 a13d d091 513e
000001b0: 2a65 9a3d a389 7b3c cc04 b9bd 169f 813d
000001c0: a308 18be dda5 83be 8c6d 3b3e 9259 ddbd
000001d0: e390 073b c1b8 2dbe b9fc 63bd ed0a eebd
000001e0: 6081 f7bd 8465 efbd 7abb 0abe 0abd aebe
000001f0: 0f68 2f3d 9822 143d 9dcf d33d 9cef aebd
00000200: 38b9 e73d 36b7 71bd 0ac5 e03c 5007 8dbd
00000210: 0fb9 babd 7c44 e23c 1058 f03d 0edd a73c
00000220: a0c7 c83d 9cac 19be 1121 6cbe 7f2b 24bd
00000230: d24a b73d d170 8c3e 4f38 c8bc fde0 56be
00000240: c47d d0bd fdc6 9b3c 6823 053c 0c6f dbbd
00000250: f069 b4bc 2d17 c2bd
0.029676843 0.10899634 0.15115777 0.019409765 -0.07552355 0.025786167 0.0047926013 0.002500047
0.19370063 0.08373978 0.18388219 0.052145187 0.0538933 0.13943951 0.114639595 0.080626585
0.050534837 0.20187476 0.07203265 0.292169 -0.0029373611 0.20942205 0.15149416 0.396327
0.04314713 -0.08458605 0.083801426 0.035792187 0.17381184 0.39003304 0.19061624 0.21962097
0.08694764 0.3157614 0.07681831 0.27412608 0.22350702 0.044237074 0.13641992 0.20845321
0.3108512 0.14677206 0.20087054 0.07971768 0.0077670678 0.043212373 0.30954397 0.07589404
0.094204605 0.34953463 -0.080122046 -0.12192431 -0.50207084 -0.2680105 -0.13310036 -0.25910208
-0.1593406 0.18781412 -0.20000505 -0.33891237 -0.21728861 -0.20715562 -0.5065215 -0.0639333
0.10693329 -0.11871804 -0.23563421 -0.23439446 -0.10639594 -0.057341244 -0.07530152 -0.13338672
-0.42756626 -0.50324243 -0.1568576 -0.25728577 -0.325569 -0.17421605 -0.3598589 -0.48776132
-0.50741863 -0.22516064 -0.20784934 -0.2406924 -0.41840187 -0.32135665 -0.28234032 -0.23120932
-0.24521665 -0.38880205 0.028192772 -0.22905903 -0.28471994 -0.2691741 -0.40309426 -0.5019932
-0.28401563 -0.48667938 -0.2694822 -0.37123764 0.06096451 0.22972162 -0.09736567 0.08990639
0.16932148 -0.017996484 0.07883372 0.2046578 0.07538827 0.015352639 -0.09034118 0.06329171
-0.14847045 -0.2571248 0.18303508 -0.108081 0.0020685724 -0.1696501 -0.055660937 -0.11623178
-0.12085223 -0.116892844 -0.13548079 -0.341286 0.042823847 0.036165804 0.103423335 -0.085417956
0.113146245 -0.059012614 0.027437706 -0.068861604 -0.091173284 0.027620547 0.117355466 0.02049115
0.098037004 -0.15007252 -0.23059489 -0.040080544 0.08949818 0.27429822 -0.024440913 -0.20984264
-0.10180238 0.019015783 0.008126117 -0.1071454 -0.022023171 -0.09477077
