modules/prn_gen/exp/id/models/unigram/train+val-encoder-wdecay_1e_5-attn_dot-emb_64-hddn_50-layers_1-epoch_98.pth (torch, 79924 bytes, 5 tensors)

embedding.weight f4 [31, 64]
0	0x000561d2	4.94269e-40
1	0x8005645f	-4.95184e-40
2	0x80056074	-4.93778e-40
3	0x00056075	4.9378e-40
4	0x00055c5c	4.9231e-40
5	0x80055faa	-4.93495e-40
6	0x8005645a	-4.95177e-40
7	0x00055bfa	4.92172e-40
8	0x800561a6	-4.94207e-40
9	0x00056061	4.93752e-40
10	0x80055765	-4.90529e-40
11	0x000560d0	4.93907e-40
12	0x00056508	4.9542e-40
13	0x000558fb	4.91098e-40
14	0x8005645d	-4.95181e-40
15	0x80056439	-4.9513e-40
16	0x800560e1	-4.93931e-40
17	0x000563b2	4.94941e-40
18	0x800560a9	-4.93853e-40
19	0x00055f99	4.93471e-40
20	0x80056645	-4.95865e-40
21	0x000559bd	4.9137e-40
22	0x000558f3	4.91086e-40
23	0x80055b33	-4.91894e-40
24	0x8005628f	-4.94534e-40
25	0x80057f8b	-5.04931e-40
26	0x0005599f	4.91327e-40
27	0x80056086	-4.93804e-40
28	0x80068466	-5.98509e-40
29	0x80055a2b	-4.91524e-40
30	0x00055e6d	4.93051e-40
31	0x00055f5e	4.93389e-40
32	0x0005578e	4.90586e-40
33	0x00055889	4.90938e-40
34	0x00056034	4.93689e-40
35	0x80059577	-5.12795e-40
36	0x800565a8	-4.95645e-40
37	0x80055b5c	-4.91951e-40
38	0x8005b150	-5.22785e-40
39	0x00055e74	4.93061e-40
40	0x00055e78	4.93066e-40
41	0x00055846	4.90844e-40
42	0x0005620d	4.94351e-40
43	0x00056650	4.9588e-40
44	0x000558ed	4.91078e-40
45	0x8005dc7d	-5.38274e-40
46	0x80055b10	-4.91845e-40
47	0x000562fe	4.94689e-40
48	0x0005584e	4.90855e-40
49	0x8005573f	-4.90475e-40
50	0x800563d3	-4.94988e-40
51	0x80055a2d	-4.91526e-40
52	0x00055b5f	4.91955e-40
53	0x80065847	-5.82681e-40
54	0x0005580d	4.90764e-40
55	0x0005643d	4.95136e-40
56	0x000588a5	5.08196e-40
57	0x00055f2e	4.93322e-40
58	0x80056483	-4.95234e-40
59	0x80055f9f	-4.9348e-40
60	0x0005596c	4.91256e-40
61	0x00055877	4.90913e-40
62	0x00055bfa	4.92172e-40
63	0x000562b2	4.94583e-40
64	0xbf5221c8	-0.82082796
65	0x3f18287a	0.5943676
66	0xbd0ed9bc	-0.034875616
67	0x3e05e783	0.13076596
68	0xbe7cd192	-0.2468932
69	0xbecf2a4e	-0.40461963
70	0x3e82f3e1	0.2557669
71	0x3ea20a1f	0.31648347
72	0x3dfce8c4	0.12349084
73	0x3e8d0f73	0.2755085
74	0x3e66489e	0.22488639
75	0xbec51163	-0.38489828
76	0x3e85a914	0.2610556
77	0x3edb3651	0.42814878
78	0xbe39c04a	-0.18139759
79	0xbe20c088	-0.15698445
80	0x3f6f258b	0.9341666
81	0x3f03af52	0.5143939
82	0x3f2e97a8	0.6820016
83	0xbe1af811	-0.15133692
84	0x3f0f282c	0.5592067
85	0xbe381b11	-0.17979075
86	0xbde1e69b	-0.11030313
87	0xbe6876de	-0.22701594
88	0xbf30283a	-0.6881138
89	0xbea723e9	-0.32644585
90	0xbd45b0ed	-0.048264433
91	0x3ee64573	0.4497486
92	0x3f6b4cb9	0.91913944
93	0xbd338ef9	-0.04383752
94	0x3f92d476	1.1471088
95	0x3e6ef480	0.23335457
96	0x3f223ed8	0.6337714
97	0x3f7d5055	0.989507
98	0x3de9494f	0.11390936
99	0xbf09cfaa	-0.53832495
100	0xbf5f9424	-0.8733542
101	0xbf6846e2	-0.9073316
102	0x3dc984c6	0.09839778
103	0x3f3816a8	0.7190957
104	0xbf3e5262	-0.74344456
105	0x3eedd793	0.46453533
106	0xbe14df42	-0.14538291
107	0x3f7671bd	0.962673
108	0x3e95b7a3	0.29241666
109	0x3f64adae	0.89327514
110	0x3f29e7a8	0.66369104
111	0x3fb522a7	1.41512
112	0x3ffd8150	1.9805088
113	0xbd60ddac	-0.054898903
114	0xbf51512c	-0.81764483
115	0xbee20584	-0.44144833
116	0x3f198891	0.5997401
117	0xbf3ca9c7	-0.7369656
118	0xbec3966d	-0.38200703
119	0x3d18738e	0.037219577
120	0x3f15e4f5	0.58552486
121	0xbf1c4cce	-0.61054695
122	0x3f260bb1	0.6486159
123	0x3f130b79	0.5743938
124	0x3fcadd63	1.5848812
125	0x3e14a58f	0.1451628
126	0xbfa4d43c	-1.2877269
127	0x3f3f82d0	0.7480898
128	0x3d0a411c	0.0337535
129	0xbf311fc7	-0.69189113
130	0xbeaf79dd	-0.34272662
131	0x3e18673a	0.14883128
132	0xbf531c26	-0.82464826
133	0x3d209ee5	0.039214034
134	0x3ea57bd2	0.3232103
135	0x3dac2dd2	0.08407177
136	0x3eae8877	0.3408849
137	0x3f771bf6	0.9652704
138	0xbeecd725	-0.46257892
139	0x3d449d4b	0.04800157
140	0x3f308ae8	0.68961954
141	0x3c5184cf	0.012788012
142	0x3f2f8ad8	0.68571234
143	0xbe91c446	-0.28470057
144	0xbef112f6	-0.4708478
145	0xbf08765b	-0.53305596
146	0x3fc57183	1.5425266
147	0xbe1673b3	-0.14692573
148	0xbee7ea6c	-0.45296037
149	0xbf1c4f76	-0.6105875
150	0x3e4bcc75	0.19902213
151	0xbed48687	-0.41508886
152	0xbf47f403	-0.7810671
153	0xbf1c7828	-0.61120844
154	0xbe33e69a	-0.17568436
155	0xbeb4046a	-0.35159618
156	0x3d97df7c	0.07415673
157	0xbfb35337	-1.400977
158	0x3e9669ce	0.29377598
159	0xbf4a0dd8	-0.78927374
160	0xbe7abc85	-0.24485977
161	0x3fcbc970	1.5920849
162	0xb97bb64b	-0.00024005135
163	0x3f10f699	0.5662628
164	0xbc66128a	-0.014042506
165	0xbe34d778	-0.1766032
166	0xbf1094b8	-0.56476927
167	0x3f36975f	0.71324724
168	0x3eeefcbd	0.466772
169	0xbf0867e8	-0.5328355
170	0xbeb40650	-0.35161066
171	0x3d8cd99c	0.06877443
172	0x3eca0f29	0.3946469
173	0xbeb14718	-0.34624553
174	0x3d0c1be7	0.034206297
175	0xbf48b34e	-0.783986
176	0xbd553211	-0.0520497
177	0xbf2dac87	-0.6784138
178	0xbf745086	-0.9543537
179	0xbeeb9ce1	-0.46018127
180	0x3f081724	0.5316031
181	0xbf28cf1b	-0.6594102
182	0xbf7c21bd	-0.9848898
183	0xbeef6d66	-0.46763152
184	0x3f145b89	0.5795217
185	0x3f5a232c	0.8520992
186	0x3f609b6e	0.87737167
187	0xbf27b9b8	-0.6551776
188	0xbde4f314	-0.11179176
189	0x3f5405e0	0.82821465
190	0x3f1e383d	0.6180456
191	0x3f0035be	0.50082004
192	0x0005603b	4.93698e-40
193	0x80055f4f	-4.93368e-40
194	0x8005590c	-4.91121e-40
195	0x000558d9	4.9105e-40
196	0x80055e2e	-4.92963e-40
197	0x80055852	-4.90861e-40
198	0x80055881	-4.90927e-40
199	0x8006d8e0	-6.28813e-40
200	0x000562e1	4.94649e-40
201	0x000562a1	4.94559e-40
202	0x00056160	4.94109e-40
203	0x000557c9	4.90669e-40
204	0x00057566	5.01292e-40
205	0x8005639a	-4.94908e-40
206	0x00055be6	4.92144e-40
207	0x8005613c	-4.94059e-40
208	0x80055893	-4.90952e-40
209	0x0005604e	4.93725e-40
210	0x0005dc66	5.38242e-40
211	0x80056061	-4.93752e-40
212	0x80055d8a	-4.92733e-40
213	0x00055cc9	4.92463e-40
214	0x80055863	-4.90885e-40
215	0x00056a78	4.97371e-40
216	0x00069e6a	6.07841e-40
217	0x80055912	-4.9113e-40
218	0x00056b8b	4.97757e-40
219	0x8005578d	-4.90585e-40
220	0x80055751	-4.90501e-40
221	0x80056663	-4.95907e-40
222	0x00055823	4.90795e-40
223	0x80056a73	-4.97364e-40
224	0x0005621c	4.94372e-40
225	0x800562bf	-4.94601e-40
226	0x800559f9	-4.91454e-40
227	0x00055b58	4.91945e-40
228	0x80056012	-4.93641e-40
229	0x00056102	4.93977e-40
230	0x80055de1	-4.92855e-40
231	0x00055ea2	4.93125e-40
232	0x800558cc	-4.91032e-40
233	0x80056078	-4.93784e-40
234	0x80055eb9	-4.93158e-40
235	0x000558f0	4.91082e-40
236	0x800620e4	-5.62812e-40
237	0x000557e8	4.90712e-40
238	0x0005610f	4.93996e-40
239	0x0005586d	4.90899e-40
240	0x80056258	-4.94457e-40
241	0x80055759	-4.90512e-40
242	0x000559c5	4.91381e-40
243	0x80056399	-4.94906e-40
244	0x80056480	-4.9523e-40
245	0x8005599f	-4.91327e-40
246	0x00056039	4.93696e-40
247	0x80055e0b	-4.92914e-40
248	0x8006c2c5	-6.20883e-40
249	0x800560f6	-4.9396e-40
250	0x80055b31	-4.91891e-40
251	0x800558b3	-4.90997e-40
252	0x00055a87	4.91653e-40
253	0x0005578e	4.90586e-40
254	0x8005619b	-4.94192e-40
255	0x80055ab0	-4.9171e-40

gru.weight_ih_l0 f4 [150, 64]
0	0xbd226659	-0.039648388
1	0x3cb95770	0.022624701
2	0xbc671cc5	-0.01410598
3	0x3e09ec36	0.13469014
4	0xbdefe69a	-0.11713906
5	0xbd9052aa	-0.07047017
6	0xbdd0a0dc	-0.101869315
7	0x3d1014d0	0.0351761
8	0x3d3fb28b	0.04680113
9	0xbcc3da27	-0.023907734
10	0x3da4d772	0.080489054
11	0xbdeec885	-0.1165934
12	0xbdae214c	-0.085024446
13	0x3b23aecc	0.0024976013
14	0xbd806b1a	-0.06270428
15	0x3b9aa015	0.0047187903
16	0x3e1d9529	0.15388931
17	0xbdc8ea78	-0.09810346
18	0xbe0609ea	-0.1308972
19	0x3da086f5	0.07838241
20	0xbd26ea4c	-0.040750787
21	0x3e408c8e	0.18803617
22	0x3e15376b	0.14571922
23	0xbc8462ee	-0.016160455
24	0xbd25711b	-0.04039107
25	0xbd24ca69	-0.040232096
26	0xbdeb3993	-0.11485591
27	0xbdb074c6	-0.08616023
28	0xbc10dd45	-0.008841817
29	0x3df3f82a	0.11912568
30	0xbd195099	-0.03743038
31	0x3de8d6e9	0.11369116
32	0x3ca7376d	0.020412171
33	0xbe0f879e	-0.14016578
34	0x3d8e8586	0.06959061
35	0x3cafd334	0.021463014
36	0xbc2b3df9	-0.010451787
37	0x3d7c7f58	0.061644882
38	0x3d402542	0.04691053
39	0xbce2af8d	-0.0276716
40	0x3dae0b24	0.08498219
41	0xbc9c35b9	-0.019068586
42	0xbe0004c5	-0.1250182
43	0xbb9b9716	-0.0047482355
44	0xbcbd80a7	-0.023132635
45	0x3e06a1db	0.1314768
46	0x3dfdd1b3	0.123935126
47	0x3e2f22a4	0.17103058
48	0x3e026950	0.12735486
49	0x3dfa6f13	0.12228217
50	0x3df32523	0.11872318
51	0x3dac8919	0.08424587
52	0x3dd9f016	0.10641496
53	0x3d76b94f	0.060235318
54	0x3e2b1f4f	0.16711162
55	0xbe14e762	-0.1454139
56	0xbce1748f	-0.0275214
57	0xbe07b2bf	-0.1325178
58	0xbdb42dba	-0.08797784
59	0x3e727d79	0.23680677
60	0x3d6cba46	0.05779483
61	0x3cfc2315	0.030778447
62	0xbd6b32a6	-0.05742135
63	0x3df733a9	0.120704
64	0x3e116ff7	0.14202867
65	0x3d9f7020	0.07785058
66	0x3ca39b91	0.01997164
67	0xbdf461ab	-0.11932691
68	0xbc78b157	-0.015179
69	0xbe02a426	-0.1275793
70	0x3d3bc711	0.04584414
71	0x3dc78bdf	0.09743475
72	0xbe102b1f	-0.1407895
73	0xbd7abe2b	-0.061216515
74	0xbbac38f1	-0.0052558114
75	0x3e33518b	0.17511575
76	0xbd2cdaa8	-0.042200714
77	0xbd690c94	-0.05689676
78	0x3e03248d	0.12806912
79	0x3cfc17db	0.030773094
80	0x3dc65f62	0.096861616
81	0x3c945bde	0.018110212
82	0xbe011ec9	-0.126094
83	0x3d5eeafb	0.054423314
84	0xbdcfa34f	-0.101385705
85	0xbc06477a	-0.008195752
86	0x3c10127d	0.00879347
87	0x3d77bce1	0.060482863
88	0x3e1a36f0	0.1506002
89	0xbbacd869	-0.0052748215
90	0xbdbe3dff	-0.092891686
91	0x3d9d4737	0.07679599
92	0x3e48aaf2	0.1959646
93	0x3cca8d68	0.02472563
94	0xba544942	-0.00080980745
95	0x3e269ab4	0.16269952
96	0xbb710b40	-0.0036780387
97	0x3ddc4824	0.10755947
98	0xbd985b75	-0.07439319
99	0x3dcf6665	0.10126952
100	0x3d481361	0.048846606
101	0x3d79ea45	0.061014432
102	0x3dc8bb66	0.098013684
103	0x3e47084e	0.19436762
104	0xbddd51b4	-0.10806599
105	0x3e0c2df8	0.1368941
106	0x3dbfcb23	0.09364917
107	0xbe0d6271	-0.13807084
108	0xbdb174cf	-0.086648576
109	0x3e17c03e	0.14819428
110	0xbe4eb1bf	-0.20184992
111	0xbda8608d	-0.082215406
112	0x3e17cdd7	0.14824615
113	0xbdd743e7	-0.10510998
114	0xbd7a9654	-0.06117852
115	0x3d8b72ec	0.06809029
116	0x3d89ede5	0.06734828
117	0xbdcc9c88	-0.099907935
118	0xbcfa8f06	-0.030585777
119	0xbe1fcff2	-0.15606669
120	0x3e231df2	0.15929392
121	0x3e04fb7c	0.12986559
122	0xbcac8266	-0.021058273
123	0xbc803b18	-0.015653178
124	0x3d02679a	0.031837083
125	0xbbf5f41e	-0.0075059077
126	0x3de6fa29	0.11278183
127	0x3c656ceb	0.014003019
128	0xb93c8bd0	-0.00017981161
129	0xbda6a454	-0.08136812
130	0x3d5bfa65	0.05370559
131	0x3dce1bfb	0.100639306
132	0x3cba6ca6	0.022756886
133	0x3dd4f861	0.10398937
134	0xbdd8df46	-0.10589461
135	0x3e5bb310	0.21455026
136	0x3da78a1e	0.08180641
137	0x3cc444d4	0.023958601
138	0xbc4cc8d1	-0.01249905
139	0x3a851605	0.0010153657
140	0xbd3e4a79	-0.04645774
141	0xba129aee	-0.00055925443
142	0xbd64a5d5	-0.055822212
143	0xbda38012	-0.07983412
144	0x3e2b40a4	0.16723877
145	0xbd9e6ec3	-0.0773597
146	0x3e29e4eb	0.16591232
147	0xbd33ed62	-0.043927558
148	0xbc9f9ea1	-0.01948482
149	0xbdd219c8	-0.10258824
150	0xbe3736af	-0.17891954
151	0xbdb2985a	-0.08720465
152	0xbe1930f7	-0.14960085
153	0x3e02218b	0.12708108
154	0xbe6c2703	-0.23061757
155	0xbe16cc8b	-0.14726464
156	0xbd1f5c16	-0.03890618
157	0xbd3811af	-0.04493874
158	0x3daa6ca8	0.08321506
159	0xbdae6103	-0.08514597
160	0x3ccee62c	0.025256239
161	0xbd07df9b	-0.03317223
162	0xbd6569f6	-0.056009255
163	0x3e002821	0.12515308
164	0xbdcdfa61	-0.100575216
165	0xbcc8891d	-0.024479443
166	0xbc5dacee	-0.013529999
167	0x3c9663f7	0.018358214
168	0xbd1b3d68	-0.03790036
169	0x3d2b7434	0.041858867
170	0xbd9ddb47	-0.077078395
171	0x3b5cd94f	0.0033698862
172	0xbcc7bd39	-0.02438222
173	0xbd5c56b9	-0.053793643
174	0xbced17ed	-0.028942073
175	0xbc7b8c8d	-0.015353334
176	0x3e3f4b63	0.18681102
177	0x3d74db10	0.059779227
178	0xbe36e5d2	-0.17861107
179	0xbe8155ea	-0.2526086
180	0x3d006b86	0.031352542
181	0xbd6be497	-0.057591047
182	0xbd0e66da	-0.034766056
183	0xbcef04e4	-0.029177137
184	0x3d5a15f6	0.0532436
185	0x3e157c34	0.14598161
186	0x3e3126b3	0.17299919
187	0xbdb22957	-0.08699291
188	0x3c6e0397	0.014527223
189	0x3d352b20	0.04423058
190	0x3e05fc04	0.13084418
191	0xbd924fcb	-0.071441256
192	0xbc84d986	-0.016217005
193	0x3e0ccd6a	0.13750234
194	0xbbc042e8	-0.005867351
195	0x3d9a1e38	0.07525295
196	0xbd6bb7d7	-0.05754837
197	0x3e42ab3d	0.19010635
198	0xbdd5d55b	-0.10441085
199	0x3e052387	0.13001834
200	0xbe5d203d	-0.21594329
201	0xbda8359d	-0.08213351
202	0xbd981951	-0.07426704
203	0xbdc819c9	-0.09770543
204	0x3db49ff7	0.088195734
205	0x3e265a86	0.1624547
206	0xbe58da2f	-0.2117698
207	0xbc86fd74	-0.016478278
208	0xbdb90621	-0.09034372
209	0xbd3c4ace	-0.045969777
210	0x3db0a53b	0.08625265
211	0x3dbf41f8	0.093387544
212	0xbe15e322	-0.14637426
213	0x3e5e6cd4	0.21721202
214	0xbe7dfb7c	-0.24802965
215	0xbdbbb57e	-0.09165476
216	0xbcf49ce5	-0.02985997
217	0x3dbc2b4c	0.09187946
218	0x3d676605	0.056493778
219	0xbe5e6716	-0.21719012
220	0x3dd24136	0.10266344
221	0x3dcd7f23	0.10034015
222	0xbd2f13d3	-0.042743515
223	0xbe5cddb0	-0.21568942
224	0x3e36ab67	0.17838822
225	0xbdeaea9f	-0.11470532
226	0x3e39810d	0.18115635
227	0x3cf91428	0.030405119
228	0x3cb130fd	0.021629805
229	0x3dd971b2	0.10617389
230	0xbe9ab57b	-0.30216584
231	0xbe276cbc	-0.16350073
232	0x3d89f68a	0.06736477
233	0x3e09e531	0.13466336
234	0xbcad58c5	-0.021160493
235	0x3e35c0ec	0.17749375
236	0x3dd5ae49	0.10433633
237	0x3dabf9b8	0.083972394
238	0x3dae96bf	0.08524846
239	0xbe117d3f	-0.14207934
240	0x3e60e400	0.21961975
241	0x3ce14550	0.027498871
242	0xbdd853c1	-0.1056285
243	0xbedbe89f	-0.42950913
244	0x3ca5f8dc	0.020260267
245	0xbe159b2b	-0.14609973
246	0x3e4397a7	0.1910082
247	0xbdc288b0	-0.09498727
248	0xbc758d93	-0.014987367
249	0xbbf1dfea	-0.007381429
250	0x3dca6865	0.09883193
251	0xbe54fa5c	-0.2079863
252	0xbda4e610	-0.080516934
253	0x3bf5065a	0.007477564
254	0xbcd42c98	-0.02590017
255	0x3dc6f076	0.09713833

gru.weight_hh_l0 f4 [150, 50]
0	0x3d618a21	0.05506337
1	0x3e04d745	0.12972744
2	0x3e5d3c27	0.21604978
3	0xbd3fe777	-0.0468516
4	0xbda377f7	-0.07981866
5	0xbdc5cbb1	-0.09657992
6	0x3ca98bf8	0.020696625
7	0xbe08d0ef	-0.13360952
8	0x3e4f9b5e	0.20274112
9	0xbe997aa2	-0.29976374
10	0x3e400f9d	0.18755956
11	0x3cc6eb07	0.024281992
12	0xbf0483f8	-0.5176387
13	0x3d75651d	0.059910882
14	0x3f03e493	0.5152065
15	0x3d756f4b	0.05992059
16	0xbdf84728	-0.12122947
17	0xbe2fb909	-0.17160429
18	0xbdd67408	-0.1047135
19	0xbd408706	-0.04700377
20	0xbe4612e4	-0.19343144
21	0x3d977c1a	0.07396717
22	0xbdef4b56	-0.11684291
23	0xbeb3769f	-0.35051438
24	0x3e09f307	0.13471614
25	0xbe0a686e	-0.135164
26	0xbe9d87cb	-0.30767664
27	0x3d276b79	0.04087398
28	0x3d6a4389	0.057193313
29	0xbe0c24bd	-0.1368589
30	0xbe6b71ac	-0.22992581
31	0x3e90309c	0.28162086
32	0x3dc0838a	0.09400089
33	0xbd7f6e95	-0.06236132
34	0x3e71a705	0.23598869
35	0x3d1f4974	0.03888841
36	0xbcec8e90	-0.028876573
37	0xbcf386f7	-0.029727442
38	0x3d9b4f89	0.075835295
39	0x3df6486b	0.120255314
40	0x3da2e081	0.07952977
41	0xb8643f71	-5.441852e-05
42	0xbe2b9e17	-0.16759525
43	0x3e4dd13c	0.20099348
44	0xbea8a51f	-0.32938477
45	0xbe74ecdf	-0.23918484
46	0x3ca1c4ef	0.019747226
47	0x3e1c40ec	0.1525914
48	0x3c9f812a	0.01947077
49	0xbdadc84c	-0.08485469
50	0xbd9bcd7b	-0.07607552
51	0x3cc16443	0.023607379
52	0x3e36442b	0.17799442
53	0xbdefccfa	-0.11709018
54	0x3e1bfe2f	0.15233682
55	0x3a894366	0.0010472357
56	0x3e3dfe68	0.1855408
57	0xbdf3bd7b	-0.11901375
58	0x3db1cdff	0.08681869
59	0xbe906cc9	-0.28207996
60	0xbe4e925b	-0.20173018
61	0x3d6ee1ba	0.05832074
62	0xbdbf06e5	-0.09327487
63	0x3d1f9f82	0.038970478
64	0x3dc8b4e0	0.09800124
65	0xbc7ed561	-0.015553803
66	0xbc223e7e	-0.009902595
67	0xbd70f549	-0.058827672
68	0xbe225d34	-0.15855867
69	0x3e16e46c	0.14735574
70	0x3dccec51	0.10006011
71	0xbbfed503	-0.007776858
72	0x3d722461	0.059116725
73	0x3d3808c8	0.04493025
74	0x3cbbbfa9	0.02291854
75	0xbd25c515	-0.040471155
76	0xbcf2a297	-0.029618545
77	0xbce40119	-0.027832555
78	0xbe13b836	-0.1442574
79	0x3e271a91	0.16318728
80	0x3d71490c	0.058907554
81	0x3d0cd71c	0.03438483
82	0x3e0a88fb	0.13528816
83	0x3d2a8c43	0.04163767
84	0x3e12bb86	0.14329347
85	0xbd05fd5d	-0.03271233
86	0xbd771e40	-0.060331583
87	0xbdec1b7f	-0.11528682
88	0x3b740b7a	0.0037238286
89	0xbd183849	-0.037163053
90	0x3df5d3ae	0.12003265
91	0xbd4edd6d	-0.050504137
92	0xbc7f2407	-0.015572554
93	0x3d05fa07	0.032709148
94	0x3e1ede03	0.15514378
95	0x3e22bb7d	0.15891834
96	0xbbe9fd53	-0.0071407943
97	0x3de5ac5b	0.11214515
98	0x3db1a6f6	0.086744234
99	0xbdcfee29	-0.10152847
100	0xbeb7a527	-0.3586819
101	0xbe000879	-0.12503232
102	0xbcc88bda	-0.024480749
103	0xbdf0855a	-0.11744185
104	0x3dd590f8	0.10428041
105	0xbe49a253	-0.19690828
106	0xbda593ed	-0.08084855
107	0xbbc5e27b	-0.0060389615
108	0xbd9458a3	-0.072434686
109	0x3d684494	0.056706026
110	0x3bce5a5f	0.006297394
111	0xbe58fb1e	-0.21189544
112	0xbd302f55	-0.04301389
113	0x3ccc5642	0.024943475
114	0xbd4498d1	-0.0479973
115	0xbde1c386	-0.11023621
116	0x3da47592	0.08030237
117	0x3e86dd0b	0.26340517
118	0xbe7c3e0e	-0.24633047
119	0x3da5dfe4	0.080993444
120	0xbe5133b2	-0.20429876
121	0x3dc5ede9	0.096645184
122	0x3e2064d2	0.1566346
123	0x3daeafe0	0.08529639
124	0x3e0037d3	0.12521295
125	0xbd4652ba	-0.048418738
126	0xbd970a1e	-0.073749766
127	0x3ddf909c	0.10916254
128	0x3d92b43c	0.07163283
129	0x3e066b71	0.13126923
130	0x3e202cdb	0.15642111
131	0xbe0ef138	-0.13959205
132	0x3e79332f	0.24335931
133	0xbbeae6db	-0.0071686334
134	0x3dabbf17	0.08386057
135	0xbe312692	-0.1729987
136	0x3d15ce7a	0.036573865
137	0xbdf5053a	-0.119638875
138	0xbda03700	-0.078229904
139	0xbe9471f3	-0.28993186
140	0x3de70157	0.112795524
141	0xbcf79903	-0.030224329
142	0x3dd38602	0.10328294
143	0x3d949a2a	0.07255967
144	0xbdd8ab20	-0.105795145
145	0x3e4eca7d	0.2019443
146	0xbe2874bf	-0.16450785
147	0xbc2a0f39	-0.010379606
148	0x3c9091d4	0.017647661
149	0xbe3202ea	-0.17383924
150	0xbeb573ae	-0.3543982
151	0x3e13019f	0.14356087
152	0x3e073515	0.13203843
153	0xbd774325	-0.06036677
154	0x3d33a7f5	0.04386135
155	0xbe0f94dc	-0.14021629
156	0xbe27d1d4	-0.16388637
157	0x3e19f5c2	0.15035155
158	0xbd6a2c2f	-0.057171043
159	0xbe5a1693	-0.21297674
160	0x3f0216e9	0.5081621
161	0xbe00afd5	-0.12567075
162	0x3e4f3f2c	0.20238942
163	0x3e3dfa6f	0.18552564
164	0xbd1d3c3c	-0.038387522
165	0x3d8400d7	0.06445473
166	0xbdbbd2ec	-0.091710895
167	0x3e2f07ea	0.17092863
168	0xbd4ab8ea	-0.049492754
169	0x3d1187b2	0.0355298
170	0xbe0beed8	-0.1366533
171	0x3de2eccd	0.110803224
172	0xbb07b2c6	-0.0020705923
173	0x3c8aae8a	0.01692893
174	0x3e44cc8f	0.19218658
175	0xbdf77fb8	-0.12084907
176	0xbdcb4a34	-0.099262625
177	0xbafb2912	-0.001916202
178	0x3e742b7b	0.23844711
179	0xbe7f329e	-0.24921653
180	0x3d9365f5	0.07197181
181	0xbd46b385	-0.048511047
182	0x3cc26fc9	0.023734944
183	0xbe057973	-0.1303461
184	0xbc649132	-0.013950633
185	0xbe27a916	-0.16373095
186	0x3e879afd	0.26485434
187	0xbd9286fe	-0.07154654
188	0xbd8f90a4	-0.0701001
189	0xbd3501ca	-0.04419116
190	0x3e8970a9	0.26843765
191	0xbe3e03d3	-0.18556146
192	0x3e49584e	0.19662592
193	0xbdb63d85	-0.08898453
194	0xbe7ad412	-0.24494961
195	0xbd93cce4	-0.07216814
196	0xbea65c8a	-0.32492477
197	0xbe0f6840	-0.14004612
198	0x3e8c3bb1	0.2738929
199	0x3e5f8ef6	0.21831879
200	0xbe6ea039	-0.23303308
201	0xbd0c3f1d	-0.034239877
202	0xbeacb98e	-0.33735317
203	0x3e5e2991	0.21695544
204	0x3e3fd1af	0.18732332
205	0x3cfda5ee	0.03096291
206	0xbe5c22b5	-0.21497615
207	0xbe2d0bb5	-0.16898997
208	0x3e81f8f0	0.25385237
209	0xbc55a46c	-0.0130396895
210	0x3df5b47d	0.11997316
211	0xbc11c1da	-0.0088963155
212	0x3e126e3b	0.14299862
213	0xb7a6228c	-1.980483e-05
214	0x3cbe7c33	0.023252582
215	0x3e802af4	0.2503277
216	0x3caf2367	0.021379186
217	0x3d9b1bc5	0.07573656
218	0xbe2d20e7	-0.16907082
219	0x3e14f8ae	0.14547989
220	0xbda7e5cd	-0.08198128
221	0xbd2d50f6	-0.04231354
222	0xbdfaa553	-0.12238564
223	0xbc8f48a5	-0.017490694
224	0xbd696407	-0.05698016
225	0xbda9a417	-0.08283251
226	0xbd1d545f	-0.03841054
227	0x3ec9bd78	0.39402366
228	0xbdf2b484	-0.11850837
229	0x3d0c698d	0.03428035
230	0x3cf68288	0.030091539
231	0x3dc60eb2	0.09670772
232	0x3bdd9794	0.0067624543
233	0xbddee655	-0.10883776
234	0x3df79e5f	0.12090754
235	0xbe618757	-0.22024284
236	0x3e225227	0.15851651
237	0xbd422d4d	-0.047406483
238	0xbe2d9140	-0.1694994
239	0xbdbc8478	-0.09204954
240	0xbd42808b	-0.04748587
241	0xbe8357fe	-0.2565307
242	0x3df4a590	0.11945641
243	0x3bdf6fb0	0.006818734
244	0xbe5ccdbc	-0.21562856
245	0xbe2de4cf	-0.16981815
246	0xbda5a927	-0.08088904
247	0x3ce096d0	0.027415663
248	0x3e120f87	0.14263736
249	0xbd2da20f	-0.04239088
250	0xbd19557a	-0.037435032
251	0x3dea9e90	0.11456025
252	0x3e643e30	0.22289348
253	0xbebb83d4	-0.36624014
254	0x3ea29762	0.3175612
255	0x3deac3df	0.11463141

gru.bias_ih_l0 f4 [150]
0	0x3e8e17da	0.27752572
1	0xbd9b5049	-0.075836726
2	0xbd3b0773	-0.0456614
3	0xbd905b36	-0.07048647
4	0x3d72d91a	0.059289075
5	0xbdfb9009	-0.12283332
6	0x3e2a086d	0.16604777
7	0x3e1f9aea	0.15586439
8	0x3ddbc86e	0.10731588
9	0xbd403645	-0.046926755
10	0x3e10fb60	0.14158392
11	0x3e29ec72	0.16594103
12	0x3d159cac	0.036526367
13	0x3e2b4f7a	0.16729537
14	0x3bed2e15	0.0072381594
15	0x3e46d279	0.19416226
16	0x3e07da2f	0.13266824
17	0x3e726bdb	0.23673956
18	0x3dbaf072	0.091278926
19	0xbdc3475e	-0.095350966
20	0x3d5e1566	0.054219626
21	0x3e76091b	0.24026911
22	0x3e94d9a6	0.29072303
23	0xbd41e1ad	-0.04733436
24	0x3d86ccfc	0.065820664
25	0x3ea4494e	0.32087177
26	0xbda2670c	-0.07929811
27	0x3e5f53b5	0.21809275
28	0x3e705d9c	0.23473209
29	0x3e140427	0.14454709
30	0x3d026ce0	0.031842113
31	0x3cc80344	0.02441562
32	0x3c253403	0.010083201
33	0x3e6b8c09	0.23002638
34	0xbd8f9641	-0.070110805
35	0xbdf026b2	-0.117261305
36	0x3e243475	0.16035636
37	0xbc407ac0	-0.011748016
38	0x3e35fc4d	0.17772026
39	0x3bac1c1a	0.0052523734
40	0x3d8d93bc	0.06912944
41	0x3e37afbb	0.1793813
42	0x3e0dbff5	0.13842757
43	0x3c0aaece	0.008464528
44	0xbe3f51b2	-0.18683508
45	0x3d9e4f81	0.07730008
46	0x3e4c6df0	0.19963813
47	0x3d4b02c1	0.049563173
48	0x3db0f06f	0.08639609
49	0x3a864cef	0.0010246317
50	0xbed47eb5	-0.4150292
51	0x3c13e62a	0.009027043
52	0xbea16440	-0.31521797
53	0xbe1ebcb4	-0.15501672
54	0xbed2bf5d	-0.41161624
55	0xbebd7f14	-0.37011015
56	0xbeca86cc	-0.39555967
57	0xbe8819e4	-0.26582253
58	0xbe11ce62	-0.14238885
59	0xbe7a0b42	-0.24418357
60	0xbea0edd1	-0.3143144
61	0xbe9d7a25	-0.3075725
62	0xbeaa9bd0	-0.33322
63	0xbeac9981	-0.33710864
64	0xbdfd6fc7	-0.123748355
65	0xbe7004e9	-0.23439373
66	0xbdf94eda	-0.12173243
67	0xbe36cf91	-0.17852618
68	0xbe977f6c	-0.29589403
69	0xbe9a82fc	-0.30178058
70	0xbe501e10	-0.20323968
71	0xbe125abc	-0.14292425
72	0xbeb61918	-0.3556602
73	0xbceda827	-0.029010845
74	0xbe6b5e5a	-0.22985211
75	0xbe9e10af	-0.30872104
76	0xbd706f17	-0.058699694
77	0xbe7c952e	-0.24666283
78	0xbe825ba9	-0.25460556
79	0xbf0314cf	-0.51203626
80	0xbe9437d9	-0.28948858
81	0xbe13514c	-0.14386481
82	0xbda1bb8b	-0.07897099
83	0xbe473d01	-0.19456865
84	0xbebf7b27	-0.37398645
85	0xbe859600	-0.26091003
86	0xbe3d5df9	-0.18492879
87	0xbe9ae567	-0.30253145
88	0xbead858c	-0.3389095
89	0xbe83ba3d	-0.25728026
90	0x3de89f87	0.113585524
91	0xbe1de5dc	-0.15419716
92	0x3e15a34a	0.14613071
93	0xbe9f2116	-0.3107993
94	0xbe8915ea	-0.26774532
95	0xbeafb999	-0.34321287
96	0xbe90902f	-0.28235003
97	0xbe317a29	-0.17331757
98	0xbe60da08	-0.21958172
99	0xbdaae84a	-0.08345087
100	0x3ea18dcc	0.31553495
101	0x3e2b54cb	0.16731565
102	0xbd4956cf	-0.049155053
103	0xbdda3845	-0.10655264
104	0xbddea3e3	-0.10871103
105	0x3e4b1a98	0.19834363
106	0xbcde3d05	-0.027128706
107	0xbe3ecd01	-0.1863289
108	0x3eae07fe	0.33990473
109	0x3de93003	0.11386111
110	0xbb830f39	-0.0039996174
111	0xba72570d	-0.0009244539
112	0x3e381277	0.17975794
113	0x3e797e79	0.24364652
114	0xbd05c79e	-0.032661073
115	0x3dd77fc7	0.105224185
116	0x3d28a864	0.041176215
117	0xbe2297b8	-0.15878189
118	0x3d6d0f54	0.057875946
119	0xbd2f8990	-0.0428558
120	0x3c1699e6	0.009191966
121	0xbc34969a	-0.011022234
122	0xbe9af49e	-0.30264753
123	0xbdc3fbeb	-0.09569534
124	0xbe9450c6	-0.28967875
125	0x3df73ca8	0.12072116
126	0xbea62506	-0.32450122
127	0x3d9fa44e	0.077950105
128	0x3bc28e98	0.0059374087
129	0xbc1e7332	-0.009671019
130	0x3e1ef184	0.15521818
131	0x3e4049ea	0.18778196
132	0x3ddb0d00	0.10695839
133	0x3dd4e4db	0.10395213
134	0x3e48e961	0.19620277
135	0xbe304c27	-0.1721655
136	0x3d256825	0.040382523
137	0x3e32c402	0.17457584
138	0xbd1808c2	-0.037117727
139	0x3e58880b	0.21145646
140	0xbdef36d6	-0.11680381
141	0xbdcdc657	-0.10047596
142	0xbdfc3d7a	-0.12316413
143	0xbb60544b	-0.003422993
144	0x3e16a920	0.14712954
145	0xbd0c3635	-0.034231383
146	0xbce36317	-0.02775721
147	0x3e32f95c	0.17477936
148	0xbcb8f94e	-0.022579815
149	0xbdde36b3	-0.10850277

gru.bias_hh_l0 f4 [150]
0	0x3e8dd033	0.27697906
1	0xbdc9157e	-0.098185524
2	0xbd67d10b	-0.056595843
3	0x3cc90423	0.024538105
4	0x3e4d2e16	0.20037112
5	0xbe6b1540	-0.22957325
6	0x3e2a4eb2	0.16631582
7	0x3e1b4575	0.15163215
8	0x3e4f0e67	0.20220338
9	0xbcdada06	-0.02671529
10	0x3e108697	0.14113842
11	0x3d9c46e3	0.07630708
12	0xbdb12482	-0.086495414
13	0x3e73e78b	0.23818795
14	0x3d6b7480	0.05748415
15	0x3e8fdedb	0.28099713
16	0x3c502110	0.012703195
17	0x3e5ebb24	0.21751076
18	0x3e2f890d	0.17142124
19	0x3c66227d	0.014046309
20	0x3dc54831	0.0963291
21	0x3e9c94be	0.3058223
22	0x3e8d97e5	0.2765495
23	0xbd3e3086	-0.046432994
24	0x3e56b84a	0.20968738
25	0x3e8426e3	0.25810918
26	0xbd46ae7d	-0.04850625
27	0x3e0fcf85	0.14044006
28	0x3e0423c0	0.12904263
29	0x3e090637	0.13381277
30	0x3e3fb88a	0.1872274
31	0x3ddd455d	0.108042456
32	0x3db7ac85	0.08968452
33	0x3e88ff46	0.26757258
34	0xbdc2cd7f	-0.095118515
35	0xbd8e53f5	-0.06949607
36	0x3e27968e	0.16366026
37	0xbd0a98ed	-0.033837248
38	0x3e24cb12	0.1609309
39	0x3e1fa06e	0.15588543
40	0xbd221774	-0.039573148
41	0x3e94a6b6	0.2903344
42	0x3e38d503	0.18050008
43	0x3c279e70	0.010230646
44	0xbdba00cb	-0.090821825
45	0x3e60126f	0.21882032
46	0x3e3c0bcb	0.18363874
47	0xbb9b1e3b	-0.0047338284
48	0xbcbad85c	-0.022808246
49	0x3cdcc140	0.026947618
50	0xbeced0e5	-0.4039375
51	0xbe50b59f	-0.20381783
52	0xbe6289d5	-0.22122891
53	0xbe044286	-0.12916002
54	0xbebf0e1c	-0.37315452
55	0xbef324c8	-0.47489
56	0xbee456a1	-0.44597343
57	0xbe20a423	-0.15687613
58	0xbdbbbbf5	-0.09166709
59	0xbe7d5bbf	-0.2474203
60	0xbeb53a5a	-0.3539608
61	0xbea50882	-0.32233053
62	0xbee30e20	-0.44346714
63	0xbeda5ffc	-0.42651355
64	0xbe133c4b	-0.14378469
65	0xbe562038	-0.20910728
66	0xbe2a5f35	-0.16637881
67	0xbe548f8b	-0.20757882
68	0xbea8f312	-0.32997948
69	0xbe40c45e	-0.18824908
70	0xbe039c26	-0.12852535
71	0xbdf0dee1	-0.11761261
72	0xbeb21e46	-0.34788722
73	0xb90ea3ec	-0.00013603241
74	0xbe4b98fe	-0.1988258
75	0xbec86e62	-0.39146715
76	0xbc226e28	-0.009913959
77	0xbe43ea11	-0.19132258
78	0xbe811b57	-0.2521617
79	0xbecd2e63	-0.40074453
80	0xbe60439d	-0.21900792
81	0xbdc9b30e	-0.09848605
82	0xbe0e2c9a	-0.13884202
83	0xbddf74a4	-0.10910919
84	0xbf01e3e3	-0.5073835
85	0xbec72c03	-0.38900766
86	0xbe9d74c2	-0.30753142
87	0xbed7d4ac	-0.42154443
88	0xbea335c9	-0.31876972
89	0xbe6b2897	-0.22964703
90	0x3d8c8a4c	0.068623155
91	0xbec315fa	-0.38102704
92	0x3e1469d0	0.1449349
93	0xbeb1e621	-0.34745887
94	0xbed1b11d	-0.4095544
95	0xbe7065f7	-0.23476397
96	0xbe48f944	-0.19626337
97	0xbe8ffe52	-0.28123719
98	0xbe7755ea	-0.24153867
99	0xbe2ca2f9	-0.16859044
100	0x3da3fb82	0.08006956
101	0x3ce37b60	0.02776879
102	0xbe420f00	-0.18951035
103	0xbe2119f7	-0.15732561
104	0x3d811f95	0.06304852
105	0xbba5739f	-0.0050491835
106	0x3d6d5415	0.057941515
107	0xbec29b0a	-0.3800891
108	0x3d264242	0.040590532
109	0x3e25110f	0.16119789
110	0xbe6d6a4d	-0.23185082
111	0xbde959d9	-0.1139409
112	0x3e19e42e	0.1502845
113	0xbc2b580a	-0.010458002
114	0xbba2f1cf	-0.0049726735
115	0x3e043d58	0.12914026
116	0x3dbf6666	0.09345703
117	0xbd6fb01e	-0.058517568
118	0x3e16ed77	0.14739023
119	0xbdc8a3f1	-0.09796894
120	0x3c704a56	0.014666161
121	0xbe2359a5	-0.15952165
122	0xbde7358f	-0.11289512
123	0xbd991867	-0.074753575
124	0xbc81dca6	-0.015852284
125	0x3d832a32	0.064045325
126	0xbe20ed9a	-0.15715638
127	0x3d978132	0.07397689
128	0x3dc22ad6	0.094808266
129	0xbe24c54c	-0.16090888
130	0xbc868d80	-0.016424894
131	0x3cdc6d5e	0.02690762
132	0x3e1d1cce	0.1534302
133	0xbdaa5286	-0.08316521
134	0x3e2ae5d7	0.1668924
135	0xbe499a60	-0.19687796
136	0xbc3b6448	-0.011437483
137	0x3d859ee4	0.065244466
138	0xbe208a0b	-0.15677659
139	0x3ddd0a49	0.10792977
140	0x3d76f002	0.060287483
141	0x3d6e5c66	0.058193587
142	0x3ca48b87	0.020086063
143	0x3c94f756	0.018184345
144	0x3e5d6a3c	0.21622556
145	0x3c066cfa	0.008204693
146	0xbc69b8b7	-0.014265231
147	0x3df36057	0.1188361
148	0xbddc40c6	-0.10754542
149	0x3e04e613	0.12978391
