modules/prn_gen/exp/id/models/unigram/train-encoder-wdecay_1e_5-attn_dot-emb_64-hddn_50-layers_1-epoch_62.pth (torch, 80256 bytes, 5 tensors)

embedding.weight f4 [32, 64]
-4.96064e-40 -5.3257e-40 4.95279e-40 -4.91821e-40 -4.9172e-40 4.92063e-40 -4.95809e-40 -4.9322e-40
-4.90624e-40 -4.9478e-40 4.90911e-40 4.91281e-40 4.91685e-40 4.92463e-40 -4.92516e-40 4.91545e-40
-4.92388e-40 4.93086e-40 -4.93017e-40 -4.93784e-40 -5.00548e-40 -4.91559e-40 -6.09556e-40 4.94011e-40
4.95526e-40 -4.94934e-40 4.9251e-40 4.96962e-40 4.91326e-40 -4.93502e-40 4.92635e-40 4.90704e-40
-4.94347e-40 -6.12251e-40 -4.94298e-40 4.91403e-40 4.935e-40 -4.93236e-40 -4.97811e-40 4.95573e-40
-4.9225e-40 -4.91161e-40 4.94088e-40 -6.1291e-40 4.91374e-40 5.04343e-40 5.20641e-40 -4.94552e-40
-4.93201e-40 4.92663e-40 -4.91164e-40 -4.9169e-40 -4.92307e-40 4.95017e-40 4.92849e-40 -4.93879e-40
4.94897e-40 -4.95512e-40 4.94975e-40 4.91678e-40 -4.91824e-40 4.93186e-40 -4.9481e-40 4.94441e-40
0.44780615 -0.724004 0.3455927 0.47989184 -1.3514811 0.12990467 0.36306185 1.1553257
0.047662836 0.5839402 -0.9626142 -1.4806955 -0.090064816 -0.34175795 1.029381 -0.0906352
-0.49170285 0.55579793 1.8768089 -0.41553593 -1.450064 0.3243019 -0.50154954 0.050880834
-0.7872324 -0.9181085 -0.7850285 0.31701976 -2.1075606 -1.1766942 -0.6035842 1.1766686
-0.12579884 0.74935484 0.62204105 0.9133807 0.16662356 -0.7228756 -0.38215226 -0.88921535
-0.092187874 -0.20846333 -2.6350336 0.7362341 0.21710888 1.7975702 -1.0688198 -2.5713334
-1.8144537 0.73271734 -0.19751987 0.47450715 1.5337322 -0.42470086 0.6497149 -0.76657337
0.48307022 0.31650016 1.5919785 0.7919738 0.9512533 1.295166 -1.5597084 0.45586398
0.428786 0.19387087 -1.6161175 1.0761372 -0.40898183 -1.185637 -1.6110303 0.38903484
0.36172646 0.4084396 -0.19048057 -0.451151 -0.95852 0.31003985 -0.41373885 0.5280204
1.2317703 0.30241042 -0.39286235 -0.8029767 -1.4097136 2.003658 -0.051597323 0.87314534
-0.51995754 -1.2801532 -2.5559785 -0.9975619 0.22647768 1.157953 0.011454065 -0.799196
1.0037605 -0.32052186 0.3539594 0.08533753 -0.29369795 -0.19227785 0.70360124 0.2352543
0.5853042 0.097746216 -0.5472299 -0.57204074 -1.2453969 -0.105599664 0.8637209 -0.013896998
0.7930187 0.8886195 -1.2486485 0.4371272 0.7383272 0.3578594 0.8302048 -0.29399857
1.1199677 0.2115009 -0.6305641 -0.112098806 0.4521715 -0.6432948 -0.6754857 -1.3329735
4.91671e-40 -4.92692e-40 4.94884e-40 -4.92722e-40 5.55843e-40 -4.94374e-40 -4.90885e-40 -4.91022e-40
-4.92587e-40 4.91023e-40 -4.95267e-40 4.94727e-40 -4.9719e-40 -4.91232e-40 -4.90704e-40 -4.94394e-40
4.91922e-40 -4.90508e-40 4.93372e-40 4.94328e-40 -4.92426e-40 4.91824e-40 -4.92142e-40 -4.95248e-40
-4.94602e-40 -4.92139e-40 4.9224e-40 4.93169e-40 4.94734e-40 4.91312e-40 4.98677e-40 -4.93572e-40
-4.90928e-40 -4.92301e-40 4.91665e-40 4.96651e-40 -4.91618e-40 5.04268e-40 4.9248e-40 -4.91559e-40
-5.8237e-40 -4.9386e-40 -4.91903e-40 -4.95076e-40 -4.9179e-40 -4.9081e-40 -4.92535e-40 -4.91944e-40
4.9049e-40 -4.94417e-40 -5.00558e-40 -4.91019e-40 -4.91824e-40 -4.95264e-40 4.93422e-40 4.94346e-40
-4.9158e-40 -5.02721e-40 4.93411e-40 4.92122e-40 -4.9282e-40 4.92116e-40 6.08176e-40 4.93613e-40
00000000: d366 0580 97cc 0580 a364 0500 ff5a 0580
00000010: b75a 0580 ac5b 0500 1d66 0580 e65e 0580
00000020: a957 0580 3f63 0580 7658 0500 7e59 0500
00000030: 9e5a 0500 c95c 0500 ef5c 0580 3a5a 0500
00000040: 945c 0580 865e 0500 555e 0580 7860 0580
00000050: 5373 0580 445a 0580 32a3 0680 1a61 0500
00000060: 5365 0500 ad63 0580 eb5c 0500 5469 0500
00000070: 9e59 0500 af5f 0580 445d 0500 e257 0500
00000080: 0a62 0580 b5aa 0680 e761 0580 d559 0500
00000090: ad5f 0500 f15e 0580 b26b 0580 7565 0500
000000a0: 315c 0580 2859 0580 5161 0500 8bac 0680
000000b0: c059 0500 e77d 0500 56ab 0500 9c62 0580
000000c0: d85e 0580 585d 0500 2a59 0580 a25a 0580
000000d0: 5a5c 0580 e863 0500 dd5d 0500 bc60 0580
000000e0: 9263 0500 4965 0580 ca63 0500 995a 0500
000000f0: 015b 0580 cd5e 0500 5463 0580 4d62 0500
00000100: d946 e53e 5358 39bf 87f1 b03e 62b4 f53e
00000110: 55fd acbf bb05 053e 3ee3 b93e b6e1 933f
00000120: 1b3a 433d 1b7d 153f e26d 76bf 6e87 bdbf
00000130: e773 b8bd e6fa aebe c2c2 833f f39e b9bd
00000140: 7ac0 fbbe c648 0e3f 463b f03f 20c1 d4be
00000150: b29b b9bf e60a a63e 8d65 00bf 6c68 503d
00000160: 1088 49bf 2909 6bbf a1f7 48bf 6a50 a23e
00000170: 46e2 06c0 ea9d 96bf 7e84 1abf 149d 963f
00000180: 69d1 00be b8d5 3f3f 153e 1f3f 51d3 693f
00000190: 5e9f 2a3e 600e 39bf 76a9 c3be 9ea3 63bf
000001a0: ffcc bcbd 6977 55be 64a4 28c0 d779 3c3f
000001b0: ca51 5e3e c816 e63f 16cf 88bf ba90 24c0
000001c0: 0540 e8bf 5d93 3b3f a642 4abe 9af2 f23e
000001d0: 5651 c43f 6472 d9be b753 263f 273e 44bf
000001e0: fb54 f73e 4f0c a23e f4c5 cb3f ccbe 4a3f
000001f0: 5685 733f 00c8 a53f 86a4 c7bf 0167 e93e
00000200: d789 db3e 1686 463e f0dc cebf ddbe 893f
00000210: 1166 d1be f4c2 97bf 3e36 cebf 932f c73e
00000220: 3634 b93e ff1e d13e 570d 43be 44fd e6be
00000230: 9161 75bf 8bbd 9e3e 94d5 d3be 582c 073f
00000240: a6aa 9d3f 8ad5 9a3e 4125 c9be e28f 4dbf
00000250: 7f71 b4bf ef3b 0040 b757 53bd 7486 5f3f
00000260: f01b 05bf 0fdc a3bf 2795 23c0 3760 7fbf
00000270: c4e9 673e ce37 943f d5a9 3b3c 1c98 4cbf
00000280: 397b 803f 711b a4be 2b3a b53e 71c5 ae3d
00000290: 945f 96be 7ce4 44be 361f 343f 81e6 703e
000002a0: 7fd6 153f 2b2f c83d 4217 0cbf 4371 12bf
000002b0: 2a69 9fbf a344 d8bd d01c 5d3f 3cb0 63bc
000002c0: 4603 4b3f 917c 633f b7d3 9fbf 23cf df3e
000002d0: 0303 3d3f 5939 b73e 4d88 543f fb86 96be
000002e0: 1a5b 8f3f b193 583e a66c 21bf 0f94 e5bd
000002f0: 0683 e73e f8ae 24bf a1ec 2cbf e09e aabf
00000300: 945a 0500 6d5d 0580 8963 0500 825d 0580
00000310: 770d 0600 1d62 0580 6358 0580 c558 0580
00000320: 225d 0580 c658 0500 9a64 0580 1963 0500
00000330: f769 0580 5b59 0580 e257 0580 2b62 0580
00000340: 475b 0500 5657 0580 525f 0500 fc61 0500
00000350: af5c 0580 015b 0500 e45b 0580 8d64 0580
00000360: c062 0580 e25b 0580 2a5c 0500 c15e 0500
00000370: 1e63 0500 9459 0500 1c6e 0500 e15f 0580
00000380: 8258 0580 565c 0580 905a 0500 7668 0500
00000390: 6e5a 0580 b27d 0500 d55c 0500 445a 0580
000003a0: 6957 0680 ae60 0580 3a5b 0580 1264 0580
000003b0: e95a 0580 2e58 0580 fd5c 0580 575b 0580
000003c0: 4957 0500 3c62 0580 5a73 0580 c358 0580
000003d0: 015b 0580 9864 0580 765f 0500 0962 0500
000003e0: 535a 0580 6279 0580 6e5f 0500 d65b 0500
000003f0: c85d 0580 d25b 0500 599f 0600 fe5f 0500

gru.weight_ih_l0 f4 [150, 64]
0.12375081 -0.04531319 -0.1089993 0.02633072 0.03695655 -0.2003878 -0.00257104 0.08443327
-0.052622832 0.1003575 -0.27075392 0.065857634 -0.114400215 0.08770051 -0.10410161 0.11628117
-0.05320467 -0.149802 -0.059032 0.023834838 -0.03639403 -0.0064003915 -0.038361993 0.14600676
-0.16247866 0.068596326 -0.046546962 -0.13549858 -0.004738169 0.23609574 0.06192026 0.1711973
0.07341223 -0.067804314 -0.14957045 -0.04816939 0.18134862 0.27761132 -0.115381606 -0.047028806
-0.051863585 0.061393723 -0.03265839 0.1009812 -0.165158 0.25621656 -0.032299083 -0.043740034
-0.07387915 0.058691982 -0.04535019 0.09047817 0.094107874 0.04326764 -0.18062274 -0.17284283
-0.04742682 -0.16052558 0.22413486 0.15171266 0.04263795 0.072839975 -0.2306838 0.09917946
0.008314633 -0.086539365 0.09788667 -0.0043493956 -0.19072711 -0.13463691 0.006509866 0.09616522
-0.09859954 -0.056776773 -0.19144186 -0.0460855 -0.1300673 0.012201874 0.0016278169 -0.039338857
0.22647597 -0.04020422 0.031824067 -0.024557604 0.16337912 0.10299232 -0.29512566 -0.11969999
-0.070502445 0.11168392 -0.112638496 -0.023162622 0.07696916 0.06585914 0.087922335 0.12267908
0.06360057 -0.034359265 -0.011219417 0.03231429 -0.061078012 0.06553359 -0.013178755 -0.09337887
-0.06542713 -0.07963175 -0.17352459 0.26665255 -0.15501818 0.3221962 -0.021441506 -0.035004634
-0.0898004 0.13722701 0.03666177 0.0697016 0.037402436 -0.022709602 -0.19235952 -0.0071448954
0.33062696 -0.09491504 0.3924911 0.110490404 0.09891904 0.17129342 0.050381795 0.026824983
0.114434056 -0.12712538 -0.058958594 0.03796098 0.021804517 -0.055561032 -0.0895116 -0.1153019
0.13651082 -0.061627854 -0.1121487 -0.0077393716 -0.2019629 -0.07881365 -0.1976966 -0.08496681
0.14083041 -0.16573642 0.1048223 -0.04496994 0.071668684 0.21596794 -0.08409842 0.12099247
-0.12062868 -0.027389228 -0.016509475 -0.12465653 -0.013301548 -0.010291493 0.06959756 0.09923078
0.06834818 0.13472116 0.07961316 0.07184507 -0.17057636 -0.011316541 0.023725169 -0.12172853
0.06590168 0.1053415 -0.22555357 -0.0877076 -0.084182575 0.19257817 0.005334435 -0.14710009
0.061880775 0.09157426 -0.27846506 -0.03158311 0.06665988 -0.09747189 -0.02872961 -0.20144483
0.061542414 -0.13774455 0.07874692 -0.010393657 0.046223413 -0.06575214 -0.13283312 -0.05092197
0.15454558 0.039330255 0.07901266 -0.17540635 0.14328276 0.05283206 0.14488481 -0.059961174
0.022491947 -0.07009929 -0.14646123 0.001653242 0.041810036 -0.0770957 0.04672463 -0.12633555
0.06337958 -0.056616984 0.18643951 0.023099689 -0.18068318 0.37481698 0.23797016 -0.11367242
0.10405443 0.07188114 0.28693452 -0.06897477 0.07582354 -0.07624361 0.22258677 -0.1479817
0.077954866 0.008976139 -0.004341277 0.028733088 0.21342288 0.13930488 0.13211438 -0.05298309
-0.05047625 0.17944087 -0.041432522 -0.24704899 0.07745756 0.08717322 0.11312555 -0.16198945
-0.07020677 0.104765646 -0.021418957 -0.03780896 -0.023470217 -0.3828669 0.22833703 -0.3318191
-0.114253476 0.11336589 -0.018705403 0.2387479 -0.07150776 0.16769263 -0.27079266 0.22044185
00000000: 1171 fd3d 539a 39bd 063b dfbd 86b3 d73c
00000010: c05f 173d 7632 4dbe e57e 28bb 5aeb ac3d
00000020: 0a8b 57bd 3c88 cd3d 42a0 8abe 5ee0 863d
00000030: a94a eabd 539c b33d 3a33 d5bd d224 ee3d
00000040: 24ed 59bd b265 19be 8acb 71bd 4741 c33c
00000050: e811 15bd 60ba d1bb 7721 1dbd cc82 153e
00000060: ce60 26be 3b7c 8c3d 07a8 3ebd 24c0 0abe
00000070: a442 9bbb 15c3 713e 19a0 7d3d 584e 2f3e
00000080: 2759 963d fddc 8abd ff28 19be 444d 45bd
00000090: 74b3 393e 1223 8e3e 314d ecbd 47a1 40bd
000000a0: e96e 54bd fc77 7b3d cec4 05bd 3bcf ce3d
000000b0: 2e1f 29be d12e 833e 0b4c 04bd c028 33bd
000000c0: f44d 97bd 0167 703d 1fc1 39bd 9e4c b93d
000000d0: a1bb c03d 6939 313d 2bf5 38be b6fd 30be
000000e0: a042 42bd d160 24be 9c83 653e 905a 1b3e
000000f0: 22a5 2e3d 202d 953d 6038 6cbe 9a1e cb3d
00000100: 193a 083c 8d3b b1bd ce78 c83d 6085 8ebb
00000110: f84d 43be 42de 09be b750 d53b 45f2 c43d
00000120: 8eee c9bd c38e 68bd 5609 44be 26c4 3cbd
00000130: 5d30 05be 5eea 473c 795c d53a c821 21bd
00000140: 51e9 673e 2ead 24bd f459 023d 072d c9bc
00000150: db4c 273e a3ed d23d b61a 97be 4525 f5bd
00000160: 9663 90bd 8aba e43d 03af e6bd 8abf bdbc
00000170: 02a2 9d3d 28e1 863d a010 b43d 2b3f fb3d
00000180: 0441 823d 4dbc 0cbd a5d1 37bc fd5b 043d
00000190: f02c 7abd 7a36 863d b4eb 57bc 6c3d bfbd
000001a0: a9fe 85bd f915 a3bd 6eb0 31be af86 883e
000001b0: 16bd 1ebe e6f6 a43e 19a6 afbc 0561 0fbd
000001c0: 46e9 b7bd 3d85 0c3e a72a 163d b6bf 8e3d
000001d0: 4c33 193d 7d09 babc e5f9 44be ba1f eabb
000001e0: f047 a93e d162 c2bd 98f4 c83e cb48 e23d
000001f0: 1196 ca3d 8b67 2f3e 245d 4e3d 11c0 db3c
00000200: 675c ea3d 282d 02be 917e 71bd f97c 1b3d
00000210: 639f b23c f793 63bd dc51 b7bd 6723 ecbd
00000220: 7ec9 0b3e 7d6d 7cbd 38ae e5bd 8e9a fdbb
00000230: 5dcf 4ebe 0d69 a1bd fa70 4abe 1403 aebd
00000240: d935 103e cfb6 29be 13ad d63d 6632 38bd
00000250: 08c7 923d b326 5d3e cb3b acbd e6ca f73d
00000260: 2b0c f7bd 605f e0bc e13e 87bc ec4b ffbd
00000270: bcee 59bc a69d 28bc 2a89 8e3d 8239 cb3d
00000280: 21fa 8b3d 58f4 093e 390c a33d 8223 933d
00000290: 92ab 2ebe 0369 39bc 495b c23c cf4c f9bd
000002a0: 76f7 863d 49bd d73d 84f7 66be 0ba0 b3bd
000002b0: ea67 acbd 3633 453e 7ccc ae3b 68a1 16be
000002c0: b276 7d3d 498b bb3d f992 8ebe 4b5d 01bd
000002d0: fa84 883d 589f c7bd 5c5a ebbc 8e47 4ebe
000002e0: e613 7c3d e80c 0dbe 1146 a13d 284a 2abc
000002f0: c354 3d3d 0fa9 86bd 6805 08be 8e93 50bd
00000300: 3241 1e3e c318 213d 64d1 a13d b99d 33be
00000310: b7b8 123e 6e66 583d af5c 143e d999 75bd
00000320: 0841 b83c 3790 8fbd eff9 15be 99b1 d83a
00000330: 0041 2b3d 5ae4 9dbd 5362 3f3d 1b5e 01be
00000340: 27cd 813d 36e7 67bd 00ea 3e3e 8f3b bd3c
00000350: 0305 39be 03e8 bf3e 73ae 733e 16cd e8bd
00000360: 7d1a d53d 6b36 933d 15e9 923e a542 8dbd
00000370: 5f49 9b3d 9c25 9cbd c9ed 633e 8488 17be
00000380: cda6 9f3d a810 133c 4541 8ebb a761 eb3c
00000390: 878b 5a3e f0a5 0e3e fe48 073e cc04 59bd
000003a0: 2fc0 4ebd 59bf 373e 26b5 29bd 69fa 7cbe
000003b0: 12a2 9e3d e087 b23d 5eae e73d 90e0 25be
000003c0: 91c8 8fbd 5f8f d63d cf76 afbc 91dd 1abd
000003d0: 9d44 c0bc 2107 c4be 2fd1 693e 31e4 a9be
000003e0: bafd e9bd 602c e83d 133c 99bc 547a 743e
000003f0: a972 92bd 9eb7 2b3e 56a5 8abe 82bb 613e

gru.weight_hh_l0 f4 [150, 50]
-0.1650126 0.15389015 0.10420178 0.21875407 0.04318038 -0.07651634 0.27720165 0.051346056
-0.24262418 0.03494288 0.10666429 -0.0794634 -0.19607086 0.19037536 0.16648743 0.2875212
-0.061822206 -0.42519438 0.121648766 0.014634982 -0.04556698 0.018092103 -0.23636666 0.06510363
0.09990885 0.42535815 -0.11191235 -0.035521768 0.15244162 0.042603612 -0.098751865 0.013668314
0.07395837 -0.09212641 0.09828078 0.06995196 0.04013764 -0.034816243 0.1972622 -0.06557394
0.046099596 0.07530434 0.19804221 -0.091611624 -0.07599844 0.14447923 0.14120874 0.15209992
0.038994633 -0.12348128 0.09507481 -0.060133677 -0.16286969 0.025756946 -0.021599723 0.04370032
0.118715 -0.079812676 -0.01848553 0.017509138 0.17991771 0.07101984 0.17625058 0.17335086
-0.014588106 0.031729367 -0.1701814 0.15429772 -0.1313558 0.061683346 0.024817526 -0.095232315
-0.091745935 -0.10984181 -0.2656194 0.03626493 0.007671746 -0.07756817 0.036518715 0.0024746617
-0.054202825 0.16945718 -0.21240756 -0.062038068 0.06880462 -0.19981056 0.12000287 -0.26124793
-0.12195643 -0.16143085 0.314852 -0.21234648 -0.10166804 0.06340693 -0.049730547 0.02164088
-0.04151825 -0.036577847 0.09170167 0.03728239 -0.017528966 0.2511893 -0.14221844 -0.013792071
-0.24442644 0.15626319 -0.12021097 -0.017560072 -0.18945329 -0.17001133 0.097975835 0.061237726
-0.03143231 0.098055355 -0.05970182 0.16225754 0.030798353 -0.06310049 -0.08539952 -0.10904798
0.17430843 0.1795305 -0.18176867 -0.09842568 0.014477553 -0.117504224 0.061833426 0.088959135
-0.068931326 0.026567072 0.06835886 -0.12580171 0.16808274 0.011612686 0.019375777 -0.015532347
0.0053296764 0.13645057 -0.08878084 0.034774605 -0.014622186 -0.0623926 0.20084171 0.32754403
0.08583092 0.22335653 0.028496198 0.008197147 -0.04694491 -0.2550301 0.29881147 0.023147909
0.19811943 0.14765663 0.18787141 -0.22711904 0.110253535 0.008281728 0.34609464 0.051739994
0.19255036 -0.20002092 -0.09615248 0.10739205 0.049992446 -0.034295104 0.17793834 0.10185843
0.1004511 -0.043565284 -0.05874835 -0.12657163 -0.051583804 -0.050519098 -0.12547691 0.03840685
0.07988598 0.006698351 0.1294325 -0.22695324 -0.08030464 0.16157058 -0.037064463 0.11423578
0.09125967 -0.16573547 0.10789224 0.007204184 0.34625047 -0.20129375 -0.08637856 -0.09913281
0.00946253 0.257839 0.08657542 0.09350147 0.10595377 0.07753785 -0.023592517 -0.0070418054
-0.078598276 0.22009765 0.07928825 0.02288932 -0.011962587 0.07515458 0.09492671 0.055372145
0.02590745 0.09705626 -0.11146586 -0.3038613 -0.065950386 0.07509497 -0.084881656 -0.20798251
-0.04238887 0.29189914 -0.18565628 -0.097684406 0.11612286 0.075417854 -0.07608573 -0.092087954
-0.02186709 0.018654905 -0.028569672 -0.123216435 -0.10992543 -0.22218013 -0.03885948 -0.11356028
0.0075897737 -0.20994425 -0.016317017 -0.20810525 -0.065171055 -0.13283145 -0.082536526 -0.6435467
0.23108941 0.23433603 0.1497577 0.24951553 0.043701895 0.01092132 -0.028795274 0.26756093
-0.15293649 -0.20765024 -0.10334097 0.17416258 0.11314798 0.09773941 -0.26889852 0.1578324
00000000: 10f9 28be 6195 1d3e be67 d53d 1101 603e
00000010: e9dd 303d 99b4 9cbd 60ed 8d3e 3e50 523d
00000020: 7972 78be 4420 0f3d cf72 da3d b5bd a2bd
00000030: cdc6 48be c2f1 423e ae7b 2a3e fb35 933e
00000040: 4839 7dbd 14b3 d9be fd22 f93d 90c7 6f3c
00000050: 71a4 3abd e435 943c 1a0a 72be 0d55 853d
00000060: 039d cc3d 8bc8 d93e 4d32 e5bd 467f 11bd
00000070: a819 1c3e 2081 2e3d 6b3e cabd 10f1 5f3c
00000080: 7c77 973d c5ac bcbd 6f47 c93d f942 8f3d
00000090: 5e67 243d 7a9b 0ebd 1aff 493e a14b 86bd
000000a0: eed2 3c3d 2939 9a3d 94cb 4a3e e09e bbbd
000000b0: 12a5 9bbd 5df2 133e 0699 103e 15c0 1b3e
000000c0: d6b8 1f3d c1e3 fcbd 95b6 c23d bb4e 76bd
000000d0: 50c7 26be 3b00 d33c e7f1 b0bc 1bff 323d
000000e0: da20 f33d d474 a3bd f76e 97bc 536f 8f3c
000000f0: 593c 383e da72 913d 087b 343e e382 313e
00000100: f402 6fbc a7f6 013d 0844 2ebe 3900 1e3e
00000110: 2382 06be ada7 7c3d 204e cb3c 2909 c3bd
00000120: 4be5 bbbd bef4 e0bd 44ff 87be 898a 143d
00000130: 4563 fb3b 10dc 9ebd a694 153d ef2d 223b
00000140: c803 5ebd 2f86 2d3e 5e81 59be a11b 7ebd
00000150: 70e9 8c3d 249b 4cbe 11c4 f53d 4ac2 85be
00000160: 4bc4 f9bd 214e 25be 4834 a13e 5b71 59be
00000170: 5537 d0bd 7edb 813d 42b2 4bbd 3748 b13c
00000180: 0a0f 2abd a7d2 15bd 16ce bb3d 6bb5 183d
00000190: e898 8fbc e29b 803e b6a1 11be 23f8 61bc
000001a0: ed4a 7abe 7503 203e 2b31 f6bd 24da 8fbc
000001b0: 0b00 42be 7317 2ebe 8ea7 c83d 69d4 7a3d
000001c0: 2abf 00bd 3fd1 c83d e589 74bd d726 263e
000001d0: d44c fc3c d43a 81bd f2e5 aebd 8c54 dfbd
000001e0: e97d 323e d8d6 373e 9121 3abe 6793 c9bd
000001f0: 4233 6d3c 0ea6 f0bd 0c45 7d3d 3530 b63d
00000200: de2b 8dbd 30a3 d93c bbff 8b3d 2ad2 00be
00000210: e21d 2c3e 2343 3e3c f3b9 9e3c 637b 7ebc
00000220: 91a4 ae3b b3b9 0b3e bbd2 b5bd d16f 0e3d
00000230: e591 6fbc 628f 7fbd 73a9 4d3e dab3 a73e
00000240: 1fc8 af3d 93b7 643e dc70 e93c 544d 063c
00000250: 4e49 40bd 4e93 82be d1fd 983e afa0 bd3c
00000260: d2df 4a3e 4d33 173e 5d61 403e e591 68be
00000270: 9bcc e13d 16b0 073c 5133 b13e 51ed 533d
00000280: ec2b 453e 49d2 4cbe 97eb c4bd 5df0 db3d
00000290: e1c4 4c3d 0679 0cbd 7835 363e 279b d03d
000002a0: 4eb9 cd3d 8371 32bd 1ca2 70bd fe9b 01be
000002b0: 8a49 53bd 1ded 4ebd 057d 00be 8050 1d3d
000002c0: 439b a33d d77d db3b f489 043e 6e66 68be
000002d0: c276 a4bd c272 253e e8d0 17bd 73f4 e93d
000002e0: 5ae6 ba3d 8fb6 29be 9bf6 dc3d 1311 ec3b
000002f0: be47 b13e f31f 4ebe 3ee7 b0bd 2506 cbbd
00000300: ba08 1b3c 7903 843e 744e b13d b37d bf3d
00000310: 4afe d83d 2acc 9e3d 1845 c1bc f2be e6bb
00000320: 22f8 a0bd 4761 613e e161 a23d 6282 bb3c
00000330: bafe 43bc a5ea 993d ef68 c23d e7cd 623d
00000340: dc3b d43c 6fc5 c63d 3648 e4bd b593 9bbe
00000350: ff10 87bd 64cb 993d 6fd6 adbd 5ef9 54be
00000360: f49f 2dbd ce73 953e ae1c 3ebe c30e c8bd
00000370: d2d1 ed3d ad74 9a3d d6d2 9bbd 9c98 bcbd
00000380: 9d22 b3bc 2cd2 983c f20a eabc e658 fcbd
00000390: 9520 e1bd 3083 63be 1e2b 1fbd 4b92 e8bd
000003a0: a3b3 f83b a0fb 56be 44ab 85bc 8b19 55be
000003b0: 6778 85bd f804 08be e908 a9bd 7abf 24bf
000003c0: b4a2 6c3e c9f5 6f3e 155a 193e 0081 7f3e
000003d0: c200 333d 56ef 323c 11e4 ebbc bffd 883e
000003e0: 629b 1cbe 44a2 54be 6ea4 d3bd ad57 323e
000003f0: 21ba e73d 9a2b c83d 11ad 89be d19e 213e

gru.bias_ih_l0 f4 [150]
0.08742582 -0.09919605 -0.0015240262 0.19289902 0.12555914 -0.013426867 0.31584567 0.22667111
0.12855314 0.15786798 0.16615008 0.22174384 0.14392613 0.31751835 0.08340313 -0.12933704
0.19497903 -0.10059997 -0.06546399 0.29233217 0.10751996 0.035668492 0.18522792 0.14137606
0.27475092 0.01648328 0.097219065 -0.049015727 -0.011743998 0.19780211 0.06535025 0.08538599
0.06695133 0.18869822 0.23844889 0.062825486 0.05429167 -0.06817721 0.006099871 0.05348949
0.043341406 0.062550694 0.117137074 0.2547301 -0.251021 0.13266397 -0.111387715 0.1448994
-0.031303275 0.013466142 -0.49329862 -0.14009362 -0.2135193 -0.5165992 -0.18261427 -0.15901184
-0.17218186 -0.1494026 -0.37846798 -0.04138573 -0.36487755 -0.38952318 -0.053408988 -0.036017273
0.05377345 -0.21959896 -0.25642437 -0.20011407 -0.077506624 -0.32396615 -0.04935529 -0.11713425
-0.20389254 -0.33735618 -0.13010298 -0.2292547 -0.2277181 -0.24287383 -0.47837138 -0.19352412
-0.216708 -0.42286202 -0.30876997 -0.01619205 -0.28215888 -0.38882497 -0.20709385 -0.47588286
-0.33135706 -0.20979542 -0.30915096 -0.24772921 -0.25163493 -0.2672616 -0.09081333 -0.24940002
-0.095382236 -0.30024695 -0.36533806 -0.14830618 0.15480623 -0.012192778 -0.087234326 -0.13452832
0.05850558 -0.1989485 -0.09724678 -0.21320437 0.21311373 -0.1383229 -0.18367249 -0.2095886
0.1413501 -0.028393751 -0.04069153 0.13551028 0.015031724 -0.1572704 -0.07551548 -0.2590828
-0.15794033 -0.13613753 -0.11527118 -0.045338884 -0.06428535 -0.049948253 0.23406881 -0.06583595
0.12090316 -0.032473546 -0.22364907 -0.15117277 -0.040672187 0.14243259 0.1399975 -0.115555465
-0.045274403 -0.02186179 0.011145514 -0.09267307 -0.009395393 -0.055702902 0.15893272 0.059554752
0.0035337484 0.009061877 0.10746802 0.09379904 -0.008828051 0.06360919
00000000: 4f0c b33d 4c27 cbbd d5c1 c7ba 5287 453e
00000010: 9392 003e 5dfc 5bbc 86b6 a13e 791c 683e
00000020: 6fa3 033e 25a8 213e 3f23 2a3e d110 633e
00000030: 5f61 133e c491 a23e 43cf aa3d ee70 04be
00000040: 95a8 473e 5b07 cebd fc11 86bd 90ac 953e
00000050: 6d33 dc3d 2019 123d 63ac 3d3e e3c4 103e
00000060: 27ac 8c3e f207 873c ca1a c73d b7c4 48bd
00000070: e669 40bc a38c 4a3e 5ad6 853d dade ae3d
00000080: c71d 893d 1b3a 413e f22b 743e a6aa 803d
00000090: f160 5e3d 7ea0 8bbd 6de1 c73b cc17 5b3d
000000a0: c286 313d 941a 803d 90e5 ef3d fc6b 823e
000000b0: d385 80be 10d9 073e 3e1f e4bd 8260 143e
000000c0: dd37 00bd 18a1 5c3c a391 fcbe b474 0fbe
000000d0: cea4 5abe d83f 04bf 3cff 3abe 00d4 22be
000000e0: 7150 30be fffc 18be 8ec6 c1be 1584 29bd
000000f0: 3bd1 babe 956f c7be 62c3 5abd d986 13bd
00000100: 8d41 5c3d 8dde 60be 0e4a 83be b4ea 4cbe
00000110: cbbb 9ebd e4de a5be c628 4abd 15e4 efbd
00000120: 35c9 50be f3b9 acbe b739 05be bec1 6abe
00000130: ef2e 69be ebb3 78be 18ed f4be 302b 46be
00000140: b4e8 5dbe 5f81 d8be 1917 9ebe 31a5 84bc
00000150: 2177 90be 1114 c7be 6910 54be eba6 f3be
00000160: a2a7 a9be 9cd4 56be 0949 9ebe baac 7dbe
00000170: 4bd6 80be 83d6 88be 57fc b9bd b862 7fbe
00000180: c357 c3bd f8b9 99be 970d bbbe 93dd 17be
00000190: 8685 1e3e 38c4 47bc e9a7 b2bd cbc1 09be
000001a0: 8ca3 6f3d 28b9 4bbe 5229 c7bd 3f52 5abe
000001b0: 7c3a 5a3e 85a4 0dbe a414 3cbe 659e 56be
000001c0: 15be 103e 039a e8bc 29ac 26bd 35c3 0a3e
000001d0: 9f47 763c 7e0b 21be dca7 9abd 80a6 84be
000001e0: 1cbb 21be a367 0bbe 4c13 ecbd 44b5 39bd
000001f0: 0aa8 83bd 8a96 4cbd bcaf 6f3e 00d5 86bd
00000200: 139c f73d fb02 05bd 4304 65be 09cd 1abe
00000210: e197 26bd d9d9 113e 815b 0f3e 58a8 ecbd
00000220: a771 39bd 7f17 b3bc ad9b 363c 61cb bdbd
00000230: 22ef 19bc ba28 64bd 42bf 223e afef 733d
00000240: 7696 673b 4478 143c 3118 dc3d b619 c03d
00000250: 88a3 10bc 8945 823d

gru.bias_hh_l0 f4 [150]
0.12244289 -0.11691455 0.1621528 0.25736395 0.1330993 -0.049086265 0.27648294 0.20246284
0.016959133 0.22813788 0.1875726 0.30525517 0.32399142 0.25534117 0.09921098 -0.0107466355
0.23741964 -0.030956917 0.08772013 0.26086316 0.12484889 -0.07858219 0.13198426 0.17721263
0.2523322 0.15698408 0.13380128 0.09639586 -0.108170256 0.1352884 0.14406231 0.08046322
0.06565862 0.02403531 0.12413625 -0.040374923 0.23944971 -0.04533185 0.050654974 0.06854488
-0.011521906 0.05219655 0.17797913 0.226066 -0.12877747 0.0077617364 0.013557598 0.22846386
0.04546516 0.039515093 -0.46162182 -0.0683143 -0.24437986 -0.47114265 -0.38687152 -0.24137516
-0.31328833 0.008829542 -0.3369615 -0.07075322 -0.15462738 -0.30347684 -0.0254403 -0.00051527953
-0.073152944 -0.22471145 -0.24374697 -0.17633069 -0.11069204 -0.2282962 -0.09307694 -0.1594467
-0.10770787 -0.44685307 -0.16201128 -0.29627097 -0.19754088 -0.24243608 -0.50511605 -0.29251748
-0.23899227 -0.41285247 -0.24190639 -0.11933442 -0.1992011 -0.4089131 -0.23503695 -0.5223483
-0.30537415 -0.2494829 -0.22028519 -0.22833538 -0.43157953 -0.29253498 -0.14522862 -0.34315646
-0.024678038 -0.20954402 -0.40277317 -0.18778533 0.08214481 -0.025632225 0.10815013 0.019762633
-0.1353333 0.034651414 -0.077372395 -0.2441773 0.16787653 -0.015709696 0.029633349 -0.19719332
0.015033144 0.03291062 -0.027039066 0.035881393 -0.011571589 -0.033757042 -0.2782808 -0.11212467
-0.08878272 -0.011888549 0.005069188 -0.0997146 0.008775221 -0.19053055 -0.004628873 0.05029927
0.16088511 -0.02843894 -0.08723718 0.09704583 -0.12042331 -0.042100698 -0.069708936 0.14525479
-0.06984746 -0.11301889 -0.06698593 -0.11057366 0.028712606 -0.09484261 0.21163525 -0.010454747
-0.082208924 -0.021563172 0.02939906 0.08194537 -0.14793296 -0.0346352
00000000: 57c3 fa3d e570 efbd 620b 263e 35c5 833e
00000010: 2f4b 083e ae0e 49bd 2c8f 8d3e 6b52 4f3e
00000020: e1ed 8a3c fa9c 693e 0813 403e 684a 9c3e
00000030: 34e2 a53e 14bc 823e 202f cb3d a812 30bc
00000040: 221e 733e 5c99 fdbc 9da6 b33d db8f 853e
00000050: c6b0 ff3d b3ef a0bd e226 073e 3a77 353e
00000060: b031 813e 6fc0 203e 3403 093e 316b c53d
00000070: 5e88 ddbd 0b89 0a3e 1285 133e e7c9 a43d
00000080: 0778 863d b3e5 c43c 253b fe3d 2d60 25bd
00000090: 4e32 753e e4ad 39bd 977b 4f3d 4261 8c3d
000000a0: 60c6 3cbc 0dcc 553d 2940 363e d87d 673e
000000b0: 3ede 03be 2a56 fe3b b020 5e3c 6ef2 693e
000000c0: ad39 3a3d 94da 213d b259 ecbe 5ee8 8bbd
000000d0: b73e 7abe 9c39 f1be 0614 c6be 0d2b 77be
000000e0: 5467 a0be c9a9 103c 3886 acbe 10e7 90bd
000000f0: a456 1ebe 5161 9bbe 2d68 d0bc d313 07ba
00000100: 36d1 95bd c21a 66be ce98 79be 0890 34be
00000110: 82b2 e2bd 7bc6 69be 1f9f bebd ff45 23be
00000120: f295 dcbd edc9 e4be 49e6 25be d4b0 97be
00000130: 2848 4abe 2a41 78be 494f 01bf dac4 95be
00000140: 64ba 74be 6661 d3be 4fb6 77be 9b65 f4bd
00000150: 60fb 4bbe 0f5d d1be 87ad 70be 9eb8 05bf
00000160: 005a 9cbe 7278 7fbe 7192 61be c0d0 69be
00000170: fef7 dcbe 25c7 95be d0b6 14be 34b2 afbe
00000180: 9929 cabc b592 56be 4938 cebe cc4a 40be
00000190: 8a3b a83d acfa d1bc d17d dd3d 3fe5 a13c
000001a0: d094 0abe a4ee 0d3d 6b75 9ebd 9d09 7abe
000001b0: d3e7 2b3e 9fb1 80bc a3c1 f23c 0ced 49be
000001c0: 934d 763c 49cd 063d 0881 ddbc 5ef8 123d
000001d0: c396 3dbc d344 0abd d27a 8ebe 9ea1 e5bd
000001e0: b7d3 b5bd 30c8 42bc 6e1b a63b 2b37 ccbd
000001f0: f2c5 0f3c 711a 43be cdad 97bb 9b06 4e3d
00000200: 11bf 243e c8f8 e8bc 68a9 b2bd f7bf c63d
00000210: 7fa0 f6bd c871 2cbd 8fc3 8ebd acbd 143e
00000220: 2f0c 8fbd 7376 e7bd eb2f 89bd 7174 e2bd
00000230: b336 eb3c d83c c2bd e9b6 583e 634a 2bbc
00000240: 275d a8bd 40a5 b0bc 4cd6 f03c f9d2 a73d
00000250: bd7b 17be a4dd 0dbd
