modules/prn_gen/exp/en/models/unigram/FIN-decoder-wdecay_1e_5-attn_dot-emb_32-hddn_100-layers_1-epoch_100.pth (torch, 316656 bytes, 7 tensors)

embedding.weight f4 [35, 32]
0	0xbb9e084b	-0.004822766
1	0xbd0d4604	-0.0344906
2	0x3c8a4913	0.016880548
3	0xbd8330ab	-0.06405767
4	0x3ac9de40	0.0015401319
5	0xbdbb1017	-0.09133928
6	0xbbda574a	-0.0066632377
7	0xbaa85752	-0.0012843406
8	0xbdd4885b	-0.1037757
9	0x3db4e0b7	0.088319235
10	0xbd7f380c	-0.06230931
11	0x3d475bf7	0.04867169
12	0x3c3255f8	0.010884754
13	0x3de7acf8	0.11312288
14	0xbd1f564b	-0.038900655
15	0xbcdcedaf	-0.026968805
16	0xbed96a37	-0.42463848
17	0x3d99b905	0.07505993
18	0xbfc3ef32	-1.5307372
19	0x3e1cb0cc	0.15301818
20	0xbcaa6057	-0.020797892
21	0xbb65cc93	-0.0035064563
22	0x3e7b2118	0.24524343
23	0xbcf25781	-0.02958274
24	0x3cbd88e6	0.023136567
25	0xbbf780d1	-0.007553198
26	0x3d0a45dc	0.03375803
27	0x3d51caef	0.051218923
28	0x3c694cf5	0.014239539
29	0xbcdc60d9	-0.02690165
30	0xbcf7b012	-0.030235324
31	0xbc8a942e	-0.01691636
32	0x3e5bef83	0.21478085
33	0x3e66b9b8	0.22531784
34	0x3cf06073	0.029342866
35	0x3e818054	0.2529322
36	0x3dd961e4	0.10614374
37	0xbf19ba65	-0.6005004
38	0x3e65a4e6	0.22426185
39	0xbdc63f58	-0.096800506
40	0x3ea5bdbf	0.32371327
41	0xbf280358	-0.656301
42	0x3edcd189	0.43128613
43	0x3d9da52e	0.07697521
44	0xbeb46c02	-0.35238653
45	0xbf03b49a	-0.5144745
46	0xbf80bca2	-1.0057566
47	0x3ef04904	0.46930707
48	0x3e87a85d	0.26495638
49	0xbecd78e0	-0.40131283
50	0x3f08d9b0	0.53457165
51	0x3eb8ab8b	0.36068377
52	0x3e8b8edf	0.2725744
53	0x3e2dfea6	0.16991672
54	0xbf078ec3	-0.5295221
55	0x3ea8cc6d	0.32968464
56	0x3dd21ab3	0.10258999
57	0xbed09aaa	-0.40743
58	0x3d9ebd1d	0.07750914
59	0x3de3109f	0.110871546
60	0x3e596015	0.21228059
61	0x3e813644	0.25236714
62	0x3f133d66	0.5751556
63	0xbe998cc8	-0.2999022
64	0x000562f6	4.94678e-40
65	0x00055ead	4.93141e-40
66	0x00055a97	4.91675e-40
67	0x80055a00	-4.91463e-40
68	0x00055c20	4.92226e-40
69	0x00055a97	4.91675e-40
70	0x80055881	-4.90927e-40
71	0x8005577f	-4.90565e-40
72	0x80056262	-4.9447e-40
73	0x00055ae0	4.91777e-40
74	0x80056183	-4.94158e-40
75	0x00055ea7	4.93132e-40
76	0x000562f0	4.9467e-40
77	0x00055a80	4.91643e-40
78	0x80055d37	-4.92617e-40
79	0x000564b6	4.95306e-40
80	0x80056a8b	-4.97398e-40
81	0x8005644d	-4.95159e-40
82	0x00055f05	4.93264e-40
83	0x00055823	4.90795e-40
84	0x8005cd06	-5.32726e-40
85	0x80069ec0	-6.07962e-40
86	0x00055cb9	4.9244e-40
87	0x00055bdb	4.92129e-40
88	0x00056094	4.93823e-40
89	0x80056164	-4.94115e-40
90	0x80055808	-4.90757e-40
91	0x00056359	4.94817e-40
92	0x800561ab	-4.94214e-40
93	0x0005648c	4.95247e-40
94	0x8005cc25	-5.32411e-40
95	0x80055f7a	-4.93428e-40
96	0x3bf2ae44	0.007406028
97	0xbf59eca8	-0.85126734
98	0x3e01acd8	0.12663591
99	0xbd172087	-0.036896255
100	0xbea35f16	-0.31908482
101	0x3ec391cf	0.3819718
102	0xbda7dd9d	-0.08196566
103	0xbdc22445	-0.09479574
104	0xbf324dfd	-0.6965025
105	0x3f2c26f2	0.67246926
106	0x3e68c66a	0.22731939
107	0x3f68a410	0.9087534
108	0xbe05d32d	-0.13068838
109	0xbb4500dd	-0.003006033
110	0xbec7c829	-0.39019898
111	0xbe1c3a31	-0.15256573
112	0x3d0ce32c	0.034396335
113	0x3edd3ed8	0.43212008
114	0x3e324bd2	0.17411736
115	0xbe80eed8	-0.25182223
116	0x3f4a87f5	0.79113704
117	0x3c53a1ea	0.012917021
118	0xbf68ccff	-0.909378
119	0xbefc2aac	-0.49251306
120	0xbd534df4	-0.051588014
121	0x3dc8af76	0.097990915
122	0x3dabf583	0.08396437
123	0x3eb3377e	0.35003275
124	0x3eac46b8	0.33647704
125	0x3e3de70f	0.18545173
126	0x3f1ff4d2	0.6248294
127	0xbe70b366	-0.23505935
128	0x3d8ee3aa	0.06977017
129	0xbe7be621	-0.24599506
130	0xbe382192	-0.17981556
131	0x3e65aed4	0.22429973
132	0x3f070573	0.5274269
133	0x3d81cc41	0.063377865
134	0xbe6f3d4e	-0.2336323
135	0xbea7f943	-0.3280736
136	0xbf38af1a	-0.72142184
137	0xbe980dda	-0.29698068
138	0xbf5de413	-0.8667614
139	0x3eecd76c	0.46258104
140	0xbc11d8d9	-0.008901798
141	0x3e9f8364	0.3115493
142	0x3e90796d	0.2821764
143	0x3ea9b1d2	0.3314348
144	0x3f21190a	0.6292883
145	0xbeeb838c	-0.459988
146	0xbeef1708	-0.4669726
147	0xbf7ef2be	-0.99589145
148	0x3fb4303c	1.407722
149	0xbf1ee0a2	-0.6206151
150	0x3e185e19	0.14879645
151	0xbf1de302	-0.6167451
152	0xbe700734	-0.23440248
153	0x3e6b3d5e	0.22972628
154	0x39e2937b	0.0004321596
155	0xbdcde436	-0.100532934
156	0x3eb52248	0.35377717
157	0x3dfeedbe	0.124476895
158	0xbe1faab7	-0.15592466
159	0xbf3aad46	-0.72920644
160	0xbde187e9	-0.11012251
161	0xbe0255bc	-0.12728018
162	0x3e407f4c	0.1879856
163	0xbdc0f1c3	-0.094211124
164	0x3e049a44	0.12949473
165	0xbe1d5729	-0.1536528
166	0xbe16aa91	-0.14713503
167	0xbea4148c	-0.32046926
168	0xbf0888a8	-0.5333352
169	0x3e148a78	0.14505947
170	0x3d0408a6	0.03223481
171	0x3efd1d19	0.49436262
172	0x3ef7c1e0	0.48390102
173	0xbc219c09	-0.009863862
174	0xbe180b07	-0.14847957
175	0x3eb1e59c	0.3474549
176	0x3da6b023	0.08139064
177	0x3ed67fa3	0.41894254
178	0xbe6d0704	-0.23147207
179	0x3e98a513	0.29813442
180	0xbe6198bd	-0.22030921
181	0x3e8a1307	0.26967642
182	0xbea2aac0	-0.31770897
183	0xbecaaeb4	-0.39586413
184	0xbe409f8b	-0.18810861
185	0x3e36fed3	0.17870645
186	0x3dd2ffc8	0.10302693
187	0xbe57318f	-0.21014999
188	0x3ef08a94	0.46980727
189	0x3f25ca74	0.64762044
190	0xbe8e0dd3	-0.27744922
191	0xbe61775d	-0.2201819
192	0x3e7f0f07	0.24908076
193	0xbf6fc895	-0.9366544
194	0x3e8445cb	0.25834498
195	0x3d71d2f2	0.059039064
196	0xbdf7dd44	-0.1210275
197	0x3e9e2086	0.30884188
198	0xbebc77d2	-0.36810166
199	0xbc8e0b8c	-0.01733949
200	0xbf2f8fe3	-0.6857893
201	0xbf7557be	-0.9583701
202	0xbdcca1bb	-0.09991785
203	0x3eefdb5c	0.46847045
204	0xbf0fe1a4	-0.56203675
205	0x3e8e32da	0.27773172
206	0xbd8e65e0	-0.06953025
207	0xbdd440e6	-0.10363941
208	0x3df26181	0.11835004
209	0xbdf71742	-0.12064983
210	0x3f177341	0.5916024
211	0x3e8c4ec4	0.27403843
212	0xbda17e84	-0.07885459
213	0xbe6b5740	-0.22982502
214	0x3e61ead5	0.22062238
215	0xbe721371	-0.23640229
216	0x3d80313b	0.0625939
217	0x3d5ffaa3	0.054682385
218	0x3e6f54cc	0.23372191
219	0xbed70c49	-0.4200156
220	0x3e3aa7b8	0.18228042
221	0x3e578100	0.21045303
222	0xbd84ec69	-0.06490404
223	0x3de26683	0.11054709
224	0xbf1a8b74	-0.6036904
225	0xbf0f4597	-0.5596556
226	0x3efc1429	0.4923413
227	0x3e0eb808	0.1393739
228	0x3f23de62	0.64011204
229	0x3eabf654	0.3358637
230	0x3f7c79a2	0.98623097
231	0x3bc41c4e	0.0059848195
232	0x3f2acdc8	0.6672025
233	0x3df9a812	0.1219026
234	0x3e4d5800	0.200531
235	0x3e9870d2	0.29773575
236	0x3e1aa585	0.15102203
237	0x3e0344c3	0.128192
238	0xbed33957	-0.41254684
239	0xbe7706ef	-0.24123739
240	0xbd9656e9	-0.073407955
241	0xbe79d830	-0.24398875
242	0xbe8aa6c2	-0.2708035
243	0xbeda6195	-0.42652574
244	0xbf80b8df	-1.0056418
245	0xbe8b82dc	-0.27248275
246	0xbe86d8ae	-0.26337188
247	0x3dc3d7c7	0.09562641
248	0x3dfafc18	0.12255114
249	0xbdb683ff	-0.08911895
250	0x3ed3cdb6	0.41367882
251	0xbf3c9d07	-0.73677105
252	0x3ebdc373	0.37063178
253	0x3f79e703	0.9761812
254	0xbea4215a	-0.32056695
255	0xbf18bd03	-0.5966341

gru.weight_ih_l0 f4 [300, 132]
0	0xbd681810	-0.056663573
1	0x3dbbc805	0.0916901
2	0xbe02b35f	-0.12763737
3	0x3d602a0a	0.05472759
4	0x3eb03c5a	0.34421045
5	0x3e92bcf9	0.286598
6	0xbe2af0ac	-0.16693372
7	0x3dd71999	0.10502929
8	0x3e172826	0.14761409
9	0xbda4eb93	-0.08052745
10	0x3e13eaaf	0.14444993
11	0xbe8185d7	-0.25297424
12	0xbe364ad7	-0.17801987
13	0xbdaf0ee0	-0.08547759
14	0x3e559af0	0.20859885
15	0x3db9a686	0.09064965
16	0xbe475aff	-0.19468306
17	0xbe02c8ea	-0.12771955
18	0x3e1c09b1	0.15238072
19	0xbdec9e64	-0.11553648
20	0x3d286e18	0.04112062
21	0xbe0690cd	-0.13141175
22	0x3e858dbf	0.26084706
23	0x3d777212	0.06041152
24	0xbe091afb	-0.13389198
25	0x3dd38935	0.103289045
26	0xbd4e86b1	-0.05042142
27	0x3eea024e	0.45704883
28	0x3d93c113	0.0721456
29	0xbd59704d	-0.053085614
30	0xbe318afc	-0.17338175
31	0xbe14a2b5	-0.14515193
32	0x3e78d951	0.2430165
33	0xbdafc9cd	-0.08583412
34	0xbe0d263e	-0.1378412
35	0x3e09dffe	0.13464352
36	0x3db03ca0	0.08605313
37	0xbd802743	-0.062574886
38	0x3e8a15ff	0.26969907
39	0xbe2a5a39	-0.1663598
40	0x3d2cda81	0.04220057
41	0xbe1beff4	-0.15228254
42	0xbe3aee2a	-0.18254915
43	0x3d9508ab	0.07277044
44	0xbe87dc5f	-0.26535317
45	0x3d9ab4a0	0.07553983
46	0x3de00c66	0.10939865
47	0x3d05e8d6	0.032692753
48	0x3d7172f1	0.058947507
49	0x3de1d9fb	0.110279046
50	0xbce71286	-0.028207075
51	0xbd08de23	-0.03341497
52	0x3d8c81da	0.06860705
53	0xbe1f25bd	-0.1554174
54	0x3d409912	0.04702098
55	0xbe02d918	-0.12778127
56	0xbe68b0cd	-0.22723694
57	0xbe71e114	-0.23621017
58	0xbc28068c	-0.010255467
59	0xbe5a16eb	-0.21297805
60	0x3e04fd13	0.12987165
61	0x3d6e2374	0.05813928
62	0x3e85c2e8	0.26125264
63	0xbe1483e9	-0.14503445
64	0xbdabab6a	-0.08382304
65	0x3dde18f9	0.10844607
66	0xbd1ff131	-0.039048377
67	0xbedcc484	-0.4311868
68	0x3b9a24b8	0.0047040842
69	0x3d946d88	0.07247454
70	0x3e8c75be	0.2743358
71	0x3a35316d	0.0006911967
72	0x3deb4537	0.11487811
73	0xbe03b901	-0.12863542
74	0x3e91b59b	0.28458866
75	0x3e3245e1	0.17409469
76	0xbd914be0	-0.0709455
77	0xbdb58ab2	-0.08864345
78	0xbdcca5a7	-0.09992533
79	0x3d0848fc	0.03327273
80	0x3cd3b9be	0.025845405
81	0x3e4b7248	0.19867814
82	0xbd83608c	-0.06414899
83	0x3d257752	0.040396996
84	0xbe819aa5	-0.25313297
85	0xbbd7220b	-0.0065653375
86	0xbdb723fe	-0.08942412
87	0x3cb96ced	0.022634948
88	0xbe2cbd2b	-0.16869037
89	0xbe1eb8f1	-0.15500237
90	0x3e81b7b9	0.25335482
91	0x3e687192	0.22699574
92	0xbc484350	-0.01222308
93	0xbe150897	-0.14554058
94	0x3c033cbd	0.008010087
95	0xbd60dd75	-0.054898698
96	0xbe03f8e4	-0.12887913
97	0x3e7dc578	0.2478236
98	0x3e0504f9	0.12990178
99	0xbdf649b4	-0.120257765
100	0x3d8561ca	0.065127924
101	0x3e1b5b01	0.15171434
102	0x3d3abd1f	0.045590516
103	0xbe47a909	-0.19498076
104	0x3dcf040e	0.10108195
105	0xbe1055f2	-0.14095286
106	0x3e136039	0.14392175
107	0xbe0f1c6c	-0.13975686
108	0x3e7f8308	0.24952328
109	0x3e170734	0.14748842
110	0x3ec27090	0.37976503
111	0x3dfeb413	0.1243669
112	0x3de2fb41	0.11083079
113	0x3e10b604	0.14131933
114	0xbd4370f4	-0.047715142
115	0x3d4109cb	0.04712848
116	0xbeab8d32	-0.3350616
117	0x3d5c27ce	0.0537489
118	0x3e252a58	0.16129434
119	0x3e8d6662	0.27617174
120	0xbc940a9f	-0.01807147
121	0xbe217263	-0.15766291
122	0xbdfbbd5a	-0.12291975
123	0xbd0afca8	-0.033932358
124	0xbd8c7adc	-0.06859371
125	0x3dc79214	0.09744659
126	0x3d88ced6	0.06680076
127	0xbc37d0a2	-0.0112191755
128	0x3e6e8ba8	0.23295462
129	0xbedd1975	-0.43183485
130	0xbe3fca2b	-0.18729465
131	0xbde1274b	-0.10993823
132	0x3cbe5421	0.023233475
133	0x3d1001fe	0.03515815
134	0x3e8f462b	0.2798322
135	0x3d4477f7	0.04796597
136	0x3e355472	0.17707995
137	0x3bd5aa85	0.0065205717
138	0xbd12195f	-0.035668727
139	0xbe13fee2	-0.14452699
140	0x3eb28fa3	0.3487521
141	0x3d9a7c53	0.07543244
142	0xbdda925b	-0.10672446
143	0x3daefc3c	0.08544204
144	0xbd9ee9ed	-0.077594616
145	0xbe0ba061	-0.13635398
146	0x3d52c5a3	0.051458012
147	0xbd3b90a3	-0.045792233
148	0xbc97d404	-0.018533714
149	0xbc97b2ec	-0.018517934
150	0x3d74ef38	0.05979845
151	0xbe94774a	-0.2899726
152	0xbc1abe3e	-0.009444771
153	0x3e1515b8	0.14559066
154	0xbde50c8e	-0.11184035
155	0x3e299430	0.16560435
156	0x3deaaa31	0.11458243
157	0x3db90f6b	0.09036144
158	0xbe48cd47	-0.19609557
159	0x3e8f438d	0.27981225
160	0x3ef11b59	0.47091177
161	0x3dfc9091	0.12332261
162	0xbc0e257b	-0.008675928
163	0x3d6c5c86	0.057705425
164	0x3d9785e5	0.07398585
165	0x3d2627aa	0.04056517
166	0xbe00659f	-0.12538765
167	0x3d475a2a	0.04866997
168	0xbe7fcaf9	-0.24979772
169	0x3d8fc921	0.07020784
170	0xbceb7a9e	-0.028744992
171	0x3d64c1c3	0.055848848
172	0xbd11d42d	-0.035602737
173	0xbe0e8031	-0.13916089
174	0xbda1ca21	-0.07899881
175	0xbe99f5c3	-0.30070314
176	0xbd14961a	-0.03627596
177	0x3e81e69c	0.25371253
178	0x3de3920e	0.11111842
179	0xbcb24a67	-0.021763993
180	0x3e0386fe	0.12844464
181	0x3da8e840	0.08247423
182	0xbdba99fe	-0.09111403
183	0xbd8f5117	-0.069978885
184	0x39a7f9c4	0.00032038812
185	0x3e71e1a7	0.23621236
186	0x3bec73ad	0.007215938
187	0x3cf1ed00	0.029531956
188	0xbe390cd6	-0.18071303
189	0x3e2fc9d4	0.17166835
190	0xbd807b07	-0.062734656
191	0xbb48c858	-0.0030636992
192	0x3e5f5e47	0.21813308
193	0x3dc9941c	0.09842703
194	0x3d703927	0.058648255
195	0x3e609df6	0.21935257
196	0x3e035f6a	0.12829366
197	0xbe849324	-0.2589351
198	0xb88ce8c3	-6.7190755e-05
199	0x3e5849f0	0.21121955
200	0xb9479908	-0.00019035127
201	0x3d96dc23	0.073662065
202	0x3d95d459	0.07315893
203	0x3c9127e7	0.017719222
204	0x3ce596fc	0.028026097
205	0xbda18735	-0.07887117
206	0xbd30b635	-0.043142516
207	0x3e5ce442	0.21571448
208	0xbe70483c	-0.23465055
209	0xbe4303be	-0.19044396
210	0x3cf51470	0.029916972
211	0xbe021d80	-0.12706566
212	0xbde148d6	-0.110002205
213	0x3e25a911	0.16177775
214	0x3d33a807	0.043861415
215	0xbd1f8d75	-0.038953263
216	0x3cfecafa	0.031102646
217	0xbd0e2f1b	-0.034712892
218	0x3df51df9	0.119686075
219	0xbca9795b	-0.02068775
220	0x3d28f4cc	0.04124908
221	0xbd43851d	-0.04773437
222	0xbc909b5e	-0.01765221
223	0x3e4e3d0a	0.20140472
224	0xbdc4bf46	-0.09606795
225	0xbd937126	-0.07199316
226	0x3e135287	0.1438695
227	0x3e56f2b7	0.20991026
228	0xbdb6c882	-0.089249626
229	0xbd7d07fa	-0.061775185
230	0x3d1da0f8	0.03848359
231	0xbdd76804	-0.10517886
232	0xbd78cb68	-0.06074086
233	0xbe1b74b8	-0.15181243
234	0x3d9697a3	0.07353141
235	0xbdfda953	-0.12385812
236	0x3d1168fb	0.035500508
237	0x3d0f3a93	0.03496797
238	0xbd1ef38f	-0.038806494
239	0x3ddd5767	0.10807686
240	0x3e1d2a13	0.15348081
241	0x3d75900e	0.059951834
242	0xbd8ec0b9	-0.06970353
243	0xbe3599e5	-0.17734487
244	0x3dc4fc38	0.096184194
245	0xbc23239f	-0.009957223
246	0xbe5e92b7	-0.21735655
247	0xbe8e7834	-0.27826083
248	0xbdb54915	-0.0885183
249	0xbdfb6d89	-0.122767515
250	0x3e5279c4	0.20554262
251	0xbe040c32	-0.12895277
252	0x3d3f545c	0.04671131
253	0x3ce9821b	0.028504422
254	0xbd360360	-0.044436812
255	0x3cd0b134	0.025475122

gru.weight_hh_l0 f4 [300, 100]
0	0xbedb723f	-0.428606
1	0x3e568afb	0.20951454
2	0x3dd13254	0.102146775
3	0x3df382f8	0.11890215
4	0xbde17603	-0.11008837
5	0xbcb34649	-0.0218841
6	0x3e8763e7	0.26443407
7	0xbe2a690a	-0.16641632
8	0x3e59704b	0.21234243
9	0x3e036ed3	0.12835245
10	0xbcaa0352	-0.020753536
11	0xbda4ec3f	-0.08052873
12	0xbe82196f	-0.2541003
13	0x3d5e71e7	0.054307844
14	0x3e94fadf	0.2909765
15	0x3eb50cf3	0.35361442
16	0xbdaf2cae	-0.08553444
17	0x3dbfd28c	0.093663305
18	0x3eb56104	0.3542558
19	0x3d811b9e	0.06304096
20	0xbdf0100d	-0.117218114
21	0xbd13d587	-0.036092307
22	0xbe18d2d8	-0.1492418
23	0xbda0b509	-0.0784703
24	0xbed2032e	-0.4101805
25	0xbd8d0098	-0.06884879
26	0xbe16ed23	-0.14738898
27	0xbee2eb40	-0.44320107
28	0x3d8f009c	0.06982538
29	0xbd6ecb48	-0.058299333
30	0x3d715694	0.058920458
31	0xbc355f11	-0.011070029
32	0xbe3768af	-0.17911027
33	0x3e06f588	0.131796
34	0xbcbcf682	-0.023066763
35	0x3d92a611	0.07160581
36	0xbd8163de	-0.06317876
37	0x3cbe8ba3	0.023259943
38	0x3c4d9ab5	0.012549092
39	0xbc3ef411	-0.01165487
40	0x3d2ed1dc	0.042680606
41	0xbe024b3b	-0.1272401
42	0xbe93a682	-0.28837973
43	0x3dd8ba97	0.10582464
44	0x3cbc6626	0.022997927
45	0xbdaad86e	-0.08342062
46	0x3e0f0f77	0.13970743
47	0x3dd1cf5e	0.1024463
48	0x3e4428ba	0.19156161
49	0x3dd2a7a3	0.102858804
50	0x3dd80621	0.10548044
51	0x3f0be479	0.54645497
52	0x3dd4bca1	0.103875406
53	0xbd682f26	-0.05668559
54	0x3d87d216	0.066318676
55	0xbdc63f13	-0.09679999
56	0x3de49508	0.11161238
57	0x3e2cd109	0.16876616
58	0x3dae6269	0.08514864
59	0xbe77d4ca	-0.24202266
60	0x3df203a9	0.11817104
61	0x3c4909b4	0.01227038
62	0xbd9c6afd	-0.07637594
63	0x3df32af3	0.11873426
64	0xbd726e03	-0.059186947
65	0xb9d4624e	-0.00040509034
66	0xbe21ec1d	-0.15812726
67	0x3db1a386	0.08673768
68	0xbe751438	-0.23933494
69	0xbd56c380	-0.052432537
70	0x3dc55e26	0.09637098
71	0xbe70c345	-0.2351199
72	0x3d6e9cc0	0.058254957
73	0x3dde6573	0.10859194
74	0xbe1a12c2	-0.15046218
75	0x3e5566e9	0.20840038
76	0xbe044106	-0.1291543
77	0xbc202e1e	-0.00977662
78	0x3e84e1e5	0.25953594
79	0x3e86701b	0.26257405
80	0xbe2b7380	-0.16743279
81	0x3daef4c8	0.08542782
82	0xbd5102a8	-0.051027924
83	0xbd855ae8	-0.065114796
84	0x3e2e91fb	0.17047875
85	0x3d1b71e4	0.03795041
86	0x3e3930e4	0.18085057
87	0xbdc1e19f	-0.09466862
88	0x3d57902a	0.05262772
89	0x3ec8c8b8	0.39215636
90	0xbdd1bc49	-0.10240991
91	0xbe848620	-0.2588358
92	0x3dd95bde	0.106132254
93	0x3dfd9d78	0.123835504
94	0xbbe2fa4f	-0.0069268118
95	0xbd5ba153	-0.053620648
96	0x3d0c2a43	0.03421999
97	0x3dba707a	0.091034845
98	0xbd632d4f	-0.05546313
99	0xbe508eb6	-0.2036694
100	0x3e871278	0.26381278
101	0xbe2039c5	-0.15647037
102	0xbbfd829c	-0.007736517
103	0xbed99820	-0.42498875
104	0xbdfc2099	-0.12310905
105	0xbd524d2e	-0.051343136
106	0xbc23eaee	-0.010004742
107	0xbe2fd1c3	-0.17169861
108	0xbdfce078	-0.123475015
109	0xbd86a986	-0.06575303
110	0x3d8deceb	0.06929954
111	0x3cdb902f	0.02680215
112	0xbe9dd546	-0.30826777
113	0x3d418af8	0.04725167
114	0xbb875805	-0.004130366
115	0xbe28abfd	-0.16471858
116	0xbda27f8c	-0.07934484
117	0xbdd02158	-0.1016261
118	0x3d89eee5	0.06735019
119	0x3cb56618	0.022143409
120	0x3e989341	0.29799846
121	0x3dcca13e	0.09991692
122	0xbe675f6c	-0.22594994
123	0xbe3a371a	-0.18185082
124	0xbceff1dd	-0.029290134
125	0x3da88d0d	0.08230028
126	0xbcc67fd6	-0.024230879
127	0xbe6cdc40	-0.23130894
128	0xbd03adec	-0.032148287
129	0x3d7bbde9	0.06146041
130	0x3dc64c1d	0.09682486
131	0x3eb962ff	0.3620834
132	0x3e1c1e52	0.15245941
133	0x3e6c9c97	0.2310661
134	0xbd9058f0	-0.070482135
135	0xb942e538	-0.00018586672
136	0x3dba1bfe	0.0908737
137	0xbdf4f6ac	-0.119611114
138	0xbe2d5402	-0.16926578
139	0xbe409cdf	-0.18809842
140	0xbd340718	-0.043952078
141	0x3dd79423	0.10526302
142	0xbe814178	-0.2524526
143	0x3deea62c	0.116527885
144	0xbdde46a0	-0.108533144
145	0xbe1b949c	-0.15193409
146	0x3e1714b5	0.14753993
147	0x3c4e0cd9	0.012576305
148	0xbb5ba86d	-0.0033517138
149	0x3d3096c4	0.04311253
150	0xbc264928	-0.010149278
151	0x3d0a5ed3	0.033781838
152	0x3e18700e	0.14886495
153	0xbe426161	-0.1898246
154	0xbe30d42f	-0.17268442
155	0xbe308223	-0.17237143
156	0xbd1b810c	-0.037964866
157	0x3d46b532	0.048512645
158	0x3e42d42f	0.19026254
159	0x3e55de21	0.20885517
160	0x3e7a6f64	0.24456555
161	0xbdc0fdda	-0.09423418
162	0xbe1b10e6	-0.15143165
163	0x3df9b2cb	0.12192305
164	0xbd8bcb7e	-0.068259224
165	0xbe00106d	-0.12506266
166	0xbe15615f	-0.14587925
167	0x3d479b0a	0.04873184
168	0x3e962777	0.29326984
169	0xbe3aed50	-0.1825459
170	0xbe4b94d1	-0.19880988
171	0x3c7b6fe2	0.015346499
172	0xbed2c2ba	-0.4116419
173	0x3e681d2f	0.22667383
174	0x3e2c4b4f	0.16825603
175	0xbb35b76e	-0.002772774
176	0xbdbc3943	-0.09190609
177	0x3e8129f3	0.25227317
178	0xbe69e8c7	-0.22842704
179	0xbe5c650f	-0.21522926
180	0x3e156009	0.14587416
181	0xbd8b2de7	-0.067958646
182	0x3e5db67e	0.21651646
183	0x3efc655f	0.4929609
184	0xbd0b636a	-0.034030356
185	0xbc8b3f1e	-0.01699787
186	0x3e839726	0.25701255
187	0xbe163b67	-0.14671098
188	0xbdc287d9	-0.09498567
189	0xbe4b3c3d	-0.19847198
190	0xbdf9f339	-0.12204594
191	0xbd84ba27	-0.06480818
192	0xbd14512f	-0.036210235
193	0xbeae6e1e	-0.34068388
194	0xbbf05912	-0.0073348368
195	0x3daacd0b	0.0833989
196	0x3e449b0c	0.1919977
197	0x3d0c49c5	0.03425004
198	0xbe5a438a	-0.21314827
199	0xbe846005	-0.25854507
200	0xbcf01aa2	-0.029309575
201	0xbcc1340d	-0.02358439
202	0x3e475ee6	0.19469795
203	0xbd9884f4	-0.07447234
204	0xbb246ac4	-0.0025088051
205	0xbe62a980	-0.22134972
206	0xbe3ce78d	-0.18447705
207	0x3deef9a5	0.1166871
208	0x3e727a6b	0.23679511
209	0x3deb9a4a	0.11504038
210	0xbe129c72	-0.14317492
211	0x3e89cd36	0.26914376
212	0x3e1fd923	0.15610175
213	0x3dfc17b3	0.12309208
214	0x3dc3c7bf	0.09559583
215	0x3e587ab7	0.21140562
216	0xbda45f29	-0.08025963
217	0x3e8f4039	0.27978685
218	0x3e667bd0	0.22508168
219	0xbe4159a3	-0.1888185
220	0xbca88595	-0.02057151
221	0xbe0bcef6	-0.13653168
222	0x3e93e6df	0.28887078
223	0xbd822a39	-0.063557096
224	0xbd2ba704	-0.041907325
225	0xbe965655	-0.2936274
226	0xbdbcb5d6	-0.0921437
227	0x3de712be	0.11282872
228	0xbe516ba1	-0.20451213
229	0x3d2cb060	0.04216039
230	0xbedec0d7	-0.435065
231	0x3e5bb98f	0.21457504
232	0xbdeac299	-0.11462898
233	0xbec846de	-0.39116567
234	0x3e825f1a	0.25463182
235	0x3e18c272	0.14917925
236	0x3e0c335e	0.1369147
237	0x3e43c0c1	0.19116499
238	0x3d80d390	0.06290352
239	0x3d8f2e3f	0.069912426
240	0xbe43bfd6	-0.19116148
241	0x3e973a3d	0.2953662
242	0x3e2f7b24	0.17136818
243	0xbe2ce860	-0.16885519
244	0xbe1fc5df	-0.15602826
245	0xbe99f797	-0.3007171
246	0xbe8b9ac1	-0.27266505
247	0x3da80150	0.08203375
248	0xbab5bc0a	-0.0013865244
249	0xbd89a30a	-0.0672055
250	0xbdf5ead9	-0.12007684
251	0xbd65c793	-0.056098532
252	0x3ebc2f82	0.36754996
253	0x3d417adb	0.047236305
254	0x3e247a93	0.16062383
255	0xbe07ab94	-0.13249046

gru.bias_ih_l0 f4 [300]
0	0x3dac3a3f	0.08409547
1	0xbdac711b	-0.08420011
2	0xbda54686	-0.08070092
3	0xbcc0599b	-0.023480227
4	0xbda165bc	-0.078807324
5	0x3df0ae3a	0.11751981
6	0xbce5e083	-0.028061157
7	0xbd7713e4	-0.060321704
8	0x3d54e75c	0.051978454
9	0xbd98418d	-0.07434378
10	0x3e13619a	0.14392701
11	0xbe16959f	-0.14705513
12	0xbd5db275	-0.054125268
13	0x3d4676f2	0.04845328
14	0xbcd19934	-0.025585748
15	0xbd8b6ae4	-0.06807497
16	0xbd2f1de3	-0.04275311
17	0x3e0fd679	0.14046659
18	0x3c9f5e5c	0.019454174
19	0x3e352ac1	0.1769209
20	0x39ebbdfe	0.00044964248
21	0xbd340be0	-0.043956637
22	0xbe75a4af	-0.23988603
23	0x3e0bf587	0.1366788
24	0xbdb411a9	-0.08792431
25	0xbda91c8c	-0.08257398
26	0xbdb4355a	-0.087992385
27	0xbdcf1b0d	-0.101125814
28	0xbd60b5b4	-0.054860786
29	0x3de0b058	0.10971135
30	0xbcb6c780	-0.022311926
31	0x3e4afd8d	0.19823284
32	0x3e27cf04	0.16387564
33	0x3dd7cb5b	0.10536834
34	0xbdf393a3	-0.11893394
35	0xbd8de320	-0.06928086
36	0xbc9bf844	-0.01903928
37	0xbd27e30f	-0.040988024
38	0x3db4e759	0.088331886
39	0x3d42d287	0.047564056
40	0x3d525ebc	0.051359877
41	0xbd2598f2	-0.040429063
42	0x3e92ca9b	0.286702
43	0xbdc5d48c	-0.09659681
44	0xbd6c3b64	-0.057673827
45	0x3c42f460	0.011899084
46	0x3d081213	0.033220362
47	0x3d26f6d0	0.040762722
48	0xbd80a5f5	-0.06281654
49	0x3e03be2b	0.12865512
50	0x3dc7c1a1	0.09753729
51	0xbd54f0e3	-0.05198754
52	0xbdcb83e2	-0.09937264
53	0x3dafccb9	0.085839696
54	0xbc53912d	-0.012913031
55	0x3dd8e4f2	0.10590543
56	0xbdabc35d	-0.08386872
57	0xbba900f8	-0.005157586
58	0xbce3ff65	-0.027831743
59	0x3dd477ce	0.103744134
60	0xbd467a63	-0.04845656
61	0xbcd9f980	-0.026608229
62	0x3b870e6c	0.0041215923
63	0xbc66c608	-0.0140853
64	0xbd81a73a	-0.06330724
65	0x3dbf49fd	0.09340284
66	0xbe45cb49	-0.19315828
67	0xbe249fd6	-0.16076598
68	0xbde8d4d3	-0.11368718
69	0xbd8485f9	-0.06470866
70	0xbe1722c7	-0.1475936
71	0x3d4c9271	0.049944345
72	0xbc5d19fe	-0.013494967
73	0xbdfba86b	-0.122879826
74	0xbe0f4d85	-0.13994415
75	0xbd7e539e	-0.062091462
76	0x3cecc517	0.028902574
77	0xbcaeddd6	-0.021346014
78	0xbd61ed7a	-0.055158116
79	0xbe2c23e9	-0.16810574
80	0xbe40a876	-0.18814263
81	0xbe0e4a2c	-0.13895482
82	0xbdb0f712	-0.08640875
83	0x3da32abc	0.07967135
84	0xbddcc907	-0.107805304
85	0x3e010d5c	0.12602752
86	0xbdf699ca	-0.12041052
87	0xbddb3ccc	-0.107049555
88	0xbd6952f4	-0.056963876
89	0xbe21b875	-0.15793021
90	0xbd825b63	-0.06365087
91	0xbe267b0b	-0.16257875
92	0x3e61f931	0.22067715
93	0x3d093a5a	0.033502914
94	0xbcf4f94d	-0.029904032
95	0xbd46d307	-0.048541095
96	0xba46dc49	-0.00075859256
97	0xbdd0274e	-0.10163747
98	0xbdd1bc7c	-0.10241029
99	0xbd0970ba	-0.03355477
100	0xbe7b25a6	-0.2452608
101	0xbdb67fb2	-0.08911075
102	0xbed5687f	-0.41681287
103	0xbdcb9e59	-0.09942312
104	0xbebac46f	-0.36477992
105	0xbe9b1627	-0.30290338
106	0x3ee1a830	0.4407363
107	0xbe9b0238	-0.3027513
108	0x3e82484e	0.2544579
109	0xbe922783	-0.2854577
110	0xbec68c93	-0.38779125
111	0xbdfc6835	-0.123245634
112	0x3eb58136	0.35450143
113	0xbd4b1a8a	-0.049585856
114	0x3f083ce8	0.53217936
115	0xbe84d728	-0.259454
116	0x3ea8e56e	0.3298754
117	0xbe48af5a	-0.19598141
118	0xbf0e56a1	-0.55600935
119	0xbdec0fb7	-0.11526435
120	0x3db78147	0.089602046
121	0x3e6b0bf7	0.22953783
122	0xbefab70e	-0.48967785
123	0x3f3c3a16	0.7352613
124	0x3d5ae612	0.05344207
125	0xbd900049	-0.070313044
126	0x3e910d4a	0.2833045
127	0xbec277e5	-0.37982097
128	0x3e99843f	0.29983708
129	0x3e474926	0.19461498
130	0x3dd1649f	0.1022427
131	0xbef64f5e	-0.48107427
132	0x3edac0a4	0.42725098
133	0x3f259242	0.64676297
134	0x3e9384ec	0.2881235
135	0xbd7ca86a	-0.06168405
136	0xbe3db6bd	-0.1852674
137	0x3e8f3f0a	0.27977782
138	0x3c4fb8fc	0.012678381
139	0xbe711cc3	-0.23546128
140	0x3b422f3c	0.0029630205
141	0xbe87d741	-0.26531413
142	0xbe6a6671	-0.22890641
143	0x3e2d502b	0.16925113
144	0x3e435100	0.19073868
145	0xbeadb920	-0.33930302
146	0xbed83e11	-0.42234853
147	0xb9fd0602	-0.00048260397
148	0x3dd91018	0.10598773
149	0x3f26c878	0.6514964
150	0x3e45fcc2	0.193347
151	0xbf028a2c	-0.50992084
152	0xbe01e733	-0.12685852
153	0xbeb93816	-0.36175603
154	0xbed013f7	-0.40640232
155	0xbed2686a	-0.41095287
156	0x3e9d8f57	0.30773422
157	0xbe11643c	-0.14198393
158	0x3e12dd40	0.14342213
159	0x3db0b091	0.08627427
160	0xbe4281d9	-0.18994845
161	0xbecbc982	-0.39802176
162	0xbca9d7b6	-0.020732742
163	0x3c865d3f	0.016401885
164	0x3ea9e71f	0.33184144
165	0x3ef6cebd	0.48204604
166	0x3e5f07e4	0.21780354
167	0x3e91661a	0.2839821
168	0x3d91da52	0.071217194
169	0x3e8ad304	0.27114117
170	0xbe84add2	-0.25913864
171	0xbe7a4597	-0.24440609
172	0x3f172752	0.59044373
173	0xbdb2b112	-0.0872518
174	0x3eefff80	0.4687462
175	0xbea77165	-0.327037
176	0xbe114b09	-0.1418878
177	0xbf0c3554	-0.5476887
178	0xbec6b21a	-0.38807756
179	0x3e294426	0.16529903
180	0xbea7381d	-0.3266
181	0xbd13f07b	-0.036118012
182	0x3ec1601d	0.3776864
183	0xbeae1c12	-0.3400579
184	0xbe851f6e	-0.2600054
185	0xbe9d1620	-0.30680943
186	0xbe97c889	-0.29645184
187	0x3e2eb88b	0.17062585
188	0xbe4a6aa9	-0.1976725
189	0x3e77dc5e	0.24205157
190	0x3e06bb96	0.13157496
191	0x3e2d4dea	0.16924253
192	0x3ea1cca5	0.31601444
193	0xbed7c27b	-0.42140564
194	0xbd8b06a4	-0.06788376
195	0x3eb26fd1	0.34850934
196	0xbe73454b	-0.23756902
197	0x3e50f306	0.20405206
198	0x3dbd8c79	0.09255309
199	0xbe0136ba	-0.12618533
200	0x3e6d2e96	0.23162302
201	0xbe581210	-0.2110064
202	0x3dfee6a0	0.12446332
203	0xbda0f57d	-0.07859323
204	0xbcf9143b	-0.030405154
205	0x3e4b8743	0.19875817
206	0xbd91b8df	-0.071153395
207	0x3db53b1c	0.08849165
208	0x3db7789b	0.089585505
209	0xbdd195f5	-0.1023368
210	0xbc90942b	-0.017648777
211	0xbea3d269	-0.31996468
212	0xbba016d8	-0.0048855357
213	0xbc6843ee	-0.014176352
214	0xbd375b4f	-0.044764813
215	0xbea2a69d	-0.3176774
216	0xbdca59bf	-0.09880399
217	0x3e4ef219	0.2020954
218	0x3d8a3352	0.0674807
219	0x3dd635e9	0.10459501
220	0xbcbadf18	-0.022811458
221	0x3e7adc16	0.24498019
222	0x3d8793fa	0.06620021
223	0x3e38a3f0	0.18031287
224	0xbdb7f229	-0.08981735
225	0xbe1e72dd	-0.15473504
226	0x3d0bf146	0.034165643
227	0xbdb10a1d	-0.08644507
228	0x3cb2ffb7	0.02185045
229	0x3d68e822	0.056862004
230	0x3dd741ae	0.10510574
231	0x3dc8dde8	0.0980795
232	0x3ddf8a42	0.109150425
233	0xbb6a363f	-0.00357379
234	0xbc507d61	-0.012725205
235	0xbe2b59f5	-0.16733535
236	0xbe40fdfe	-0.1884689
237	0x3de92a31	0.113850005
238	0x3d9f3c3a	0.07775159
239	0xbe64b090	-0.22332978
240	0xbd04192d	-0.032250572
241	0x3d31922b	0.043352287
242	0xbe10fee9	-0.1415974
243	0x3d8dca69	0.06923372
244	0xbd14fc48	-0.036373407
245	0x3d66f76c	0.056388304
246	0xbe18cd5e	-0.14922091
247	0x3d269b10	0.040675223
248	0x3e6cca5a	0.23124066
249	0x3d6a1428	0.05714813
250	0x3e2dd8b2	0.16977194
251	0x3e8d904b	0.2764915
252	0xbd437427	-0.047718193
253	0x3dbc1b56	0.091849014
254	0x3d1a20b4	0.037628844
255	0x3e0816ec	0.13289994

gru.bias_hh_l0 f4 [300]
0	0x3dca0730	0.09864652
1	0xbd490eef	-0.049086507
2	0xbda2039e	-0.07910846
3	0xbc4329ff	-0.011911868
4	0xbdcdc5dd	-0.10047505
5	0x3df171d8	0.11789292
6	0x3c8a0231	0.016846748
7	0xbd6d54d8	-0.05794224
8	0x3d574b53	0.05256207
9	0xbd81b4a4	-0.063332826
10	0x3e12c1eb	0.14331786
11	0xbe2901f5	-0.16504653
12	0xbcb1887c	-0.021671526
13	0x3d48e5ea	0.049047388
14	0xbd047fec	-0.03234856
15	0xbd9da67a	-0.076977685
16	0xbd2e1d31	-0.042508308
17	0x3e0d2d99	0.13786925
18	0x3d645902	0.055748947
19	0x3e3513b7	0.17683302
20	0x3c2dfbeb	0.010619144
21	0xbd1f988c	-0.03896384
22	0xbe668550	-0.22511792
23	0x3e0bf587	0.1366788
24	0xbdc52bc1	-0.09627486
25	0xbd94c865	-0.07264785
26	0xbdcc91e6	-0.099887654
27	0xbd767af2	-0.060175844
28	0xbd307a2b	-0.04308526
29	0x3dd7eb70	0.10542953
30	0x3d648afe	0.055796616
31	0x3e47df04	0.19518667
32	0x3e296721	0.16543247
33	0x3dd85376	0.10562794
34	0xbdf9dbf7	-0.12200158
35	0xbd191ba8	-0.03737989
36	0xbd6fe95d	-0.058572162
37	0xbc53cae5	-0.012926792
38	0x3db4d493	0.08829608
39	0x3d575749	0.052573476
40	0x3d526047	0.05136135
41	0xbd8be1e7	-0.06830197
42	0x3e90d190	0.28284883
43	0xbdc71949	-0.0972162
44	0xbd4e6b9f	-0.050395604
45	0x3c8cc8f1	0.01718566
46	0x3d8e2230	0.069401145
47	0x3d26ecff	0.04075336
48	0xbd211471	-0.039326135
49	0x3e03be2f	0.12865518
50	0x3db89bb7	0.09014075
51	0xbd047cf2	-0.03234572
52	0xbdf5a135	-0.119936384
53	0x3dbf0fc2	0.093291774
54	0xbd65d08b	-0.056107085
55	0x3dad202c	0.08453402
56	0xbdac1a62	-0.084034696
57	0xbcd0df1c	-0.025497012
58	0xbcd39fdf	-0.025833068
59	0x3dcc6802	0.099807754
60	0xbd8731c3	-0.06601288
61	0xbd55b40a	-0.05217365
62	0x3acef1f8	0.0015788665
63	0xbc0e4963	-0.008684489
64	0xbd84f731	-0.064924605
65	0x3dbf3d16	0.09337823
66	0xbe5aa581	-0.21352197
67	0xbe283097	-0.16424786
68	0xbe0e8f61	-0.13921882
69	0xbd9cca12	-0.07655729
70	0xbe23d7b4	-0.16000253
71	0x3d499186	0.049211048
72	0xbc78fcac	-0.01519696
73	0xbe1e6db3	-0.15471534
74	0xbe0b9db3	-0.13634376
75	0xbd818271	-0.06323708
76	0x3cd399bb	0.02583014
77	0x3cb0ae50	0.021567494
78	0xbd4c7970	-0.0499205
79	0xbe220c43	-0.1582499
80	0xbe5a5c53	-0.21324281
81	0xbe00fc9b	-0.12596361
82	0xbdb90c58	-0.090355575
83	0x3da9a922	0.08284213
84	0xbe02b9aa	-0.12766138
85	0x3e0e9d9a	0.13927308
86	0xbdcfd006	-0.10147099
87	0xbd94c63d	-0.072643735
88	0xbd758c58	-0.059948295
89	0xbe169140	-0.14703846
90	0xbd8a6d24	-0.06759098
91	0xbe0e57dc	-0.13900703
92	0x3e660773	0.22463779
93	0x3cd2cc37	0.025732143
94	0xbd5d1a0a	-0.05397991
95	0xbd44e26d	-0.0480675
96	0x3c6fcf72	0.014636861
97	0xbd8db769	-0.06919748
98	0xbda2a9df	-0.079425566
99	0xbd678d25	-0.05653109
100	0xbe8b6ecb	-0.27232966
101	0xbd62d86c	-0.055382177
102	0xbed3558b	-0.41276202
103	0xbe0ca76a	-0.13735738
104	0xbea68fc0	-0.32531548
105	0xbe8fbfcf	-0.28076026
106	0x3ef5d9c0	0.48017693
107	0xbe831b01	-0.2560654
108	0x3e4814fc	0.19539255
109	0xbe850087	-0.25976965
110	0xbecf99b5	-0.40546957
111	0xbe3bce1d	-0.18340345
112	0x3ec02e7f	0.37535474
113	0xbdd81b55	-0.10552088
114	0x3f09c468	0.5381532
115	0xbe9fbb93	-0.31197795
116	0x3e83d36e	0.25747246
117	0xbe0b465b	-0.13601057
118	0xbf0d1534	-0.5511048
119	0xbcd47785	-0.025935898
120	0x3c541a5e	0.01294574
121	0x3e6e35d4	0.23262721
122	0xbef2a342	-0.4739018
123	0x3f38b9f6	0.72158754
124	0x3e11d518	0.14241445
125	0xbdb0af3b	-0.086271726
126	0x3e893eaa	0.2680562
127	0xbeb9c1fd	-0.36280814
128	0x3e949ad6	0.2902438
129	0x3e89e4a2	0.26932245
130	0x3e2aa4c7	0.1666442
131	0xbed49bfb	-0.41525254
132	0x3ee83106	0.45349902
133	0x3f14589f	0.57947725
134	0x3e85adcc	0.2610916
135	0xbcc60d70	-0.02417633
136	0xbe14b42e	-0.14521858
137	0x3ea5b5f1	0.32365373
138	0x3d42cad4	0.047556713
139	0xbe6dc573	-0.23219852
140	0x3d43b342	0.047778375
141	0xbe8d1af3	-0.27559623
142	0xbe9169c7	-0.28401014
143	0x3e540381	0.20704462
144	0x3e3994c2	0.18123153
145	0xbe90686a	-0.28204662
146	0xbefcb62a	-0.4935773
147	0xbafabea6	-0.0019130304
148	0x3d1ff1b7	0.039048877
149	0x3f25bcdd	0.6474131
150	0x3e54632f	0.2074096
151	0xbefb0e02	-0.49034125
152	0xbe0af6d0	-0.13570714
153	0xbebf6898	-0.37384486
154	0xbec47a1e	-0.38374418
155	0xbeb969d5	-0.36213556
156	0x3e81e3f0	0.25369215
157	0xbe2ab546	-0.16670713
158	0x3ded0aaa	0.115743
159	0x3d887ab4	0.06664029
160	0xbe098020	-0.13427782
161	0xbec555c0	-0.38541985
162	0xbd8384d5	-0.0642182
163	0x3c56324f	0.013073518
164	0x3ea57198	0.32313228
165	0x3edea883	0.4348794
166	0x3e865307	0.2623522
167	0x3e9286b1	0.28618386
168	0x3e0636e1	0.13106872
169	0x3e8789df	0.26472375
170	0xbe96eecf	-0.29479071
171	0xbe8fb433	-0.2806717
172	0x3f2a29a0	0.66469765
173	0xbe012336	-0.12611088
174	0x3ecd23c7	0.40066358
175	0xbea8c661	-0.3296385
176	0xbe147767	-0.14498673
177	0xbf0139ee	-0.5047902
178	0xbeb4ee94	-0.3533827
179	0x3e05d17d	0.13068195
180	0xbe7aecfd	-0.24504466
181	0xbce81449	-0.028329985
182	0x3eb053a2	0.34438807
183	0xbeaf7cc6	-0.34274882
184	0xbe4d1c08	-0.20030224
185	0xbe6334a6	-0.22188053
186	0xbe8e6b16	-0.27816075
187	0x3e73a328	0.23792708
188	0xbe46d44b	-0.19416921
189	0x3eaaa828	0.33331418
190	0x3e02e0da	0.12781087
191	0x3e68153d	0.22664352
192	0x3eb1c4c7	0.34720442
193	0xbedba076	-0.4289586
194	0xbd965a8a	-0.07341488
195	0x3e9ac0f9	0.3022535
196	0xbe818ab0	-0.25301123
197	0x3e403f99	0.1877426
198	0x3d25b8a5	0.040459294
199	0xbe228c25	-0.15873773
200	0x3ee8e85f	0.45489785
201	0xbd83491b	-0.06410428
202	0xbd9133b5	-0.070899405
203	0xbd9ac3b0	-0.07556856
204	0xbee18415	-0.44046083
205	0x3de5e185	0.11224655
206	0x3c92d4f9	0.017923819
207	0xbd192ed1	-0.037398163
208	0x3e1fdd26	0.15611705
209	0x3cf99813	0.030468022
210	0x3e2a34f8	0.16621768
211	0xbdda3212	-0.106540814
212	0x3e1b5514	0.15169173
213	0x3c4f1d89	0.012641319
214	0x3cc0d4ed	0.02353903
215	0x3d41ed2e	0.047345333
216	0xbe3244e5	-0.17409094
217	0x3d70f348	0.05882576
218	0xbf2a24ad	-0.6646221
219	0x3df43581	0.119242676
220	0x3e2b37c2	0.16720489
221	0x3dcabdce	0.098994836
222	0x3e02c0d8	0.12768877
223	0x3dbb4bc0	0.091453075
224	0xbc70249b	-0.014657165
225	0xbdb0085f	-0.08595347
226	0x3ce402bf	0.02783334
227	0x3dbe9251	0.093052514
228	0xbd0811b9	-0.033220027
229	0x3e58cc85	0.21171768
230	0xbdc460fe	-0.09588812
231	0x3e122565	0.14272077
232	0xbdc691f0	-0.09695804
233	0xbe0bb5cc	-0.13643569
234	0x3dc940bb	0.098267995
235	0x3c7f709b	0.015590812
236	0x3b9e0f01	0.004823566
237	0x3d4db981	0.05022574
238	0x3e52bd58	0.20580041
239	0xbe16c1eb	-0.14722411
240	0x3d65d542	0.05611158
241	0xbd306ec3	-0.04307438
242	0x3e820f28	0.25402188
243	0x3cf4e8b3	0.029896116
244	0x3dae2ff4	0.0850524
245	0x3e5fc39d	0.21851964
246	0xbeb2dbc6	-0.349333
247	0xbe05afe1	-0.13055374
248	0x3d37e5b3	0.044896793
249	0x3cadb14b	0.021202704
250	0x3d1dc42c	0.038517162
251	0xbdad0c5f	-0.08449625
252	0xbd0b4694	-0.034002855
253	0x3d54eb55	0.051982243
254	0xbb3e9e9c	-0.0029086238
255	0xbe25c80a	-0.1618959

out.weight f4 [35, 200]
0	0xbcc3b19a	-0.023888398
1	0x3c68063c	0.014161643
2	0x3b05ceff	0.0020417569
3	0x3c316b1d	0.01082876
4	0x3cb14e3f	0.021643756
5	0x3cf51c9f	0.029920874
6	0xbc6b3b41	-0.014357389
7	0xbcbb593a	-0.022869695
8	0xbc8c9019	-0.017158555
9	0x3ccaf81c	0.02477651
10	0xbd99af58	-0.07504147
11	0x3c86e5b0	0.016466945
12	0xbca9ad09	-0.020712392
13	0xbdb8925c	-0.09012291
14	0xbc91229f	-0.017716704
15	0x3c18743e	0.009305058
16	0x3c927d6f	0.017882077
17	0xb97ca489	-0.00024093887
18	0x3cd750a9	0.026283579
19	0x3c1fd0b9	0.009754353
20	0xbd832f00	-0.06405449
21	0xbe1332c4	-0.14374834
22	0xbd3edc23	-0.046596657
23	0xbd0e888f	-0.0347982
24	0x3c9b04ec	0.018923245
25	0x3db4fc68	0.08837205
26	0xbcaa3717	-0.020778222
27	0x3c37866e	0.011201484
28	0xbd0f63d1	-0.0350073
29	0xbd5f59fc	-0.054529175
30	0x3d4bbcc4	0.049740568
31	0xbd3e1f78	-0.04641673
32	0x3cf1a98b	0.02949979
33	0x3cb25aff	0.021771906
34	0x3d401ace	0.046900563
35	0x3c78c45c	0.0151835345
36	0xb974e85c	-0.00023356214
37	0xbccaa644	-0.024737485
38	0xbd2bce02	-0.04194451
39	0x3daed148	0.08536011
40	0x3d9048f3	0.07045164
41	0x3ada3e8a	0.0016650718
42	0x3d0b43c3	0.03400017
43	0xbdc6cb4a	-0.09706743
44	0x3c9d9b56	0.019239109
45	0xbd624385	-0.055240173
46	0x3d30fe2e	0.043211155
47	0x3c0d2e9f	0.008617072
48	0x3d04280d	0.032264758
49	0x3d7e5a1f	0.062097665
50	0xbced404b	-0.028961321
51	0xbe095792	-0.13412312
52	0x3cf8ba92	0.030362401
53	0xbc8b439a	-0.017000008
54	0x3cd248bf	0.025669454
55	0x3cb69591	0.022288116
56	0x3d8c82b2	0.06860866
57	0xbc7fca70	-0.01561223
58	0xbd9e4593	-0.07728114
59	0x3d85a8c9	0.06526334
60	0x3d9ca37a	0.07648368
61	0xbce68f4f	-0.028144507
62	0x3d5f7054	0.054550484
63	0xbd9afc2c	-0.07567629
64	0xbd599c94	-0.05312784
65	0xbda14399	-0.07874221
66	0x3c49bda0	0.0123132765
67	0xbc814eac	-0.015784584
68	0xbcd0e9c5	-0.025502095
69	0x3d16fb9f	0.03686106
70	0xbc5e399d	-0.013563541
71	0xbc9e1942	-0.019299153
72	0xbc7f4c54	-0.015582163
73	0xbd8857ef	-0.06657397
74	0x3c570d95	0.013125797
75	0x3d996050	0.07489073
76	0x3db322d4	0.08746877
77	0xbb950092	-0.004547187
78	0xbbd2b37d	-0.006430088
79	0x3d5ecf32	0.054396816
80	0x3d9865ff	0.07441329
81	0x3d67e8f3	0.056618642
82	0xbd3f3f0d	-0.04669099
83	0xbcc95cb6	-0.02458034
84	0xbd323149	-0.043504033
85	0xbbff3dab	-0.007789334
86	0x3c5470e3	0.012966367
87	0xbb9a252f	-0.0047041397
88	0xbd1f0f04	-0.03883268
89	0x3c61d025	0.013782536
90	0x3d10d97f	0.03536367
91	0xbcbdd19e	-0.023171242
92	0x3df86a98	0.12129706
93	0xbd3f7bc0	-0.046748877
94	0xbb0c26d0	-0.0021385439
95	0x3d104233	0.035219382
96	0x3d4e9d02	0.050442703
97	0xbd497711	-0.049185816
98	0x3d271505	0.04079153
99	0x3e12bc78	0.14329708
100	0x3c06bda5	0.008223926
101	0xbcb3a925	-0.02193124
102	0x3becd4ba	0.0072275074
103	0xbd0d2c43	-0.03446604
104	0xbb933c01	-0.004493237
105	0x3d9a4c24	0.07534054
106	0xbc4e44b0	-0.012589619
107	0xbc22e7d7	-0.00994297
108	0x3e3885f8	0.18019855
109	0x3ccc76f8	0.024959072
110	0xbe13402f	-0.14379953
111	0xbc6e5403	-0.014546397
112	0xbc01ee92	-0.007930415
113	0xbcec8f17	-0.028876824
114	0xbbaee456	-0.0053372784
115	0xbcccb013	-0.024986302
116	0xbb5e4cd3	-0.0033920303
117	0x3da31405	0.07962803
118	0x3cc39c1d	0.023878152
119	0x3c7b5b3d	0.015341577
120	0xbbc14c12	-0.005898961
121	0x39557af2	0.00020359064
122	0x3d196fac	0.037460014
123	0xbcca0da3	-0.024664706
124	0x3b0290ac	0.0019922657
125	0xbc455b05	-0.0120456265
126	0x3d3824b9	0.044956896
127	0x3cab057a	0.020876635
128	0xbbb508e8	-0.0055247433
129	0x3bc68565	0.0060583823
130	0xbd8d9dab	-0.069148384
131	0xbdb566e3	-0.08857515
132	0x3b11d2fa	0.0022250996
133	0xb9e9d241	-0.00044597875
134	0xbc0e99d2	-0.008703666
135	0xbd3bed3b	-0.045880537
136	0xbd5511f5	-0.05201908
137	0x3c53a8ff	0.01291871
138	0x3c24ed24	0.010066304
139	0x3dbb7935	0.09153978
140	0x3d9d2fe5	0.07675151
141	0x3ca45de0	0.020064294
142	0xbcc76781	-0.024341347
143	0x3bc83598	0.0061099045
144	0x3d4b091e	0.04956924
145	0xbc8340c8	-0.016022101
146	0x3c41b9c6	0.011824077
147	0x3bfd3229	0.007726927
148	0xbc179e8e	-0.009254111
149	0x3cc7392e	0.024319258
150	0x3d4f82a2	0.05066169
151	0xbcc92628	-0.024554327
152	0xbcda00ad	-0.02661165
153	0xbc498fd6	-0.01230236
154	0x3d578bea	0.052623667
155	0x3ca5847d	0.020204777
156	0xbcb3dfe7	-0.02195735
157	0xbbc61cab	-0.006045898
158	0xbc868097	-0.016418738
159	0xbd966244	-0.073429614
160	0x3c822079	0.015884625
161	0x3c2acfbc	0.010425504
162	0x3d23b3fb	0.039966565
163	0xbc6b7dbf	-0.014373242
164	0xbd1eb25d	-0.03874432
165	0xbca89bd2	-0.020582113
166	0xbcad113c	-0.021126382
167	0x3c988282	0.018616918
168	0xbca2587d	-0.019817585
169	0xbd3a748d	-0.045521308
170	0xbc907f20	-0.017638743
171	0x3d0133a9	0.031543408
172	0xbbe9c46c	-0.007134011
173	0xbc8b45d4	-0.01700107
174	0xbd7351dc	-0.05940424
175	0x3c133452	0.008984642
176	0x3b0cbdcc	0.0021475432
177	0xbd3442a4	-0.044008866
178	0xbd112cc4	-0.035443082
179	0x3c95fc3f	0.018308757
180	0x3d6bb2b7	0.057543483
181	0xbcfd2766	-0.030902576
182	0xbd430a71	-0.04761738
183	0x3dc4d544	0.0961099
184	0xbc3aa157	-0.0113910055
185	0xbd506132	-0.050873943
186	0x3ce3e2a7	0.027818037
187	0xbd0e0353	-0.03467114
188	0x3d9f1e04	0.07769397
189	0x3d07c90d	0.03315072
190	0x3cbec24c	0.023286007
191	0x3cc5b424	0.02413375
192	0xbc88bc7b	-0.016691437
193	0x3cb54753	0.022128737
194	0xbce3f425	-0.027826378
195	0x3d4aba4d	0.049494077
196	0xbd8cc663	-0.06873777
197	0xbd37a0d5	-0.044831116
198	0xbabb7cb8	-0.0014304137
199	0x3d29410c	0.0413218
200	0xbe2b46cf	-0.1672623
201	0xbdb0eb24	-0.086385995
202	0x3d87c207	0.06628805
203	0xbeb87e49	-0.36033848
204	0xbc9359f7	-0.017987235
205	0xbd2fcf09	-0.042922053
206	0xbec9de0a	-0.39427215
207	0xbea99ab5	-0.33125845
208	0x3e3a89ba	0.18216601
209	0x3d3395d8	0.043844074
210	0x3e92d668	0.28679204
211	0xbe3dd999	-0.18540038
212	0x3de4b8bb	0.11168047
213	0xbeb969eb	-0.36213621
214	0x3d09a3ce	0.033603482
215	0xbc8c3a5a	-0.017117668
216	0xbe0828be	-0.13296792
217	0x3e28dbd3	0.16490106
218	0x3ed20c53	0.41025028
219	0x3ed936a1	0.4242449
220	0xbde44aec	-0.11147103
221	0x3d86fca9	0.0659116
222	0x3dd169c9	0.10225255
223	0x3e29438a	0.1652967
224	0xbebbbf57	-0.36669418
225	0xbe43c6f8	-0.1911887
226	0x3e9c17fd	0.30487052
227	0x3b082a7a	0.002077727
228	0x3ddf2717	0.10896128
229	0x3e970cee	0.29502052
230	0xbe819088	-0.2530558
231	0x3da59c54	0.08086458
232	0xbdf68770	-0.120375514
233	0xbde6e155	-0.112734474
234	0x3e90e75a	0.28301507
235	0xbdb9be9f	-0.09069561
236	0xbee56027	-0.4479992
237	0xbe065c23	-0.13121085
238	0xbe2346ce	-0.15944979
239	0xbd6c0f8f	-0.057632025
240	0x3ea52955	0.32258096
241	0x3ebba980	0.36652756
242	0xbdfaff16	-0.12255685
243	0xbb42abaa	-0.002970437
244	0xbd7ff79a	-0.06249199
245	0x3ef0c8d5	0.47028223
246	0x3e01fb5b	0.12693541
247	0x3f0224ef	0.50837606
248	0xbe577534	-0.21040803
249	0x3f01b2f0	0.5066366
250	0x3e2fae91	0.17156436
251	0x3e4839b2	0.19553259
252	0x3b023b7f	0.0019871888
253	0x3c4767be	0.01217073
254	0x3ebbe2ef	0.36696574
255	0x3d9e9d8d	0.07744894

out.bias f4 [35]
0	0xbe8507b3	-0.25982437
1	0x3ebad7c3	0.36492738
2	0xbe8507b3	-0.25982437
3	0xbe8e1476	-0.27749985
4	0xbcf787d1	-0.03021613
5	0xbee916c1	-0.45525172
6	0x3e280560	0.164083
7	0xbe8c2483	-0.27371606
8	0xbe9d272b	-0.30693945
9	0xbe8f0259	-0.2793148
10	0xbd55663a	-0.052099444
11	0xbdbd971b	-0.09257337
12	0x3d2048d4	0.039131954
13	0xbd1609d8	-0.03663048
14	0xbe7773c3	-0.24165253
15	0xbe9006cc	-0.28130186
16	0x3e517770	0.20455718
17	0xbea727fd	-0.32647696
18	0xbc80368c	-0.01565101
19	0x3e277fc1	0.16357328
20	0x3dfc7c78	0.12328428
21	0x3e417faf	0.18896364
22	0xbea96147	-0.3308203
23	0xbed0aa22	-0.407548
24	0xbe2aeac5	-0.1669112
25	0xbf123123	-0.57106227
26	0x3f036443	0.5132486
27	0xbe412e75	-0.18865378
28	0xbeb74777	-0.3579671
29	0x3dbe5e44	0.092953235
30	0xbd2c8958	-0.04212317
31	0xbe48b7d3	-0.19601373
32	0x3e9562fb	0.2917708
33	0xbc0af32a	-0.008480826
34	0x3db0196e	0.085986
