modules/prn_gen/exp/en/models/unigram/FIN-encoder-wdecay_1e_5-attn_dot-emb_32-hddn_100-layers_1-epoch_100.pth (torch, 167360 bytes, 5 tensors)

embedding.weight f4 [32, 32]
0	0x00055aca	4.91746e-40
1	0x8006dab2	-6.29466e-40
2	0x00056325	4.94744e-40
3	0x80056270	-4.9449e-40
4	0x80056220	-4.94378e-40
5	0x00055db0	4.92786e-40
6	0x00067308	5.92278e-40
7	0x800560be	-4.93882e-40
8	0x800588b2	-5.08215e-40
9	0x80055f10	-4.9328e-40
10	0x80055c76	-4.92346e-40
11	0x00056812	4.96511e-40
12	0x80055b92	-4.92027e-40
13	0x80055ac6	-4.91741e-40
14	0x00056047	4.93715e-40
15	0x8005723b	-5.00156e-40
16	0x80056405	-4.95058e-40
17	0x80055cc7	-4.9246e-40
18	0x00056188	4.94165e-40
19	0x80055eb7	-4.93155e-40
20	0x00056e0f	4.98659e-40
21	0x0005623b	4.94416e-40
22	0x000557dc	4.90695e-40
23	0x00055c8c	4.92377e-40
24	0x00058b92	5.09246e-40
25	0x00055cda	4.92486e-40
26	0x00055d04	4.92545e-40
27	0x0005d6e4	5.36266e-40
28	0x00055fa0	4.93481e-40
29	0x80056119	-4.9401e-40
30	0x80055a26	-4.91517e-40
31	0x80055d41	-4.9263e-40
32	0xbf11c8c4	-0.5694697
33	0x3eeadb32	0.45870358
34	0xbebaf18c	-0.3651241
35	0x3eb68dcb	0.35655054
36	0x3fdc04c7	1.7188958
37	0xbf1f6abc	-0.6227224
38	0x3dedf4de	0.1161897
39	0xbe98cc10	-0.29843187
40	0xbe2a5a50	-0.16636014
41	0xbe9cf84b	-0.30658183
42	0xbdeea1dc	-0.11651966
43	0xbf8edd66	-1.1161315
44	0x3c1d1d9b	0.009589578
45	0xbeb18cd9	-0.3467777
46	0xbecc5944	-0.39911854
47	0xbe37ec94	-0.17961341
48	0x3e4018c4	0.18759447
49	0x3dcbd211	0.09952176
50	0x3ea72709	0.3264697
51	0xbf955a59	-1.1668197
52	0xbf0d1969	-0.551169
53	0x3eba4021	0.3637705
54	0x3e81ddaf	0.25364444
55	0xbf11fdda	-0.5702797
56	0xbf116ba8	-0.56804895
57	0xbeae6b0e	-0.3406605
58	0x3e323e9a	0.17406693
59	0xbd5867f6	-0.05283352
60	0xbec906b8	-0.39262938
61	0xbd20f035	-0.03929158
62	0x3ee6c3c5	0.45071235
63	0xbdd7c8bb	-0.10536333
64	0x3eeddff5	0.46459928
65	0x3f0912ea	0.53544486
66	0xbe74ba98	-0.23899305
67	0xbfb6c490	-1.4278736
68	0x3f92d194	1.1470208
69	0x3ea0914a	0.31360847
70	0x3ed41a66	0.4142639
71	0xbd98642a	-0.0744098
72	0x3f0a1af2	0.53947365
73	0xbfb3a4e2	-1.4034693
74	0xbdffde51	-0.12493575
75	0x3f1f6ce4	0.6227553
76	0xbe5556df	-0.2083392
77	0xbeeb4f94	-0.4595915
78	0xbea4f1b5	-0.32215658
79	0x3d2056e8	0.03914538
80	0xbf011013	-0.5041515
81	0x3d845f33	0.0646347
82	0xbf93c88c	-1.1545577
83	0xbed64511	-0.41849568
84	0x3e3f0d7c	0.18657488
85	0xbecfb7a9	-0.4056981
86	0x3ca37882	0.019954924
87	0x3ecb79c9	0.39741352
88	0xbf1a01b0	-0.60158825
89	0x3c66a3c9	0.014077135
90	0x3f2c1673	0.67221755
91	0x3e92131d	0.28530207
92	0xbe4cdb9e	-0.20005652
93	0x3eeb37bb	0.45940956
94	0xbf2dcb60	-0.6788845
95	0xbe91c044	-0.28467
96	0x80055744	-4.90482e-40
97	0x80056238	-4.94412e-40
98	0x80055e52	-4.93013e-40
99	0x00055abb	4.91725e-40
100	0x80055baf	-4.92067e-40
101	0x80055a9f	-4.91686e-40
102	0x0005573c	4.90471e-40
103	0x00057605	5.01515e-40
104	0x800557e1	-4.90702e-40
105	0x00056324	4.94742e-40
106	0x0005584c	4.90852e-40
107	0x00055bf7	4.92168e-40
108	0x00060df2	5.56016e-40
109	0x8005a3f6	-5.17996e-40
110	0x8005631a	-4.94728e-40
111	0x8005605c	-4.93745e-40
112	0x0006734c	5.92374e-40
113	0x80056533	-4.95481e-40
114	0x8005582a	-4.90805e-40
115	0x80055de5	-4.9286e-40
116	0x80055877	-4.90913e-40
117	0x8005608c	-4.93812e-40
118	0x00055db5	4.92793e-40
119	0x80055bb3	-4.92073e-40
120	0x00055d8c	4.92736e-40
121	0x00055be3	4.9214e-40
122	0x80055efc	-4.93251e-40
123	0x80055b9d	-4.92042e-40
124	0x00055c63	4.9232e-40
125	0x80067106	-5.91558e-40
126	0x8005578a	-4.9058e-40
127	0x800564b8	-4.95309e-40
128	0xbfa325b5	-1.2745882
129	0x3faf3f6f	1.3691233
130	0xbf902a47	-1.1262902
131	0xbf76102e	-0.9611844
132	0x3f0cd90b	0.5501868
133	0xbf18cfa1	-0.59691817
134	0x3f2f8ccf	0.6857423
135	0x3d0b81d7	0.03405937
136	0x3e2baa59	0.16764201
137	0x3db3c074	0.08776942
138	0x3f0e653f	0.5562324
139	0xbf0db4ab	-0.553538
140	0xbef324d0	-0.47489023
141	0xbf4b61cf	-0.7944612
142	0xbefef5bf	-0.49796864
143	0x3f13f486	0.5779499
144	0xbe1427e1	-0.14468338
145	0x3f459fb6	0.77196825
146	0x3dee94f8	0.11649507
147	0x3b2aaf64	0.0026044482
148	0xbee9b941	-0.4564915
149	0xbe657520	-0.22407961
150	0x3f72fe14	0.9491894
151	0xbeed0700	-0.46294403
152	0xbf05307f	-0.52027124
153	0xbdae818c	-0.08520803
154	0xbe8108ef	-0.25202128
155	0x3f8e8e63	1.1137203
156	0xbebbbbcd	-0.36666718
157	0xbf71e0d1	-0.9448367
158	0xbe52afbc	-0.2057485
159	0x3e86f031	0.26355127
160	0xbede59a3	-0.43427762
161	0x3f77cdf0	0.9679861
162	0xbf0b729d	-0.5447176
163	0x3de6d82c	0.112717
164	0xbf18c616	-0.59677255
165	0xbf0f6699	-0.56015927
166	0x3f1eb538	0.6199527
167	0x3f741365	0.95342094
168	0xbed623cd	-0.4182419
169	0x3e9f3f7e	0.31103128
170	0xbe92a9bb	-0.2864512
171	0xbf68701d	-0.9079607
172	0xbee83a4e	-0.45356983
173	0xbec2951a	-0.3800438
174	0x3c3097f7	0.010778419
175	0xbc147562	-0.009061189
176	0xbe5f1038	-0.2178353
177	0xbd40e758	-0.047095627
178	0x3d88194b	0.06645449
179	0xbf9bdcab	-1.2176718
180	0xbf536f6f	-0.8259191
181	0x3e866961	0.26252273
182	0x3e8aaf07	0.2708666
183	0x3f10e0d5	0.56593066
184	0xbeefdf04	-0.46849835
185	0xbec82f4e	-0.3909859
186	0x3e247a7d	0.1606235
187	0x3f449eff	0.7680511
188	0x3e10631c	0.14100307
189	0x3e6f4b27	0.23368512
190	0xbf0b7cb7	-0.54487175
191	0x3eaa2acb	0.33235773
192	0x3d9d66ce	0.07685624
193	0xbfaa0502	-1.3282778
194	0x3e241542	0.16023734
195	0x3e5f8c3e	0.21830842
196	0x3f1bdbb9	0.60882145
197	0xbe0fa0a4	-0.14026123
198	0xbdd79a9b	-0.105275355
199	0xbde7486b	-0.112931095
200	0xbe9ff059	-0.31238058
201	0xbf079d86	-0.52974737
202	0x3fa41053	1.2817482
203	0x3e8d21e0	0.27564907
204	0xbe80a560	-0.2512617
205	0xbe17267d	-0.14760776
206	0xbed06c43	-0.40707597
207	0x3c75bd5e	0.014998762
208	0x3de2bac0	0.11070776
209	0x3ebd1366	0.36928862
210	0x3effeb80	0.4998436
211	0x3d5e84f8	0.054326028
212	0xbe2d04c0	-0.16896343
213	0x3ec9d30e	0.39418834
214	0xbeb64b64	-0.35604393
215	0xbe8a3b4d	-0.26998368
216	0x3f7bb005	0.9831546
217	0x3e701de4	0.23448902
218	0x3ddfcad0	0.10927355
219	0x3f9a735c	1.2066455
220	0x3f472bab	0.7780101
221	0x3d947c49	0.07250268
222	0xbe5e08e5	-0.2168308
223	0x3e97479a	0.29546815
224	0x3fa3b407	1.2789315
225	0x3e488314	0.19581252
226	0xbf4f3a39	-0.80948216
227	0x3f044948	0.5167432
228	0x3edebd23	0.43503675
229	0x3f1855c8	0.5950589
230	0x3e8d8893	0.2764326
231	0xbcff70fe	-0.031181809
232	0x3ea84c38	0.3287065
233	0x3eecac75	0.46225324
234	0x3f034037	0.5126986
235	0x3dfe8fe7	0.12429791
236	0x3f6a108c	0.914315
237	0x3f784e00	0.9699402
238	0xbdbbb4ef	-0.0916537
239	0x3f498b2b	0.7872798
240	0xbe857aa1	-0.2607012
241	0x3ed8ac8d	0.42319146
242	0x3e7f1883	0.24911694
243	0xbe5aad6d	-0.21355219
244	0x3f9d5b88	1.2293558
245	0xbe3920ee	-0.18078968
246	0x3f7fc598	0.9991088
247	0x3ddf62fe	0.10907553
248	0x3d9c87df	0.07643103
249	0x3ed51909	0.41620663
250	0xbf32e30d	-0.698777
251	0xbeab4a54	-0.33455145
252	0x3f9d3579	1.2281944
253	0xbe1356be	-0.14388558
254	0x3edded50	0.43345118
255	0xbf32ab00	-0.69792175

gru.weight_ih_l0 f4 [300, 32]
0	0xbea02e4b	-0.3128532
1	0x3ed138a8	0.40863538
2	0xbdcdba6e	-0.10045324
3	0x3e0e25a2	0.13881543
4	0x3d386b78	0.045024365
5	0x3d3be92b	0.045876663
6	0x3ed6fc64	0.41989434
7	0x3e319f2c	0.17345876
8	0xbdf7bb35	-0.12096254
9	0x3e2ce31b	0.16883509
10	0xbe25668f	-0.16152404
11	0xbe27a51f	-0.16371582
12	0xbeb024fc	-0.34403217
13	0xbe4cd7f9	-0.20004262
14	0xbebd6f76	-0.369991
15	0xbe81726a	-0.25282604
16	0x3d96d787	0.07365327
17	0xbf0ba211	-0.5454417
18	0xbe10ee4d	-0.14153405
19	0xbe036d13	-0.12834577
20	0xbebf742f	-0.3739333
21	0x3e8cd020	0.27502537
22	0xbe07f99f	-0.13278817
23	0x3ed042a7	0.40675852
24	0x3e95df03	0.29271707
25	0x3e3c828a	0.18409172
26	0x3ecfee17	0.40611336
27	0x3e48ef7e	0.19622609
28	0xbf36ce8c	-0.71408916
29	0x3e8e7f49	0.27831486
30	0x3f17a01b	0.59228677
31	0xbcc1e47c	-0.02366852
32	0xbe380cf7	-0.17973696
33	0x3ea9a0ac	0.33130395
34	0x3e720a2b	0.23636691
35	0xbee59039	-0.44836596
36	0x3ea4b451	0.3216882
37	0x3ce5ee6d	0.028067792
38	0x3d4c95cb	0.04994754
39	0xbf128d5c	-0.5724695
40	0x3eb1a92a	0.34699374
41	0xbe3c7c8c	-0.18406886
42	0x3dfdeb15	0.12398354
43	0xbe1208fd	-0.14261241
44	0x3e824d28	0.2544949
45	0x3e5de259	0.21668376
46	0xbf59e8a0	-0.8512058
47	0x3d223f93	0.03961141
48	0xbd88af84	-0.06674102
49	0xbc99408c	-0.018707536
50	0x3ea29411	0.3175359
51	0xbeb9f1b7	-0.36317226
52	0xbe8c3306	-0.27382678
53	0x3e3f5bfc	0.18687433
54	0xbf027ac0	-0.5096855
55	0x3e8a0268	0.2695496
56	0xbef79f22	-0.48363596
57	0x3cc9a9b9	0.024617063
58	0xbf039eaa	-0.5141398
59	0x3e7a6ab4	0.24454767
60	0xbe616aa3	-0.22013335
61	0xbda95bfd	-0.082694985
62	0x3d5febb5	0.054668147
63	0xbdb68465	-0.08911971
64	0xbd8c25b1	-0.068431266
65	0x3e5505f2	0.20803049
66	0xbdd461ad	-0.10370193
67	0x3e4d4b56	0.2004827
68	0x3e521e1e	0.20519301
69	0xbdb63e5a	-0.08898611
70	0x3e1faee5	0.1559406
71	0xbcbfa7c3	-0.023395425
72	0x3d23cd6d	0.03999083
73	0x3e2a38fc	0.166233
74	0xbe1ae6f5	-0.15127166
75	0xbf3424d7	-0.70368713
76	0xbebb3662	-0.36564928
77	0x3e681aa0	0.22666407
78	0x3e2c7a31	0.16843487
79	0x3e48a52c	0.19594258
80	0xbe135167	-0.14386521
81	0xbe4feb12	-0.20304516
82	0xbe19003b	-0.14941494
83	0x3c811a9f	0.015759764
84	0x3f1fc89d	0.62415487
85	0x3f2f33f7	0.6843867
86	0x3e4fda8e	0.20298216
87	0x3e233948	0.1593982
88	0x3ed85b53	0.42257175
89	0xbec619b3	-0.38691482
90	0x3eaf7791	0.3427091
91	0xbe373897	-0.17892681
92	0xbf0907f0	-0.53527737
93	0x3f28a8a2	0.65882313
94	0x3ea50de9	0.32237175
95	0xbe132e3e	-0.14373109
96	0x3e4b529e	0.19855735
97	0xbf3035fd	-0.6883238
98	0x3dde5018	0.108551204
99	0x3ec093de	0.37612814
100	0x3d1ddc4d	0.038540173
101	0x3ef53a46	0.47896022
102	0x3f09540f	0.5364389
103	0x3ea0c971	0.31403688
104	0xbe65477c	-0.2239055
105	0x3ebfaffb	0.3743895
106	0x3e78782a	0.24264589
107	0x3e961d10	0.29319048
108	0x3df33b23	0.11876514
109	0xbeaf4e72	-0.34239537
110	0xbea9137e	-0.33022684
111	0x3eaa4f1a	0.33263475
112	0xbe947aaa	-0.28999835
113	0x3c96da1e	0.018414553
114	0x3c853076	0.01625846
115	0x3f35e002	0.71044934
116	0xbdfd44b5	-0.123666205
117	0x3e657d98	0.22411191
118	0x3e21fe6b	0.15819709
119	0x3e7a32d5	0.24433453
120	0xbd040760	-0.032233596
121	0x3e510fda	0.20416203
122	0x3d941501	0.07230569
123	0x3d885333	0.06656494
124	0x3d83a1bb	0.06427332
125	0xbddf9f65	-0.10919074
126	0xbe98aa7c	-0.2981757
127	0x3e3784db	0.17921774
128	0xbeccd555	-0.4000651
129	0x3dde3499	0.10849876
130	0x3cf6616f	0.030075757
131	0x3de006ef	0.109388225
132	0xbe05639f	-0.13026284
133	0xbe1a5079	-0.1506976
134	0x3ead04e2	0.33792788
135	0x3e6b5f98	0.22985685
136	0x3ecabdf2	0.39598042
137	0xbe4dbf34	-0.2009247
138	0x3db8e9a8	0.090289414
139	0xbb8852ab	-0.0041602454
140	0x3f105faa	0.5639597
141	0x3e821ee2	0.25414187
142	0x3de6c295	0.11267582
143	0x3e2cc9ea	0.16873899
144	0xbe60a872	-0.21939257
145	0xbe4ee2c0	-0.20203686
146	0xbe80313a	-0.25037557
147	0xbe98ec78	-0.2986791
148	0x3eec6cb2	0.46176678
149	0x3ef255ad	0.4733099
150	0xbec96c6f	-0.3934054
151	0x3db75cd4	0.089532524
152	0xbec1df4d	-0.37865677
153	0xbe42002e	-0.18945381
154	0x3c9c9098	0.019111916
155	0xbe889cf6	-0.26682252
156	0xbe98dc1e	-0.29855436
157	0xbe791cb7	-0.2432736
158	0xbf0f5ca2	-0.5600072
159	0x3e4ded75	0.20110114
160	0xbdd5355e	-0.104105696
161	0x3e9c91c7	0.3057997
162	0x3c624295	0.01380982
163	0x3e30d73d	0.17269607
164	0xbe80f9a7	-0.2519047
165	0x3d316544	0.043309465
166	0xbf03ce81	-0.51486975
167	0x3df600ac	0.12011847
168	0xbee08a43	-0.43855485
169	0x3f01b276	0.50662935
170	0xbe8e9794	-0.2785002
171	0x3e8a7aac	0.27046716
172	0xbea4e9e0	-0.32209682
173	0x3dc29b74	0.095023066
174	0x3e99a6a3	0.30009946
175	0x3e338bca	0.17533794
176	0xbdd3d877	-0.10344022
177	0xbe64e3ce	-0.22352526
178	0xbe0b786c	-0.13620156
179	0xbf06dbdc	-0.5267923
180	0x3e83d366	0.25747222
181	0xbe90625b	-0.2820004
182	0xbe4b9db6	-0.1988438
183	0x3c5eafe2	0.013591738
184	0x3eca0d65	0.39463344
185	0x3e7af367	0.24506913
186	0x3e826369	0.2546647
187	0xbe6653b1	-0.22492863
188	0xbd46e9de	-0.048562877
189	0x3e2321e4	0.15930897
190	0x3dbe2343	0.092840694
191	0xbdae5173	-0.08511629
192	0x3edc6aef	0.43050334
193	0xbf26c3a0	-0.6514225
194	0xbef23c43	-0.473116
195	0x3edb26fd	0.42803183
196	0xbefe631f	-0.49684998
197	0x3dc35525	0.095377244
198	0x3e896c70	0.26840544
199	0x3df98cd7	0.12185066
200	0x3dffa288	0.12482172
201	0x3ea537a3	0.3226901
202	0xbebfb0a7	-0.37439463
203	0xbcdcef88	-0.026969686
204	0x3bd6b073	0.006551796
205	0xbe043e81	-0.12914468
206	0xbe41a586	-0.18910798
207	0x3ecd4730	0.40093374
208	0xbf190835	-0.5977815
209	0x3ebb91a7	0.3663456
210	0xbdc1cc4a	-0.09462793
211	0xbe9bb4f8	-0.30411506
212	0x3f06fbe7	0.5272812
213	0x3f098c07	0.5372929
214	0x3e8221a6	0.25416297
215	0x3f214ae9	0.6300493
216	0x3f183a25	0.5946372
217	0x3ed9834f	0.42482993
218	0xbef82821	-0.48468116
219	0xbf7d5406	-0.98956335
220	0xbed15fb6	-0.40893334
221	0x3c88d9d3	0.01670543
222	0xbcf8e026	-0.03038032
223	0xbdb518d8	-0.08842629
224	0x3d4de33a	0.05026553
225	0x3efc09c2	0.49226195
226	0x3eadedef	0.3397059
227	0xbea76fd9	-0.3270252
228	0x3d4e349e	0.05034315
229	0x3e88f928	0.2675259
230	0x3dc9566e	0.09830938
231	0xbed4030d	-0.41408578
232	0x3e1968ec	0.14981431
233	0x3ebb9497	0.36636803
234	0xbee62b3a	-0.44954854
235	0xbe9700b2	-0.29492718
236	0x3ddb1de9	0.10699064
237	0x3dbab8e9	0.091173
238	0x3d4dceac	0.050245926
239	0x3f3b1ebb	0.73093766
240	0xbf0a5316	-0.5403303
241	0xbe8da2c8	-0.27663255
242	0x3d772834	0.060341075
243	0xbeb55c75	-0.35422102
244	0x3e84f717	0.25969765
245	0xbea91a60	-0.33027935
246	0xbe7a9dcd	-0.24474259
247	0xbe8b4fd9	-0.27209356
248	0xbf6aded6	-0.9174627
249	0xbe79f52f	-0.24409936
250	0xbec9eb8f	-0.3943753
251	0xbe4d8d92	-0.20073536
252	0xbd9ff3c5	-0.07810167
253	0xbf2eb36a	-0.68242514
254	0x3e0f7401	0.14009096
255	0x3e88ff3c	0.26757228

gru.weight_hh_l0 f4 [300, 100]
0	0xbe898a9c	-0.26863563
1	0xbe01bbb1	-0.12669255
2	0xbe5f415f	-0.21802281
3	0xbda5cd36	-0.080957815
4	0xbd056572	-0.03256745
5	0xbdb3b804	-0.087753326
6	0xbf1abdbf	-0.6044578
7	0xbee29385	-0.44253173
8	0x3e918ccf	0.2842774
9	0x3d3991e0	0.045305133
10	0x3eb8dc20	0.36105442
11	0xbe17214b	-0.14758794
12	0xbd8ef4b2	-0.06980266
13	0xbea51e4b	-0.32249674
14	0x3edbe8e5	0.42951122
15	0xbe1c4599	-0.15260924
16	0xbcb71464	-0.02234859
17	0x3d9b3e8c	0.07580289
18	0xbde810eb	-0.11331352
19	0xbe56c967	-0.20975266
20	0x3d4141cf	0.0471819
21	0xbd5c3a29	-0.053766403
22	0x3bb3fc73	0.005492741
23	0xbc66a356	-0.014077028
24	0x3f002199	0.50051266
25	0xbf2c2024	-0.6723654
26	0x3dcb9f6f	0.09942519
27	0x3ed16260	0.40895367
28	0xbeb21673	-0.34782752
29	0xbdc47664	-0.09592894
30	0xbe6bca18	-0.23026311
31	0xbe11b1b1	-0.1422794
32	0x3e1c0096	0.15234599
33	0x3ea8100c	0.32824743
34	0xbdcb0290	-0.09912598
35	0x3e731d36	0.23741612
36	0x38507149	4.969657e-05
37	0xbd58f78f	-0.052970465
38	0x3de833ac	0.11337981
39	0x3e04d2aa	0.12970987
40	0x3dfd5698	0.12370032
41	0x3d183f27	0.0371696
42	0xbefacebe	-0.48985857
43	0xbecccb78	-0.39998984
44	0xbe7507ec	-0.23928803
45	0x3dccbbad	0.09996734
46	0xbdeba8fc	-0.115068406
47	0x3dca9c93	0.098931454
48	0x3d33360f	0.043752726
49	0x3f017c4b	0.5058028
50	0x3da7319c	0.08163759
51	0x3e63fc51	0.2226422
52	0xbd7d9725	-0.06191172
53	0x3f0ff951	0.562398
54	0x3e231764	0.15926892
55	0x3ec6d8ee	0.3883738
56	0x3ea1a4bd	0.31570998
57	0xbc6eb738	-0.01457005
58	0xbe1ab737	-0.15108953
59	0x3ceb6334	0.028733827
60	0x3e580140	0.21094227
61	0xbe944feb	-0.28967223
62	0x3e162dcd	0.14665909
63	0xbd254540	-0.040349245
64	0x3e581a56	0.21103796
65	0x3ecc36fb	0.39885697
66	0x3ec2a528	0.3801663
67	0x3e2d3d95	0.16918023
68	0x3ec55000	0.38537598
69	0x3e717f02	0.23583606
70	0x3e889e2a	0.2668317
71	0xbd82183e	-0.0635228
72	0xbea006d0	-0.31255198
73	0x3d384618	0.04498872
74	0xbd3539bd	-0.044244517
75	0xbe39f5fe	-0.18160245
76	0x3dcf2e24	0.101162225
77	0xbeb1ccf7	-0.34726688
78	0xbdf18e8e	-0.11794768
79	0xbe16b10f	-0.1471598
80	0xbdefd64e	-0.11710797
81	0xbe3e9774	-0.18612462
82	0xbe12d9bc	-0.14340872
83	0x3e3780ac	0.17920178
84	0x3ec01c43	0.37521562
85	0xbd1a6079	-0.03768966
86	0xbe538c3e	-0.20658967
87	0xbe24d5c5	-0.16097172
88	0x3e2a1fd3	0.16613702
89	0xbd17bfc6	-0.037048124
90	0x3e170e1f	0.1475148
91	0x3d0edddc	0.03487955
92	0x3e573905	0.21017845
93	0x3eac6a44	0.33674824
94	0x3e89bf38	0.269037
95	0x3c11e328	0.008904256
96	0x3de565b3	0.11201038
97	0xbf19c137	-0.6006045
98	0x3e6d2786	0.23159608
99	0xbde29284	-0.11063102
100	0xbda8c894	-0.08241382
101	0xbe92adf2	-0.28648335
102	0xbe91046b	-0.28323683
103	0xbef1ecf2	-0.47251087
104	0xbe2517d6	-0.16122374
105	0x3e16a346	0.14710721
106	0x3e12ad02	0.1432381
107	0xbe16a76f	-0.14712308
108	0xba4cd4e0	-0.0007813703
109	0xbee0cf5c	-0.43908203
110	0xbe5a7ecd	-0.21337433
111	0x3d6af2d8	0.0573605
112	0xbdd1ab9e	-0.102378115
113	0xbd044b66	-0.032298468
114	0x3e69dcb0	0.22838092
115	0x3d80cdf5	0.06289283
116	0x3d8bda8f	0.06828796
117	0xbc288700	-0.010286093
118	0xbd46bf60	-0.048522353
119	0x3daf0e5d	0.085476615
120	0x3edf96a6	0.43669623
121	0xbe59dea8	-0.21276343
122	0xbe225500	-0.15852737
123	0xbe6f20fb	-0.23352425
124	0x3d16df8e	0.036834292
125	0x3e8d3b62	0.27584368
126	0xbe72d5b5	-0.23714335
127	0x3d079fd9	0.033111427
128	0xbe491153	-0.19635515
129	0x3d307405	0.043079395
130	0x3e21eb17	0.15812336
131	0x3c8cd3fe	0.01719093
132	0xbe0c3ed8	-0.13695848
133	0xbb95a243	-0.0045664622
134	0xbdac7db2	-0.08422412
135	0xbeaa85c6	-0.33305186
136	0x3e3d653d	0.1849565
137	0xbf31fa43	-0.69522494
138	0xbe1e9afd	-0.15488811
139	0xbe3709a3	-0.1787477
140	0x3e3a0194	0.18164665
141	0x3ef98ee2	0.48741823
142	0x3dfa2d3c	0.12215659
143	0x3d943cf9	0.07238192
144	0x3de6b2f9	0.11264605
145	0xbedcbeaf	-0.4311423
146	0xbdeb50db	-0.11490031
147	0x3e54b627	0.2077261
148	0x3e4a62db	0.19764273
149	0x3e1f899b	0.15579836
150	0x3d1dc05d	0.03851353
151	0x3ef329e4	0.47492898
152	0xbdade49d	-0.0849087
153	0xbcb7fc22	-0.022459093
154	0x3d37d1f4	0.04487796
155	0xbd5ac421	-0.0534097
156	0x3e3e6faf	0.18597291
157	0xbf058900	-0.5216217
158	0x3d2f807c	0.04284714
159	0xbebe8b0f	-0.37215468
160	0x3d0a3ef6	0.03375145
161	0x3e0ee00e	0.13952658
162	0xbea336e2	-0.3187781
163	0xbeadcb5b	-0.3394421
164	0x3e64353c	0.22285932
165	0xbcfdf4c7	-0.031000508
166	0xbeb07598	-0.34464717
167	0x3db91dda	0.09038897
168	0x3dead537	0.11466449
169	0xbee37caf	-0.44431064
170	0x3ea4fc0a	0.3222354
171	0xbd9822fa	-0.07428546
172	0xbe87e665	-0.26542965
173	0xbe9b7dcc	-0.30369413
174	0xbe2ec82b	-0.17068546
175	0x3d91ba62	0.07115628
176	0xbe310492	-0.172869
177	0x3dd3473f	0.103163235
178	0x3d5faddb	0.05460916
179	0x3ea49504	0.3214494
180	0xbdb6b09b	-0.089204036
181	0x3d9477f4	0.07249442
182	0xbd997f75	-0.074950136
183	0x3e818696	0.25297993
184	0xbe6064b4	-0.21913415
185	0x3e9f1a0a	0.31074554
186	0xbdd46d87	-0.10372453
187	0xbf33e735	-0.7027467
188	0x3e1fd693	0.15609197
189	0x3d9ec478	0.07752317
190	0xbe9bb97c	-0.3041495
191	0x3d9ceaa2	0.0766194
192	0xbde1ce13	-0.11025634
193	0xbe1a6686	-0.15078172
194	0xbb97102a	-0.004610081
195	0xbdb3deb6	-0.08782713
196	0x3e89e353	0.26931247
197	0xbe97ef96	-0.29674977
198	0xbdca02e0	-0.098638296
199	0xbc4f3197	-0.0126461005
200	0xbd8cd28f	-0.06876098
201	0x3d8340c6	0.06408839
202	0x3ef2c43f	0.4741535
203	0xbe5445e4	-0.20729786
204	0x3e85694f	0.26056907
205	0xbd3c18a3	-0.045921933
206	0xbead96eb	-0.33904204
207	0xbce4d42d	-0.027933205
208	0xbe06d820	-0.13168383
209	0xbe373c2f	-0.17894052
210	0x3e19e6f8	0.15029514
211	0xbe61f828	-0.2206732
212	0xbe5cc92f	-0.2156112
213	0xbc5256d9	-0.012838089
214	0xbdb630a6	-0.08895998
215	0xbb4faa94	-0.0031687366
216	0x3d6c26b1	0.057654087
217	0x3d2e4c84	0.04255344
218	0xbe8116e2	-0.2521277
219	0x3d88b09f	0.06674313
220	0x3eadfbb1	0.33981088
221	0x3ddd981f	0.108200304
222	0x3da32873	0.079666995
223	0xbe4aefe8	-0.1981808
224	0x3e4b7648	0.1986934
225	0x3e52f000	0.20599365
226	0x3df3fc88	0.11913401
227	0x3e740a1d	0.23831983
228	0xbebce175	-0.3689076
229	0xbe064634	-0.13112718
230	0x3e2fe41c	0.1717686
231	0xbe500d19	-0.20317496
232	0xbd86ed9f	-0.065882914
233	0x3e468d3c	0.19389814
234	0x3e12c678	0.14333522
235	0x3d4dbce7	0.05022898
236	0x3e36b21b	0.1784138
237	0x3d168e84	0.036757007
238	0x3ec7ea3b	0.3904589
239	0x3dc2a4f7	0.09504121
240	0x3e8bba56	0.272906
241	0x3ccfbdf5	0.025359133
242	0x3e04757f	0.12935446
243	0x3f00eb8e	0.5035943
244	0x3edb04ed	0.42777196
245	0x3dc490da	0.09597941
246	0x3ebdff90	0.3710904
247	0x3d5c52a6	0.053789757
248	0xbc9227ab	-0.01784118
249	0x3cad68b5	0.021168092
250	0xbc954c57	-0.018224878
251	0xbe99ae82	-0.3001595
252	0x3d3cb729	0.046073113
253	0xbe47a13b	-0.19495098
254	0x3d8f2b0c	0.069906324
255	0x3e015835	0.12631305

gru.bias_ih_l0 f4 [300]
0	0xbe5573d7	-0.2084497
1	0xbe591b5e	-0.21201846
2	0x3e152b79	0.14567365
3	0xbd83fbd5	-0.064445175
4	0xbcf40c15	-0.029790917
5	0x3eaaa972	0.33332402
6	0xbefd9e63	-0.49534902
7	0xbce3b32b	-0.027795395
8	0x3e898554	0.26859534
9	0xbe300d5e	-0.17192599
10	0x3eef1347	0.46694395
11	0x3b8cc6be	0.004296153
12	0xbecf4071	-0.40478852
13	0x3e2d8d0c	0.16948336
14	0xbdc1b2d0	-0.09457934
15	0x3dfee4aa	0.12445958
16	0xbec69412	-0.38784844
17	0x3e4bfe0c	0.1992113
18	0xbcedbf83	-0.029021984
19	0x3ec1c2ad	0.37843838
20	0xbef17ee2	-0.47167116
21	0xbe2c77ca	-0.16842571
22	0xbd5e0564	-0.05420436
23	0xbc77cbae	-0.015124245
24	0xbecdd1a4	-0.40199006
25	0xbd90809f	-0.070557825
26	0xbe91cade	-0.28475088
27	0xbe28dc62	-0.1649032
28	0xbe95c685	-0.2925302
29	0xbf1cae17	-0.6120314
30	0xbe11e916	-0.14249071
31	0x3e5c7096	0.21527323
32	0xbe5f97e7	-0.2183529
33	0x3e218fbc	0.15777487
34	0xbe1e60f1	-0.15466668
35	0xbd1e8b0a	-0.038706817
36	0x3e71e0a5	0.23620851
37	0xbe264819	-0.1623844
38	0x3eab2703	0.334282
39	0x3df629c3	0.12019684
40	0x3eb64f01	0.3560715
41	0xbdb15315	-0.08658425
42	0xbe6961a4	-0.22791153
43	0xbe71615a	-0.23572293
44	0xbe86fd71	-0.26365235
45	0x3de5d057	0.11221378
46	0x3e027860	0.12741232
47	0x3ea1d22f	0.3160567
48	0xbe98c3b7	-0.2983682
49	0xbe608a84	-0.2192784
50	0xbe52845e	-0.20558307
51	0x3d5fae5d	0.054609645
52	0xbd901d2f	-0.07036816
53	0x3eacaacc	0.33724058
54	0xba894d7d	-0.0010475364
55	0x3e15c1d4	0.14624721
56	0xbe893f25	-0.26805988
57	0x3dbcb2a1	0.09213758
58	0xbc26c518	-0.010178827
59	0x3ddae556	0.106882736
60	0x3d64137c	0.055682644
61	0xbefa55cf	-0.48893592
62	0xbe0c02d1	-0.1367295
63	0xbe878c05	-0.26474014
64	0xbef6ebaf	-0.48226687
65	0xbe0414a2	-0.12898496
66	0xbe8b3cdb	-0.27194867
67	0xbe03b6c0	-0.12862682
68	0xbb3b4094	-0.0028572427
69	0xbe7d86b7	-0.24758421
70	0xbdf81917	-0.121141605
71	0xbe3b749c	-0.18306202
72	0xbeb46951	-0.352366
73	0xbd051133	-0.032487106
74	0x3c862ceb	0.01637884
75	0xbe722aa7	-0.23649083
76	0xbdc5367e	-0.09629534
77	0xbc060fd6	-0.0081824865
78	0x3ea9fc4b	0.33200297
79	0xbe21595d	-0.15756746
80	0xbe04f21a	-0.1298298
81	0xbec03069	-0.37536934
82	0xbea041bb	-0.31300148
83	0x3db0268e	0.08601104
84	0xbef72e96	-0.4827773
85	0x3ebbf491	0.36710027
86	0xbdeac750	-0.11463797
87	0x3d79f7d8	0.061027378
88	0xbc7a5473	-0.015278923
89	0xbe1631ac	-0.14667386
90	0x3c479882	0.012182357
91	0xbcd2db17	-0.025739236
92	0xbefeba9f	-0.49751756
93	0x3cfef7c9	0.031124013
94	0xbebe1e36	-0.37132424
95	0xbe9c5312	-0.30532128
96	0x3d9761a5	0.07391671
97	0xbe8d94bf	-0.27652547
98	0xbe962b35	-0.2932984
99	0xbe910376	-0.28322953
100	0x3dff7a5e	0.124745116
101	0xbe6f25a5	-0.23354204
102	0x3e174544	0.14772516
103	0xbec54ca6	-0.3853504
104	0xbea24c40	-0.316988
105	0xbf05c0e5	-0.5224746
106	0xbe27cb8f	-0.16386245
107	0xbec3cf6a	-0.38244182
108	0xbea6ca9f	-0.32576463
109	0xbdde5193	-0.10855403
110	0xbeae8500	-0.34085846
111	0xbec71cf2	-0.3888927
112	0xbf4570e6	-0.77125394
113	0x3d216961	0.039407138
114	0x3c81c6d4	0.015841879
115	0xbf19fd2f	-0.6015195
116	0xbe6589b4	-0.22415811
117	0x3e08c59d	0.13356633
118	0x3f0f0fec	0.5588367
119	0xbdc4f87e	-0.096177086
120	0xbf0b01af	-0.54299444
121	0xbe549cab	-0.20762889
122	0xbdd3afd6	-0.103362724
123	0xbcfb202b	-0.030654987
124	0xbd53422e	-0.051576786
125	0xbe93215e	-0.28736395
126	0xbee9b215	-0.45643678
127	0xbe4b0e76	-0.19829735
128	0xbee2ef1b	-0.44323048
129	0xbea2d75b	-0.31804928
130	0xbeaff0f5	-0.34363523
131	0xbee6f1d4	-0.45106375
132	0xbe583c2b	-0.21116702
133	0x3e31929d	0.17341085
134	0xbe6aeda5	-0.22942217
135	0xbee12fa0	-0.43981647
136	0xbe626dbd	-0.22112174
137	0xbca51c49	-0.020155089
138	0x3da9b894	0.082871586
139	0xbe8b0602	-0.2715302
140	0xbde5f501	-0.112283714
141	0xbe46a06f	-0.19397138
142	0x3e3c0209	0.18360151
143	0xbdc0b6f7	-0.09409898
144	0xbdf10ba7	-0.11769801
145	0xbe2e82cb	-0.17042081
146	0xbe9c6fb0	-0.3055396
147	0xbd8202bd	-0.063481785
148	0xbec6c2b0	-0.3882041
149	0x3e8b4b2f	0.27205798
150	0xbe81b118	-0.25330424
151	0xbefe0c98	-0.49618983
152	0xbe8bfb9f	-0.2734041
153	0xbf537838	-0.82605314
154	0xbe8d01e5	-0.27540508
155	0x3e3cd735	0.1844147
156	0xbec96a60	-0.3933897
157	0xbeada88b	-0.3391765
158	0xbf0ebc3b	-0.55755967
159	0xbe6a173c	-0.22860426
160	0xbef7a5a8	-0.48368573
161	0xbe8b6726	-0.27227134
162	0xbee379a5	-0.44428745
163	0xb9367f1f	-0.00017404229
164	0xbe6e5951	-0.23276259
165	0xbe1ed3aa	-0.15510431
166	0xbea01f22	-0.31273752
167	0xbefdb00a	-0.4954837
168	0xbc661832	-0.014043855
169	0xbee0b473	-0.43887672
170	0xbeb33a9b	-0.3500565
171	0x3dbd6e4d	0.09249554
172	0xbdeb2112	-0.11480917
173	0x3d195669	0.037435923
174	0xbea800fb	-0.32813248
175	0xbcbabe39	-0.022795783
176	0xbe4ce432	-0.20008925
177	0x3d46ef7e	0.04856824
178	0xbea54447	-0.32278654
179	0xbee7df80	-0.45287704
180	0xbeb10c59	-0.34579733
181	0xbebfe467	-0.37478945
182	0xbe0e0c09	-0.13871779
183	0x3e409426	0.18806514
184	0xbd1fc9fd	-0.03901099
185	0xbd84e866	-0.06489639
186	0xbeb13b85	-0.34615722
187	0xbccc7b70	-0.024961203
188	0xbe388a12	-0.1802142
189	0xbdc0c83d	-0.094131924
190	0xbe80e4d8	-0.25174594
191	0xbcfe1e99	-0.03102045
192	0xbec3ef4c	-0.38268507
193	0xbdfcfed9	-0.12353296
194	0x3d96a2f4	0.073552996
195	0xbed99468	-0.42496037
196	0x3ee5d96d	0.44892445
197	0xbea43420	-0.32071018
198	0xbd81e39f	-0.063422434
199	0xbec74747	-0.38921568
200	0x3e3f4a5a	0.18680707
201	0xbd372b74	-0.044719175
202	0x3c2147c6	0.009843772
203	0x3e6d85f4	0.2319563
204	0xbea83492	-0.32852608
205	0x3ee7415d	0.45167056
206	0xbdd42691	-0.103589185
207	0x3e763b1f	0.2404599
208	0xbea71549	-0.32633427
209	0xbe565002	-0.20928958
210	0xbf0d3fcd	-0.5517548
211	0xbe8d5fa8	-0.27612042
212	0xbe18b703	-0.14913563
213	0x3b34671b	0.0027527276
214	0x3df125e2	0.11774804
215	0xbe7bdba0	-0.24595499
216	0xbdf478b9	-0.119370885
217	0x3dfb90e3	0.12283494
218	0x3ed33565	0.41251674
219	0xbeb48c70	-0.35263395
220	0xbc06b341	-0.008221448
221	0xbca8c6dc	-0.020602636
222	0x3e065421	0.1311803
223	0x3cee9352	0.029122982
224	0x3d2f3d97	0.042783346
225	0xbe2ec4ab	-0.1706721
226	0xbc4677ec	-0.012113553
227	0x3de00dca	0.1094013
228	0x3e061f1a	0.13097802
229	0xbdfa9df4	-0.122371584
230	0x3f1ed112	0.62037766
231	0x3d8b94db	0.06815501
232	0xbd0f51b2	-0.03499002
233	0x3b161409	0.0022900125
234	0xbdd6f8f4	-0.10496703
235	0x3e3e40ac	0.18579358
236	0xbe6e9d7c	-0.23302263
237	0x3c0e7d9b	0.008696939
238	0x3f005974	0.50136495
239	0x3eb3df67	0.3513138
240	0xbe5aef15	-0.21380265
241	0xbda37d20	-0.0798285
242	0xbb974d5f	-0.0046173776
243	0xbd33c395	-0.043887693
244	0x3e364497	0.17799602
245	0xbe1fae20	-0.15593767
246	0x3bd6b86d	0.006552747
247	0xbe14f7e7	-0.14547692
248	0x3d1488a6	0.03626313
249	0xbea87a0a	-0.32905608
250	0xbd8e29d0	-0.06941569
251	0x3d8b27f0	0.06794727
252	0xbd730516	-0.059331022
253	0xbef970e2	-0.48718935
254	0xbe4cc39e	-0.19996497
255	0x3ea776ee	0.32707924

gru.bias_hh_l0 f4 [300]
0	0xbe52f9e6	-0.20603141
1	0xbe653055	-0.22381718
2	0x3d9db666	0.07700805
3	0xbd24bf18	-0.040221304
4	0x3a5b8a5d	0.0008374805
5	0x3e9fef40	0.3123722
6	0xbef54499	-0.47903898
7	0xbd4fbf55	-0.050719578
8	0x3e93684b	0.28790507
9	0xbe314e5b	-0.17315046
10	0x3ee88154	0.4541117
11	0x3d9c156c	0.076212734
12	0xbeeda6b8	-0.4641626
13	0x3e479651	0.19490935
14	0xbe1f74d2	-0.15571907
15	0x3e0ccba7	0.13749562
16	0xbec16583	-0.3777276
17	0x3e1b81d5	0.15186246
18	0x3d4ab78f	0.04949146
19	0x3eb22190	0.3479123
20	0xbeed1e16	-0.46312016
21	0xbe33f8e6	-0.17575416
22	0xbd5854cc	-0.052815244
23	0xbcf935da	-0.030421186
24	0xbed736ee	-0.42034096
25	0xbd378665	-0.044805903
26	0xbe68b3b0	-0.22724795
27	0xbe3663c1	-0.1781149
28	0xbe8e0ac5	-0.27742592
29	0xbf21075d	-0.6290186
30	0xbdeb5935	-0.11491624
31	0x3e7c094a	0.24612918
32	0xbe5024ce	-0.2032654
33	0x3e1fd6a4	0.15609223
34	0xbe365314	-0.1780513
35	0xbdca690e	-0.09883319
36	0x3e774fce	0.24151537
37	0xbe5a4bdb	-0.21317999
38	0x3eb67f54	0.3564402
39	0x3dce812b	0.100832306
40	0x3eb808f0	0.3594432
41	0xbe0ec6de	-0.1394305
42	0xbe8c708d	-0.2742962
43	0xbe64b5db	-0.22334997
44	0xbe93da22	-0.2887736
45	0x3d9c5f6b	0.07635387
46	0x3dd0df3a	0.10198827
47	0x3e97a9ad	0.2962164
48	0xbea02ffc	-0.3128661
49	0xbe519ba7	-0.20469533
50	0xbe4fb152	-0.20282486
51	0x3d3aca7a	0.045603253
52	0xbd4b26c2	-0.04959751
53	0x3ea60c72	0.3243137
54	0xbd4b89af	-0.049691852
55	0x3df84e84	0.12124351
56	0xbe905086	-0.28186435
57	0x3d00e2aa	0.031466164
58	0x3bb17eda	0.005416733
59	0x3dc75a94	0.09734073
60	0x3d609ccd	0.054837037
61	0xbee20298	-0.44142604
62	0xbdfc53f3	-0.123206995
63	0xbe657ec6	-0.22411641
64	0xbeefc319	-0.46828535
65	0xbe1cf458	-0.15327585
66	0xbe88b961	-0.26703933
67	0xbe1eb51e	-0.15498778
68	0xbd7c6448	-0.061619073
69	0xbe582c94	-0.21110755
70	0xbdcc2284	-0.09967521
71	0xbe3a3472	-0.18184069
72	0xbeb15e68	-0.3464234
73	0xbd823624	-0.06357983
74	0x3cf5280c	0.029926322
75	0xbe908b4d	-0.28231278
76	0xbdc69267	-0.09695893
77	0xbd8312e7	-0.0640009
78	0x3e9aafd5	0.30212274
79	0xbe03d38d	-0.12873669
80	0xbdb685ed	-0.08912263
81	0xbebcc3ad	-0.3686804
82	0xbea2d65b	-0.31804165
83	0x3d8d9fc4	0.069152385
84	0xbedfecb6	-0.43735284
85	0x3ebbab5e	0.3665418
86	0xbe0819b0	-0.13291049
87	0x3d8a8e1a	0.06765385
88	0x3c89c951	0.016819628
89	0xbe022379	-0.12708844
90	0x3d812f9b	0.06307908
91	0xbd620876	-0.05518385
92	0xbf040b0f	-0.51579374
93	0x3d58736b	0.052844446
94	0xbed3f0b9	-0.41394594
95	0xbe9398ad	-0.2882742
96	0x3db67dee	0.08910738
97	0xbe5ac3e6	-0.21363792
98	0xbe6e5050	-0.23272824
99	0xbea239d5	-0.31684747
100	0x3d6e3ff7	0.05816647
101	0xbe80f895	-0.25189653
102	0x3e34b9b3	0.17648964
103	0xbed063d6	-0.4070117
104	0xbe8c89e4	-0.27448952
105	0xbf04f50f	-0.5193643
106	0xbe3d2125	-0.18469675
107	0xbea8f385	-0.3299829
108	0xbe8cb234	-0.27479708
109	0xbd96a0b6	-0.07354872
110	0xbea09b94	-0.31368697
111	0xbeb897fa	-0.3605345
112	0xbf348c01	-0.7052613
113	0xb9650e4e	-0.00021844471
114	0x3ccc42d3	0.024934208
115	0xbf161ff3	-0.586425
116	0xbe35a9ac	-0.17740506
117	0x3da24ec7	0.07925182
118	0x3f278166	0.6543182
119	0xbd802a7f	-0.062581055
120	0xbf1837b4	-0.59459996
121	0xbe8f61e5	-0.28004375
122	0xbd830f6d	-0.063994266
123	0xbc0161f8	-0.007896893
124	0xbd89c224	-0.067264825
125	0xbe929c25	-0.28634754
126	0xbeefd877	-0.46844837
127	0xbe5b285a	-0.21402112
128	0xbeef6ac5	-0.46761146
129	0xbec71c3d	-0.38888732
130	0xbec45ab6	-0.38350457
131	0xbf04dc03	-0.5189821
132	0xbe8137c5	-0.2523786
133	0x3e3bc316	0.18336138
134	0xbe96c93a	-0.294504
135	0xbedb508e	-0.42834896
136	0xbe61db04	-0.22056204
137	0xbd7f15d4	-0.062276676
138	0xbca8852f	-0.02057132
139	0xbe93d943	-0.28876695
140	0xbdc16c2a	-0.09444459
141	0xbe347226	-0.17621669
142	0x3e6b86f1	0.23000695
143	0xbe00dffd	-0.12585445
144	0xbe09115b	-0.13385527
145	0xbdf6063f	-0.1201291
146	0xbec64eaf	-0.38731906
147	0xbe1e8ad2	-0.15482643
148	0xbead8324	-0.33889115
149	0x3eb36e66	0.35045165
150	0xbe896462	-0.26834399
151	0xbefc926f	-0.4933047
152	0xbeaed183	-0.3414422
153	0xbf4f748f	-0.8103723
154	0xbe5b58c5	-0.21420582
155	0x3e248ecd	0.16070099
156	0xbeb2a53b	-0.34891686
157	0xbe6a9bcd	-0.22910996
158	0xbf223a4c	-0.63370204
159	0xbe415e1d	-0.18883558
160	0xbec3f8fe	-0.38275903
161	0xbeb733da	-0.35781747
162	0xbeb18ca4	-0.34677613
163	0xbde557bf	-0.11198377
164	0xbe93971f	-0.28826234
165	0xbe3585b4	-0.17726785
166	0xbe814c9f	-0.2525377
167	0xbefeace7	-0.4974129
168	0xbd7b2569	-0.061314974
169	0xbe9aed15	-0.30259004
170	0xbed9720e	-0.4246983
171	0x3e1f9fe2	0.15588334
172	0xbdeed6d4	-0.11662069
173	0xbd17ebfc	-0.037090287
174	0xbe92b3a0	-0.28652668
175	0x3a1c60e1	0.0005965364
176	0xbe6f478d	-0.23367138
177	0x3df0dc9c	0.11760828
178	0xbec1bc55	-0.37838998
179	0xbefb3508	-0.49063897
180	0xbea7fc28	-0.32809567
181	0xbea34570	-0.31888914
182	0xbddfef87	-0.10934358
183	0x3daf0207	0.085453086
184	0xbcfae546	-0.030626904
185	0xbe48b4aa	-0.19600168
186	0xbec11f46	-0.37719172
187	0xbbce5033	-0.0062961816
188	0xbe0e63c0	-0.13905239
189	0xbdcb5fd1	-0.09930385
190	0xbe953755	-0.29143777
191	0x3b568700	0.0032734275
192	0xbead070a	-0.33794433
193	0xbe216e2f	-0.15764688
194	0xbcfa1f1b	-0.03053241
195	0xbed7a4ad	-0.42117825
196	0x3edb5abc	0.42842662
197	0xbe9c24bb	-0.30496773
198	0xbc6ed7c1	-0.014577807
199	0xbec58330	-0.3857665
200	0x3ebfe163	0.37476644
201	0x3ba18d90	0.0049302056
202	0x3f0af842	0.5428506
203	0x3f1a9550	0.6038408
204	0xbee3484e	-0.44391102
205	0x3ea75761	0.32683852
206	0x3ebbb898	0.3666427
207	0x3f1f41a5	0.6220954
208	0xbe9127f0	-0.28350782
209	0xbe00c699	-0.12575759
210	0xbeb519e8	-0.35371327
211	0xbf0411ba	-0.5158955
212	0xbf0d1f4c	-0.5512588
213	0x3e06bb62	0.13157418
214	0xbd4726df	-0.048621055
215	0xbecab538	-0.39591384
216	0xbec060bb	-0.375738
217	0x3d9d28ec	0.07673821
218	0x3d3de345	0.04635932
219	0xbf0aa838	-0.5416293
220	0x3e957533	0.29190978
221	0x3dd50d36	0.104029104
222	0x3e40328e	0.18769285
223	0x3d47a4e9	0.048741255
224	0x3eb31033	0.34973297
225	0x3d8cb6ed	0.06870828
226	0xbe0ba5a0	-0.136374
227	0x3dbe23aa	0.09284146
228	0x3f02a6e6	0.51035917
229	0xbdb163ac	-0.08661589
230	0x3f23714c	0.6384475
231	0xbeb3b261	-0.3509703
232	0xbe3a11ed	-0.181709
233	0xbe3574b5	-0.17720301
234	0xbed2166e	-0.41032737
235	0x3f13db0e	0.57756126
236	0xbef57a36	-0.47944802
237	0x3e60d173	0.21954899
238	0x3eaef54a	0.34171516
239	0x3f095fe5	0.5366195
240	0xbece70d5	-0.4032046
241	0xbe75e2eb	-0.24012344
242	0x3d71113b	0.058854323
243	0x3de71b62	0.1128452
244	0xbf0d494d	-0.55189973
245	0xbec7b44d	-0.39004746
246	0xbdcef700	-0.10105705
247	0xbeb70b8e	-0.35751003
248	0x3eab06fa	0.3340376
249	0xbe5d7019	-0.21624793
250	0x3c805e23	0.015669888
251	0x3e377b17	0.17918049
252	0x3e2e4a2c	0.17020482
253	0xbf2440f5	-0.64161617
254	0xbee31dd7	-0.44358703
255	0x3ef65402	0.48110968
