modules/prn_gen/exp/en/models/unigram/train+val-encoder-wdecay_1e_5-attn_dot-emb_32-hddn_100-layers_1-epoch_100.pth (torch, 167360 bytes, 5 tensors)

embedding.weight f4 [32, 32]
4.92816e-40 -4.95358e-40 -5.31718e-40 5.09791e-40 -4.94524e-40 4.95426e-40 -5.05926e-40 5.2306e-40
4.95451e-40 -4.91476e-40 -4.93819e-40 4.92985e-40 4.92841e-40 4.91538e-40 -4.92611e-40 -4.94815e-40
-4.9735e-40 6.02959e-40 -4.92884e-40 4.92108e-40 -4.93677e-40 4.94319e-40 -5.20808e-40 -4.94947e-40
4.98122e-40 -5.49172e-40 4.94012e-40 4.92367e-40 -4.90977e-40 4.92083e-40 4.95182e-40 -4.91581e-40
-0.24163628 -0.044014633 -0.6926756 -0.09977117 -0.51078576 1.261975 -0.088894255 0.15297967
-0.023992714 0.19263265 -0.30576828 0.17870295 0.06362582 0.41192746 0.5104673 0.031623505
-0.38944227 -0.23430492 -0.011314643 0.8818519 0.18760395 0.020961927 0.43342897 -0.42549324
0.7327607 -0.35902986 -0.010609894 1.0077269 -0.4818522 0.7776758 -0.0981332 -0.559875
-0.2872356 -1.028897 0.16335903 -0.39704055 0.33040088 0.21399614 -0.8416482 0.18624403
0.12574278 -0.5117038 -0.1955448 1.0860109 -0.083066516 -0.8091448 -0.56780607 0.3003013
-0.796894 -0.5296487 0.41629726 0.70810956 0.7978182 0.2655888 0.9459677 0.50040376
0.7258491 -0.89768463 0.28946576 0.9734208 0.27933526 -0.6223098 0.1413013 0.06752261
4.93172e-40 -4.92589e-40 -4.91496e-40 -4.93766e-40 -4.90589e-40 4.92495e-40 -4.9127e-40 4.93216e-40
4.91982e-40 -4.9327e-40 4.94311e-40 -4.94147e-40 6.20278e-40 5.19672e-40 4.96252e-40 -4.95044e-40
-4.94716e-40 -4.91319e-40 4.9467e-40 4.92069e-40 -4.92758e-40 4.9295e-40 4.9349e-40 -5.43803e-40
-4.93755e-40 4.94913e-40 4.94766e-40 -4.90854e-40 -4.96542e-40 4.91762e-40 4.9295e-40 4.94277e-40
0.023278365 -0.45782757 -0.3323745 -1.361733 -0.46154252 0.043204255 0.54075325 -0.20886573
0.32033467 0.3771782 0.013840191 1.2120211 -0.050608005 0.5898825 0.8683331 -0.24353333
0.15200937 -0.5828529 0.71339476 0.3009529 -0.050853692 0.1167725 0.7469171 -0.11980758
-0.57843757 -0.29777545 0.2596649 1.1588087 -1.1998935 0.8824535 0.94732517 0.005448429
-0.10384727 -0.2674973 -0.122478686 -0.80585635 -0.57139033 0.6514431 -0.077779345 0.28083396
0.2729518 -0.36891744 -0.12208079 0.38382626 -0.48835298 -0.40981126 -0.026443047 0.3832764
-0.09228623 0.88797015 -0.17625463 0.8039404 0.28859067 0.050508324 0.3379792 -0.4745615
0.18135904 -0.7366454 -0.43407765 0.6693454 -0.076648846 0.24097086 -0.27630615 -0.55613196
-0.31246325 -0.7594977 -0.43388262 1.3721964 -0.053057767 0.31220257 0.64603865 -0.30907306
-0.32745692 0.29267853 -0.20872015 0.3785845 0.27934095 -0.25343898 -0.39852667 0.576401
0.59186953 -0.024376756 0.12113648 0.16118233 0.06441311 -0.21837534 -0.42888004 -0.28878883
-0.7196729 0.11597884 0.053325467 -0.33230278 -0.42955592 0.35161296 -0.25553802 1.2109679
-0.31938618 0.65960425 -0.4264457 -0.43285123 -0.28051054 -0.6123315 -1.0940274 0.7570416
-0.5295011 0.07972118 0.4099491 0.0050401827 -0.8707993 0.10061987 -1.08654 -0.5604179
0.8376831 0.6335135 0.7287528 0.04337661 0.069268905 0.49595225 -0.7221032 -0.5514355
-0.5252328 -0.7260724 1.1021042 -0.9783704 -0.3950907 0.47703123 0.080134526 -0.82571685
00000000: c55d 0500 db64 0580 37ca 0580 178d 0500
00000010: 8862 0580 0c65 0500 5182 0580 14b2 0500
00000020: 1e65 0500 095a 0580 9160 0580 3e5e 0500
00000030: d75d 0500 355a 0500 335d 0580 5863 0580
00000040: 696a 0580 ce90 0600 f65d 0580 cc5b 0500
00000050: 2c60 0580 f661 0500 cdab 0580 b663 0580
00000060: 906c 0500 defa 0580 1b61 0500 855c 0500
00000070: a558 0580 ba5b 0500 5e64 0500 545a 0580
00000080: 806f 77be b048 34bd 3053 31bf d454 ccbd
00000090: dbc2 02bf 6688 a13f 310e b6bd b4a6 1c3e
000000a0: 5e8c c4bc 7e41 453e a98d 9cbe e8fd 363e
000000b0: 414e 823d 28e8 d23e fcad 023f a687 013d
000000c0: fa64 c7be a1ed 6fbe 0d61 39bc 0cc1 613f
000000d0: 401b 403e 59b8 ab3c 67ea dd3e 40da d9be
000000e0: 3596 3b3f c3d2 b7be 1fd5 2dbc 32fd 803f
000000f0: 55b5 f6be c315 473f 0ffa c8bd f853 0fbf
00000100: 8b10 93be e6b2 83bf 9747 273e e648 cbbe
00000110: 4e2a a93e ce21 5b3e 4276 57bf c1b6 3e3e
00000120: b7c2 003e 05ff 02bf e53c 48be 6802 8b3f
00000130: c71e aabd 1d24 4fbf bd5b 11bf 18c1 993e
00000140: 3f01 4cbf 0f97 07bf ea24 d53e ab46 353f
00000150: d03d 4c3f 41fb 873e f02a 723f 761a 003f
00000160: 3fd1 393f a9ce 65bf db34 943e 1b32 793f
00000170: 0805 8f3e b24f 1fbf 4ab1 103e 4b49 8a3d
00000180: c35e 0500 235d 0580 175a 0580 6b60 0580
00000190: 9057 0580 e05c 0500 7659 0580 e35e 0500
000001a0: 725b 0500 095f 0580 f061 0500 7b61 0580
000001b0: 15c1 0600 a2a8 0500 5967 0500 fb63 0580
000001c0: 1163 0580 9959 0580 f062 0500 b05b 0500
000001d0: 9c5d 0580 255e 0500 a65f 0500 e7eb 0580
000001e0: 6360 0580 9e63 0500 3563 0500 4d58 0580
000001f0: 2868 0580 d55a 0500 255e 0500 d861 0500
00000200: 45b2 be3c 6068 eabe fe2c aabe 444d aebf
00000210: 4d4f ecbe f2f6 303d ce6e 0a3f e6e0 55be
00000220: e802 a43e 801d c13e f8c1 623c 8223 9b3f
00000230: 574a 4fbd 8a02 173f 144b 5e3f cd60 79be
00000240: 58a8 1b3e d935 15bf 0aa1 363f 8016 9a3e
00000250: f64b 50bd 6c26 ef3d f635 3f3f ad5d f5bd
00000260: 7c14 14bf 0676 98be ccf2 843e d853 943f
00000270: 1c96 99bf 79e8 613f e783 723f bc88 b23b
00000280: e1ad d4bd 68f5 88be 1bd6 fabd 9a4c 4ebf
00000290: a346 12bf fac4 263f c74a 9fbd 78c9 8f3e
000002a0: 57c0 8b3e bfe2 bcbe 7e05 fabd e084 c43e
000002b0: 6709 fabe c8d2 d1be 179f d8bc ce3c c43e
000002c0: 9000 bdbd 0352 633f 187c 34be 0acf 4d3f
000002d0: 28c2 933e d1e1 4e3d 9c0b ad3e baf9 f2be
000002e0: 2fb6 393e cb94 3cbf 6d3f debe 385a 2b3f
000002f0: 12fa 9cbd 11c1 763e 0078 8dbe aa5e 0ebf
00000300: 2ffb 9fbe 716e 42bf dd25 debe 22a4 af3f
00000310: 1a53 59bd 04d9 9f3e ca62 253f d33e 9ebe
00000320: 6fa8 a7be f6d9 953e bcba 55be d4d5 c13e
00000330: c705 8f3e c1c2 81be b00b ccbe 048f 133f
00000340: c384 173f c3b1 c7bc 6716 f83d fb0c 253e
00000350: 05eb 833d c99d 5fbe 2a96 dbbe 21dc 93be
00000360: 7c3c 38bf 5086 ed3d ce6b 5a3d 9723 aabe
00000370: c1ee dbbe 9d06 b43e e1d5 82be ff00 9b3f
00000380: 9686 a3be d3db 283f 1757 dabe ad9e ddbe
00000390: 149f 8fbe c2c1 1cbf 1709 8cbf 7acd 413f
000003a0: 628d 07bf dc44 a33d d9e4 d13e 1e28 a53b
000003b0: b4ec 5ebf ca11 ce3d be13 8bbf 8c77 0fbf
000003c0: 6672 563f f12d 223f 8b8f 3a3f acab 313d
000003d0: dbdc 8d3d 74ed fd3e c1db 38bf e02a 0dbf
000003e0: a875 06bf e1df 39bf c011 8d3f 7c76 7abf
000003f0: 5449 cabe 703d f43e 921d a43d 2e62 53bf

gru.weight_ih_l0 f4 [300, 32]
0.112386525 0.026254538 -0.27540755 -0.14246464 0.022228813 -0.030424368 -0.12551415 0.045046926
-0.09148493 -0.22585644 0.15815583 0.1938454 0.47154722 -0.072484456 -0.05950061 -0.2603162
-0.043883108 -0.2364347 -0.09987594 0.38303083 0.018794104 -0.34484208 0.00978445 0.18144499
-0.0066676433 -0.23862402 -0.000932533 0.09284451 -0.07526197 -0.13685477 0.09685245 -0.25284836
-0.25095737 -0.4857518 -0.28941086 0.12062585 -0.11677588 0.24289833 0.20897858 -0.06750327
-0.18885641 0.22593088 -0.52843344 -0.25227737 -0.37984583 -0.18354456 0.4030495 0.29380047
-0.28673676 0.033882324 0.19222264 -0.3486471 -0.016888088 -0.41466686 0.027879314 0.1793137
0.03497912 0.29888505 -0.084941015 -0.08690129 0.14842369 0.34706295 -0.15972061 -0.0643712
-0.030349948 -0.051718548 0.08238698 0.027235253 0.383256 -0.09465649 -0.006150148 0.46852484
-0.5119794 -0.13348751 0.039900277 0.21486032 0.29845315 0.030371998 0.42453536 -0.26857358
-0.035231765 0.33079946 0.39122796 -0.43775707 -0.12291866 -0.38463154 0.16438578 -0.3683369
0.34216633 -0.37337846 0.24203795 0.1497219 -0.13744068 0.17096157 0.075896494 -0.26255617
0.30853546 0.32098722 0.51941735 -0.19466643 -0.041667584 -0.37919798 -0.122992754 0.48055932
0.0755526 -0.09453017 0.48666137 0.16158655 0.40106672 -0.11766035 -0.11439789 -0.0134310825
-0.21942316 -0.29057616 0.12470723 -0.12708038 0.29353917 -0.09987438 0.102893054 -0.40535608
-0.13737746 0.2595079 -0.19816925 -0.17184997 -0.26794624 -0.4034994 -0.07350359 0.23285113
0.13761835 0.41960397 -0.025851792 -0.23491976 0.54416674 -0.3203603 -0.36569506 0.5361032
0.24440463 -0.21908414 0.2487589 -0.033496846 -0.21312962 -0.12083138 0.46623033 -0.6173216
0.65150267 -0.3643637 -0.53982216 0.38901243 -0.016577225 0.2975615 0.24881376 0.019530384
0.51062745 -0.1927023 0.7215448 0.61992764 0.40435776 -0.14094485 0.14226301 -0.00884249
-0.58599603 0.22574668 0.028211856 -0.74117774 -0.3869139 -0.04589473 -0.7045149 -0.29771358
0.009397701 -0.7325211 0.032228347 -0.40348873 0.5323045 -0.043592248 0.2659748 0.06790017
-0.08526889 0.4041672 0.54468375 -0.226388 -0.07332106 -0.14157672 0.15014863 0.20061576
-0.4537577 0.34974194 0.23783916 -0.28508276 0.28985536 -0.39406613 -0.05031601 0.30316967
-0.34731135 0.14105009 -0.34342238 -0.27186358 0.042439424 -0.16044521 -0.14056002 -0.3421119
0.3091798 0.085489176 0.08172425 0.26808313 0.3325441 0.41344747 -0.2708267 -0.5633483
-0.601719 -0.09553956 -0.28954524 0.49142158 0.13963933 -0.20966491 0.100338995 0.21363293
-0.1147103 -0.17071036 -0.0041176924 -0.039131578 -0.23035318 0.07758461 -0.12561873 -0.94046813
0.06582862 -0.074228905 0.1351849 0.4893273 0.1200365 -0.6309181 0.35489604 0.037854735
0.25553358 0.25343883 0.034462392 0.27178368 -0.2174522 0.10202781 -0.51587456 0.13025844
-0.21307139 -0.030136298 -0.23421296 -0.30057907 0.20556258 0.00059453247 -0.00052705454 -0.3217034
0.08115889 -0.09265186 -0.16128002 0.20173663 -0.33880928 0.44585314 -0.14748776 -0.3004499
00000000: e82a e63d c213 d73c 3802 8dbe 40e2 11be
00000010: 3319 b63c 863c f9bc c886 00be 2083 383d
00000020: 735c bbbd e946 67be 9af3 213e 697f 463e
00000030: a36e f13e bb72 94bd e9b6 73bd 2a48 85be
00000040: c6be 33bd f01b 72be c28b ccbd 9e1c c43e
00000050: 18f6 993c 248f b0be f54e 203c b7cc 393e
00000060: 3f7c dabb db59 74be 3b75 74ba 4325 be3d
00000070: f322 9abd a823 0cbe 945a c63d 5775 81be
00000080: 7c7d 80be 76b4 f8be a92d 94be b00a f73d
00000090: 3128 efbd 57ba 783e 7bfe 553e 283f 8abd
000000a0: 9363 41be 6d5a 673e 6a47 07bf 802a 81be
000000b0: 277b c2be 1bf3 3bbe 815c ce3e 046d 963e
000000c0: 29cf 92be 31c8 0a3d 03d6 443e df81 b2be
000000d0: e358 8abc 374f d4be 2963 e43c 039e 373e
000000e0: 4446 0f3d 7607 993e 8ef5 adbd 4ef9 b1bd
000000f0: 61fc 173e 3cb2 b13e cd8d 23be 0cd5 83bd
00000100: 74a0 f8bc d4d6 53bd 81ba a83d 771c df3c
00000110: 213a c43e 43db c1bd 2e87 c9bb 7de2 ef3e
00000120: 1511 03bf f3b0 08be 796e 233d 5804 5c3e
00000130: dace 983e b2ce f83c b35c d93e 7a82 89be
00000140: 2f4f 10bd 8c5e a93e 084f c83e b221 e0be
00000150: c7bc fbbd 6dee c4be bf54 283e a796 bcbe
00000160: 6d30 af3e 762b bfbe ccd8 773e b350 193e
00000170: 40bd 0cbe 8d10 2f3e 9f6f 9b3d c36d 86be
00000180: 5cf8 9d3e 7058 a43e 89f8 043f a356 47be
00000190: a1ab 2abd 3d26 c2be a0e3 fbbd df0b f63e
000001a0: 52bb 9a3d 0999 c1bd ae2b f93e f276 253e
000001b0: 9e58 cd3e e9f7 f0bd 7149 eabd 0b0e 5cbc
000001c0: 77b0 60be 66c6 94be 8166 ff3d 5c21 02be
000001d0: c44a 963e f08a ccbd 98b9 d23d d58a cfbe
000001e0: adac 0cbe 38de 843e e1ec 4abe 70f9 2fbe
000001f0: 4030 89be 7997 cebe 0d89 96bd 8770 6e3e
00000200: d3eb 0c3e 55d6 d63e 23c7 d3bc ce8e 70be
00000210: 834e 0b3f 4406 a4be 623c bbbe 0f3e 093f
00000220: 3545 7a3e 9857 60be a7ba 7e3e fd33 09bd
00000230: a73e 5abe 7176 f7bd beb5 ee3e ca08 1ebf
00000240: e1c8 263f e18d babe c931 0abf a32c c73e
00000250: f6cc 87bc fb59 983e 09c9 7e3e 2ffe 9f3c
00000260: 7bb8 023f c053 45be 29b7 383f 94b3 1e3f
00000270: fb07 cf3e d953 10be 65ad 113e 17e0 10bc
00000280: d603 16bf 232a 673e 8d1c e73c d3bd 3dbf
00000290: 9419 c6be 1dfc 3bbd 175b 34bf ea6d 98be
000002a0: d1f8 193c 8186 3bbf df01 043d 1396 cebe
000002b0: 1c45 083f c98d 32bd d92d 883e 3f0f 8b3d
000002c0: 75a1 aebd 01ef ce3e 6570 0b3f 42d2 67be
000002d0: 5a29 96bd 7df9 10be 90c0 193e 386e 4d3e
000002e0: ee52 e8be 6011 b33e 1c8c 733e 5ef6 91be
000002f0: ec67 943e 09c3 c9be 2918 4ebd 0e39 9b3e
00000300: cbd2 b1be 6f6f 103e 0fd5 afbe b431 8bbe
00000310: f6d4 2d3d c04b 24be f7ee 0fbe 4a29 afbe
00000320: d14c 9e3e f314 af3d 0b5f a73d 3142 893e
00000330: 3843 aa3e 63af d33e cca9 8abe 9837 10bf
00000340: 420a 1abf 3faa c3bd 463f 94be 9c9b fb3e
00000350: 9dfd 0e3e 66b2 56be 887e cd3d 97c2 5a3e
00000360: 3ced eabd b2ce 2ebe b5ed 86bb 6f48 20bd
00000370: b4e1 6bbe aee4 9e3d 32a2 00be 85c2 70bf
00000380: 28d1 863d 5305 98bd e96d 0a3e 1c89 fa3e
00000390: b2d5 f53d d983 21bf efb4 b53e 910d 1b3d
000003a0: 4cd5 823e bcc2 813e 7028 0d3d 3b27 8b3e
000003b0: caab 5ebe f5f3 d03d 5b10 04bf 7862 053e
000003c0: 632f 5abe 66e0 f6bc 86d5 6fbe 80e5 99be
000003d0: ff7e 523e 66da 1b3a 082a 0aba 4fb6 a4be
000003e0: a236 a63d 42c0 bdbd 9726 25be 0c94 4e3e
000003f0: 6978 adbe dd46 e43e 0807 17be 92d4 99be

gru.weight_hh_l0 f4 [300, 100]
0.018974716 -0.1697319 0.06748648 0.10941879 -0.12649105 0.29566956 0.2730847 0.14258091
-0.18737909 0.012243134 0.11304885 0.3299558 0.15468413 0.008782901 -0.22206362 0.1276448
0.17095406 -0.2659212 -0.081958756 0.041440822 0.14015238 -0.14965558 0.3383554 0.13327563
0.0222283 0.23925988 -0.122363284 -0.09701976 -0.24109654 -0.06514896 0.043780796 0.10726845
0.22898525 -0.07007273 -0.115417905 -0.14868134 -0.024278944 -0.1341723 -0.09671998 0.046994407
-0.17381032 -0.21897808 0.20288 -0.101864554 0.2578965 0.18760557 0.55260056 0.034305412
0.14886113 0.29200047 0.007946488 0.19925904 -0.09002435 0.21776083 -0.19760698 -0.079522856
0.1579715 0.20044939 -0.07084435 -0.3326267 -0.009418079 -0.2289591 0.14989124 0.11210415
-0.0036678945 0.24192254 -0.12735893 -0.032596093 0.25969085 -0.03225613 0.36638105 -0.24231122
0.16602644 -0.08140856 0.048304737 0.28873956 0.20985028 0.04910506 0.07330332 0.07155872
0.3634271 0.28775534 0.068686046 0.17690082 0.086691506 -0.0035068584 0.06362419 0.047032494
0.019955883 0.3996315 -0.045238137 -0.4657771 0.16861808 0.07728931 0.053416945 0.23702605
-0.64374274 0.025502658 -0.26234424 0.24246526 -0.022005986 -0.21725772 -0.19234295 0.109952375
-0.23636995 -0.0658313 0.030976735 0.15067756 -0.20850933 -0.27703428 -0.12124224 0.22535875
0.15078698 0.030516276 -0.07104101 0.16937198 0.120439604 0.15921094 -0.28123102 0.29448798
0.13517821 -0.10419211 0.38112837 -0.01782976 -0.23333143 -0.070918955 -0.042266093 0.3917069
-0.117286965 0.110446304 -0.3627659 -0.2303384 -0.23774797 -0.16599368 -0.14110489 -0.42395717
-0.22483003 0.16056974 0.21141608 0.26355296 0.06514077 -0.22097152 -0.15686946 -0.07716911
0.24004248 -0.14490548 -0.08223846 0.17783764 -0.015202714 0.085384354 -0.36800185 0.17718408
0.10932258 -0.074684575 0.21757822 0.06641455 0.0728462 -0.23084319 -0.06170558 -0.35780928
-0.0019910024 0.49005818 -0.03573076 -0.3627859 -0.05522072 -0.0063773384 -0.088080995 -0.14263955
0.13364258 0.09591964 0.21768326 -0.07935269 0.610873 0.20635341 0.13580349 -0.008457213
0.004843179 -0.12625879 0.21202679 0.76931787 -0.21937686 0.21898888 0.10040708 0.09086539
-0.14736971 0.0790301 -0.19099188 -0.106737085 -0.047733314 0.09783426 0.33162552 0.124742225
0.01225798 0.17270581 -0.12840295 0.13731296 -0.41545445 0.09976367 0.1610047 0.04935545
-0.07045997 0.18408039 -0.096766904 -0.07229547 0.098763965 -0.018767538 -0.14328991 -0.066284575
0.05816709 0.21551156 -0.23607746 0.333644 0.080590464 0.117129736 0.044350192 -0.18571554
0.10712361 -0.24933724 -0.12617609 0.32214662 0.3187416 0.19011885 0.4052303 -0.18888266
-0.24031952 0.16533418 0.39198223 -0.078089 -0.4026983 -0.31398225 -0.15089625 -0.32992485
0.44591314 0.03992957 0.052444767 0.40598363 -0.17336805 0.057684757 0.11744387 0.4456178
0.16049477 -0.07446934 0.09312049 0.036245998 -0.26286224 -0.32358465 -0.046602234 0.016774124
-0.24283013 -0.2837663 0.23439434 0.15585428 0.08459301 0.26116464 -0.658907 -0.22190276
00000000: dd70 9b3c 33ce 2dbe 5a36 8a3d f516 e03d
00000010: df86 01be 0062 973e c2d1 8b3e bb00 123e
00000020: 4ee0 3fbe 6d97 483c 2886 e73d f7ef a83e
00000030: 8465 1e3e 28e6 0f3c a564 63be 52b5 023e
00000040: 950e 2f3e d326 88be fed9 a7bd dabd 293d
00000050: 1b84 0f3e 503f 19be eb3c ad3e 6879 083e
00000060: 2018 b63c 8b00 753e 9a99 fabd 4cb2 c6bd
00000070: 03e2 76be d16c 85bd 7e53 333d 90af db3d
00000080: 1c7b 6a3e 4b82 8fbd 3960 ecbd ec3f 18be
00000090: a3e4 c6bc 7764 09be 2015 c6bd 357d 403d
000000a0: 55fb 31be ca3b 60be c6bf 4f3e 5d9e d0bd
000000b0: 030b 843e ad1b 403e 3b77 0d3f d583 0c3d
000000c0: 0d6f 183e 1681 953e fd31 023c 900a 4c3e
000000d0: b05e b8bd b2fc 5e3e 7c59 4abe e1dc a2bd
000000e0: 48c3 213e 9b42 4d3e d816 91bd 0c4e aabe
000000f0: 494e 1abc 4174 6abe 177d 193e dc96 e53d
00000100: 0f61 70bb 8bba 773e 616a 02be 7b83 05bd
00000110: 33f6 843e 011f 04bd 4c96 bb3e 6f20 78be
00000120: d602 2a3e 88b9 a6bd 30db 453d acd5 933e
00000130: fee2 563e 6322 493d 0d20 963d 618d 923d
00000140: 1e13 ba3e ab54 933e 45ab 8c3d 7d25 353e
00000150: 518b b13d 52d3 65bb 664d 823d 25a5 403d
00000160: 857a a33c 809c cc3e a04b 39bd 567a eebe
00000170: 38aa 2c3e dc49 9e3d bacb 5a3d f5b6 723e
00000180: 53cc 24bf f3ea d03c fc51 86be d048 783e
00000190: e645 b4bc cf78 5ebe 8df5 44be b62e e13d
000001a0: f70a 72be 90d2 86bd ecc2 fd3c 384b 1a3e
000001b0: 7883 55be 70d7 8dbe da4d f8bd 72c4 663e
000001c0: e767 1a3e 45fd f93c f37d 91bd d96f 2d3e
000001d0: 0aa9 f63d 3108 233e 83fd 8fbe 21c7 963e
000001e0: 286c 0a3e ac62 d5bd 4223 c33e b80f 92bc
000001f0: 6fee 6ebe f53d 91bd 361f 2dbd cf8d c83e
00000200: 2634 f0bd ac31 e23d 74bc b9be d4dd 6bbe
00000210: 3474 73be 3ffa 29be cd7d 10be ea10 d9be
00000220: d839 66be 656c 243e 757d 583e 6af0 863e
00000230: 8668 853d 5c46 62be 63a2 20be d70a 9ebd
00000240: b2cd 753e 1a62 14be a36c a8bd 121b 363e
00000250: ce14 79bc fedd ae3d bd6a bcbe be6f 353e
00000260: 84e4 df3d 3af4 98bd d3cc 5e3e 5a04 883d
00000270: 6330 953d 2862 6cbe febe 7cbd c732 b7be
00000280: 7a7b 02bb e8e8 fa3e 6b5a 12bd 13bf b9be
00000290: 1f2f 62bd fef8 d0bb cf63 b4bd 1a10 12be
000002a0: 9ad9 083e 8471 c43d 5ce8 5e3e aa83 a2bd
000002b0: 2c62 1c3f 4f4e 533e 1210 0b3e 1f90 0abc
000002c0: 88b3 9e3b fc49 01be 8d1d 593e 04f2 443f
000002d0: 54a4 60be 9f3e 603e 3aa2 cd3d a217 ba3d
000002e0: 16e8 16be 88da a13d 6093 43be f998 dabd
000002f0: 0284 43bd 545d c83d d2ca a93e da78 ff3d
00000300: b2d5 483c cbd9 303e 107c 03be c59b 0c3e
00000310: 72b6 d4be e550 cc3d 6bde 243e f128 4a3d
00000320: 514d 90bd 927f 3c3e ba2d c6bd a60f 94bd
00000330: c344 ca3d 61be 99bc 97ba 12be 35c0 87bd
00000340: 9d40 6e3d 10af 5c3e 4abe 71be 63d3 aa3e
00000350: 9d0c a53d b7e1 ef3d 8ca8 353d 372c 3ebe
00000360: a063 db3d 4352 7fbe 4e34 01be 67f0 a43e
00000370: 1932 a33e 84ae 423e 597a cf3e 756a 41be
00000380: 5216 76be 5d4d 293e e5b1 c83e 20ed 9fbd
00000390: 792e cebe 48c2 a0be 8c84 1abe e9eb a8be
000003a0: ba4e e43e 308d 233d 53d0 563d 16dd cf3e
000003b0: 6587 31be da46 6c3d 6986 f03d 0428 e43e
000003c0: be58 243e 6283 98bd f5b5 be3d af76 143d
000003d0: e195 86be e3ac a5be fce1 3ebd e369 893c
000003e0: 76a8 78be d149 91be 1205 703e 4498 1f3e
000003f0: 1a3f ad3d 5fb7 853e 21ae 28bf 7a3a 63be

gru.bias_ih_l0 f4 [300]
-0.018785913 0.095473476 -0.030919563 -0.33769277 -0.1110672 -0.26111364 -0.33839422 -0.0019247755
-0.24915043 -0.20047024 -0.059867293 -0.06215796 0.30801788 -0.06413614 0.61002254 -0.12135825
-0.12416746 -0.09314935 -0.28853378 -0.118132025 -0.1076318 -0.35021052 0.2696671 -0.20545737
-0.4290556 0.48634544 0.057905503 -0.44888636 0.11832307 -0.020345058 -0.0042701485 -0.44596612
0.3987816 -0.19809651 0.17818175 -0.015306935 0.0059306147 -0.20035475 -0.19567393 -0.20849968
0.014609142 -0.16223912 -0.26384073 -0.0915568 -0.2853962 0.067200825 0.59232277 0.33072725
0.12523831 -0.16975415 -0.06056655 0.1033339 -0.097177446 0.46014923 -0.21421352 -0.15958327
-0.15510151 -0.03770801 -0.12277614 0.07917966 -0.3957809 -0.26118755 0.023387227 -0.4290501
-0.26184112 0.1125064 -0.2611579 -0.29358333 -0.1731616 -0.014219356 -0.052109145 -0.3184721
-0.008463057 -0.32776213 -0.1405737 0.51641375 -0.09848419 -0.4385761 -0.20430723 -0.45341426
-0.33503112 -0.26931533 -0.33759534 0.366266 0.22327365 -0.15840793 0.112757646 -0.14010024
0.11991655 0.2674862 -0.26792738 -0.05568793 -0.17128012 -0.51804954 -0.3346266 -0.185515
-0.09077278 0.1975483 -0.20963572 -0.40835565 0.07185779 0.054820366 -0.354334 -0.28842866
-0.3038422 -0.2577152 -0.14788985 -0.13712898 -0.5466306 -0.50064427 -0.34386986 -0.26002213
-0.25007534 -0.37648875 -0.50768155 0.057883047 -0.3879108 0.13407798 0.20646569 -0.24380942
-0.12147668 -0.19163075 -0.2591964 -0.29140446 -0.5738094 -0.22329724 -0.5932463 -0.25677815
0.20006628 -0.16321564 0.33816752 -0.32945037 -0.39103553 -0.25694752 0.13635868 -0.055379007
0.30131492 -0.08072769 -0.27022403 -0.23451364 0.03091874 -0.002731709 -0.12696354 -0.10334462
-0.27040306 -0.08571275 -0.23223189 -0.052182958 -0.2077069 -0.13914116 -0.37890744 -0.32954067
0.32725358 -0.33504045 -0.41814888 0.40941402 0.56743187 -0.5137805 -0.16379768 0.3173941
-0.20612888 -0.45400706 -0.32131702 -0.1515834 -0.26215455 -0.090851285 -0.39596567 -0.27357846
0.227565 -0.28836223 -0.36292356 -0.21000685 -0.27613756 -0.34180346 0.36278623 -0.6413929
0.14265254 -0.14388292 -0.14301492 -0.3584297 -0.3887819 -0.644107 -0.38209522 -0.38109893
-0.18951079 -0.33626541 -0.4823848 -0.5711519 -0.16717528 -0.5329212 -0.2154703 -0.27490705
-0.5252247 -0.20793532 -0.458129 -0.39046928 -0.2225286 -0.07540449 -0.17097668 -0.13064471
-0.1884381 -0.0387882 -0.32845882 -0.23647258 0.316883 0.14246218 -0.030744832 0.09412628
-0.13164173 0.1387898 -0.09668118 0.035691846 0.22605892 -0.0064215274 0.8005027 0.08645633
-0.11776498 0.09637223 0.08606144 0.012586933 0.063700914 -0.11978479 -0.25786772 -0.021598136
-0.004409524 -0.05154603 -0.12120226 -0.12654385 0.0067825797 0.06804656 -0.34562185 0.039330088
-0.43040732 -0.20359515 0.13786624 -0.13635133 -0.09203935 0.16192344 -0.14477518 -0.07823075
-0.01110871 -0.068464205 -0.17258617 -0.16001257 0.034859426 -0.07311383 -0.5646032 0.005413011
0.030656606 0.07613713 0.17250098 -0.2270102 0.062440883 -0.6794534 -0.14410554 0.0034462733
00000000: eae4 99bc 9987 c33d 064b fdbc 11e6 acbe
00000010: 3377 e3bd b0b0 85be 0242 adbe c048 fcba
00000020: 4a21 7fbe 1248 4dbe 6837 75bd 5899 7ebd
00000030: 85b4 9d3e cf59 83bd 702a 1c3f ad8a f8bd
00000040: 824b febd 16c5 bebd b3ba 93be 34ef f1bd
00000050: 106e dcbd cb4e b3be ce11 8a3e 6b63 52be
00000060: 2dad dbbe 4502 f93e 522e 6d3d 6fd4 e5be
00000070: 5e53 f23d aeaa a6bc 9aec 8bbb ac55 e4be
00000080: 1a2d cc3e d0d9 4abe 4775 363e f0c9 7abc
00000090: 9a55 c23b cc29 4dbe bf5e 48be f180 55be
000000a0: 2f5b 6f3c 0322 26be 2216 87be 2282 bbbd
000000b0: 731f 92be 96a0 893d 77a2 173f 1555 a93e
000000c0: 793e 003e 08d4 2dbe a114 78bd b9a0 d33d
000000d0: f804 c7bd ae98 eb3e ca5a 5bbe cc69 23be
000000e0: eed2 1ebe b773 1abd 0f72 fbbd f228 a23d
000000f0: cba3 cabe 60ba 85be 9296 bf3c 74ac dbbe
00000100: 0a10 86be c169 e63d 7db6 85be 8e50 96be
00000110: 4651 31be 4df8 68bc 6670 55bd c60e a3be
00000120: a2a8 0abc 70d0 a7be 8df2 0fbe b133 043f
00000130: 14b2 c9bd 0c8d e0be ea35 51be ea25 e8be
00000140: 3389 abbe b3e3 89be 4cd9 acbe 3887 bb3e
00000150: d9a1 643e b035 22be 7bed e63d 7076 0fbe
00000160: cf96 f53d f4f3 883e c72d 89be 0719 64bd
00000170: 0e64 2fbe e59e 04bf 2d54 abbe a5f7 3dbe
00000180: 14e7 b9bd 1a4a 4a3e bfaa 56be fe13 d1be
00000190: 2d2a 933d 528b 603d 446b b5be ecac 93be
000001a0: 3491 9bbe 3ff3 83be 7070 17be 8a6b 0cbe
000001b0: fcef 0bbf 392a 00bf b60f b0be 9f21 85be
000001c0: e009 80be 22c3 c0be 6bf7 01bf c616 6d3d
000001d0: 3f9c c6be bd4b 093e be6b 533e 2da9 79be
000001e0: c4c8 f8bd da3a 44be 64b5 84be f732 95be
000001f0: 2ce5 12bf 08a8 64be fdde 17bf 6d78 83be
00000200: 2dde 4c3e 0022 27be 4b24 ad3e b8ad a8be
00000210: cf35 c8be a08e 83be 9ca1 0b3e 19d5 62bd
00000220: f345 9a3e 8f54 a5bd ce5a 8abe 5824 70be
00000230: 4c49 fd3c 7906 33bb bb02 02be 58a6 d3bd
00000240: 4572 8abe 2b8a afbd 32ce 6dbe ccbd 55bd
00000250: 1eb1 54be 057b 0ebe 2800 c2be 8eb9 a8be
00000260: c88d a73e 6c8a abbe 9c17 d6be b79e d13e
00000270: 3743 113f 1e87 03bf 94ba 27be 7b81 a23e
00000280: 7313 53be 9d73 e8be aa83 a4be ae38 1bbe
00000290: 1f39 86be 3d10 babd 03bc cabe 7a12 8cbe
000002a0: cd06 693e 37a4 93be 1ed1 b9be 090c 57be
000002b0: e761 8dbe dd00 afbe 1ebf b93e 5332 24bf
000002c0: 8213 123e 0b56 13be 8172 12be 1984 b7be
000002d0: 6c0e c7be 32e4 24bf fca1 c3be 661f c3be
000002e0: 1e0f 42be fb2a acbe 24fb f6be 0337 12bf
000002f0: ff2f 2bbe 866d 08bf 3fa4 5cbe 9ec0 8cbe
00000300: 2075 06bf ffec 54be e28f eabe 97eb c7be
00000310: 8ade 63be ab6d 9abd 8314 2fbe bac7 05be
00000320: ebf5 40be 60e0 1ebd c12b a8be de25 72be
00000330: 7d3e a23e 9be1 113e 96dc fbbc 47c5 c03d
00000340: 17cd 06be ea1e 0e3e c800 c6bd 9d31 123d
00000350: fd7b 673e ad6b d2bb bfed 4c3f 0410 b13d
00000360: c42e f1bd ce5e c53d fb40 b03d 6c39 4e3c
00000370: a075 823d ba51 f5bd 3d07 84be 93ee b0bc
00000380: c57d 90bb ee21 53bd e438 f8bd b694 01be
00000390: 6740 de3b ff5b 8b3d 59f5 b0be 9618 213d
000003a0: 595e dcbe 3f7b 50be cf2c 0d3e af9f 0bbe
000003b0: 207f bcbd 42cf 253e f23f 14be 7237 a0bd
000003c0: 4f01 36bc f636 8cbd 6eba 30be 56da 23be
000003d0: c2c8 0e3d b4bc 95bd d689 10bf a15f b13b
000003e0: 9023 fb3c c9ed 9b3d 19a4 303e 5d75 68be
000003f0: 03c2 7f3d a8f0 2dbf 6790 13be dfda 613b

gru.bias_hh_l0 f4 [300]
-0.021574413 0.0981409 -0.049601275 -0.35850698 -0.12841411 -0.25657466 -0.35493803 0.023519607
-0.24127233 -0.22723131 -0.121751554 -0.09138726 0.30172384 -0.027274167 0.6334144 -0.09887546
-0.13554436 -0.10101646 -0.26766786 -0.16613181 -0.09775455 -0.34725213 0.32130238 -0.19194952
-0.39000258 0.45971096 0.067473166 -0.47199583 0.09279361 -0.005501341 0.011621293 -0.45695382
0.33913648 -0.122023106 0.17062195 -0.059554532 -0.00013619456 -0.14053787 -0.19714832 -0.16477078
0.032688744 -0.1565007 -0.22785148 -0.09928315 -0.30683142 0.05186627 0.5908451 0.31945184
0.1382893 -0.16387184 -0.03485429 0.14417613 -0.10232751 0.47246554 -0.27946287 -0.12966348
-0.13724764 -0.011064492 -0.14641625 0.051202103 -0.37371618 -0.27933264 -0.011617895 -0.43377945
-0.3304385 0.1296448 -0.22919042 -0.3129364 -0.11842838 -0.014209627 -0.072828315 -0.280141
0.019083938 -0.34277445 -0.122999765 0.492252 -0.11094693 -0.44210252 -0.24727827 -0.4532068
-0.26534957 -0.25707838 -0.35433805 0.33875573 0.22210696 -0.15604952 0.123872235 -0.13208395
0.111826 0.2589182 -0.3111852 -0.111521505 -0.20363806 -0.4828455 -0.35738757 -0.18055885
-0.077373564 0.19242585 -0.2604015 -0.42777607 0.14398517 0.042783488 -0.36977008 -0.3590528
-0.39021236 -0.24768282 -0.15101394 -0.04836181 -0.55471253 -0.54210055 -0.38809362 -0.20469
-0.21618512 -0.36806327 -0.5076953 0.12859926 -0.29740793 0.12714864 0.20429592 -0.2056067
-0.08539913 -0.22734441 -0.22095306 -0.2967597 -0.61432004 -0.15540554 -0.6389579 -0.19918026
0.23627089 -0.17222625 0.3307491 -0.29876944 -0.40743348 -0.18736602 0.13075243 -0.004666669
0.27405322 -0.011119289 -0.32278088 -0.20157774 -0.011997775 0.05028735 -0.079395756 -0.13945368
-0.3534536 -0.13654737 -0.24097224 -0.046870608 -0.22603099 -0.16421846 -0.3885232 -0.34550908
0.2743461 -0.2891032 -0.38593876 0.45266855 0.5716185 -0.6115868 -0.098292276 0.33105728
-0.1606341 -0.409144 -0.32446584 -0.18030976 -0.24221765 -0.15034914 -0.37252393 -0.23322634
0.20919728 -0.28213668 -0.3187892 -0.30167878 -0.28552446 -0.29333964 0.34353557 -0.62028587
0.21460028 -0.1850942 -0.13610578 -0.4062337 -0.36411923 -0.6447194 -0.3833129 -0.45313737
-0.18102878 -0.27910176 -0.53609127 -0.56639546 -0.10539569 -0.4665644 -0.21507186 -0.28604904
-0.51020986 -0.2692237 -0.43623555 -0.4151318 -0.22176313 -0.097644806 -0.17204572 -0.12249723
0.10168545 -0.2176553 -0.27025515 -0.08112019 0.69475704 0.07844142 -0.15390217 -0.39767364
-0.32484615 -0.33960804 -0.200058 0.39119285 0.24955171 -0.55453795 0.39931148 0.09725069
-0.10084645 0.3065302 -0.1097128 -0.45660272 0.11308185 0.07089148 -0.5093572 -0.28382567
-0.34794238 -0.33040166 -0.25691956 -0.06713256 0.14701553 0.33552295 -0.1461132 0.13344021
-0.5100302 -0.19854246 0.52863353 -0.036055297 -0.02149098 0.40960693 -0.39487538 0.035558194
-0.23308358 0.05908738 -0.5117648 -0.16094965 -0.016719135 -0.49037305 -0.11526566 -0.22530639
-0.6773788 -0.5300403 0.27854466 -0.68628097 0.08818211 -0.3976208 -0.3531889 -0.12914829
00000000: d3bc b0bc 19fe c83d b52a 4bbd 3a8e b7be
00000010: fd7e 03be c15d 83be 70ba b5be 31ac c03c
00000020: 1810 77be 53af 68be e158 f9bd 3e29 bbbd
00000030: 8c7b 9a3e 136e dfbc 7227 223f 387f cabd
00000040: 24cc 0abe b8e1 cebd c30b 89be 751e 2abe
00000050: 8a33 c8bd 08cb b1be bf81 a43e 6a8e 44be
00000060: 6bae c7be 3c5f eb3e 5f2f 8a3d 70a9 f1be
00000070: 940a be3d 9844 b4bb 3c67 3e3c daf5 e9be
00000080: 4ca3 ad3e 40e7 f9bd 85b7 2e3e 74ef 73bd
00000090: 73cf 0eb9 29e9 0fbe 40e1 49be acb9 28be
000000a0: a2e4 053d b841 20be e651 69be f754 cbbd
000000b0: 0219 9dbe ba71 543d a041 173f 318f a33e
000000c0: b69b 0d3e 05ce 27be 5fc3 0ebd e8a2 133e
000000d0: 1691 d1bd 01e7 f13e c215 8fbe 81c6 04be
000000e0: a58a 0cbe d847 35bc 24ee 15be 4cb9 513d
000000f0: ba57 bfbe b004 8fbe fc58 3ebc 5718 debe
00000100: 3c2f a9be 9bc1 043e e5b0 6abe 3339 a0be
00000110: 948a f2bd 7fcf 68bc 0327 95bd a46e 8fbe
00000120: eb55 9c3c 2280 afbe 4de7 fbbd 7408 fc3e
00000130: 2538 e3bd 435b e2be 8436 7dbe b90a e8be
00000140: e6db 87be c79f 83be cc6b b5be 6471 ad3e
00000150: 0270 633e 72cb 1fbe bab0 fd3d 0441 07be
00000160: 0805 e53d ed90 843e ab53 9fbe 6365 e4bd
00000170: 7f86 50be 8637 f7be 81fb b6be 6be4 38be
00000180: 0876 9ebd 480b 453e 5853 85be 7705 dbbe
00000190: d970 133e bd3d 2f3d 8152 bdbe c5d5 b7be
000001a0: eac9 c7be 91a0 7dbe 66a3 1abe 0917 46bd
000001b0: a401 0ebf 1ac7 0abf 35b4 c6be 419a 51be
000001c0: a25f 5dbe ca72 bcbe 52f8 01bf 86af 033e
000001d0: da45 98be 4133 023e f332 513e 908a 52be
000001e0: bde5 aebd f9cc 68be 8541 62be e3f0 97be
000001f0: 1444 1dbf a122 1fbe bf92 23bf e9f5 4bbe
00000200: fff0 713e 145c 30be f257 a93e 4ff8 98be
00000210: 1f9b d0be e1dc 3fbe f7e3 053e dbea 98bb
00000220: b450 8c3e ae2d 36bc 8943 a5be 656a 4ebe
00000230: 5192 44bc 1cfa 4d3d 3e9a a2bd f2cc 0ebe
00000240: dff7 b4be 13d3 0bbe 6dc1 76be 65fb 3fbd
00000250: ab74 67be e228 28be 83ec c6be 91e6 b0be
00000260: 1877 8c3e 5605 94be c499 c5be 2cc4 e73e
00000270: 9755 123f f490 1cbf 764d c9bd 5780 a93e
00000280: 447d 24be 537b d1be 6320 a6be 1fa3 38be
00000290: e707 78be 20f5 19be 75bb bebe e3d2 6ebe
000002a0: d037 563e 3874 90be 5738 a3be a475 9abe
000002b0: 4330 92be 9d30 96be e5e3 af3e 0ecb 1ebf
000002c0: 2dc0 5b3e 5589 3dbe 505f 0bbe ddfd cfbe
000002d0: d66d babe 550c 25bf 9741 c4be 9f01 e8be
000002e0: 9c5f 39be 6de6 8ebe 473d 09bf 4bff 10bf
000002f0: b2d9 d7bd 87e1 eebe cc3b 5cbe 0575 92be
00000300: 1d9d 02bf b0d7 89be 445a dfbe 288c d4be
00000310: e015 63be 00fa c7bd c12c 30be d4df fabd
00000320: 7640 d03d 08e1 5ebe e25e 8abe 5822 a6bd
00000330: 99db 313f e5a5 a03d 8898 1dbe e19b cbbe
00000340: 3c52 a6be 1be1 adbe 01dc 4cbe 6e4a c83e
00000350: 7c8a 7f3e 33f6 0dbf 8e72 cc3e 5f2b c73d
00000360: 9588 cebd 87f1 9c3e 1bb1 e0bd d5c7 e9be
00000370: 7597 e73d 8d2f 913d 3c65 02bf 9951 91be
00000380: 8125 b2be 682a a9be f68a 83be cc7c 89bd
00000390: 3d8b 163e aac9 ab3e b39e 15be 8da4 083e
000003a0: 5791 02bf b74e 4bbe 8754 073f b8ae 13bd
000003b0: da0d b0bc 00b8 d13e 1b2d cabe 78a5 113d
000003c0: 76ad 6ebe 9c05 723d 0503 03bf fccf 24be
000003d0: 91f6 88bc 2d12 fbbe 6710 ecbd b8b6 66be
000003e0: b268 2dbf b9b0 07bf 689d 8e3e 1cb0 2fbf
000003f0: d298 b43d f494 cbbe 2dd5 b4be 733f 04be
