modules/prn_gen/exp/en/models/unigram/train-encoder-wdecay_1e_5-attn_dot-emb_32-hddn_100-layers_1-epoch_78.pth (torch, 167366 bytes, 5 tensors)

embedding.weight f4 [32, 32]
00000000: 7164 0580 9b63 0580 c661 0500 2261 0580
00000010: 005f 0500 1b7b 0600 5d61 0580 a960 0500
00000020: df5a 0500 8f65 0500 c758 0500 d757 0500
00000030: 1b5d 0580 945a 0500 6965 0580 eb58 0500
00000040: df64 0580 0a5b 0580 ad5f 0500 cf5c 0580
00000050: 626b 0500 1159 0580 1e58 0580 b15a 0500
00000060: 8167 0580 5e66 0500 d159 0500 145e 0500
00000070: 9f5e 0580 e35c 0500 0360 0500 4e59 0500
00000080: e309 9dbc 6cc4 013f 2466 83bf 478f 02bf
00000090: 78ef 343f 15fb f43d 67e8 9b3e 35c4 bfbf
000000a0: 44d6 763f 6672 8a3d 00aa 513f 7eec 81bd
000000b0: e36a 64be 57f1 cc3e 9595 5fbe eaa9 20bf
000000c0: 2efa 0d3f afd0 643e adf7 39bf fb64 14bf
000000d0: dd95 373d a092 653e 6edb 23bf b1e6 ddbe
000000e0: cf5a 103f 8513 7dbe fb85 853f 0659 e73e
000000f0: 3c42 1abf 702e 1dbf d42a f0bd 81c6 c8bc
00000100: 22c3 733f b192 3bbf a7a6 23be 759c 80bf
00000110: c5a8 c93f 3606 9bbe 8786 41bd 9a82 3c3f
00000120: a9ae 273f 371e b03e c515 833d 7cd6 b03e
00000130: 968d d43f 016f 7abf 336e be3d 4b7a 7cbd
00000140: 44cb 6e3e dc56 893e 704e 47bd 2a5b 07be
00000150: e0a9 2ebf 5e2c 563f fcc5 dcbf bbd2 29be
00000160: d318 44bf 5da3 93be eeec 213e 43b3 4cbf
00000170: 0d94 c6be 7ec1 0b3e 36ca 1e3f dc11 98bf
00000180: a763 0580 336a 0500 d161 0500 3f62 0500
00000190: 0363 0580 ff61 0500 fe60 0500 0863 0500
000001a0: 4476 0580 0e5d 0500 d55e 0500 a660 0580
000001b0: 005e 0500 825c 0580 c05b 0580 7f65 0500
000001c0: c95f 0500 f161 0500 6a5d 0580 5160 0500
000001d0: 4466 0500 c857 0580 8560 0500 2b59 0580
000001e0: 235f 0580 195e 0580 e860 0580 0e63 0580
000001f0: 6862 0580 3c59 0580 3263 0580 da42 0680
00000200: 6823 453f 9967 823f 4c14 f03d c766 27bf
00000210: ad24 44bf 3b23 8f3e dfdc 04bf ede3 2fbd
00000220: 762d 943e cacc b33f 49d4 5b3f 0e66 633d
00000230: 90a8 b33f 5b3c 24bf 218e 243e 68db acbe
00000240: 3302 003f 2832 d73e f769 33bf 718a 80bf
00000250: 604d b5bf 3ccd 543f de5a 5abf f321 e33e
00000260: a237 1c3f ef58 f7be 8cd4 4b3f 7ac8 17bf
00000270: 9b61 48be a5fa c3be 4dec 353f 1759 623f
00000280: 3236 7fbb 3d45 3e3d 97e5 d7be b441 5dbe
00000290: 5f0f abbf 7ae9 e4be cf52 6abf 4cd1 cc3e
000002a0: ce93 f83d 92e2 1dbe 5334 823e f97c 123f
000002b0: d1f0 363f 47b9 953e efaa e13c ef4d 0a3f
000002c0: 9d39 eb3e db93 5ebf 9f89 9dbd 797c dfbe
000002d0: 4f23 21bf fbc3 0bbf ebb4 f0bc 0637 103f
000002e0: d0f5 b33e 9455 09bd d66b 823f a519 bf3d
000002f0: adda 1c3e 7c45 623c 8e05 313f 43e0 04be
00000300: 6a71 e5bb 2d7f 86bd a02e ffbb 9f29 42bd
00000310: 1f7d a9be acee dabe 506d a43d 7926 ddbe
00000320: 2299 93bf 5f23 b1bf 8f0f b5be 447e 82bf
00000330: c486 e1be 3020 58bf 5a84 a7be fa42 dfbd
00000340: 4773 323e 0407 8e3e fccb c23d 7409 88bf
00000350: 4225 8f3e 43c3 cbb9 b7d4 c8be 111b cdbe
00000360: a55f 2c3f 7465 94be d53f fcbd 62e8 2abf
00000370: 1d9a 8e3f c47c f83e bbe3 2cbe 74bf 653e
00000380: 503f 123f 3e26 ccbc f0d3 893f a283 a43f
00000390: 8f3b 6cbe a7c9 413f f22b 023f e238 62bf
000003a0: 5c5e 5dbe 2676 06be dc53 b53e fb81 083f
000003b0: c7c0 54bf eca6 dbbf 6a7e 3abf f9e2 44be
000003c0: 7f1b da3e 6a6c 8dbe 44d0 86be d745 42bf
000003d0: 2544 573e a818 f9be 35a4 ce3e 5d80 adbf
000003e0: 136b 543d e9b3 cd3e f619 1bbf cb5f 8bbe
000003f0: 7556 92bf 7ce1 2cbe 96ab 58be b25c 11bf
-4.95209e-40 -4.94909e-40 4.94252e-40 -4.94022e-40 4.93257e-40 5.95175e-40 -4.94105e-40 4.93853e-40
4.91776e-40 4.9561e-40 4.91025e-40 4.90688e-40 -4.92577e-40 4.91671e-40 -4.95557e-40 4.91075e-40
-4.95363e-40 -4.91836e-40 4.935e-40 -4.92471e-40 4.97699e-40 -4.91128e-40 -4.90788e-40 4.91711e-40
-4.96308e-40 4.959e-40 4.91398e-40 4.92926e-40 -4.93121e-40 4.92499e-40 4.9362e-40 4.91214e-40
-0.019169753 0.5069034 -1.0265546 -0.50999874 0.706779 0.119619526 0.30450746 -1.4981753
0.96420693 0.06760101 0.81900024 -0.063439354 -0.22306399 0.40027878 -0.21834405 -0.6275927
0.5545987 0.22345231 -0.7264355 -0.57966584 0.044820655 0.22419214 -0.640067 -0.43340066
0.5638856 -0.24714477 1.0431513 0.45185107 -0.60257316 -0.61398983 -0.11726919 -0.024508717
0.95219624 -0.7327071 -0.15981542 -1.0047747 1.5754629 -0.30278176 -0.047247436 0.7363678
0.65500885 0.34398052 0.064006366 0.3453864 1.6605709 -0.9782563 0.092983626 -0.061640065
0.23319727 0.2682408 -0.04865879 -0.1321837 -0.6822796 0.8366145 -1.724792 -0.16584294
-0.7660038 -0.28835574 0.15813038 -0.7996103 -0.3878483 0.1364803 0.620273 -1.188045
-4.94926e-40 4.97275e-40 4.94267e-40 4.94422e-40 -4.94696e-40 4.94332e-40 4.93972e-40 4.94703e-40
-5.01603e-40 4.92559e-40 4.93197e-40 -4.93848e-40 4.92898e-40 -4.92363e-40 -4.92091e-40 4.95587e-40
4.93539e-40 4.94312e-40 -4.92688e-40 4.93729e-40 4.95863e-40 -4.90667e-40 4.93802e-40 -4.91165e-40
-4.93306e-40 -4.92933e-40 -4.93941e-40 -4.94712e-40 -4.94479e-40 -4.91189e-40 -4.94762e-40 -5.74995e-40
0.7700715 1.0187865 0.11722621 -0.653912 -0.7661846 0.27956566 -0.5189952 -0.042941976
0.28940934 1.4046872 0.85870796 0.05551725 1.4035816 -0.64154595 0.16069843 -0.33761144
0.50003356 0.42030454 -0.70083565 -1.0042249 -1.4164238 0.8312566 -0.852949 0.4436184
0.6102239 -0.48310038 0.79621196 -0.5929028 -0.19568484 -0.38277164 0.7106369 0.8841719
-0.0038942215 0.04645275 -0.4216735 -0.21607095 -1.3364066 -0.44709378 -0.91532606 0.4000343
0.121375665 -0.15418461 0.25430545 0.57221943 0.71461207 0.29242918 0.027547328 0.5402517
0.45942393 -0.8694436 -0.07692265 -0.43649653 -0.629445 -0.5459592 -0.029383143 0.5633396
0.35148478 -0.03352888 1.0189159 0.09331063 0.15317793 0.013810512 0.691491 -0.12976174
-0.0070020454 -0.065672256 -0.0077875406 -0.047402974 -0.33103272 -0.42760217 0.08028662 -0.43193415
-1.1531107 -1.3838919 -0.35363433 -1.0194783 -0.4404813 -0.84424114 -0.32718164 -0.10901447
0.17426787 0.27739727 0.09511563 -1.0627885 0.27958113 -0.0003886466 -0.3922479 -0.40059713
0.6733344 -0.28983653 -0.123168625 -0.6676084 1.1140782 0.4853269 -0.16883747 0.22436315
0.5712786 -0.024920579 1.0767803 1.2852671 -0.23069595 0.7569832 0.50848305 -0.88368046
-0.21618026 -0.13131008 0.35415542 0.53323334 -0.83106655 -1.7160316 -0.7284914 -0.19227208
0.42599103 -0.27621776 -0.2633077 -0.7588782 0.21022089 -0.48651624 0.40359655 -1.3554798
0.051859926 0.40176323 -0.6058649 -0.27221522 -1.1432635 -0.1688289 -0.21159205 -0.56782067

gru.weight_ih_l0 f4 [300, 32]
00000000: 2b2b 03be aca9 c03d ef86 d83d 262d b7bd
00000010: 7981 6f3d 29c8 213d ae04 523e ede5 443d
00000020: a87a e8bd aa9d 54bd 00dc 773e 354e b73e
00000030: eefa 653e 94aa 0b3f f860 b93d aa8c 843e
00000040: 17d9 b7be 161f 86bd ebe8 923c 23a4 d23e
00000050: 8a35 02be 107a be3d f941 a6be 82a8 f1bc
00000060: d752 373e 391a f7be 12e2 97be 4ce7 6c3e
00000070: d297 c23e b2ef 52be 2b8d c7bc c1d4 d33e
00000080: fc36 92be d3b1 0b3c 1683 7b3d d381 8dbe
00000090: e217 9f3e b463 44be 2332 643b 9355 01be
000000a0: b18c 5c3e 352f f43e 087c 283e dd98 433e
000000b0: 850e ac3e 62ca f23e 16e3 ba3d 0d99 18bf
000000c0: 629a 083e 992a dfbe 1dcc 413d a356 e23d
000000d0: f2c1 acbe 7e46 53be 9b6d 003e 16f1 3d3e
000000e0: 24ce e73e 3957 9fbe addc 1fbe 75ed 5bbe
000000f0: b161 01be cdc6 8bbe f8a4 fa3e 2739 213d
00000100: 928d a7bd 1a21 9e3d ba97 fe3e aff2 0abf
00000110: 1883 2bbe 7c0b ae3e 7188 35bd b007 383d
00000120: ef5a 823e 599d 003e 3720 953e cde5 af3e
00000130: 3914 45bf 8fc1 8b3e bb85 8e3d ec36 1a3e
00000140: e452 d73c 2bcf 08bd 93ff d83d 34e6 61be
00000150: 8ec7 573c f03a a03d e0a6 41be 68c6 d53e
00000160: 9b21 783d a7aa ec3e edc8 803e d864 3dbe
00000170: def3 503e a0ce 86bd 7b9d 8e3e b414 9cbe
00000180: e93d 853e ec8c 813e c2b1 a3be 1154 8bbe
00000190: c555 a83e 48a4 413e 98aa bcbe cb1a 29be
000001a0: 92ce 003f 8550 0c3d 2e7b 47bd e5ec db3d
000001b0: 9fd4 ec3e d5a2 75be 33d9 dcbe f23b 26be
000001c0: 8528 58bd 4b4f 73be af86 623e 7171 2f3d
000001d0: 3be4 07bd 4861 d23e 4b44 a2be ee00 50be
000001e0: dfbf 9dbd 7903 07bf 38da 68be 5979 113e
000001f0: ccc2 16be f162 8b3d b4dd 1bbe 63e9 023d
00000200: f475 1d3e 9150 713e 3552 d7bd 2d0f 7ebe
00000210: 6f92 c8bd d622 e1bd 3b95 993d 3f0b 02be
00000220: 142b a6bb 370e bfbe 282a cf3e b9c1 303e
00000230: f999 03be d71e d23d c10c 413e 5408 80be
00000240: b9c0 f43d cfd7 a0be 47e0 d7bd 2723 92be
00000250: e719 74bf 034a 2ebe a227 833e 61bc 1a3e
00000260: e3a1 98bb 2655 483b 15d1 d33d a30e 05bd
00000270: a63a 693d 3382 aabd 9bce 6e3e 56dd 9b3e
00000280: 129b efbd eeb4 ca3e 39b0 8b3e a629 be3c
00000290: 266d 2a3e eb30 eabd d3ee bd3d 6c9b 983e
000002a0: 37dc 8bbe a4ed 2dbf ea3e c3be d381 3ebe
000002b0: 93ff 38be 496b 16be 3eed 683e eab5 a2be
000002c0: 382f cebe bb15 b3bd 0574 21bd 80cb 6e3e
000002d0: 7c5c 103e 095d 82be d670 a83e 03d5 87be
000002e0: 9e78 21be b62f 443d 6d42 26be a420 03bf
000002f0: 3e3f c43d 49cb 283c 2a5d 113e 8cf9 1dbb
00000300: 8bf6 053e 4594 5dbd a0a2 7f3e fd15 183d
00000310: b46e 173e 1b7f f73d 52a6 adbe 91de 2cbe
00000320: 7db8 a7bd 64fc 35be 9782 eebd ce30 88bc
00000330: 31e8 b1be 4686 b43d c5b2 91be c80c ccbe
00000340: 90cb 78ba 7309 84be 673a 723e b56a 8c3e
00000350: 0dd6 83be c4c4 8ebd 62ee a3be 8c25 023e
00000360: 7816 413e 1e1a 87bc fc84 6cbe 6bfb 1ebe
00000370: 2c72 6fbd 5a7b c53d 47bb 0bbd 4586 613e
00000380: 2952 12be e7ba eabd caed a33e 9afa 883d
00000390: f321 143e 2ec9 c83d 370b 853e 8b5a b9be
000003a0: 9fe5 02bc 06f5 cb3d 85e9 30be e13a c33c
000003b0: 461a 433d d2fc 9ebe 7608 8a3e 797f a4be
000003c0: 873c a63d 753b c6bd 26bf a1be fa06 003e
000003d0: 0cac bd3e 4717 80be 6f6f d03d 7457 6dbd
000003e0: 8b7c 323e 2a57 393d f1a1 013e a26e 6a3e
000003f0: 1647 033e 2e72 5d3e 0843 3fbe 3ae1 8b3e
-0.12809436 0.09407362 0.105726115 -0.08944158 0.058473084 0.03949753 0.20509598 0.048070837
-0.1135152 -0.051908173 0.24205017 0.35801855 0.22459003 0.54557157 0.090516984 0.25888568
-0.35907814 -0.06548898 0.01793333 0.4114085 -0.12715736 0.09300625 -0.32472208 -0.029499296
0.17902695 -0.48262194 -0.29664665 0.23135108 0.38006455 -0.20599249 -0.024359306 0.41373256
-0.28557575 0.008526283 0.06140431 -0.2763811 0.3107291 -0.19178659 0.0034819923 -0.126303
0.21538045 0.47692266 0.16453564 0.19101281 0.33604828 0.4742003 0.091253445 -0.59608537
0.13340142 -0.43587187 0.0473138 0.11051681 -0.3374172 -0.2063236 0.12541811 0.18548998
0.4527446 -0.31121233 -0.15611525 -0.21477301 -0.12634923 -0.2730011 0.48953986 0.039361145
-0.08181299 0.07721157 0.49725133 -0.54276556 -0.16749227 0.33993137 -0.044319574 0.044929206
0.25460002 0.12560023 0.2912614 0.34355012 -0.7698398 0.2729611 0.06959101 0.15060014
0.026284643 -0.033400696 0.10595622 -0.22060472 0.013170136 0.078237414 -0.18911314 0.41752934
0.060578924 0.46223947 0.25153294 -0.184955 0.20405528 -0.06582379 0.27854523 -0.30484545
0.26023796 0.25302827 -0.31971556 -0.27212575 0.32877937 0.18910325 -0.36848903 -0.16514127
0.503152 0.034256477 -0.048701458 0.107385434 0.46255967 -0.23987897 -0.4313446 -0.16233805
-0.052773017 -0.23760717 0.2212169 0.042832796 -0.033176642 0.41089845 -0.31692728 -0.20312855
-0.07702612 -0.52739674 -0.22739494 0.14206447 -0.14722747 0.06805981 -0.15221292 0.031960856
0.15377027 0.2356589 -0.105137266 -0.24810477 -0.09793555 -0.109929726 0.074991666 -0.12699603
-0.0050710533 -0.37315533 0.4046185 0.172614 -0.12851705 0.102597885 0.18852521 -0.25006354
0.119508214 -0.3141465 -0.105408244 -0.28542444 -0.95352024 -0.1702042 0.25616175 0.15110923
-0.0046579703 0.003056833 0.103426136 -0.03248466 0.056940697 -0.08325615 0.23321001 0.30442303
-0.11699499 0.39591163 0.27282885 0.023213219 0.166432 -0.114351116 0.09274068 0.29806077
-0.27316448 -0.67940736 -0.38133937 -0.18604212 -0.18066244 -0.14689364 0.2274675 -0.31779414
-0.402704 -0.08744379 -0.039417285 0.23319817 0.1409778 -0.25461605 0.32898587 -0.26529703
-0.15768668 0.047897063 -0.16236277 -0.5122168 0.09582375 0.010302373 0.14195696 -0.002410504
0.1308233 -0.05409648 0.2496438 0.037130345 0.14788324 0.1208479 -0.33915955 -0.16881777
-0.08189485 -0.1777206 -0.11646002 -0.016624834 -0.3474746 0.08814673 -0.28456703 -0.398535
-0.00094907824 -0.2578846 0.23655091 0.2742516 -0.25749245 -0.06971124 -0.3201781 0.12709635
0.18856227 -0.016491946 -0.23097605 -0.15525596 -0.058458492 0.09642668 -0.03411415 0.22023876
-0.14289154 -0.1146143 0.32017356 0.066884235 0.14466076 0.09803997 0.2598512 -0.3620189
-0.007989316 0.09958844 -0.1727658 0.023831787 0.04763248 -0.31052262 0.2695958 -0.32128504
0.081170134 -0.09679309 -0.31591147 0.12502661 0.37045324 -0.2501776 0.10177504 -0.05794473
0.17430322 0.04524914 0.12659432 0.22893766 0.12820086 0.21625587 -0.18677914 0.27320272

gru.weight_hh_l0 f4 [300, 100]
00000000: a9d4 19be 9ae4 9e3d 7e32 2abd 2ced 61be
00000010: d526 483d 38dd 61bd e79b 00be 0c07 363d
00000020: 3c1b dfbc 503b c5be 5e70 553e 2725 743e
00000030: 5028 98bb a508 a4be 2436 c83d 896f 553e
00000040: fbca 55be 3cbd aabd 1735 853e 6ba8 41be
00000050: 0102 b63e d3c4 61bc d79f 40be 041e b53e
00000060: fddb 1e3e 5b94 c53d 4f7e 19be 912a bebe
00000070: 84c3 943e a2e1 82be 53d3 903e 8cf4 8c3e
00000080: 0b0a 7f3e c5cb 7abe 6c04 8cbe e139 f4be
00000090: 385f 593d 0423 bcbe 90c2 903e b640 fe3b
000000a0: 71b3 c2bd 5d8a 60bf 6aba 2b3e 5803 aabd
000000b0: c461 413e 5e48 62be 0a1b 84be 9b5b 91bd
000000c0: 1069 fc3c 262d 2bbd 0b4c 83be 0266 823e
000000d0: 3a23 6ebd 48e9 57bd 2231 fcbc 6d48 913d
000000e0: 5ffa 0a3e 463d a13e f55b 98be 5e25 053e
000000f0: b095 d7bd e380 68be 8bdc a03e a673 35bd
00000100: cd92 20be dc70 2a3e c5e4 6a3d fd6d 4b3d
00000110: 2ba3 173f ba43 1c3e e49b b63e 2714 203e
00000120: a5af 6ebe 52c3 e8bd 9b4d e8bb 8e54 503e
00000130: 80a4 ed3c 1e38 973e 4e5f 993e d35f ab3e
00000140: 55e6 12bd 1e78 20be a8b5 5c3e 1054 833c
00000150: 274f 013f 0072 3bbe 27aa d3be 3fd7 6bbe
00000160: 93b4 5b3e 7368 2fbe abca 7b3e f4dc 75bd
00000170: 8d7e f9bd 21a3 483d fb67 8bbd 308a 283e
00000180: 7ce4 513c 8ed4 0fbd c096 873d 8769 153d
00000190: ca3f 61be 6140 163e d031 20b8 2d08 b73d
000001a0: 100f 683e 17ee 753e 6c0a 5b3e ec0a 30be
000001b0: d3f0 823d 48ee 933e a1a7 0fbd 8d3e eb3e
000001c0: 906f 813c c3c6 d13d f519 b6bd d351 793b
000001d0: 98b6 653e 1305 5b3e e086 cc3e ccea 5a3d
000001e0: b7fb cb3d 5ce6 c03d 07e7 f83e b407 68bd
000001f0: c434 24be 2b42 a6be f513 d53a 1be0 0cbe
00000200: cf9b bb3d 8a3f 623e 95ff 7abe eecc 4f3e
00000210: 58bb 083c bd4a 88be 414d 323e 8caf 4f3e
00000220: 3f0a fe3d 14c9 0cbe febc bebb c529 c2be
00000230: 632c 13be a644 613b f3c8 33ba b5b1 c4bd
00000240: 0f6f 0fbd 6237 cdbd 6381 433e bbdb 42bd
00000250: 7ef9 f8bd 0ac0 a3bd 836f a53d 8e81 963e
00000260: 76d4 22be d0e0 7f3e 50d6 95be cf22 c03d
00000270: 2562 e5bd e20c e9bd 705b 0d3d 0590 773d
00000280: 559e 06bd 5407 803e 80af b6be 007d 4abd
00000290: cd3f c8bd de75 47be 5222 993e 8d40 11be
000002a0: 76e7 e53e 2a84 e03d a766 623d b0f2 d13e
000002b0: 7041 afbd 5d45 5ebe 882a 1fbe 2c06 503d
000002c0: c1b6 653e 121b 9bbc db63 193e ace3 a2be
000002d0: ec85 953b a70c 083d 1e44 a53e 3d0c bc3c
000002e0: 61bf 153e 0ad8 9dbd 5faf 143e c67c 73bd
000002f0: 5f41 18bd 8afb 49be 2b11 293d 0e66 253e
00000300: 86fc c03b a94a 7cbe e4f1 243e 78d3 8ebe
00000310: b54e 173e 0d2e b53e ed9a 04be 1cce e63d
00000320: 0b35 e9bd 8804 713c 716d ddbe 436f f73d
00000330: afd0 7a3e ac97 913d 3a95 303e 4756 e53d
00000340: cf71 6bbe 523d 65bc 9c4a f23d 1967 7cbc
00000350: 173c 34be 82b3 25bc 3397 bbbe e599 d1bc
00000360: 3a3a 8bbd 112b d4bd 4964 2fbe 7835 ff3e
00000370: 9788 fb3d bb5b 8cbe 8361 413e e822 0a3f
00000380: c7da e83d dbdb 81bd 09d4 213e 82fb d3be
00000390: 73a7 9d3e 8db4 253e 82cd 993d 8ffa cc3d
000003a0: 663c c1bc b9c6 27bd 50a5 373c a2bc 233e
000003b0: 52ac 153e 9d7b 17be 6030 bebe 0b17 8d3d
000003c0: 09f7 4dbe 97bb 383e 3c0b 34be 4545 b0bd
000003d0: 063c 96be e73f e7be db21 2e3e bd8a e83c
000003e0: 8f40 07bb 1391 79be abc3 40bd b698 ca3e
000003f0: dc5e aebe acbb 193e cb71 a4bd 9fe9 febc
-0.1502253 0.07758446 -0.04155206 -0.2206313 0.048865158 -0.05514261 -0.12559472 0.044440314
-0.027234666 -0.38521814 0.20843646 0.23842297 -0.0046434775 -0.32037845 0.097759515 0.20843329
-0.20878212 -0.08336875 0.26017067 -0.18911903 0.35548404 -0.013779837 -0.18810974 0.35374463
0.15513606 0.09647437 -0.14989589 -0.3714185 0.29055417 -0.2556277 0.28286228 0.27530324
0.24906175 -0.24491794 -0.27347124 -0.47700408 0.053069323 -0.36745465 0.2827344 0.007759179
-0.09506882 -0.87711126 0.1677033 -0.08301419 0.18884951 -0.22097918 -0.2580188 -0.070975505
0.030811816 -0.041791104 -0.25643954 0.2546845 -0.058139063 -0.05271271 -0.030785147 0.07093892
0.13572071 0.3149206 -0.29757658 0.13002536 -0.105265975 -0.22705416 0.3141826 -0.044299744
-0.15681 0.16644615 0.057347078 0.04966544 0.5923335 0.1526021 0.3566581 0.15632688
-0.2330919 -0.113653794 -0.0070893294 0.20344755 0.029009104 0.29535002 0.29955524 0.33471546
-0.035864193 -0.15670821 0.21553671 0.016031295 0.505114 -0.18305206 -0.41340753 -0.23031329
0.21455602 -0.17129688 0.2458903 -0.06002517 -0.12182341 0.048983697 -0.06806942 0.16458964
0.012810823 -0.035114817 0.0662055 0.03647759 -0.2199699 0.14672996 -3.8193364e-05 0.08937106
0.22661996 0.24016605 0.21390694 -0.17191666 0.0639359 0.28892732 -0.035071973 0.4594616
0.015800267 0.10242989 -0.0889167 0.0038043156 0.22432935 0.21388654 0.3994665 0.053446576
0.0996012 0.094189376 0.4861376 -0.05664797 -0.16035753 -0.32472357 0.0016256558 -0.13757364
0.091605775 0.2209455 -0.2451156 0.20293018 0.0083454475 -0.2661952 0.17412283 0.2028181
0.12404298 -0.1374858 -0.0058208695 -0.37922493 -0.14372401 0.0034373193 -0.0006858252 -0.096042074
-0.035018023 -0.10020329 0.19092326 -0.047572833 -0.12156962 -0.07995613 0.0807791 0.29395717
-0.1590136 0.24988103 -0.2926507 0.09381639 -0.1120036 -0.1137941 0.03451103 0.060440082
-0.03286584 0.2500559 -0.3568077 -0.049435616 -0.09777794 -0.19478557 0.29908997 -0.1418478
0.44903153 0.10962708 0.05527368 0.41005468 -0.08557403 -0.21706147 -0.15543568 0.050787136
0.22432996 -0.018933807 0.14979498 -0.31814325 0.004563084 0.03321519 0.32278532 0.022955054
0.14623787 -0.07707222 0.14520024 -0.059445165 -0.037171718 -0.19724861 0.04127614 0.16152212
0.005889478 -0.24637856 0.16107899 -0.27895713 0.14776118 0.35386696 -0.12949724 0.11269781
-0.1138707 0.014710553 -0.4324756 0.12081768 0.24493669 0.07109007 0.17244425 0.11198097
-0.22992633 -0.013991671 0.11830637 -0.01540544 -0.17601047 -0.010113599 -0.36638793 -0.025586078
-0.06798215 -0.10359777 -0.171281 0.4984548 0.12281912 -0.27413735 0.18884854 0.5395951
0.113698535 -0.06340762 0.15803541 -0.41402823 0.30791816 0.16182156 0.07509901 0.10008728
-0.02358837 -0.040961 0.011208847 0.15989926 0.14616516 -0.14793248 -0.37146282 0.06889161
-0.20113768 0.1804031 -0.1758241 -0.08606962 -0.2934267 -0.4516594 0.17005102 0.028386468
-0.0020637845 -0.24371748 -0.047061604 0.39569634 -0.34056747 0.15012997 -0.08029517 -0.031117259

gru.bias_ih_l0 f4 [300]
00000000: c06b d0bd e5ba abbd 5f7e 37be 20b3 cdbd
00000010: 0817 90be 1a97 6039 93b5 9d3c 2600 e1bc
00000020: 109d e0bd f06d 483d 0f2f 86be a25c 85be
00000030: 9b9b 463d 49a7 4f3e 8f53 bf3e 3b2d 233f
00000040: 249a 4dbd 53f6 f33d 7fe9 f03d 6790 abbd
00000050: d536 78be 1a04 3dbe 2f47 acbe 782f 1bbe
00000060: 87d9 efbd fb1c c63d 556c 0e3f 142f 8dbe
00000070: d2ad 1c3e 4f1a f93d 1443 193c 03d9 1ebe
00000080: 5a29 bbbc 72c6 9bbc d10c a3be c1b7 8e3d
00000090: 69be 2f3e 4550 abbd e3f8 7bbe 8bae 003e
000000a0: 182c a4bd 5944 d9bd 8ba2 6c3d dff7 64be
000000b0: ade7 da3d b0df d73c 1e18 0abe c9bb 1dbe
000000c0: 1043 c8ba 44fe 44be 21b2 323e fe0c c7bb
000000d0: bae5 a8bd 9922 073e 3c18 733b eb02 8abd
000000e0: 343f 83be 4d65 a1be 972a 95be 10e0 b4bd
000000f0: 64da 8ebc 0a70 45be 0288 aa3d a2b6 6e3e
00000100: 2689 823e 732f 323d 8e30 04be c1a7 773e
00000110: 850a ebbd 7d11 22be 3cfc 763e a226 62bd
00000120: f0f4 81bd b3a6 ca3e b752 b5bd 3165 98be
00000130: 1e0e 87be 85d2 01be 3504 01be 2071 1dbe
00000140: 3f35 08bd 566e 92be c77c 783d 1b25 c5bd
00000150: 83fa 35be 0057 a0bd 97fb dc3c dff7 5fbe
00000160: 6095 e4bd 8318 2d3d 7876 6abd 3080 c53c
00000170: 120d 1d3e cd73 563d f36a 54be 067a c1bd
00000180: 05f6 513e 66b2 d63d d658 90bc ec8f 773e
00000190: df2c 98be 4edc 47bd 5b3a bbbe fc1f 99be
000001a0: 9bf2 23be 9037 fbbd dcfc c8be edcc 10be
000001b0: ed28 99be 6390 31be f033 3fbf c05a efbe
000001c0: f051 b1be 565d 0fbe 278d 3cbe 269b f8be
000001d0: 2e9e 0c3e 6cc9 13bf 0cfd 8fbe eaa8 5abe
000001e0: b5d5 8e39 8c3c 4abe 26b8 bcbe fd43 b2bd
000001f0: 1065 84be bf76 023b 8fb0 a3be 9ec3 96be
00000200: ca77 58be 124f 693e effa af3e 1cd6 b0bd
00000210: cd78 903d 29e2 c73d 63aa 05bf 8080 0ebe
00000220: 4f3a b5be a447 39be 3081 88be 3850 8dbe
00000230: 8d2a c2bd e126 f1bd 334c ddbe de5e c8bd
00000240: 99c3 d4be 9582 45bd 65ff 79be fe67 c1be
00000250: 9588 803c 5023 853d 9aff 85be 39d7 b6be
00000260: 322b 53bd a28e e3be 56f1 87be 4882 03bc
00000270: 5135 81be f18f 30be 8692 05bf 026a 23be
00000280: a006 b7be 816b 79be 9004 563d 9220 dc3d
00000290: 01b7 8abd 9bbe 5bbe 9cb4 45be 78f8 04bf
000002a0: 0911 9bbe 7a92 333d 6580 c7be 59da c6be
000002b0: ad19 3cbc f51c 7cbe bfa9 043e ab02 03bf
000002c0: 26d8 efbe f056 28be e327 f8be 282f 8cbe
000002d0: 040f 503d f4b4 de3c e761 80be 07a4 94bd
000002e0: af3c 863e 3ae3 2dbf 77b5 163d a124 7bbe
000002f0: 07d1 77be 2f3a f7be b262 773e 95a4 f9bd
00000300: 8663 92be 6870 81be b6f0 d5be 66cb 65bd
00000310: bbc1 07be 38fb 1abf 5877 2dbe 8062 dbbc
00000320: 5b34 41bd 3435 a33c 84b2 003e 0a8d 0b3e
00000330: 3736 4a3e fd5f 24be 2ca1 1cbc bfe9 2ebe
00000340: 5d79 163e f52b 3dbe 5d0b 463e f056 50be
00000350: 4ff4 753e 44f2 08be dd63 d03e 13fb 193f
00000360: 0c02 423c 1a12 8fbc ac2f 973e e9ca 1ebd
00000370: 32a9 fe3d 04f7 ad3d 4342 253e c49a 28bc
00000380: eb02 4f3e 9d22 8f3e 871b c8be 2089 303e
00000390: 6310 3b3e a8dd a43d b8c2 1ebd 223a 02be
000003a0: e0d0 dbbc 43e3 04bd b348 5b3e 3bf2 76bc
000003b0: affa 933e 1d63 593d 730a efbd f2ed 83be
000003c0: 7964 f93d 41b5 423e 903c a43e 10e8 58be
000003d0: 3a46 773d d121 96be b9e8 ae3d 6276 4fbe
000003e0: c8b3 4dbe 01b5 c53b 1ac4 ebbe 0042 cd3c
000003f0: 69e9 103e fd1d 0e3e e090 853e 980c 8cbe
-0.10176802 -0.08385257 -0.179193 -0.10043931 -0.2814257 0.00021418594 0.01925162 -0.027465891
-0.10967457 0.04893297 -0.26207778 -0.26047236 0.04848824 0.20278658 0.37368438 0.6374089
-0.050195828 0.11912217 0.11763286 -0.08377152 -0.24239667 -0.18458596 -0.3364806 -0.15154827
-0.11711412 0.09673496 0.5563405 -0.2757498 0.15300682 0.12163221 0.009354372 -0.15512471
-0.022846866 -0.019015525 -0.31845716 0.06968642 0.1716248 -0.083649196 -0.24606661 0.12566583
-0.08016223 -0.106087394 0.0577722 -0.2236018 0.1068872 0.02635178 -0.13485762 -0.15403666
-0.0015278775 -0.1923762 0.17450763 -0.006074547 -0.08246942 0.13196792 0.0037093302 -0.06738838
-0.25634158 -0.315226 -0.29134056 -0.08831799 -0.017438121 -0.19281021 0.08326723 0.23311856
0.2549526 0.043502282 -0.12909147 0.24185087 -0.11476616 -0.15826984 0.24119657 -0.055212624
-0.06345546 0.39580306 -0.08853667 -0.29764703 -0.26377958 -0.12677963 -0.12599261 -0.15375185
-0.033253904 -0.28599805 0.060665872 -0.09626218 -0.17771344 -0.07829094 0.026975436 -0.21871899
-0.111613035 0.042259704 -0.057241887 0.024108976 0.15337017 0.05235653 -0.20743923 -0.09447102
0.20504005 0.104832456 -0.017620485 0.24175996 -0.29721734 -0.048794083 -0.3656796 -0.29907215
-0.16010515 -0.12266457 -0.39255416 -0.14140673 -0.29914036 -0.17340235 -0.74688625 -0.46748924
-0.34632826 -0.14000449 -0.1841322 -0.4855587 0.13732216 -0.5772922 -0.28122747 -0.21353498
0.00027243575 -0.1974966 -0.36859244 -0.08704374 -0.25858355 0.0019907204 -0.3197064 -0.2944612
-0.21139446 0.22784069 0.34371135 -0.08634588 0.07054291 0.097599335 -0.52213115 -0.13916206
-0.35396048 -0.18093735 -0.26661062 -0.27600265 -0.09480772 -0.11774994 -0.43222198 -0.097837195
-0.4155548 -0.048220236 -0.24413832 -0.37774652 0.015690127 0.06500876 -0.2617157 -0.35711077
-0.051554866 -0.44444758 -0.26551312 -0.008026667 -0.2523599 -0.1724241 -0.521767 -0.15958408
-0.35747242 -0.24357416 0.052250445 0.107484 -0.067731865 -0.21459429 -0.19307178 -0.51941633
-0.30286434 0.043840863 -0.38965145 -0.3883846 -0.011480731 -0.24620421 0.12955378 -0.51175946
-0.46844596 -0.16439414 -0.4846793 -0.27379727 0.05079557 0.027185895 -0.25074694 -0.07257848
0.26218173 -0.67924845 0.036794152 -0.24525692 -0.24200831 -0.48286578 0.24158743 -0.12189595
-0.28591555 -0.25281072 -0.4178521 -0.05610218 -0.13257496 -0.6053958 -0.16940057 -0.026780367
-0.04716907 0.01992283 0.12568098 0.13628021 0.19747244 -0.16052242 -0.009559911 -0.17081355
0.14694734 -0.184738 0.19340272 -0.20345664 0.24018978 -0.13373667 0.4070119 0.60148734
0.011841308 -0.017464686 0.29528558 -0.03876773 0.12434615 0.0849438 0.16138558 -0.010290805
0.20215957 0.27956095 -0.39083502 0.17239809 0.1826797 0.0805009 -0.038759917 -0.12717488
-0.026832998 -0.032443296 0.21414451 -0.015072401 0.28902194 0.053073037 -0.11671915 -0.25767475
0.12177367 0.19014455 0.32077456 -0.21182275 0.060369708 -0.29322675 0.08540482 -0.20260003
-0.20088112 0.0060335402 -0.4604805 0.025055885 0.14151539 0.13878627 0.26087093 -0.27353358

gru.bias_hh_l0 f4 [300]
00000000: afb0 05be 69ea aabd c005 56be c0a0 91bd
00000010: 3202 59be 8c66 2fbd 39f5 d93c c92e e9bd
00000020: 39e9 dabd 25c3 ab3d baee 2abe dc39 96be
00000030: 5eb5 eb3d 9ae0 743e 23b4 ac3e c803 123f
00000040: e278 e4bd 32d4 e93d 042c c53d 8177 9bbd
00000050: fb3a 84be aa5c 90be 4d35 d0be 8735 02be
00000060: 247e 2dbe e0cb 053e 6c57 123f 7c8c 46be
00000070: 8e6e 053e 2932 0c3e e30c 193c e4e2 dbbd
00000080: b96a 163d 96ac 5ebd 36aa aebe 0d55 093e
00000090: 98a3 1d3e f59c d5bd 93ad 6abe b95b b23d
000000a0: 0b6e a1bd 33ff 15be a49a 17bd 7981 45be
000000b0: 2b85 d93d 4652 ad3c 49fd 00be 3a60 02be
000000c0: bfe2 573d 438e 5cbe e109 623e 7c11 1cbd
000000d0: 2b16 c9bd 5b20 bc3d 7a41 87bd d32b cdbc
000000e0: 6f68 6cbe 0419 acbe f372 a7be 8912 bdbd
000000f0: c62e df3c 6883 3ebe 9496 f63d 27e6 3e3e
00000100: 93aa 963e b08c ea3c 2040 3bbe 42a9 663e
00000110: 084e efbc e824 0fbe 2e17 303e d26f a5bd
00000120: e822 9dbd cb19 ca3e fac6 debd e8ff 98be
00000130: 1c01 8cbe 5862 35be a756 4cbd 1fff 3fbe
00000140: 7819 11be b82b b7be 36a0 5eba d7f2 93bc
00000150: 72f1 02be ac9e 4dbd 5e83 8e3c dbe0 0abe
00000160: dfa9 9dbd ca3c 0a3d 8e5b 6abd 8a8c 063d
00000170: bd66 133e 0cff 8f3d 5aad 2bbe 3d6e c3bd
00000180: 1f42 483e 7878 d23d f59b 423d 4ffc 8a3e
00000190: 1088 90be 450d 37bd 2772 d2be 486a 74be
000001a0: 836c 6ebe 6741 6fbe e4f5 b2be 04df e7bd
000001b0: 50da acbe df64 3abe 4657 3ebf 417d 0abf
000001c0: 9883 66be c237 78bd d4bd fcbd 4099 c5be
000001d0: 0a87 1a3e 454b f7be c04a 5abe 556e 2abe
000001e0: cb8a d43c 3e64 77be a159 a0be b178 cfbd
000001f0: 5a0c 7bbe a0bf b6bd b36f 8ebe d86b 54be
00000200: 9e38 1abe 7bbe 273e da57 913e a771 08be
00000210: 1a64 083c 3127 ab3d 0f21 fdbe 7609 1fbe
00000220: 0157 91be 9964 8bbe dc5e 56be ee1a 7bbe
00000230: 15f1 2cbe 48a1 52bd ed28 d8be 0d7b d3bd
00000240: 3911 c2be c559 aabd 116c 94be 2c28 f7be
00000250: c399 923c 9315 0b3e 449a 7dbe ac25 f0be
00000260: 7ec0 0cbd baaa e5be 08d3 a9be 3142 b53b
00000270: ba31 72be 1ab0 1ebe ea25 f2be 31ff 35be
00000280: a569 edbe 1d11 91be 60b0 003e 0a58 d93c
00000290: d051 4dbd 01d2 2abe 9ebb 8dbe 10c4 e5be
000002a0: 576d afbe eaa6 8dbd 759a d1be 5659 c7be
000002b0: c043 033d c49c 4ebe 7aa8 f03d 5ceb 09bf
000002c0: 13ee 0dbf b089 78be 01b4 edbe ba47 b9be
000002d0: ff40 16bd cbcc 0fbd 8e7d 61be 441c 083b
000002e0: e4f3 5e3e b633 34bf 6ec0 c53c 397f 86be
000002f0: 0757 a1be 486c febe 5712 813e 8381 fcbd
00000300: ac43 bdbe 9823 bebe 594a c7be 4e25 02be
00000310: 06da eebd b7d5 19bf 9321 2dbe b75b 863d
00000320: b3bf 2b3e b074 a83c 0219 ab3e e292 9a3e
00000330: c732 56be c983 80be 7f81 4cbe 4328 b1bd
00000340: a9f3 06bf 2348 26be c59e b3bd e157 e1bd
00000350: 397b be3e 9679 12be b18a d13e c016 dc3e
00000360: becb 04bd 9f2b 1abe 3b28 023f 24ad 73bd
00000370: e234 483d 9e35 45bc 10f6 ea3d 4b3c d6be
00000380: 6b65 c03e 5d35 423f fbb8 9dbe 3564 f53c
00000390: 840a 5a3d fbfb 003c 0778 d53a 5761 783d
000003a0: 1085 01bd 9dbe 1b3e dc63 d13e db82 4dbe
000003b0: 0263 703e 5a2b 2d39 861b 653d 2dd7 fbbc
000003c0: f4bd 38be ef3f 913d 1af4 073f 2fad abbd
000003d0: 4243 033f 8eb5 b4bc cc2e 8ebd 68d7 39bf
000003e0: 30b2 9cbe 9faa c23d e3d9 2dbe 7a71 e3bd
000003f0: 3b92 323e 5016 f43e 9034 66be 5f2e 84be
-0.1305568 -0.083454914 -0.20900631 -0.07110739 -0.21192244 -0.042822406 0.02660619 -0.11385877
-0.10689015 0.0838683 -0.1669263 -0.29341018 0.115092024 0.23913804 0.33731183 0.5703702
-0.11155869 0.11417426 0.09627536 -0.07591153 -0.2582625 -0.28195697 -0.40665665 -0.12715732
-0.1694265 0.13066053 0.57164645 -0.19389528 0.13030455 0.1369101 0.009341451 -0.10736635
0.036722872 -0.05436381 -0.34114236 0.1341135 0.15394437 -0.10430328 -0.22917776 0.08708901
-0.07882317 -0.14648132 -0.03701271 -0.19287671 0.10621103 0.021157395 -0.1259662 -0.1273202
0.052706476 -0.21538644 0.22074081 -0.038102612 -0.09818681 0.09185859 -0.066042855 -0.025045311
-0.23086713 -0.33612835 -0.32704887 -0.09232051 0.027243983 -0.18604815 0.12040439 0.18642484
0.29427013 0.028631538 -0.1828618 0.22525504 -0.029212013 -0.13978922 0.17196342 -0.08077969
-0.076726735 0.39472803 -0.108777955 -0.2988274 -0.27344596 -0.17713296 -0.049887326 -0.18749665
-0.14169872 -0.35775542 -0.0008492501 -0.018060131 -0.12787417 -0.05020015 0.017396625 -0.13562338
-0.07698416 0.03374938 -0.05721622 0.032848872 0.1439466 0.07031068 -0.16765347 -0.09542511
0.19556473 0.10276884 0.047512013 0.2714562 -0.28228807 -0.04469039 -0.41102716 -0.23868668
-0.23283581 -0.23364793 -0.34953225 -0.11321834 -0.3376031 -0.18202542 -0.7435192 -0.5409737
-0.22511137 -0.06060005 -0.12340894 -0.38593483 0.15090576 -0.48299614 -0.21317577 -0.16643651
0.025945088 -0.24159333 -0.3131838 -0.10130442 -0.2451643 -0.08923268 -0.27819595 -0.20744264
-0.1506066 0.16381256 0.28387338 -0.13324605 0.008324647 0.083570845 -0.49439284 -0.15530953
-0.2838669 -0.27225187 -0.20934623 -0.24521992 -0.1688884 -0.05142334 -0.42218724 -0.103262044
-0.37903765 -0.083179034 -0.28988698 -0.48272836 0.017895585 0.13582449 -0.24765879 -0.4690374
-0.034363262 -0.44856817 -0.33168817 0.0055315723 -0.23651782 -0.15496865 -0.4729455 -0.17773129
-0.46369663 -0.2833337 0.12567282 0.026531238 -0.05012685 -0.16681673 -0.27682203 -0.44876146
-0.34263107 -0.06916602 -0.40938154 -0.38935345 0.032047033 -0.20176989 0.11750884 -0.53874755
-0.554414 -0.24271274 -0.46426395 -0.36187536 -0.03668308 -0.035107415 -0.22020552 0.00207688
0.21772724 -0.70391405 0.02413961 -0.26268938 -0.3151171 -0.49691987 0.25209305 -0.1232939
-0.36965692 -0.3713653 -0.3892391 -0.12709543 -0.116626784 -0.6009173 -0.16907339 0.06560462
0.16772346 0.020563453 0.33417517 0.30190188 -0.20917808 -0.25100544 -0.19971274 -0.086502574
-0.52715546 -0.16238455 -0.08770517 -0.1100309 0.37203386 -0.14304194 0.40926126 0.42986107
-0.032420866 -0.15055703 0.50842637 -0.05949129 0.048878558 -0.012036709 0.11472714 -0.41842875
0.37577376 0.75862676 -0.3080519 0.029955009 0.053232685 0.007872577 0.0016286381 0.060639706
-0.03162104 0.15209432 0.408965 -0.20069449 0.23475268 0.00016514715 0.05593445 -0.030742252
-0.18041211 0.070922725 0.53106844 -0.083826415 0.512745 -0.022059228 -0.069425195 -0.7259431
-0.30604696 0.095052 -0.16977648 -0.11105628 0.17438595 0.47673273 -0.22480989 -0.25816628
