modules/prn-gen/exp/en_id/models/unigram/decoder-attn_dot-emb_128-hddn_100-layers_1-epoch_23.pth (torch, 446256 bytes, 7 tensors)

embedding.weight f4 [36, 128]
0	0xbe9b8195	-0.303723
1	0xbf966c77	-1.1751851
2	0xbfbf6210	-1.4951801
3	0x3efeecc4	0.49790013
4	0x3fb06be4	1.3782926
5	0x3fb66685	1.4250036
6	0xbf534e11	-0.82540995
7	0x3ea4cdca	0.32188255
8	0x3e2302a9	0.15918984
9	0x3f027dcc	0.509732
10	0x3e060f95	0.13091882
11	0xbf436300	-0.76322937
12	0x3d9930e1	0.07480026
13	0xbfe59e02	-1.7938845
14	0x3f89b4a0	1.0758247
15	0x3f68890d	0.9083412
16	0xbf87fb2b	-1.0623525
17	0xbf51ae67	-0.8190674
18	0xbee38817	-0.44439766
19	0xbea8d3d1	-0.32974103
20	0x3f851a97	1.039874
21	0x3df339ec	0.11876282
22	0x3f803a4a	1.0017788
23	0x3ee15584	0.44010556
24	0xbfda2f87	-1.7045754
25	0xbfb055f6	-1.3776233
26	0xbf0f996d	-0.56093484
27	0x3d8fd20e	0.070224866
28	0xbfde5f24	-1.7372785
29	0x3fb3277f	1.3996428
30	0xbfa39c49	-1.278207
31	0xc0036c59	-2.053488
32	0xbf0b0a67	-0.5431275
33	0x3dd6e250	0.104923844
34	0xbec0d5c2	-0.37663084
35	0xbe8f556f	-0.27994868
36	0x3f1799df	0.59219164
37	0x3f145adc	0.5795114
38	0x3f230178	0.63674116
39	0x3f2b8b93	0.6700985
40	0x3dd2d59e	0.102946505
41	0x3f6875d7	0.9080481
42	0xbe0d32c3	-0.13788895
43	0x3ef05df0	0.4694667
44	0xbf50577d	-0.81383497
45	0x3d77d576	0.060506307
46	0x3c8775c8	0.016535655
47	0x3ec0ac70	0.3763156
48	0xbf52074f	-0.820424
49	0xbd7b6276	-0.061373197
50	0xbe3e4b5e	-0.18583438
51	0xbf3d9b21	-0.7406483
52	0xbe10901e	-0.14117476
53	0xbdf9a54c	-0.12189731
54	0x3f9f0d78	1.2425985
55	0x3ebcc3c2	0.368681
56	0x3f57f458	0.84357214
57	0xbf488882	-0.78333294
58	0xbf8b8fa9	-1.0903217
59	0x3d52f307	0.0515013
60	0xbf265070	-0.6496649
61	0x3ed16b44	0.4090215
62	0xbf083e31	-0.53219897
63	0x3f6f5d15	0.93501407
64	0xbe4fac83	-0.20280652
65	0x3f50973b	0.8148076
66	0xbf7e49ca	-0.99331343
67	0xbe657204	-0.22406775
68	0x3f62d94d	0.88612825
69	0x3f51d855	0.8197072
70	0xbeea19a9	-0.45722702
71	0x3f2901d1	0.66018397
72	0xbed80c75	-0.42197004
73	0xbea54802	-0.322815
74	0xbf68085c	-0.90637755
75	0xbfdd8c4d	-1.7308441
76	0x3fa1c1cc	1.2637267
77	0x3fe760fd	1.8076473
78	0x3d883f48	0.06652695
79	0x3eb283cc	0.34866178
80	0xbde567e1	-0.11201454
81	0xbee8c6d1	-0.45464185
82	0xbd8e4d84	-0.06948379
83	0x3f9b97bd	1.2155682
84	0xbf8a0a32	-1.0784361
85	0xbf27159d	-0.65267354
86	0xbef03191	-0.46912816
87	0x3f330fa2	0.6994573
88	0x3d9d2f18	0.07674998
89	0x3f737d57	0.9511313
90	0xbf396ce8	-0.724318
91	0x3d3e2bd9	0.046428535
92	0x3fa96232	1.3233092
93	0xbdfb2302	-0.122625366
94	0x3ec70254	0.38868964
95	0x3ef2356d	0.47306386
96	0xbd51bf9a	-0.051208116
97	0x402789eb	2.6177928
98	0xbf37b5cd	-0.7176178
99	0x3e3dfed1	0.18554236
100	0x3f6e7ed9	0.93162304
101	0xbe668861	-0.22512962
102	0xbe2a39fc	-0.16623682
103	0x3ea22545	0.3166906
104	0xbf11d324	-0.569628
105	0x3f832798	1.0246458
106	0x3f057f36	0.52147233
107	0x3ccf596b	0.025311192
108	0xbfa33239	-1.2749702
109	0xbeaceb8c	-0.33773458
110	0xbf4fe781	-0.8121262
111	0xbf1f456d	-0.6221531
112	0xbe7fac72	-0.24968126
113	0xbf0f1296	-0.55887735
114	0x3f4c1b77	0.7972941
115	0xbe87193f	-0.2638645
116	0x3edc6f75	0.43053785
117	0x3ef8c797	0.48589775
118	0xbeb68eb1	-0.3565574
119	0xbe899c1f	-0.26876923
120	0x3e7f4d95	0.24931939
121	0x3e8fd468	0.2809174
122	0x3f8da917	1.1067227
123	0xbf2e4eee	-0.6808919
124	0xbd3c38d8	-0.045952648
125	0xbecaab5e	-0.39583868
126	0xbbd67ff1	-0.0065460135
127	0x3e4b8241	0.19873907
128	0xbfc04547	-1.5021142
129	0xbff1e063	-1.8896602
130	0xbf424326	-0.7588371
131	0xbe5ed7be	-0.21761987
132	0xbff16834	-1.8859925
133	0xbf87a05c	-1.0595813
134	0xbfc01432	-1.5006163
135	0xc00cb2fd	-2.1984246
136	0xbe93a6b1	-0.28838113
137	0xbf396f79	-0.7243572
138	0xbf4d801c	-0.80273604
139	0x3e578683	0.21047406
140	0xbf16e00d	-0.58935624
141	0x3ead52cb	0.3385223
142	0xbee8f013	-0.45495662
143	0x3fc3c0e9	1.5293247
144	0x3e797c88	0.24363911
145	0x3f1505e5	0.5821212
146	0xbf949f14	-1.1611047
147	0xbf4f80f0	-0.8105612
148	0xbea5bbb8	-0.3236978
149	0xbdb22608	-0.0869866
150	0xbfed0579	-1.8517295
151	0xbe221524	-0.15828377
152	0xbf1ecf18	-0.6203475
153	0x3f846b75	1.0345293
154	0xbf8d7e4d	-1.1054169
155	0xbf0c15fb	-0.5472104
156	0x3f0d84e5	0.55280906
157	0x402bc6e6	2.6840148
158	0x3e5db27e	0.2165012
159	0xbf8b96f6	-1.0905445
160	0xbed43b66	-0.41451567
161	0x3f0ced0f	0.5504922
162	0xbea6377e	-0.32464212
163	0x3f39727c	0.72440314
164	0xbfe418e7	-1.78201
165	0x3e9d1b9c	0.30685127
166	0x3ea362cb	0.3191131
167	0x3e01aec4	0.12664324
168	0x3ee05703	0.43816385
169	0x3dbda06d	0.092591144
170	0xbf91dc80	-1.1395416
171	0xbf96b5b5	-1.1774203
172	0x3ec6c419	0.38821486
173	0xc00b4a98	-2.1764278
174	0x3cf3e789	0.02977349
175	0x3fb46ab7	1.4095067
176	0x3f0ffb68	0.5624299
177	0xbf9dc28d	-1.2324997
178	0xbe04f388	-0.12983525
179	0x3e22a548	0.15883362
180	0xbeee10f8	-0.4649732
181	0xbe86b15c	-0.2630719
182	0x3f12de31	0.5737029
183	0x3f73a06d	0.95166665
184	0x3f31bc27	0.6942772
185	0xc00439cb	-2.0660274
186	0xbf4b6708	-0.7945409
187	0x3e65e35e	0.22450015
188	0xbec1e61a	-0.37870866
189	0xbdf49964	-0.119433194
190	0x3ebc3564	0.36759484
191	0xbf959454	-1.1685891
192	0xbf1b7424	-0.6072409
193	0xbe69b9e1	-0.22824813
194	0x3fa8222c	1.3135428
195	0x3f4fa248	0.81106997
196	0x3fb665f2	1.4249861
197	0xbfb19748	-1.3874292
198	0x3d0928ec	0.03348629
199	0xbfec0928	-1.8440294
200	0xbf1b74ad	-0.6072491
201	0xc013e80d	-2.3110383
202	0x3f724025	0.94629127
203	0x3db16688	0.086621344
204	0x3ee2359f	0.44181535
205	0xbf8e1a08	-1.1101694
206	0x3efd42ac	0.4946493
207	0x3e83d357	0.25747177
208	0xbfd91e14	-1.6962304
209	0xbef36bda	-0.47543222
210	0x3ea9df29	0.3317807
211	0xbe47c4e2	-0.19508699
212	0xbd976a57	-0.073933296
213	0x3ae41a96	0.0017402943
214	0x3e37b1d5	0.17938931
215	0xbe9042cf	-0.2817597
216	0x3fbc9dfb	1.4735712
217	0xbf9f5afc	-1.2449641
218	0xbf24cdd0	-0.64376545
219	0xbf2c0b39	-0.67204624
220	0xbf463573	-0.7742531
221	0xbdda60e1	-0.106630094
222	0x3ed18e4c	0.40928876
223	0xbf11d0e0	-0.5695934
224	0x3f9e5f56	1.2372844
225	0x3eb2c2bd	0.349142
226	0x3f9d7a0b	1.230287
227	0xbfbbd65e	-1.4674795
228	0x3e9f09d4	0.31062186
229	0x3e6dbe83	0.23217206
230	0x3f28a32f	0.65874
231	0x3f85e906	1.0461738
232	0x3fa9ba46	1.3259971
233	0xbe318cd5	-0.1733888
234	0xbf48aa91	-0.78385264
235	0x3f9a3127	1.204625
236	0x3f01f660	0.50766563
237	0x3f0a7b8a	0.54094756
238	0xbdb77720	-0.08958268
239	0x3f04a532	0.5181457
240	0xbec41c17	-0.3830268
241	0xbfbf07bf	-1.4924239
242	0x3e09dbf0	0.13462806
243	0xbee7cfc4	-0.452757
244	0x3f13bff2	0.5771476
245	0x3e9b6c79	0.30356196
246	0x3f240e31	0.64084154
247	0xbebc565a	-0.3678463
248	0x3fd78560	1.6837578
249	0xbfb1db6e	-1.389509
250	0xbfff857f	-1.9962615
251	0xbf4f26cb	-0.8091857
252	0xbf5636ad	-0.8367718
253	0xbe1fdcb4	-0.15611535
254	0x3f31a304	0.6938937
255	0xbe61eb65	-0.22062452

gru.weight_ih_l0 f4 [300, 228]
0	0x3d7f07fc	0.062263474
1	0xbd586239	-0.052828047
2	0x3e125175	0.14288886
3	0x3c3d59b0	0.011557028
4	0x3d6f32b4	0.058397964
5	0xbccb1bdf	-0.024793563
6	0xbdd7cee1	-0.10537506
7	0xbd77d8f6	-0.060509644
8	0x3dd7a811	0.10530103
9	0xbe10bc3a	-0.14134303
10	0x3e5fe8ca	0.21866146
11	0x3df2aebe	0.11849736
12	0xbdf2cdd8	-0.11855668
13	0x3d76fcf0	0.060299814
14	0x3db9d76f	0.09074294
15	0x3d477486	0.04869511
16	0x3c8bd644	0.017069943
17	0x3d8d3cb7	0.06896346
18	0x3e20f4c5	0.15718372
19	0xbe14535d	-0.14484926
20	0xbe6dc145	-0.23218258
21	0xbdcb19fc	-0.099170655
22	0xbe2cbad1	-0.1686814
23	0xbe23f397	-0.16010891
24	0x3e1d64f7	0.15370546
25	0x3e0f0d55	0.1396993
26	0x3d4999ec	0.049219057
27	0x3db6c0c9	0.089234896
28	0x3df8b854	0.12144533
29	0xbcf618a8	-0.030041054
30	0x3dc990eb	0.09842094
31	0x3ddbfdf9	0.10741801
32	0x3ddd115e	0.10794328
33	0x3e27eebb	0.16399662
34	0x3d479609	0.04872707
35	0x3e282a43	0.16422372
36	0xbbf38f16	-0.0074328287
37	0xbced1c23	-0.02894408
38	0x3bb37d8a	0.005477612
39	0x3e0291f6	0.12750992
40	0x3d5f6ee3	0.05454911
41	0xbbe82736	-0.0070847524
42	0xbe0fe640	-0.14052677
43	0x3d873644	0.06602147
44	0x3db56013	0.08856215
45	0x3bfe453a	0.0077597173
46	0xbc67bcca	-0.014144132
47	0xbe0204df	-0.1269717
48	0x3d0e6fc4	0.034774557
49	0x3df3d4fa	0.119058564
50	0x3dfa079b	0.12208482
51	0xbe030cee	-0.12797901
52	0x3e44e6cc	0.19228667
53	0xbdcd8175	-0.100344576
54	0xbdd0a637	-0.10187953
55	0x3d6c9a30	0.057764232
56	0x3e10b61a	0.14131966
57	0xbdac40e5	-0.08410815
58	0x3dcdd70c	0.100507826
59	0x3d76111e	0.060074918
60	0x3c8378d3	0.016048824
61	0xbe7bea7f	-0.24601172
62	0xbcbba4d0	-0.022905737
63	0x3e047889	0.12936606
64	0x3da215f3	0.07914343
65	0xbdf7496c	-0.12074551
66	0x3e67e25b	0.22644942
67	0x3c15771d	0.009122637
68	0xbd8a1337	-0.06741946
69	0x3d81976e	0.06327711
70	0x3da48deb	0.08034881
71	0xbe25af56	-0.16180167
72	0xb9674b7b	-0.00022057995
73	0xbb45f896	-0.0030207983
74	0x3d18b1b5	0.03727885
75	0xbe075522	-0.1321607
76	0xbdb47b05	-0.088125266
77	0xbe85a801	-0.2610474
78	0x3d75a31a	0.05997
79	0x3d44b00b	0.04801945
80	0xbe1d4e28	-0.15361845
81	0x3d8bca77	0.068257265
82	0x3d93e2b3	0.07220974
83	0xbdeab449	-0.11460168
84	0x3af2ffbd	0.0018539351
85	0x3e2d769d	0.16939779
86	0x3df04fc2	0.117339626
87	0x3c4f3f9b	0.012649442
88	0x3e06e413	0.13172941
89	0xbe1df206	-0.15424356
90	0x3d9a2359	0.07526273
91	0xbe24ec5b	-0.16105787
92	0x3e403201	0.18769075
93	0xbd80466c	-0.06263432
94	0x3e2b2694	0.16713935
95	0x3e71cd0c	0.23613375
96	0x3dc0b300	0.094091415
97	0xbe215d56	-0.15758261
98	0x3d8e4561	0.06946827
99	0xbd9d3ff1	-0.076782115
100	0xbe885c78	-0.26633048
101	0xbd98a1ff	-0.07452773
102	0x38cf38b7	9.881093e-05
103	0xbd27c485	-0.0409589
104	0x3dfd2f5b	0.12362548
105	0xbe00e292	-0.1258643
106	0x3d19d9c3	0.03756119
107	0x3d2bc8dc	0.0419396
108	0x3c0f8f00	0.008762121
109	0x3cb13f7c	0.021636717
110	0x3e2aa155	0.16663106
111	0x3e6fe6cc	0.23427886
112	0xbe2ff10f	-0.171818
113	0x3da36699	0.07978553
114	0x3d9027e1	0.07038856
115	0xbe5f3c1c	-0.21800274
116	0x3ce20d0f	0.027594117
117	0x3e08e6e1	0.13369323
118	0xbd771057	-0.060318317
119	0x3e0fd679	0.14046659
120	0x3dd241f9	0.102664895
121	0xbe46ba42	-0.19406989
122	0xbde853dc	-0.1134412
123	0x3dc03818	0.09385699
124	0x3dd8b4f8	0.10581392
125	0x3d9f983b	0.077927075
126	0xbd9c9d80	-0.07647228
127	0xbd774378	-0.060367078
128	0xbafef812	-0.0019452593
129	0x3cadb30a	0.021203537
130	0x3e544981	0.20731165
131	0xbe05f730	-0.13082576
132	0x3c949859	0.018139051
133	0xbd8fef0c	-0.070280164
134	0xbd6e66ca	-0.058203496
135	0x3e484b4f	0.19559978
136	0x3e6a7612	0.22896603
137	0x3e3ff035	0.18743975
138	0xbe3cd371	-0.18440033
139	0xbdff0f4a	-0.12454088
140	0x3e9a2edd	0.3011388
141	0xbd640558	-0.05566916
142	0xbe46759a	-0.19380799
143	0x3d7d1d6f	0.06179565
144	0x3e1094dc	0.14119285
145	0xbe51a8a1	-0.20474483
146	0xbe0dea4e	-0.13858911
147	0xbe20fce2	-0.15721467
148	0xbd2b2e2b	-0.041792076
149	0x3c325ac4	0.010885898
150	0xbe0fc1f3	-0.1403883
151	0x3d9a5158	0.07535046
152	0xbd4e5e02	-0.05038262
153	0xbc67feab	-0.014159839
154	0x3e1049e2	0.14090684
155	0x3d0684c6	0.032841466
156	0xbe3a8c15	-0.182175
157	0xbdc307e4	-0.095229894
158	0xbca5ced5	-0.020240227
159	0xbcb95224	-0.022622176
160	0xbcfaac5e	-0.03059977
161	0x3d87e13d	0.06634758
162	0xbe5f4bb5	-0.21806224
163	0xbe23c2d6	-0.15992293
164	0xbd0b9045	-0.034073133
165	0xbddba46a	-0.10724719
166	0x3e2778e8	0.16354716
167	0xbe38ebb1	-0.18058659
168	0xbe205807	-0.1565858
169	0x3da9699a	0.08272095
170	0xbe08518a	-0.13312355
171	0xbd7302be	-0.059328787
172	0x3dae26ab	0.08503469
173	0xbe306a0f	-0.17227958
174	0x3d42542b	0.04744355
175	0x3dcc66c6	0.0998054
176	0x3cd118ba	0.025524486
177	0x3db44204	0.08801654
178	0x3ed1b555	0.40958658
179	0xbe1f79a4	-0.15573746
180	0xbce0c23d	-0.02743637
181	0x3e486c47	0.19572555
182	0xbd83ecd3	-0.06441655
183	0xbc08b9cc	-0.008345079
184	0xbe03c432	-0.12867811
185	0xbd8c526a	-0.06851657
186	0x3e1b4f02	0.15166858
187	0xbda287cf	-0.0793606
188	0x3e0d9d6a	0.1382958
189	0xbea4c8a3	-0.32184324
190	0xbd2046fb	-0.039130192
191	0x3e126e53	0.14299898
192	0x3e9d0810	0.30670214
193	0xbdecfb87	-0.115714125
194	0x3e68a560	0.22719336
195	0xbcab0993	-0.020878589
196	0xbe018009	-0.12646498
197	0x3ddd7693	0.10813632
198	0x3e5f6fff	0.21820067
199	0xbd336a49	-0.043802533
200	0x3e47fc0d	0.19529743
201	0x3dec7cf9	0.11547274
202	0x3e6365a8	0.22206748
203	0x3e271e78	0.16320217
204	0xbdaf0bb8	-0.08547157
205	0xbe839e16	-0.25706547
206	0x3dfbf737	0.12303012
207	0x3cf54527	0.029940201
208	0xbdd23dd0	-0.10265696
209	0x3c3bcdb9	0.011462622
210	0x3cce038b	0.025148174
211	0xbdc6ec9a	-0.09713097
212	0x3dc142fa	0.09436603
213	0x3e5b1f84	0.21398741
214	0xbd96f139	-0.07370228
215	0x3d0475aa	0.032338776
216	0x3e2c3e96	0.1682075
217	0x3e64910e	0.22320959
218	0xbc955a1e	-0.018231448
219	0x3c491b9d	0.01227465
220	0x3e578f2a	0.21050707
221	0x3e726916	0.236729
222	0x3cf17555	0.029474894
223	0x3e773ff2	0.24145487
224	0xbda86063	-0.08221509
225	0x3dd1e8de	0.10249494
226	0x3e819134	0.25306094
227	0xbe0e25a0	-0.1388154
228	0xbe0ecf8c	-0.1394636
229	0xbe7c6101	-0.24646379
230	0xbdd45e67	-0.10369568
231	0x3e43acee	0.19108936
232	0x3948d673	0.00019153375
233	0x3e480b02	0.19535449
234	0x3be6ecf4	0.00704729
235	0x3d568718	0.05237493
236	0xbc854756	-0.016269367
237	0xbdcf8995	-0.101336636
238	0x3cb67ff1	0.022277804
239	0xbcda95b8	-0.02668272
240	0x3cddebd4	0.02708999
241	0xbdd38382	-0.103278175
242	0xbdca5c33	-0.09880867
243	0xbc953e83	-0.018218284
244	0xbd756ad4	-0.059916332
245	0xbe4c5320	-0.19953585
246	0xbd97028f	-0.07373535
247	0xbe901229	-0.28138855
248	0x3e819dca	0.25315696
249	0x3cab2d01	0.020895483
250	0x3c9ced6a	0.019156177
251	0x3d23aad1	0.039957825
252	0xbe16be8a	-0.14721122
253	0xbe473df8	-0.19457233
254	0xbe58ebfd	-0.21183772
255	0xbe81e3bf	-0.2536907

gru.weight_hh_l0 f4 [300, 100]
0	0x3e2b0dbf	0.16704462
1	0x3e96f9df	0.29487512
2	0x3d8fb50a	0.07016952
3	0xbe2d4813	-0.16922025
4	0x3dd75745	0.10514692
5	0x3d3825d4	0.04495795
6	0x3e18f88f	0.14938568
7	0xbde8cdc0	-0.11367369
8	0xbcb0e453	-0.021593248
9	0xbd268fc9	-0.040664468
10	0x3cc4c349	0.0240189
11	0x3d26b753	0.040702175
12	0xbd6571ef	-0.05601686
13	0xbbfb5642	-0.007670195
14	0x3e075614	0.1321643
15	0xbe595ffc	-0.21228021
16	0x3e0f615b	0.14001982
17	0xbe3b6183	-0.18298917
18	0x3df3bd92	0.11901392
19	0x3d08c505	0.033391017
20	0xbdd87ec7	-0.10571056
21	0xbc23ffc2	-0.010009708
22	0xbc8e64fc	-0.017382137
23	0xbda8106a	-0.08206256
24	0x3daea5f6	0.08527748
25	0xbdcd4fe9	-0.10025007
26	0xbe39c49d	-0.18141408
27	0x3ddfffbd	0.1093745
28	0x3e86f040	0.2635517
29	0xbc523993	-0.01283111
30	0xbd2c8434	-0.042118266
31	0x3a116f0a	0.0005547857
32	0xbdb76962	-0.08955647
33	0x3d7c2e2a	0.061567463
34	0xbd8903f9	-0.06690211
35	0xbb9d8323	-0.0048068925
36	0x3d01532d	0.031573463
37	0x3c9c76fe	0.019099709
38	0x3e66f6f2	0.2255514
39	0x3d8d7999	0.069079585
40	0xbc7d9ba5	-0.015479003
41	0x3e543bd1	0.20725943
42	0xbc9f9555	-0.019480387
43	0xbd749342	-0.05971075
44	0xbdc5f2a6	-0.09665422
45	0xbe0afb87	-0.13572513
46	0xbddd7903	-0.10814097
47	0xbd6745cc	-0.056463048
48	0x3e836c11	0.25668386
49	0xbe113055	-0.14178593
50	0xbd3f5750	-0.046714127
51	0x3de14707	0.109998755
52	0x3cd1038c	0.025514387
53	0x3ccd205e	0.025039848
54	0xbc85fb1d	-0.016355092
55	0xbe2535aa	-0.16133752
56	0xbdc36b2e	-0.09541927
57	0xbe3053ec	-0.17219514
58	0xbd8f1916	-0.06987207
59	0xbe82169e	-0.2540788
60	0x3e59d289	0.21271719
61	0xbe0c89fd	-0.13724513
62	0xbd32661c	-0.04355441
63	0x3d9885bd	0.074473836
64	0x3e4082ef	0.18799947
65	0xbcef790b	-0.029232522
66	0x3da6f6e8	0.081525624
67	0xbe1a7b19	-0.1508602
68	0xbd963930	-0.073351264
69	0x3d06bcdc	0.032894954
70	0x3e353aec	0.17698258
71	0xbd911394	-0.07083812
72	0x3e88fef2	0.26757008
73	0x3e04a4c6	0.12953481
74	0x3e04faa1	0.12986232
75	0x3d8c9d5e	0.06865953
76	0xbe53b563	-0.20674662
77	0x3d44993a	0.04799769
78	0x3dbfae63	0.093594335
79	0x3e6966b9	0.22793092
80	0x3b7a583e	0.003819957
81	0x3cfb52d9	0.030679153
82	0x3e775522	0.2415357
83	0x3e830251	0.25587705
84	0x3e33c9dc	0.17557472
85	0x3d2da4a9	0.04239336
86	0xbe036c6c	-0.12834328
87	0xbe8efa94	-0.2792555
88	0x3e0cd246	0.13752088
89	0x3e07e653	0.13271455
90	0xbd9133f0	-0.070899844
91	0xbdd2bf2d	-0.1029037
92	0x3c16790a	0.009184131
93	0x3cf80c46	0.03027929
94	0xbdb3b9a6	-0.08775644
95	0x3d8d76a1	0.06907392
96	0x3de17ee0	0.110105276
97	0x3d024fdf	0.031814452
98	0xbda3ed91	-0.080042966
99	0xbe7e9270	-0.24860549
100	0xbc5f84de	-0.013642518
101	0xbda14808	-0.07875067
102	0xbe3b7db4	-0.1830967
103	0xbdff2688	-0.12458521
104	0xbe516c38	-0.20451438
105	0xbe825a28	-0.2545941
106	0xbc9e12e6	-0.01929612
107	0xbdbb32fb	-0.09140583
108	0x3db88af5	0.09010879
109	0xbc4988e1	-0.012300701
110	0xbd73664c	-0.05942373
111	0xbe48c50b	-0.19606416
112	0x3e0f6f83	0.14007382
113	0xbbc09e46	-0.0058782427
114	0x3b857022	0.004072205
115	0xbce39753	-0.027782118
116	0xbd8bc08b	-0.06823834
117	0x3da6f21e	0.08151649
118	0x3dc45ae4	0.095876485
119	0x3cd3785e	0.025814231
120	0xbcc383bb	-0.023866525
121	0xbe3daa0a	-0.18521896
122	0xbdcf8151	-0.10132087
123	0x3e2cf4e1	0.16890289
124	0xbcd285a0	-0.025698483
125	0xbded2a70	-0.1158036
126	0xbca1b1be	-0.019738074
127	0x3df92942	0.121660724
128	0x3dbbdc20	0.09172845
129	0xbe569ef1	-0.20959069
130	0x3d929c40	0.071587086
131	0x3e38125f	0.17975758
132	0x3d3a393c	0.04546474
133	0x3d7d803a	0.061889865
134	0x3d7ca6db	0.061682563
135	0x3d8a7c7d	0.067620255
136	0xbd3c4294	-0.04596193
137	0xbe657066	-0.22406158
138	0xbde26f33	-0.11056366
139	0x3c3f96be	0.011693655
140	0x3d6f5cde	0.058438174
141	0x3da4d08a	0.08047588
142	0x3e9c6189	0.30543163
143	0x3d0f7966	0.035027884
144	0xbd997aef	-0.07494151
145	0xbc971b4a	-0.01844563
146	0x3d9c9e20	0.076473475
147	0xbdc4f2b7	-0.09616607
148	0xbdeb02b3	-0.11475124
149	0xbdb2dbd0	-0.08733332
150	0x3db1a0e8	0.086732686
151	0xbd99d34f	-0.07511007
152	0xbda16b34	-0.078817755
153	0x3cb55adf	0.022138057
154	0xbe2611e5	-0.16217764
155	0xbd1395eb	-0.036031645
156	0x3bbfb31b	0.0058502085
157	0xbd86c8c4	-0.06581262
158	0x3da6b6b2	0.08140315
159	0x3e363634	0.17794114
160	0x3d0783ae	0.033084564
161	0x3d25cbbd	0.040477503
162	0x3e69b479	0.22822751
163	0xbdf6349c	-0.12021753
164	0x3dec3eaa	0.1153539
165	0xbe57a668	-0.21059573
166	0xbd1489ba	-0.03626416
167	0x3dd0efc2	0.1020198
168	0x3d8e3f0c	0.06945619
169	0x3d013679	0.03154609
170	0xbe005fe2	-0.12536576
171	0x3dca13b1	0.09867037
172	0x3e2a4ec0	0.16631603
173	0x3d915f05	0.07098202
174	0x3d2c1ccd	0.042019654
175	0x3e2bb6da	0.16768971
176	0xbd0f400c	-0.03497319
177	0xbdd72fb1	-0.10507143
178	0x3c9a411a	0.018829871
179	0x3dcc7dc0	0.099849224
180	0x3e057c32	0.13035658
181	0x3c670d9e	0.014102368
182	0xbbecf291	-0.0072310646
183	0x3d8b8ad1	0.068135865
184	0xbe20aceb	-0.15690963
185	0xbdc092f1	-0.09403027
186	0xbdac269e	-0.08405803
187	0xbe6bd9ab	-0.23032252
188	0xbd3d8286	-0.046267055
189	0xbdfa16cf	-0.12211382
190	0xbd83d30f	-0.064367406
191	0xbdacb327	-0.08432608
192	0x3d7c6aaf	0.06162518
193	0xbd0e05d9	-0.034673546
194	0x3e1e2d45	0.15446956
195	0xbda451f4	-0.08023444
196	0xbe4d8070	-0.20068526
197	0xbe2e1685	-0.17000778
198	0xbbb96c3c	-0.0056586545
199	0x3d960018	0.07324237
200	0x3d9f06e1	0.07764984
201	0xbdd05772	-0.10172929
202	0x3e2edee9	0.17077221
203	0x3ca8dfbd	0.0206145
204	0x3d70581b	0.058677774
205	0xbd70a31c	-0.058749303
206	0x3c1575c3	0.009122315
207	0x3dfb948a	0.12284191
208	0x3e392699	0.1808113
209	0x3d9e38aa	0.077256516
210	0x3dfdc6b1	0.12391413
211	0xbe2730c5	-0.16327198
212	0xbe80b2a1	-0.25136283
213	0x3cc197cf	0.023631958
214	0x3cd7e896	0.026356023
215	0xbe8f4164	-0.27979577
216	0x3dbd4b53	0.092428826
217	0xbd4345b9	-0.047673915
218	0x3d1b4816	0.037910543
219	0x3d82a257	0.0637862
220	0x3c79038f	0.015198602
221	0xbde17041	-0.11007739
222	0xbd1e4708	-0.03864196
223	0x3e5268fa	0.20547858
224	0xbda6eec6	-0.08151011
225	0x3e297953	0.16550188
226	0xbbf3d20c	-0.007440811
227	0x3dea4bdc	0.1144025
228	0xbd5af303	-0.05345441
229	0xbe63af7d	-0.22234912
230	0x3c9d6543	0.019213324
231	0xbca9012f	-0.020630447
232	0x3e06a7c9	0.13149942
233	0xbdb639d5	-0.08897749
234	0x3db0e3dc	0.08637211
235	0xbdad66ff	-0.084669106
236	0xbc2f8187	-0.010712034
237	0x3ddbf99b	0.10740968
238	0xbdcc4f26	-0.09976034
239	0x3bf9dbb3	0.007625067
240	0xbe029cb3	-0.12755089
241	0xbebd453f	-0.36966893
242	0x3e4edd97	0.20201717
243	0xbd86e7d5	-0.06587187
244	0x3cc425ec	0.023943864
245	0xbd55600a	-0.052093543
246	0xbe010560	-0.12599707
247	0xbdbf2806	-0.09333806
248	0x3e427511	0.1898997
249	0xbdc47ace	-0.09593736
250	0xbe236fdf	-0.15960644
251	0xbbe28a22	-0.0069134394
252	0x3e0a8010	0.13525414
253	0x3cd9bf5b	0.026580503
254	0xbdebdbe6	-0.11516552
255	0xbc43aa17	-0.011942408

gru.bias_ih_l0 f4 [300]
0	0x3e6c1a3c	0.23056883
1	0x3cd3824f	0.025818972
2	0x3de666b6	0.11250059
3	0xbd065891	-0.032799307
4	0x3dbfef7f	0.09371852
5	0xbe1f7292	-0.15571049
6	0x3d6d33f2	0.057910867
7	0x3df68534	0.12037125
8	0xbdc05e70	-0.093930125
9	0xbc9f5b2a	-0.01945265
10	0xbd60e75c	-0.05490814
11	0x3d8c9112	0.068636075
12	0x3d22dff2	0.039764352
13	0xbcfb078e	-0.03064325
14	0x3daebe38	0.08532375
15	0xbd770788	-0.060309917
16	0x3e2267a8	0.15859854
17	0x3d556c29	0.052105103
18	0xbd816956	-0.06318919
19	0xbdc2fe5d	-0.09521172
20	0xba57c48f	-0.00082308886
21	0x3dfc7149	0.12326295
22	0xbccdaed0	-0.025107771
23	0x3d3172df	0.04332244
24	0xbdd8fd7e	-0.10595225
25	0x3da27670	0.079327464
26	0x3db21a46	0.086964175
27	0xbe03b874	-0.12863332
28	0x3cc41e49	0.023940222
29	0x3c437235	0.011929085
30	0xbd82ef4a	-0.06393297
31	0x3be4765f	0.0069721187
32	0xbe30668f	-0.17226623
33	0xbe060f6d	-0.13091822
34	0xbc88f652	-0.016719017
35	0xbda254b8	-0.07926315
36	0x3ce488e6	0.02789731
37	0xbca89792	-0.020580087
38	0x3e6f0a27	0.23343717
39	0x3de65db0	0.11248338
40	0xbd30bebc	-0.04315065
41	0x3c620525	0.013795172
42	0xbd38c4cc	-0.045109555
43	0x3dec851e	0.115488276
44	0xbdc9e560	-0.09858203
45	0xbd45c003	-0.04827882
46	0x3d501633	0.05080242
47	0xbcfd5930	-0.030926317
48	0x3dd522e3	0.10407045
49	0x3d28a68b	0.041174453
50	0x3d296207	0.04135325
51	0xbe4898a1	-0.19589473
52	0x3c8ac7d9	0.016940998
53	0x3e2d9633	0.16951828
54	0x3c053ed3	0.008132654
55	0xbde04f64	-0.109526426
56	0x3e142baf	0.14469789
57	0x3cf7b6a9	0.030238466
58	0x3dcf96e7	0.10136204
59	0x3ca688b2	0.020328853
60	0xbd57ef15	-0.05271824
61	0xbe159b01	-0.1460991
62	0x3e0364f1	0.12831475
63	0x3dc1b7e3	0.09458902
64	0xbc7b9f41	-0.015357793
65	0x3b6bfff1	0.0036010707
66	0x3d87889d	0.06617854
67	0xbdb3ea51	-0.08784927
68	0x3d9d1c14	0.07671371
69	0x3d10adcd	0.035322
70	0x3e11ec77	0.1425036
71	0xbdb075fa	-0.08616252
72	0x3dccdca3	0.100030206
73	0x3d31b4b5	0.043385226
74	0xbd887d3a	-0.0666451
75	0xbcf3d530	-0.029764742
76	0xbd24991c	-0.04018508
77	0xbdf348f9	-0.11879153
78	0xbd52467a	-0.051336743
79	0xbe032f58	-0.12811029
80	0x3d351dbc	0.04421781
81	0x3dbe6c58	0.09298009
82	0xbdcd155e	-0.10013841
83	0xbb03d465	-0.002011561
84	0xbc8450e2	-0.01615185
85	0x3e2bb634	0.16768724
86	0x3d89c6c6	0.06727366
87	0xbd23ae3f	-0.039961096
88	0x3dc1bd27	0.09459906
89	0xbe126a7b	-0.14298432
90	0xbdab0d8e	-0.08352195
91	0xbb9f5368	-0.0048622377
92	0x3d81081f	0.06300377
93	0x3da973e0	0.082740545
94	0xbe26d6c5	-0.16292866
95	0x3d1c55b8	0.038167685
96	0x3c881406	0.01661111
97	0x3cc8e486	0.024523031
98	0xbc860265	-0.016358564
99	0x3e2c1a31	0.16806866
100	0x3d051e98	0.03249988
101	0x3daec047	0.08532768
102	0xbdd75e33	-0.10516014
103	0x3d865486	0.0655909
104	0x3cff01dd	0.031128818
105	0x3c60af8e	0.0137137305
106	0xbe0c27ee	-0.13687107
107	0xbe8ba96b	-0.27277693
108	0x3e13429d	0.1438088
109	0xbc95462f	-0.018221943
110	0xbe271513	-0.16316633
111	0xbb3f3906	-0.0029178276
112	0xbe8a7e7f	-0.27049634
113	0x3d80d860	0.0629127
114	0xbcb2e8a3	-0.021839445
115	0x3e2c68f0	0.16836905
116	0xbd82b72a	-0.06382592
117	0x3e49dcdd	0.19713159
118	0x3d8a244f	0.067452066
119	0xbc802338	-0.015641794
120	0xbe118efa	-0.14214697
121	0x3c2806b0	0.010255501
122	0x3dc024c8	0.093820155
123	0xbe3b1024	-0.18267876
124	0xbe9c9b08	-0.3058703
125	0x3e7a8768	0.24465716
126	0xbdd97326	-0.10617666
127	0xbe479866	-0.19491729
128	0xbd8a11e7	-0.06741696
129	0x3e1f5661	0.15560295
130	0xbd64d297	-0.055864897
131	0x3e2c51cc	0.16828078
132	0x3cbba707	0.022906793
133	0x3e8e13da	0.2774952
134	0x3d97ad01	0.07406045
135	0xbd188943	-0.037240278
136	0xbdac9576	-0.08426945
137	0x3d97cea2	0.07412459
138	0xbd62fcf5	-0.05541702
139	0x3da3935a	0.079870895
140	0x3e59aab1	0.2125652
141	0xbe3ad10c	-0.18243808
142	0x3de09b63	0.10967138
143	0xbd27caf4	-0.040965036
144	0x3d5ee6c2	0.054419287
145	0x3c27b0f4	0.01023506
146	0xbdf347eb	-0.11878952
147	0x3e85d74f	0.2614083
148	0xbcf95c67	-0.030439569
149	0xbd1443cb	-0.036197465
150	0xbdaf776f	-0.08567702
151	0xbe03c4f6	-0.12868103
152	0xbd1d679f	-0.0384289
153	0x3cc53f81	0.024078133
154	0x3cf0fe6f	0.029418198
155	0xbe912dcd	-0.28355256
156	0x3e3b02e4	0.18262821
157	0xbe8ea7b5	-0.27862325
158	0xbda9eabc	-0.08296725
159	0xbe68abf1	-0.2272184
160	0xbc9b9942	-0.018993977
161	0xbdfb0626	-0.12257032
162	0xbd3c9824	-0.04604353
163	0x3d83198e	0.064013585
164	0x3df09a3a	0.117481664
165	0xbde0268c	-0.10944852
166	0x3e7c1040	0.24615574
167	0xbe42e859	-0.19033946
168	0xbd7bfc2b	-0.061519783
169	0xbe3008a9	-0.17190804
170	0xbea9b707	-0.3314745
171	0xbda8eb6b	-0.082480274
172	0xbe627602	-0.22115329
173	0xbcabca81	-0.020970585
174	0x3d2212da	0.03956876
175	0x3d6f9cee	0.05849927
176	0xbe58ab8b	-0.21159188
177	0x3d3d1b1a	0.046168424
178	0xbd7455a1	-0.059651975
179	0xbe97be3b	-0.29637322
180	0xbe624f37	-0.2210053
181	0xbe0a85c8	-0.13527596
182	0x3d59efef	0.053207334
183	0xbaee2cd9	-0.0018171325
184	0xbe99f83f	-0.3007221
185	0x3e081fed	0.13293429
186	0xbb27e527	-0.0025618763
187	0x3e510ec0	0.20415783
188	0xbd240811	-0.040046755
189	0xbc9d7be1	-0.01922411
190	0xbe70d213	-0.23517637
191	0x3e2c93cd	0.16853257
192	0xbdd13588	-0.102152884
193	0x3e04669a	0.12929764
194	0xbd7971f2	-0.060899682
195	0xbcb2b6bf	-0.021815656
196	0x3e256626	0.16152248
197	0xbd95c679	-0.07313246
198	0x3cdd7f77	0.027038319
199	0xbe0b9e1d	-0.13634534
200	0xbcb29100	-0.021797657
201	0xbdd3ffc3	-0.10351517
202	0x3d9248fe	0.071428284
203	0xbe0b6078	-0.13611019
204	0x3ca729f0	0.02040574
205	0xbda3d99b	-0.08000489
206	0x3d8e4fe1	0.069488294
207	0xbdfd6cba	-0.123742536
208	0xbd090441	-0.033451322
209	0x3d897bda	0.06713076
210	0xbcdb4bb6	-0.0267695
211	0x3de7e2bd	0.11322544
212	0xbe06326f	-0.13105176
213	0xbd8fde93	-0.070248745
214	0x3d1cb0ed	0.038254667
215	0xbb90a83d	-0.004414587
216	0xbdb3d5b2	-0.087809935
217	0x3c99d5d9	0.018778728
218	0xbce073bb	-0.027398935
219	0xbcdc06d0	-0.026858717
220	0x3c661c42	0.014044823
221	0x3c223847	0.009901113
222	0x3dbb5664	0.09147337
223	0xbcd7161f	-0.026255665
224	0xbd2466d7	-0.04013714
225	0x3d81a2ed	0.06329904
226	0xb84c73cd	-4.8745238e-05
227	0xbe1fa4b0	-0.15590167
228	0xbd2cb4d9	-0.042164657
229	0x3d518c9a	0.05115948
230	0x3da4a1d1	0.080386765
231	0x3d3d5fe4	0.046234027
232	0xbe0cdb82	-0.1375561
233	0xbd61185f	-0.054954883
234	0xbe0a202d	-0.13488837
235	0x3d3e47b0	0.046455085
236	0x3d9b88ce	0.07594453
237	0xbd46c2ac	-0.048525497
238	0x3d96bdae	0.07360397
239	0xbd7da084	-0.061920658
240	0x3dc2f29b	0.095189296
241	0xbd46bf9d	-0.04852258
242	0xbdaf919a	-0.08572693
243	0x3cd9c3c7	0.026582612
244	0x3e328f70	0.1743753
245	0x3d8916ac	0.066937774
246	0xbd89dce8	-0.06731588
247	0xbe14da52	-0.14536408
248	0xbc538b8b	-0.012911688
249	0xbe198e73	-0.14995746
250	0xbe001b95	-0.12510522
251	0xbd566f93	-0.0523525
252	0x3e585a96	0.21128306
253	0xbdcd6106	-0.100282714
254	0x3e479603	0.19490819
255	0x3d928848	0.071549

gru.bias_hh_l0 f4 [300]
0	0x3e6b4455	0.22975285
1	0x3b9fb6da	0.0048740925
2	0x3da98e4e	0.082790956
3	0x3d886ba8	0.06661159
4	0xbca4ade2	-0.020102445
5	0xbcd91956	-0.026501339
6	0x3d7a27ba	0.061073042
7	0x3e1f8b41	0.15580465
8	0x3c1e9722	0.009679588
9	0xbd53a843	-0.05167414
10	0x3a41410f	0.000737206
11	0x3d8e8aad	0.06960044
12	0x3ccf85c5	0.025332341
13	0xbd81494b	-0.06312808
14	0x3c00ad47	0.007853813
15	0xbd1e6c67	-0.0386776
16	0x3e184f01	0.14873888
17	0x3d50a3d1	0.050937477
18	0xbe489476	-0.19587883
19	0xbe1ac35a	-0.15113583
20	0x3db18794	0.086684376
21	0x3e10fd36	0.14159092
22	0x3bc46842	0.005993874
23	0x3cc3ded4	0.023909964
24	0xbda93aca	-0.08263166
25	0xbb9fe913	-0.0048800795
26	0x3e1e6104	0.15466696
27	0xbddfcbbe	-0.109275326
28	0x3dcbf3fb	0.09958645
29	0xbcebe583	-0.028795963
30	0xbe0e4b11	-0.13895823
31	0xbd231951	-0.039819065
32	0xbe4197ca	-0.18905559
33	0xbdcb27b4	-0.09919682
34	0x3cbcad1e	0.023031767
35	0x3d486aaa	0.048929848
36	0xbc424597	-0.011857412
37	0xbc15ddd1	-0.009147123
38	0x3e2c567c	0.16829866
39	0xbd1a9fb9	-0.03774998
40	0xb942764f	-0.00018545355
41	0x3a0806c4	0.00051889964
42	0xbc57c230	-0.0131688565
43	0x3e5bea2b	0.21476047
44	0x3da8ffbf	0.08251905
45	0xbd98b583	-0.074564956
46	0x3d91c484	0.071175605
47	0x3d1ed12a	0.038773693
48	0x3de93dd6	0.113887474
49	0x3cef5874	0.029216982
50	0x3da8d2b1	0.08243311
51	0xbe429818	-0.19003332
52	0x3d27d2c0	0.04097247
53	0xbbb8e229	-0.0056421948
54	0x3dd82cf6	0.105554506
55	0xbc795824	-0.015218768
56	0x3e10e052	0.14148071
57	0xbcaa16bf	-0.0207628
58	0x3e1e9c4b	0.15489309
59	0x3d78a3ae	0.060702972
60	0xbe1caad3	-0.1529954
61	0xbd9df82d	-0.077133514
62	0x3e211f98	0.15734708
63	0x3dd672ac	0.10471091
64	0xbd9a21eb	-0.075260006
65	0xbd6d8ebc	-0.05799745
66	0x3e063475	0.13105948
67	0xbddc459d	-0.10755465
68	0x3e11b37f	0.14228629
69	0xbd9cee45	-0.07662634
70	0x3dd10557	0.102060966
71	0xbdb88528	-0.090097725
72	0x3c8fad28	0.017538622
73	0xbd853d10	-0.065057874
74	0xbcd070e4	-0.025444455
75	0xbcfb9ada	-0.030713487
76	0xbd5219d6	-0.05129417
77	0xbe04ff09	-0.12987913
78	0xbe4a7c04	-0.1977387
79	0xbd78f643	-0.06078173
80	0xbd837884	-0.06419471
81	0x3b2cb01d	0.002635009
82	0xbc4a0946	-0.0123313125
83	0xbdda8f94	-0.106719166
84	0x3d483420	0.048877835
85	0x3cf78faa	0.030219872
86	0x3dd40363	0.103522085
87	0xbca5b413	-0.020227468
88	0x3e500d36	0.2031754
89	0xbe3d5fd1	-0.18493582
90	0xbc70579c	-0.014669325
91	0x3d5d5ba5	0.054042477
92	0x3e2e9c85	0.17051895
93	0x3d31410d	0.043274928
94	0x3cddc101	0.02706957
95	0x3c46d653	0.01213606
96	0xbd67cb08	-0.05659011
97	0xbc25e1ff	-0.010124682
98	0x3d9d0f42	0.07668926
99	0x3dae52da	0.085118964
100	0x3c112739	0.008859449
101	0x3d2699d7	0.040674057
102	0xbcbade49	-0.022811072
103	0xbcc003d0	-0.023439318
104	0xbcc7d630	-0.024394125
105	0x3dc05f4f	0.09393179
106	0xbe849f82	-0.25902945
107	0xbec24461	-0.37942794
108	0x3cc4fbd1	0.024045857
109	0x3dd568f9	0.104204126
110	0xbdcc4fd2	-0.09976162
111	0x3d4dacf7	0.05021378
112	0xbe9d4e78	-0.3072393
113	0x3d07bf86	0.033141635
114	0x3da0eb2b	0.07857355
115	0x3e0d76ab	0.138148
116	0xbda2ee72	-0.07955636
117	0x3e9ac1b5	0.30225912
118	0x3e1ca7c1	0.15298368
119	0x3e1c4e42	0.15264228
120	0xbded29f6	-0.11580269
121	0x3d1c6237	0.038179602
122	0x3bd38c53	0.006455937
123	0xbd3beb93	-0.045878958
124	0xbe31c711	-0.17361094
125	0x3e68040a	0.22657791
126	0x3cc361dc	0.023850374
127	0xbd7e22c7	-0.062044885
128	0xbe44b92e	-0.19211265
129	0x3db07047	0.08615165
130	0xbd732091	-0.05935723
131	0x3e2c1f91	0.16808917
132	0x3dd07fd9	0.10180635
133	0x3e8e50b8	0.2779596
134	0x3cee617f	0.029099224
135	0xbb95a203	-0.0045664324
136	0x3a4d3608	0.00078281807
137	0xbd119f46	-0.035552286
138	0xbd8d2e77	-0.06893628
139	0x3d069568	0.03285733
140	0x3de1e408	0.11029822
141	0xbe3be385	-0.1834851
142	0x3d40bf4d	0.04705744
143	0xbdc0bdf0	-0.09411228
144	0x3d762e3d	0.06010269
145	0xbca5671e	-0.020190772
146	0xbe22e5b4	-0.15907937
147	0x3e750db8	0.23931015
148	0xbd7133d9	-0.058887336
149	0x3a393825	0.0007065556
150	0xbcbea1ff	-0.023270605
151	0xbe4c724f	-0.1996548
152	0x3d7b3565	0.061330218
153	0x3daf6b87	0.08565431
154	0xbc0ca88b	-0.008585106
155	0xbe171740	-0.14754963
156	0x3e17a169	0.14807667
157	0xbe043d86	-0.12914094
158	0xbe3620cf	-0.17785953
159	0xbe91bc6f	-0.28464076
160	0xbcf4f310	-0.029901057
161	0xbe1751fb	-0.14777367
162	0xbcc29b42	-0.023755673
163	0x3daadecc	0.083432764
164	0x3da1aa5f	0.07893824
165	0xbdb97d8c	-0.09057149
166	0x3ea925f8	0.3303678
167	0xbdee4a9b	-0.116353236
168	0x3bb0e861	0.0053987955
169	0xbe30d510	-0.17268777
170	0xbe47e659	-0.19521464
171	0xbd5fb176	-0.0546126
172	0xbe35ad60	-0.17741919
173	0xbe3b58f4	-0.18295652
174	0xbd1c8db5	-0.03822108
175	0x3dbd271c	0.09235975
176	0xbda80ba0	-0.08205342
177	0x3e21c983	0.15799527
178	0xbdd21391	-0.10257638
179	0xbe4489cf	-0.19193195
180	0xbe9de1ef	-0.30836436
181	0xbdaaefb7	-0.08346503
182	0x3de98d89	0.11403949
183	0xbe1030ac	-0.14081067
184	0xbe194da2	-0.14971021
185	0x3d5e63fe	0.05429458
186	0x3db78a30	0.08961904
187	0x3e8aa124	0.27076066
188	0xbd724920	-0.05915177
189	0xbcf7b2cd	-0.030236626
190	0xbe36c4be	-0.17848489
191	0x3d8b7c11	0.06810773
192	0xbdf6cbe6	-0.12050609
193	0x3cfd737c	0.030938856
194	0xbe5df8f1	-0.21676995
195	0xbc8cfae6	-0.017209481
196	0x3e41eb81	0.18937494
197	0xbbf552c4	-0.007486673
198	0x3d153ec8	0.036436826
199	0xbda7de85	-0.08196739
200	0xbc4a261f	-0.01233819
201	0x3d328978	0.04358813
202	0x3d9c1bd4	0.07622495
203	0xbd92d5b6	-0.071696684
204	0x3e388caf	0.18022417
205	0xbdd1b4b4	-0.102395445
206	0x3d82ab39	0.063803144
207	0xbe25f5af	-0.16207002
208	0x3da1efbc	0.07907054
209	0xbde8119a	-0.11331482
210	0x3bc1a769	0.0059098494
211	0x3d64a34d	0.0558198
212	0x3d9b04cc	0.07569274
213	0x3c99fffb	0.018798819
214	0x3e062b78	0.1310252
215	0xbd46b00f	-0.048507746
216	0xbd8d96c8	-0.06913525
217	0xbd320476	-0.043461286
218	0xbd8bcc79	-0.068261094
219	0xbe02d5e8	-0.12776911
220	0x3d825903	0.06364634
221	0x3d2f1998	0.042749017
222	0xbcdb831f	-0.026795922
223	0xbd42edc4	-0.047590032
224	0xbdf67e42	-0.120358005
225	0xbdec6b43	-0.11543896
226	0xbcad5b89	-0.021161811
227	0xbe1a2b72	-0.15055636
228	0x3d5cd203	0.05391122
229	0x3dbfed37	0.09371417
230	0xbd22bd56	-0.039731346
231	0xbc830147	-0.01599182
232	0x3d72b2aa	0.05925242
233	0xbd3462b7	-0.044039454
234	0x3da3f08e	0.080048665
235	0xbd959e3a	-0.0730557
236	0x3dd217eb	0.10258468
237	0x3da80a17	0.082050495
238	0xbcfa217b	-0.030533543
239	0x3debf6e7	0.11521702
240	0x3ad008c4	0.0015871753
241	0x3e1c74cd	0.15278931
242	0x3c3bfae4	0.011473391
243	0xbcf6591d	-0.03007179
244	0xbcd05eeb	-0.025435885
245	0x3d2b5603	0.041830074
246	0x3d1dbcab	0.038510006
247	0xbd6424d3	-0.05569918
248	0x3e326170	0.17419982
249	0x3d35c398	0.044375986
250	0xbce83986	-0.028347742
251	0xbd13a986	-0.036050342
252	0x3daf91db	0.085727416
253	0x3e33e692	0.17568424
254	0xbbd895b6	-0.006609644
255	0x3d3ce4fb	0.04611681

out.weight f4 [36, 200]
0	0xbe9cc253	-0.30617008
1	0xbeba1f13	-0.36351833
2	0x3d95f7ca	0.07322653
3	0x3edee0a9	0.43530777
4	0x3d11af0f	0.03556734
5	0x3f404b64	0.75115037
6	0xbe894a44	-0.26814473
7	0x3eb3ce6b	0.35118422
8	0xbed4a3b8	-0.41531157
9	0xbc4362eb	-0.011925439
10	0xbe398bea	-0.18119779
11	0xbe6c1c72	-0.23057726
12	0x3e1fbb1e	0.15598723
13	0xbe462bf1	-0.193527
14	0xbf0d009e	-0.55079067
15	0x3ee95431	0.45572045
16	0xbe4faa53	-0.20279817
17	0x3f114b19	0.56755215
18	0xbe823c21	-0.254365
19	0xbe8d2368	-0.27566075
20	0x3e579a82	0.21055034
21	0xbd7c96d8	-0.061667293
22	0x3d9efb00	0.07762718
23	0x3d678121	0.05651963
24	0x3e9c2ff0	0.30505323
25	0x3ee20f28	0.44152188
26	0xbb94781b	-0.0045309193
27	0x3da98b75	0.082785524
28	0xbe506980	-0.20352745
29	0xbe4fda3f	-0.20298098
30	0x3e9f7fd4	0.31152213
31	0xbe825f65	-0.25463405
32	0x3e1dcb1d	0.15409513
33	0x3b032d51	0.0020016024
34	0xbc407025	-0.011745487
35	0xbd67ba00	-0.056573868
36	0xbda59672	-0.08085336
37	0x3e12445b	0.14283888
38	0xbe13d195	-0.14435418
39	0xbe53471e	-0.20632598
40	0x3e0096d8	0.12557542
41	0x3da88f4b	0.08230456
42	0xbe832350	-0.2561288
43	0xbdf248d9	-0.11830301
44	0x3d20581b	0.039146524
45	0xbe3d32cb	-0.18476407
46	0x3e2c5019	0.1682743
47	0x3f31213e	0.6919135
48	0xbf0caf3c	-0.54954886
49	0xbe3380b5	-0.17529567
50	0xbe76b750	-0.24093366
51	0x3e4e9e01	0.20177461
52	0xbd02edce	-0.03196507
53	0xbe9fbe55	-0.311999
54	0xbe04aa1f	-0.12955521
55	0xbdc3bff4	-0.095580965
56	0x3ee479ba	0.4462412
57	0x3e933eed	0.28758946
58	0xbe19bae6	-0.15012702
59	0xbdfbf39e	-0.12302326
60	0xbe3393b1	-0.17536809
61	0x3e358f9e	0.17730567
62	0xbed83e72	-0.42235142
63	0x3e256e9a	0.16155472
64	0xbdab3752	-0.08360161
65	0x3e0f4307	0.13990413
66	0x3e014e2c	0.12627476
67	0x3dabfe36	0.08398096
68	0xbd65c6fc	-0.05609797
69	0x3d2b6c24	0.041851178
70	0xbee9beba	-0.45653325
71	0x3d93cfaf	0.07217347
72	0xbec51c26	-0.38498038
73	0xbdfcd1d0	-0.12344706
74	0xbe73f0d4	-0.23822337
75	0xbeb4fb0b	-0.3534778
76	0x3ea1ce04	0.3160249
77	0xbdee71e8	-0.1164282
78	0xbe8a85dd	-0.27055255
79	0x3da2e8f2	0.07954587
80	0x3dfe4796	0.12415998
81	0x3dd1c55e	0.10242723
82	0xbf057998	-0.5213866
83	0xbf3a3047	-0.72729915
84	0xbe21f27e	-0.1581516
85	0xbe911723	-0.28337964
86	0x3f500cf6	0.81269777
87	0x3f2a4bb7	0.6652178
88	0xbe129cbe	-0.14317605
89	0xbc344835	-0.011003544
90	0x3dd777fe	0.105209336
91	0x3ea9388e	0.3305096
92	0x3dcd67ef	0.100295894
93	0xbd6608ac	-0.056160614
94	0xbe5cdc81	-0.2156849
95	0xbe7a4caa	-0.24443308
96	0x3e4abe74	0.19799215
97	0xbe50ce1d	-0.20391126
98	0xbc0de32e	-0.008660121
99	0x3e390989	0.18070044
100	0xbd2670cb	-0.04063491
101	0x3cdd88dc	0.027042799
102	0xbadcdd95	-0.0016850705
103	0x3de24520	0.11048341
104	0xbde2d3a9	-0.11075527
105	0xbe0aafb8	-0.13543594
106	0x3e9c31ae	0.30506653
107	0xbf1131de	-0.56716716
108	0xbe2772f3	-0.16352443
109	0xbd7094ec	-0.058735773
110	0x3e76653b	0.24062054
111	0x3ec5376b	0.38518843
112	0xbe94559e	-0.2897157
113	0x3f2257f0	0.6341543
114	0x3e1dda8b	0.15415399
115	0x3d376ded	0.044782568
116	0xbeb26484	-0.34842312
117	0x3e66b158	0.22528589
118	0xbe0b628a	-0.13611808
119	0x3e906e75	0.28209272
120	0xbe634bff	-0.22196959
121	0x3ea7dce9	0.3278573
122	0x3d929816	0.07157914
123	0xbec4e1f2	-0.38453633
124	0xbe386812	-0.1800845
125	0x3ef55f1c	0.47924125
126	0xbd5242eb	-0.05133335
127	0x3e5cea5b	0.21573775
128	0x3a90b619	0.0011040597
129	0x3e79f464	0.24409634
130	0x3e0e52ca	0.13898769
131	0xbe918765	-0.2842361
132	0x3d39d2d7	0.04536709
133	0xbf18173d	-0.5941046
134	0x3e30d93b	0.17270367
135	0x3cdb73b0	0.026788563
136	0x3ea5e040	0.32397652
137	0xbdf07ca3	-0.117425226
138	0x3d65b6dd	0.056082595
139	0x3e9a3b27	0.30123255
140	0x3ea88113	0.32910976
141	0xbd741076	-0.05958601
142	0x3b9b2285	0.0047343397
143	0x3e866fd1	0.26257184
144	0xbcce3acd	-0.025174523
145	0x3e3f484c	0.18679923
146	0xbe8b990c	-0.27265203
147	0x3e2f07ee	0.17092869
148	0x3e811181	0.25208667
149	0xbdc92f9d	-0.09823535
150	0xbe7ea54b	-0.24867742
151	0x3e9b8f8e	0.3038296
152	0x3d892146	0.066957995
153	0xbe1d397c	-0.1535396
154	0xbe8d6dfe	-0.2762298
155	0xbc378744	-0.011201683
156	0xbe05798e	-0.1303465
157	0xbe79fd59	-0.2441305
158	0xbe2da2dd	-0.16956659
159	0xbd993ab5	-0.074819006
160	0xbdf644dd	-0.120248534
161	0x3e200328	0.15626204
162	0xbc1cb97a	-0.009565705
163	0xbed9c01d	-0.42529383
164	0xbefa5af3	-0.48897514
165	0x3e87a36e	0.26491874
166	0xbe907528	-0.28214383
167	0xbe9b9680	-0.3038826
168	0x3c7a612e	0.0152819585
169	0x3de26ea2	0.11056258
170	0xbded74eb	-0.11594566
171	0xbdd31896	-0.10307424
172	0xbe5a841e	-0.21339461
173	0x3ca9cba8	0.020726994
174	0xbe1994cc	-0.14998168
175	0xbf02af62	-0.5104886
176	0xbc987c05	-0.018613825
177	0x3e48213a	0.19543925
178	0xbe498b53	-0.19682054
179	0x3da0eaca	0.078572825
180	0x3e89a27c	0.26881778
181	0x3e6e6d58	0.23283899
182	0xbe4f8aba	-0.20267764
183	0x3f040ae7	0.51579136
184	0x3cc764f4	0.02434013
185	0xbf1cb595	-0.6121457
186	0x3cac0459	0.020998167
187	0x3d896ca1	0.067101724
188	0xbdad9ecd	-0.084775545
189	0xbe7cc117	-0.24683033
190	0xbdb1f230	-0.08688772
191	0x3dc82da2	0.09774329
192	0xbe531ef4	-0.20617276
193	0xbdb9fa29	-0.090809174
194	0x3e4c2712	0.19936779
195	0xbdcb5cb1	-0.09929789
196	0x3ef8d5b7	0.4860055
197	0x3e6c0c37	0.23051535
198	0xbe780fa6	-0.2422472
199	0x3db10b10	0.08644688
200	0xbd6132d0	-0.0549801
201	0xbdc61b62	-0.096731916
202	0x3e7bd225	0.24591883
203	0xbd59318b	-0.053025763
204	0x3e6e3620	0.23262835
205	0xbd96b3b8	-0.073584974
206	0x3e39128f	0.18073486
207	0x3e61c6f4	0.22048551
208	0xbd66ef13	-0.056380343
209	0x3e35d683	0.17757611
210	0x3e81bfe5	0.25341716
211	0x3d90a6f7	0.07063096
212	0x3d83fd25	0.06444768
213	0xbe09960e	-0.13436148
214	0x3d36c4e7	0.044621374
215	0x3da7f238	0.082004964
216	0x3df5c1ae	0.11999832
217	0xbb4b5d0e	-0.0031030807
218	0xbe3c704c	-0.18402213
219	0xbe0c6447	-0.13710128
220	0xbe267f31	-0.16259457
221	0x3df5d0d7	0.12002724
222	0x3e776fec	0.24163789
223	0x3c961551	0.018320711
224	0x3e4a74b8	0.19771087
225	0xbb5a7de6	-0.0033339201
226	0x3e36ddc9	0.17858042
227	0xbe77e1b1	-0.24207188
228	0xbc785907	-0.0151579445
229	0x3e7da4cd	0.24769898
230	0xbe04221e	-0.1290364
231	0xbdf776b6	-0.12083189
232	0xbe4f321a	-0.20233956
233	0xbcb3e981	-0.02196193
234	0xbe31ea02	-0.17374423
235	0xbe7d290e	-0.24722692
236	0x3e0e4172	0.13892153
237	0x3e0f37dd	0.13986154
238	0x3d4a1e69	0.049345408
239	0x3e57fddb	0.21092932
240	0xbd833d72	-0.06408204
241	0x3ea0679b	0.31329045
242	0xbe2297ab	-0.15878169
243	0x3d915290	0.07095826
244	0x3de942a4	0.11389664
245	0x3de891e9	0.11355955
246	0xbe6dd7f7	-0.23226915
247	0xbe021336	-0.12702641
248	0x3e7435c8	0.23848641
249	0xbea26d91	-0.31724218
250	0x3e88598b	0.26630816
251	0xbce88c11	-0.028387101
252	0x3e51ac86	0.20475969
253	0xbe5ddeb2	-0.21666983
254	0x3e92fbbc	0.28707683
255	0x3dac9039	0.08425946

out.bias f4 [36]
0	0xbf026303	-0.5093233
1	0x3e6fdb50	0.23423505
2	0xbee7bcf0	-0.45261335
3	0x3de03135	0.109468855
4	0xbe14b306	-0.14521417
5	0xbea3bcaf	-0.31979892
6	0x3ce12e88	0.027488008
7	0xbe563c46	-0.2092143
8	0xbcb491a3	-0.022042101
9	0xbe894032	-0.2680679
10	0xbe1922f0	-0.14954734
11	0xbe10a489	-0.14125265
12	0xbe2ab4d6	-0.16670546
13	0xbe29a38a	-0.16566291
14	0xbeaa1081	-0.33215716
15	0xbe356886	-0.17715654
16	0x3e03a49e	0.12855765
17	0xbe3071a7	-0.17230855
18	0x3ce7ae11	0.028281244
19	0x3e46bf35	0.19408877
20	0xbd3ea1ba	-0.046540953
21	0x3e1d975e	0.15389773
22	0xbe40ad06	-0.18816003
23	0xbe996d90	-0.29966402
24	0xbeca046b	-0.39456496
25	0xbe647535	-0.22310336
26	0x3d0e07c6	0.034675382
27	0x3e048f88	0.12945378
28	0x3d000f50	0.031264603
29	0xbe90c0cb	-0.2827209
30	0x3d609c57	0.054836597
31	0xbde595f8	-0.11210245
32	0xbdf960a9	-0.121766396
33	0xbd7595f2	-0.059957452
34	0xbe403718	-0.18771017
35	0xbbc7d4a9	-0.006098349
