modules/prn-gen/exp/en_id/models/unigram/decoder-attn_dot-emb_16-hddn_100-layers_1-epoch_16.pth (torch, 295720 bytes, 7 tensors)

embedding.weight f4 [36, 16]
0.57773155 -1.5166261 -1.9603829 1.0711296 0.48923844 0.030372355 -0.8285118 -0.4993412
-0.53483474 0.2920997 -0.49718115 -0.31841895 -0.09777789 -0.29958028 1.3193358 -0.307046
-0.06690312 0.48442355 -0.8994623 1.1871855 0.38749215 -1.4868127 -2.0060136 -1.415852
-1.098175 -1.182513 -0.13632347 0.7794246 -0.34421888 0.44981134 0.36483094 0.49894246
-0.16270548 0.7073279 1.4312903 0.7926409 2.0114844 0.20923704 -0.33254522 1.1680572
-1.0658145 1.3765559 -0.8982345 0.035540063 0.7183647 0.73310006 0.58052695 -0.23931268
0.32691357 -0.5795451 -0.87766963 2.396542 0.5969473 -0.09956912 -0.71442366 -1.0312492
0.9913217 -0.21050976 -0.38150182 -0.053788323 0.84485835 -0.09639373 -0.97605 -0.6380746
1.2131925 0.1818296 0.2084531 3.4357617 0.14883576 1.3630333 0.5718046 0.2434686
-0.7673293 1.5672405 1.0057809 1.2172983 0.041210357 2.027438 -1.4318887 0.8636482
0.3336797 1.0170314 -0.4659764 1.9569725 -0.6274346 0.9944591 -0.30544305 -0.60521924
1.1161327 -1.162287 -2.5209467 -1.4604373 0.3563177 3.125949 0.020772586 0.92048097
0.26089847 0.54265845 0.11449109 0.27215016 2.105845 -0.1018788 -0.077529415 0.6035039
0.38528135 0.9466646 0.6505251 0.08682183 1.012268 1.661277 -0.21713467 1.2159817
-0.15183796 1.5019666 1.1231483 -0.38070875 1.028577 0.10784371 1.5867838 -0.8313019
-1.4484833 1.5316001 -2.279388 -0.777943 1.2744983 -0.61971635 0.23861894 0.1071992
-0.053227082 0.08237272 -1.0822266 -0.30714574 -1.4920295 -0.21276194 0.132168 0.4888084
1.5446365 0.8140751 -0.9764247 1.8114585 0.785901 1.5278944 1.757527 -2.2312696
-1.163909 0.5411289 -0.3107002 -0.07262973 0.047057718 -0.7662823 -1.4130994 0.5448637
-0.3681221 0.22008039 0.46402097 1.71185 -0.52458984 -2.135879 1.053355 -0.70630616
-0.7824901 1.7977142 -0.16506165 -0.56221557 -1.372187 -1.0697211 -0.3536589 0.43971226
-1.0154318 -0.68512344 -0.9323758 -1.957072 -0.35142043 0.1444576 -1.3126088 -2.2384763
0.14765806 -0.712847 0.79473925 -0.023394002 -0.16462007 -0.92710453 0.75834674 0.49005634
0.030825235 2.0532517 -1.8352436 -0.67602134 0.77005345 -0.8810785 -2.9508173 1.2395002
-0.8651661 -1.4409398 0.48186266 0.86575806 -0.08139745 0.57506144 0.97354525 -1.2089392
1.753536 1.3526073 -1.3680757 -1.3172998 -0.2896249 -0.9792578 0.94758373 -0.18276967
0.03550059 -0.5917566 1.2269582 -0.4846836 -0.26459426 -0.059695873 -1.7877628 1.0498272
-0.50069183 0.65723956 0.16056679 2.0452037 0.2754889 -0.9846076 0.08526533 -1.0044731
1.6955992 0.71009314 -0.7837657 0.12813498 -2.239173 -0.36712936 -1.7569395 1.1388012
-0.47875208 -0.14418754 0.29673034 0.6857755 0.20311123 -0.74685055 1.0785278 -1.1236715
-1.0695571 0.48557243 0.49561176 1.2260699 -1.9663984 -1.5218258 -0.87800485 -0.6294667
0.08858097 -0.5376802 -0.96595097 0.67386657 -1.0520594 0.49600405 1.0917598 -0.4154864
00000000: 37e6 133f ce20 c2bf d4ed fabf c61a 893f
00000010: 767d fa3e 72cf f83c 5919 54bf a6a9 ffbe
00000020: eeea 08bf 188e 953e 878e febe cf07 a3be
00000030: c63f c8bd 9662 99be ffdf a83f 2235 9dbe
00000040: 8104 89bd 5d06 f83e 2943 66bf b2f5 973f
00000050: 5f65 c63e e14f bebf 8762 00c0 a33a b5bf
00000060: 0091 8cbf 965c 97bf 6198 0bbe 5f88 473f
00000070: 753d b0be ac4d e63e 1fcb ba3e 6375 ff3e
00000080: 449c 26be 7113 353f 8534 b73f 84ea 4a3f
00000090: 29bc 0040 3c42 563e 5e43 aabe e682 953f
000000a0: 9c6c 88bf fc32 b03f b2f2 65bf 7592 113d
000000b0: c0e6 373f 72ac 3b3f 6a9d 143f 620e 75be
000000c0: 3761 a73e 115d 14bf f5ae 60bf f260 1940
000000d0: 8ad1 183f e5ea cbbd 78e4 36bf f9ff 83bf
000000e0: 42c7 7d3f df8f 57be 3554 c3be 2551 5cbd
000000f0: a348 583f 136a c5bd 6ade 79bf db58 23bf
00000100: e449 9b3f 8a31 3a3e bb74 553e 85e3 5b40
00000110: 6768 183e e077 ae3f c961 123f d54f 793e
00000120: b16f 44bf 569b c83f 6ebd 803f 6ed0 9b3f
00000130: 31cc 283d 8bc1 0140 2148 b7bf 0c18 5d3f
00000140: 11d8 aa3e 162e 823f 7594 eebe 137e fa3f
00000150: 8e9f 20bf df94 7e3f 0863 9cbe a6ef 1abf
00000160: 70dd 8e3f d2c5 94bf 3157 21c0 9cef babf
00000170: 466f b63e 8c0f 4840 452b aa3c a4a4 6b3f
00000180: 7c94 853e aaeb 0a3f 4e7a ea3d 4457 8b3e
00000190: 2ac6 0640 d5a5 d0bd bec7 9ebd 3b7f 1a3f
000001a0: 9943 c53e 9c58 723f d088 263f a5cf b13d
000001b0: ff91 813f baa4 d43f 8d58 5ebe 4aa5 9b3f
000001c0: 697b 1bbe 7140 c03f 53c3 8f3f 42ec c2be
000001d0: 69a8 833f 2add dc3d bb1b cb3f 34d0 54bf
000001e0: e767 b9bf 790b c43f 7ee1 11c0 4627 47bf
000001f0: c322 a33f bba5 1ebf 8658 743e 418b db3d
00000200: a404 5abd 07b3 a83d 6786 8abf 3542 9dbe
00000210: d3fa bebf 44de 59be 0c57 073e 1845 fa3e
00000220: a6b6 c53f 3a67 503f f8f6 79bf dfdd e73f
00000230: cf30 493f 0b92 c33f a5f6 e03f 1fcd 0ec0
00000240: f8fa 94bf 6c87 0a3f 1914 9fbe e5be 94bd
00000250: 98bf 403d 142b 44bf 71e0 b4bf 307c 0b3f
00000260: 807a bcbe c15c 613e 2894 ed3e e71d db3f
00000270: 854b 06bf 3eb2 08c0 56d4 863f 7bd0 34bf
00000280: 4551 48bf 801b e63f ec05 29be 5ced 0fbf
00000290: d3a3 afbf 9fec 88bf c812 b5be f721 e13e
000002a0: abf9 81bf 4064 2fbf 2eb0 6ebf 5681 fabf
000002b0: 61ed b3be b1ec 133e 9103 a8bf 3243 0fc0
000002c0: ad33 173e 247d 36bf 0874 4b3f c7a4 bfbc
000002d0: 2a92 28be b956 6dbf 0323 423f aae8 fa3e
000002e0: 3485 fc3c 7a68 0340 43e9 eabf bc0f 2dbf
000002f0: 3922 453f 5c8e 61bf 31da 3cc0 f1a7 9e3f
00000300: 877b 5dbf b770 b8bf b4b6 f63e 52a2 5d3f
00000310: b5b3 a6bd 3a37 133f 433a 793f 85be 9abf
00000320: de73 e03f 3c22 ad3f 1b1d afbf 489d a8bf
00000330: b749 94be a4b0 7abf d994 723f f927 3bbe
00000340: 1169 113d 5c7d 17bf f70c 9d3f 7328 f8be
00000350: e678 87be a983 74bd 69d5 e4bf bd60 863f
00000360: 572d 00bf da40 283f 9f6b 243e 9ee4 0240
00000370: e20c 8d3e 3e0f 7cbf 979f ae3d 9392 80bf
00000380: 6509 d93f aac8 353f dea4 48bf d135 033e
00000390: 9c4e 0fc0 61f8 bbbe 65e3 e0bf 3dc4 913f
000003a0: fe1e f5be e6a5 13be 0aed 973e fc8e 2f3f
000003b0: 64fc 4f3e 9931 3fbf 330d 8a3f 78d4 8fbf
000003c0: 3fe7 88bf f39c f83e d3c0 fd3e dcef 9c3f
000003d0: f1b2 fbbf 30cb c2bf edc4 60bf bb24 21bf
000003e0: f169 b53d 69a5 09bf 9048 77bf 8582 2c3f
000003f0: e2a9 86bf 3ef4 fd3e c9be 8b3f a2ba d4be

gru.weight_ih_l0 f4 [300, 116]
0.41712165 0.23017594 -0.1278756 0.19867586 0.48864338 -0.19298227 -0.48929307 0.09790974
-0.49379173 -0.219016 0.20080525 0.3378315 0.14368367 0.14443165 -0.014551406 0.02900814
-0.13621587 -0.13790727 -0.17349079 -0.10958232 -0.105133 0.46319115 -0.008428776 0.12829581
-0.13367815 -0.093406975 -0.034376875 -0.06107127 0.21201736 -0.037495162 0.105185956 -0.19714198
-0.012632562 -0.5438233 0.08088605 -0.10765821 -0.070492275 0.11802818 -0.05324988 -0.11468806
-0.60246944 0.17085135 0.36295554 0.17987958 -0.2226596 -0.062411573 0.03108334 0.23409675
-0.061264906 -0.052422762 0.17994975 0.20870292 0.14639445 0.20482497 0.119188115 0.097116485
0.2751319 0.084736824 0.16568668 -0.23029657 -0.22816315 -0.14686574 0.045540612 -0.08933911
0.1604613 0.122215316 0.0065752002 0.16567913 0.16088292 -0.10432499 -0.05611147 0.2059607
-0.07137373 0.13852042 0.062303558 0.03632936 -0.13290375 -0.26749808 0.15793033 0.019173464
-0.07150873 0.019644272 0.1991864 -0.22300175 -0.049011692 -0.030164517 0.00531167 0.22555311
-0.23054336 0.15323436 0.033028677 -0.15634768 -0.1626888 -0.26276717 -0.32470867 -0.07653953
-0.10048035 -0.23190877 -0.12998445 0.02735235 0.010880934 0.05615809 0.20018068 0.1523107
-6.0374623e-05 0.18952684 -0.083046295 0.074736215 -0.14691848 0.059092447 0.09566356 -0.028268218
-0.10801513 0.120894276 0.10660708 -0.12297879 -0.46214283 0.141892 0.09535664 -0.6071945
0.10019768 -0.62600034 0.3980634 0.2596603 -0.1129157 -0.2955105 -0.18951438 -0.13200067
-0.012399915 -0.021463258 0.41310313 -0.28061676 -0.14714345 0.45032108 -0.35644832 0.09691633
0.21379094 0.08537105 -0.07163183 0.11052848 0.05913954 0.09560132 0.26940733 -0.0075196894
-0.103385486 -0.11734736 0.07980822 -0.073066235 0.08760193 -0.05707408 -0.03240968 0.054329284
0.07774087 0.08047029 -0.18469925 -0.24818048 -0.06269157 -0.020637317 -0.15153235 0.018728698
-0.2909183 -0.034805205 -0.13303152 -0.13063969 0.26791304 0.26848322 -0.26515806 -0.069080055
-0.022690613 -0.23561293 0.1284049 -0.14462864 -0.05600163 -0.24680029 -0.047334835 -0.08512134
0.0030223248 0.16907059 -0.025669841 0.058393896 0.22883593 0.09026781 -0.06329395 0.09001219
0.12707 0.005883149 -0.084395744 0.05004694 -0.20706935 -0.15439706 -0.033808902 0.014681472
0.120373525 -0.14900972 -0.04253049 -0.18560335 -0.06357473 0.09328401 0.1328468 -0.16181368
0.006822873 -0.01300432 0.013435593 0.040165506 0.070438236 0.17064193 0.14839916 0.15191703
-0.10738702 -0.07348227 -0.11383315 0.027629046 0.17649305 0.012501838 -0.111525774 -0.14647412
0.1659018 -0.12406023 -0.013925152 0.018723045 -0.011537054 0.100559786 -0.1593549 -0.15557776
0.06527882 -0.011011045 -0.24405797 0.050663684 -0.09988033 -0.23520201 -0.36684376 -0.25502503
0.040985305 0.13261592 0.1882387 0.107978 -0.07937028 0.22217116 -0.13194732 -0.3314185
-0.26171124 -0.029047979 0.44737875 0.056237724 -0.12424458 0.39598507 0.013902529 0.28068915
-0.16337882 0.12752825 0.45716462 0.2552572 0.10664452 0.11712591 0.35008353 0.025290273
00000000: f890 d53e 3eb3 6b3e d2f1 02be af71 4b3e
00000010: 772f fa3e 259d 45be 9f84 fabe e784 c83d
00000020: 45d2 fcbe bb45 60be e49f 4d3e 40f8 ac3e
00000030: d021 133e e4e5 133e 0569 6ebc 7ba2 ed3c
00000040: 2c7c 0bbe 9037 0dbe 92a7 31be b26c e0bd
00000050: f84f d7bd 6427 ed3e d918 0abc fa5f 033e
00000060: ede2 08be 284c bfbd c4ce 0cbd de25 7abd
00000070: 141b 593e 8794 19bd bc6b d73d 96df 49be
00000080: cef8 4ebc 0138 0bbf 96a7 a53d e87b dcbd
00000090: 415e 90bd c2b8 f13d 8c1c 5abd 93e1 eabd
000000a0: 703b 1abf a8f3 2e3e 4fd5 b93e 5a32 383e
000000b0: e100 64be 47a3 7fbd 7da2 fe3c 0fb7 6f3e
000000c0: e9f0 7abd 40b9 56bd bf44 383e 38b6 553e
000000d0: 6de8 153e a3bd 513e e618 f43d 02e5 c63d
000000e0: 17de 8c3e 808a ad3d c5a9 293e ddd2 6bbe
000000f0: 9aa3 69be f963 16be cb88 3a3d 6cf7 b6bd
00000100: f84f 243e 064c fa3d c774 d73b caa7 293e
00000110: 7ebe 243e 57a8 d5bd 24d5 65bd 5de7 523e
00000120: 642c 92bd 4cd8 0d3e 0432 7f3d 18ce 143d
00000130: ec17 08be 82f5 88be 7db8 213e ab11 9d3c
00000140: 2b73 92bd 06ed a03c 85f7 4b3e 925a 64be
00000150: 7cc0 48bd 941b f7bc 840d ae3b 65f7 663e
00000160: 8f13 6cbe 78e9 1c3e 1449 073d 9b19 20be
00000170: e597 26be 6b89 86be 3740 a6be c2c0 9cbd
00000180: a4c8 cdbd 7e79 6dbe a51a 05be 0912 e03c
00000190: f245 323c 0606 663d 2afc 4c3e 56f7 1b3e
000001a0: c23a 7db8 5313 423e 2d14 aabd 4d0f 993d
000001b0: cc71 16be ec0a 723d 42eb c33d c092 e7bc
000001c0: 0937 ddbd 6b97 f73d d054 da3d 4edc fbbd
000001d0: fc9d ecbe 234c 113e 584a c33d 1971 1bbf
000001e0: 7134 cd3d 8f41 20bf f7ce cb3e 32f2 843e
000001f0: 5940 e7bd 274d 97be 0f10 42be 2f2b 07be
00000200: 0329 4bbc b7d3 afbc 4182 d33e 00ad 8fbe
00000210: c6ac 16be 7c90 e63e 6580 b6be 127c c63d
00000220: 03ec 5a3e 04d7 ae3d b5b3 92bd c15c e23d
00000230: 4d3c 723d a0ca c33d c2ef 893e ba67 f6bb
00000240: c5bb d3bd d053 f0bd 7e72 a33d c0a3 95bd
00000250: a468 b33d 83c6 69bd 03c0 04bd 6288 5e3d
00000260: 9b36 9f3d 9bcd a43d cd21 3dbe 0623 7ebe
00000270: 7064 80bd 970f a9bc 4c2b 1bbe ed6c 993c
00000280: 3ef3 94be e78f 0ebd 6a39 08be 69c6 05be
00000290: e62b 893e a276 893e ccc2 87be d879 8dbd
000002a0: aae1 b9bc 8444 71be 937c 033e 8819 14be
000002b0: f761 65bd 37b9 7cbe 2ce2 41bd 1954 aebd
000002c0: 3212 463b d720 2d3e 8f49 d2bc 702e 6f3d
000002d0: f753 6a3e 54de b83d 42a0 81bd 5058 b83d
000002e0: a31e 023e 6ec7 c03b add7 acbd 05fe 4c3d
000002f0: fd09 54be 431a 1ebe 347b 0abd 8f8a 703c
00000300: 6586 f63d 0196 18be 7334 2ebd ce0e 3ebe
00000310: 7833 82bd b00b bf3d fe08 083e 7cb2 25be
00000320: 6892 df3b 1210 55bc f620 5c3c 9684 243d
00000330: ec41 903d c2bc 2e3e f3f5 173e 2390 1b3e
00000340: baed dbbd df7d 96bd 5b21 e9bd 4f56 e23c
00000350: 98ba 343e 82d4 4c3c a067 e4bd 50fd 15be
00000360: 29e2 293e 4a13 febd 5226 64bc 1261 993c
00000370: e905 3dbc 4af2 cd3d ee2d 23be c74f 1fbe
00000380: e7b0 853d ac67 34bc 55ea 79be b984 4f3d
00000390: 0f8e ccbd ccd8 70be f2d2 bbbe a492 82be
000003a0: 35e0 273d 78cc 073e a5c1 403e 9223 dd3d
000003b0: e38c a2bd d680 633e 331d 07be b0af a9be
000003c0: 04ff 85be 07f6 edbc d40e e53e 8759 663d
000003d0: f173 febd 8ebe ca3e 6fc7 633c 7db6 8f3e
000003e0: c74c 27be c496 023e 7b11 ea3e 12b1 823e
000003f0: 7168 da3d b6df ef3d 263e b33e 8c2d cf3c

gru.weight_hh_l0 f4 [300, 100]
-0.055674113 0.06916339 -0.124957874 0.07608374 -0.1692322 0.033486363 -0.12294856 0.19795586
0.03283512 -0.09762077 0.11579744 -0.1616873 -0.1361572 -0.18694417 -0.019302106 -0.034091514
-0.21529536 -0.09242155 0.024033062 0.19212545 0.06198434 -0.028473804 0.2793662 0.0012613413
0.03342937 0.0066156713 -0.047856875 -0.009353324 0.010689545 -0.06078756 -0.09963534 0.23929064
-0.20823415 0.0886224 -0.05755229 -0.16143575 -0.028059542 -0.010606376 -0.11497296 -0.064643554
-0.08293008 0.0039264597 -0.1483164 0.10741286 -0.1145986 -0.14177918 0.16171882 -0.105499
0.0401133 -0.15420005 0.06954344 0.19852987 -0.03628264 0.17241178 -0.037974223 0.028308928
-0.096659355 -0.05227214 0.24404968 0.05230209 0.07773165 -0.08840805 0.014370506 0.043265022
0.28974697 0.027936751 -0.11917344 -0.15516843 0.3391653 0.053257167 -0.001410282 -0.01569553
-0.06860852 -0.09429529 -0.1083637 -0.10488681 0.025932916 0.10567287 -0.066734776 -0.086500466
-0.042672258 0.68382317 -0.16440843 -0.16132703 0.040280893 -0.17416094 -0.155456 0.041085005
-0.12585838 0.14843947 0.014413887 -0.18110324 0.029652633 0.07542363 -0.19664223 -0.018994184
-0.17160125 -0.17463627 -0.055637922 -0.05113775 0.14848672 0.012223504 0.36364377 -0.14742613
0.015806425 -0.06493571 -0.08117503 0.2043624 0.008196612 -0.009852847 -0.5407136 -0.048167557
0.15436801 0.11731522 -0.07699399 -0.21250837 -0.32728004 -0.07500401 0.088108145 0.086010806
-0.2100041 -0.11272199 -0.20885396 0.14757018 -0.008423757 -0.10496751 -0.30066055 -0.19253708
0.016702939 0.027910016 0.2181436 0.10967476 -0.14144567 0.13587736 -0.050676953 -0.19642025
0.061509192 0.03615446 -0.11170403 0.013717448 0.027740233 0.2707363 0.08280596 -0.001697541
0.08295865 -0.03229857 -0.03969869 0.041659214 0.005456199 0.061232045 -0.030744603 0.1209721
-0.12047454 -0.103761375 -0.1601868 0.009600165 -0.18194954 0.20899376 0.110485755 -0.115129694
0.27471614 0.08766985 0.00072027725 -0.12500101 -0.0369765 -0.27991828 -0.048744395 -0.04176959
-0.2683803 -0.25891244 0.08749762 0.10157228 -0.26229966 0.004110686 -0.27076393 0.0639697
0.0031141792 0.020029282 0.07463503 -0.0031910466 0.045177534 0.30734384 0.017086525 0.15369481
-0.06621685 -0.178101 -0.15998572 0.006228372 -0.0773958 -0.12953568 0.13416275 0.174469
-0.030608978 -0.20163056 -0.24839108 0.017721603 -0.1173583 -0.26012036 -0.21599084 0.02762382
0.11793252 0.22225498 0.4493493 0.07318413 0.09592635 -0.10450507 -0.1826362 0.22672287
0.039368875 0.21951118 -0.44306684 -0.18220326 0.008856602 0.20551822 -0.060054854 -0.04951294
-0.32233006 0.18877923 -0.13505529 0.18450017 0.052314874 0.080889516 0.1124352 -0.024757367
-0.12991984 -0.014363731 -0.0012858711 0.1605803 -0.19530943 -0.030496124 -0.29135793 -0.06218489
0.26454332 -0.071801685 -0.118083134 -0.14844096 -0.1332202 0.13166562 -0.018644093 0.016044756
0.008415979 -0.0661187 -0.25410274 -0.09116539 0.001451183 -0.024758626 0.27962136 -0.06332236
0.11179874 0.17795114 0.085759506 0.24826397 0.048027165 -0.021851165 0.09250681 -0.0218798
00000000: 8a0a 64bd 89a5 8d3d eae9 ffbd cbd1 9b3d
00000010: 354b 2dbe ff28 093d 74cc fbbd f1b4 4a3e
00000020: 1e7e 063d 66ed c7bd 3527 ed3d 5b91 25be
00000030: cb6c 0bbe 4b6e 3fbe 731f 9ebc 8ba3 0bbd
00000040: 6376 5cbe 8247 bdbd fce0 c43c 89bc 443e
00000050: 4be3 7d3d e541 e9bc 1609 8f3e 9753 a53a
00000060: 3ced 083d 46c8 d83b 9205 44bd af3e 19bc
00000070: 3423 2f3c 60fc 78bd 9d0d ccbd 9b08 753e
00000080: 553b 55be a97f b53d f3bb 6bbd 6a4f 25be
00000090: 20dd e5bc 5ec6 2dbc f176 ebbd d763 84bd
000000a0: 3fd7 a9bd 88a9 803b 41e0 17be 46fb db3d
000000b0: acb2 eabd 902e 11be 9e99 253e dc0f d8bd
000000c0: d84d 243d 9ee6 1dbe cb6c 8e3d 6a4b 4b3e
000000d0: 1b9d 14bd b78c 303e dc8a 1bbd 20e8 e73c
000000e0: 57f5 c5bd 501b 56bd 29e8 793e b73a 563d
000000f0: c531 9f3d 480f b5bd 4572 6b3c aa36 313d
00000100: b759 943e 9ddb e43c 3411 f4bd 79e4 1ebe
00000110: 13a7 ad3e 3024 5a3d 36d9 b8ba ea93 80bc
00000120: a082 8cbd e41d c1bd caed ddbd e5ce d6bd
00000130: 4471 d43c 056b d83d 3eac 88bd 2827 b1bd
00000140: 1bc9 2ebd 090f 2f3f af5a 28be ea32 25be
00000150: 94fd 243d 3f57 32be dc2f 1fbe c048 283d
00000160: 05e1 00be 8400 183e 3928 6c3c 2173 39be
00000170: 14ea f23c b477 9a3d 955c 49be b199 9bbc
00000180: 3db8 2fbe dad3 32be 97e4 63bd d175 51bd
00000190: e70c 183e 1745 483c 842f ba3e e0f6 16be
000001a0: 7a7c 813c 03fd 84bd 183f a6bd 6144 513e
000001b0: 154b 063c d66d 21bc 356c 0abf 584b 45bd
000001c0: a612 1e3e f642 f03d 06af 9dbd cb9b 59be
000001d0: 4091 a7be b49b 99bd 0b72 b43d 6f26 b03d
000001e0: 510b 57be c9da e6bd d0dd 55be a31c 173e
000001f0: cc03 0abc 35f9 d6bd 2ef0 99be 7128 45be
00000200: 9ad4 883c 8ca3 e43c 0961 5f3e 299d e03d
00000210: 22d7 10be 6f23 0b3e a392 4fbd 6422 49be
00000220: 10f1 7b3d b316 143d 15c5 e4bd 26bf 603c
00000230: 7c3f e33c f39d 8a3e 2c96 a93d 0680 deba
00000240: 3ae6 a93d 814b 04bd 189b 22bd daa2 2a3d
00000250: eac9 b23b 74ce 7a3d 1bdc fbbc 38c0 f73d
00000260: 5bbb f6bd d880 d4bd 0208 24be 034a 1d3c
00000270: fb50 3abe 7602 563e 5b46 e23d 1ec9 ebbd
00000280: 98a7 8c3e 408c b33d fdd0 3c3a 4400 00be
00000290: ac74 17bd 7351 8fbe 34a8 47bd 9716 2bbd
000002a0: 2569 89be 2c90 84be f431 b33d 2105 d03d
000002b0: 244c 86be efb2 863b 92a1 8abe 8c02 833d
000002c0: 4217 4c3b 7314 a43c 40da 983d e120 51bb
000002d0: 140c 393d 2c5c 9d3e 0af9 8b3c 2c62 1d3e
000002e0: b39c 87bd 1c60 36be 4cd3 23be 5f17 cc3b
000002f0: b081 9ebd 00a5 04be f661 093e 00a8 323e
00000300: aebf fabc 3e78 4ebe 3b5a 7ebe e52c 913c
00000310: 8c59 f0bd 7f2e 85be b42c 5dbe 594b e23c
00000320: 9b86 f13d cf96 633e 1d11 e63e 90e1 953d
00000330: 0975 c43d c106 d6bd fc04 3bbe 0a2a 683e
00000340: 4241 213d 8ac7 603e a8d9 e2be 7e93 3abe
00000350: 481b 113c 5e73 523e 14fc 75bd 15ce 4abd
00000360: 7208 a5be 584f 413e ef4b 0abe 9ded 3c3e
00000370: 1f48 563d 67a9 a53d 6d44 e63d f6cf cabc
00000380: b509 05be db55 6bbc ad8a a8ba 2a6f 243e
00000390: 32ff 47be 02d3 f9bc de2c 95be 95b5 7ebd
000003a0: 3972 873e c30c 93bd 92d5 f1bd e800 18be
000003b0: e06a 08be 5ad3 063e 7fbb 98bc 4b70 833c
000003c0: 2de3 093c 3e69 87bd c119 82be ecb4 babd
000003d0: 9f35 be3a 9ad2 cabc 882a 8f3e 27af 81bd
000003e0: bdf6 e43d d338 363e aea2 af3d e938 7e3e
000003f0: 22b8 443d 3701 b3bc 3674 bd3d 443d b3bc

gru.bias_ih_l0 f4 [300]
0.15459523 0.19445157 -0.05025657 0.06264401 0.043615077 -0.11519256 0.2673037 -0.021662924
0.120817356 -0.12062147 -0.22448324 -0.07026369 -0.0054037934 0.13396868 0.10890008 0.069391765
0.008602673 0.073568426 0.028260194 0.029921897 0.05020049 0.16819288 0.06001921 -0.06909719
-0.029358363 0.16264774 -0.07879272 0.17183521 -0.09156487 0.036553055 -0.096674636 0.08581655
0.05817392 -0.0039494135 0.071108356 0.06708226 0.1422837 -0.111274675 -0.13117117 0.049811758
-0.006807183 -0.03633172 0.010418906 -0.11563484 0.0582537 0.18308932 0.06146037 -0.12311231
-0.012302026 -0.005902301 -0.0614121 -0.16414379 -0.013573035 -0.02353193 -0.09221833 0.08365798
0.23602386 -0.004275505 0.2243286 0.056502298 -0.11044641 -0.045497127 0.3164158 0.08616521
0.10286203 0.0642506 -0.13347045 0.34493083 -0.08016961 -0.15929599 0.15341827 0.16350138
-0.030154983 0.17484622 0.03449039 0.0193412 0.11037406 -0.11819781 0.01394848 0.019514397
0.07356632 0.13862793 -0.08845882 -0.084633365 -0.08842848 -0.041491423 0.09198256 0.036022104
0.0029722312 -0.009062274 -0.09589433 -0.121454805 0.20277323 -0.010055594 -0.0153618315 -0.021870213
0.18003023 -0.14979243 -0.08034763 0.20857231 -0.17556158 -0.113807395 -0.16377641 0.27738565
0.041161124 -0.1609735 0.059297238 -0.314186 -0.07991548 -0.4167953 -0.21913958 0.25718302
0.27791595 0.155015 -0.049844403 -0.1858133 -0.2027055 0.017016117 -0.11953265 -0.16057464
0.027741387 -0.14442089 0.043603808 -0.2649574 0.057455882 -0.23785159 0.1114263 -0.12821122
-0.019648723 -0.0022855946 -0.28283277 0.2980953 -0.40558365 -0.018239718 0.039879292 -0.21510221
0.1979463 -0.072319835 0.1514244 -0.0103871925 -0.04509315 -0.19974007 0.08767156 -0.0017850633
0.3618052 0.116865925 0.22682683 -0.1447574 0.08128962 -0.02924579 0.106306404 0.0032877768
-0.026520135 -0.2205467 -0.014577381 0.19490103 -0.12231579 -0.2994163 -0.29442692 0.26351804
0.082154945 0.12327146 -0.11926335 -0.3762047 0.10904903 -0.08518543 0.1435114 -0.17725866
-0.21997143 0.14282419 0.04178371 0.008840624 -0.3985626 0.16899097 0.10863445 -0.10177649
0.12033763 -0.034521956 0.01568302 0.11140799 0.07061167 0.2318818 0.0636697 -0.3452754
0.08458049 0.13056646 0.24882764 0.15663996 0.0017012915 -0.4096785 -0.08450685 0.40089214
0.042167675 -0.102982186 0.14040688 0.15978028 0.10382637 0.013328166 0.030256812 -0.097379245
-0.10007687 -0.13277996 -0.17713867 -0.040865254 -0.06794957 -0.088029996 0.009236167 -0.12708695
0.13406894 -0.054261792 0.12747934 -0.06303095 0.05473888 -0.18481548 -0.0087636765 0.021109655
0.04051735 0.009947637 0.10374772 -0.12853374 0.10218915 0.077860385 -0.062813215 0.02955479
0.13698839 0.010076958 -0.018196093 -0.000770733 0.11704779 -0.08715124 -0.048300724 0.09866952
0.0048413277 -0.042509533 -0.08362579 0.119730294 0.099974304 -0.0037001926 -0.06363014 -0.0528192
-0.10499027 0.037088323 -0.036225837 0.14535691 -0.10582201 -0.098522246 0.09642304 -0.048485942
-0.18228695 -0.21067649 0.07316984 0.071608655 0.23960163 -0.042393297 0.030785708 0.044267315
00000000: 364e 1e3e 501e 473e d5d9 4dbd 814b 803d
00000010: b9a5 323d 14ea ebbd 08dc 883e 7276 b1bc
00000020: 176f f73d 6408 f7bd efde 65be 69e6 8fbd
00000030: 4e12 b1bb 162f 093e 0107 df3d 451d 8e3d
00000040: 3af2 0c3c 0bab 963d ec81 e73c c41e f53c
00000050: 079f 4d3d c13a 2c3e b4d6 753d d482 8dbd
00000060: f380 f0bc 218d 263e 145e a1bd 92f5 2f3e
00000070: 5d86 bbbd a8b8 153d 5afd c5bd 96c0 af3d
00000080: c747 6e3d 156a 81bb 42a1 913d 6d62 893d
00000090: d1b2 113e fae3 e3bd bc51 06be 6a07 4c3d
000000a0: ca0e dfbb 92d0 14bd 0fb4 2a3c f6d1 ecbd
000000b0: 6f9b 6e3d c47b 3b3e debd 7b3d 4f22 fcbd
000000c0: 708e 49bc 1768 c1bb 418b 7bbd 4f15 28be
000000d0: 6f61 5ebc 09c6 c0bc f7dc bcbd e054 ab3d
000000e0: 3db0 713e 8919 8cbb 66b6 653e f46e 673d
000000f0: ba31 e2bd 325b 3abd 4001 a23e 6377 b03d
00000100: 54a9 d23d d295 833d 7aac 08be c69a b03e
00000110: f72f a4bd 7d1e 23be ae19 1d3e e86c 273e
00000120: 9507 f7bc e30a 333e cc45 0d3d 7071 9e3c
00000130: cc0b e23d b211 f2bd 2a88 643c a8dc 9f3c
00000140: f0a9 963d 7bf4 0d3e e629 b5bd 4254 adbd
00000150: fe19 b5bd e9f2 29bd 5a61 bc3d ea8b 133d
00000160: c4c9 423b ef79 14bc 3f64 c4bd 4cbd f8bd
00000170: c9a3 4f3e 38c0 24bc 31b0 7bbc 2929 b3bc
00000180: d859 383e 3063 19be 4c8d a4bd fb93 553e
00000190: 6ac6 33be da13 e9bd 01b5 27be 7e05 8e3e
000001a0: 9198 283d 3dd6 24be a9e1 723d fddc a0be
000001b0: baaa a3bd 3266 d5be 2066 60be 7ead 833e
000001c0: 004b 8e3e 41bc 1e3e a529 4cbd d745 3ebe
000001d0: 0892 4fbe 6265 8b3c 89cd f4bd ae6d 24be
000001e0: e841 e33c 12e3 13be e899 323d 7fa8 87be
000001f0: dc56 6b3d 5e8f 73be 7933 e43d cd49 03be
00000200: 5cf6 a0bc eac9 15bb 75cf 90be f29f 983e
00000210: a9a8 cfbe 766b 95bc 7858 233d c143 5cbe
00000220: 6fb2 4a3e 6c1c 94bd ff0e 1b3e 0b2f 2abc
00000230: 98b3 38bd a988 4cbe 268d b33d c9f8 e9ba
00000240: 883e b93e 6757 ef3d 4b45 683e 493b 14be
00000250: 2c7b a63d de94 efbc 2cb7 d93d be77 573b
00000260: c140 d9bc fed6 61be f8d5 6ebc 2394 473e
00000270: b380 fabd 184d 99be 20bf 96be d6eb 863e
00000280: da40 a83d bf75 fc3d 5840 f4bd e79d c0be
00000290: 1955 df3d b375 aebd a7f4 123e 4b83 35be
000002a0: 3140 61be 8140 123e 6525 2b3d 44d8 103c
000002b0: 6610 ccbe f80b 2d3e bd7b de3d 3170 d0bd
000002c0: 9373 f63d e566 0dbd ad79 803c df29 e43d
000002d0: da9c 903d 6c72 6d3e 4265 823d f0c7 b0be
000002e0: 8938 ad3d 37b3 053e accc 7e3e 3a66 203e
000002f0: dffd de3a 61c1 d1be ed11 adbd bc41 cd3e
00000300: 03b8 2c3d 53e8 d2bd d2c6 0f3e 719d 233e
00000310: eba2 d43d 615e 5a3c 22dd f73c c56e c7bd
00000320: 1af5 ccbd 78f7 07be d763 35be 5362 27bd
00000330: 2529 8bbd 1249 b4bd 4b53 173c 1523 02be
00000340: 5e49 093e 9d41 5ebd f289 023e 5f16 81bd
00000350: e035 603d 4540 3dbe 8695 0fbc 28ee ac3c
00000360: 85f5 253d 6afb 223c af79 d43d 599e 03be
00000370: 8c48 d13d 4475 9f3d 37a4 80bd e31c f23c
00000380: af46 0c3e d319 253c f90f 95bc 040b 4aba
00000390: c0b6 ef3d 597c b2bd fbd6 45bd 3f13 ca3d
000003a0: 00a4 9e3b 7a1e 2ebd 0044 abbd 2835 f53d
000003b0: 54bf cc3d ee7e 72bb 8550 82bd f258 58bd
000003c0: 2405 d7bd ede9 173d 8b61 14bd 71d8 143e
000003d0: 36b9 d8bd 08c6 c9bd 7179 c53d 3299 46bd
000003e0: 6ea9 3abe 94bb 57be 12da 953d 8fa7 923d
000003f0: 215a 753e 98a4 2dbd 4f32 fc3c a551 353d

gru.bias_hh_l0 f4 [300]
0.026268804 0.037371974 0.025669673 0.088236354 0.039174497 -0.1456106 0.2446316 0.0020147122
0.037447985 0.055505224 -0.039427582 -0.15637751 0.018424917 0.18678871 0.058141746 -0.059308782
0.10213895 0.14295752 -0.02511409 0.05940125 0.051032662 0.110912025 0.06262338 -0.062501326
0.13104339 0.2890838 -0.04941402 0.14633724 -0.13516128 0.0420254 -0.12239705 0.105332166
0.06803392 -0.04469965 0.007466338 -0.010869494 0.1283712 -0.05115708 -0.047932625 -0.046075195
0.120576344 -0.018812958 -0.0045593795 -0.10750456 -0.034463167 0.15018958 0.1683783 0.043867253
0.024989305 0.025490947 -0.18768254 -0.0087644495 -0.030245204 0.10942955 -0.0067730616 -0.07846035
0.23394927 -0.06354547 0.112688564 0.1525817 -0.14346853 0.029980524 0.32868847 0.16710551
-0.037178826 -0.060184408 -0.09511063 0.41251102 -0.050756223 -0.13846141 0.22197987 0.20081139
0.04533008 0.27460754 0.07874224 -0.025072303 0.1265415 -0.09285868 0.11504 0.17829038
0.03113938 -0.0039777406 -0.002994484 -0.0050917603 0.0076884697 0.038838 0.043533154 0.05541132
0.028110867 -0.051041543 -0.07218896 0.010756819 0.21379898 -0.010729457 -0.07669072 0.15121453
0.22796862 0.027191963 -0.19109513 0.20833315 -0.19746286 -0.0020426423 -0.17508414 0.22751796
0.1362214 -0.024888283 -0.016663862 -0.46326828 -0.10680323 -0.3772806 -0.22704837 0.112707056
0.3065212 0.13992403 0.08534193 -0.27387637 -0.22692552 0.064946 0.059249777 -0.21123517
-0.12127928 -0.14712419 -0.111272074 -0.19112751 0.043222252 -0.28881902 0.04757536 -0.17813343
-0.059052773 -0.16202661 -0.23419087 0.3258567 -0.26665267 0.13587686 -0.0585357 -0.3013467
0.059969217 0.012065146 0.116662174 0.0896254 0.083324425 -0.1838054 0.11364915 0.08961443
0.36974174 0.1575067 0.33259502 -0.15424487 0.06311203 0.04548607 -0.03432924 -0.06342284
-0.13132322 -0.2917749 0.114994675 0.21344553 -0.10497944 -0.36321223 -0.3961332 0.28539205
0.10396904 0.06963577 -0.22148141 -0.33554903 0.1547516 -0.058728553 -0.016449489 -0.11286047
-0.25086656 0.10810567 0.00531342 0.09412321 -0.27170944 0.22097632 0.12257639 -0.14529583
0.03697437 -0.084940456 0.09346287 -0.033464402 -0.07134485 0.25542387 0.24085996 -0.3964775
0.08525035 0.14605565 0.1433689 0.18245082 0.06500144 -0.36874545 -0.16038714 0.47048196
-0.1122886 -0.28390068 0.11035723 0.29281247 0.10716062 0.086744614 0.055222884 -0.2259774
0.02373825 -0.12110877 -0.10950037 -0.034022726 -0.03721587 -0.18252638 -0.041495297 0.029124357
-0.06185575 0.011792982 -0.10297355 0.011348452 -0.0015824689 -0.04801363 -0.08016536 0.07929914
-0.1826919 0.087363966 -0.052660864 -0.1269553 0.096250065 0.072991066 -0.08331388 0.06259834
0.17990649 0.08689737 -0.14989601 0.019501796 -0.024781302 -0.100525446 0.00089787296 0.1554117
0.06299473 0.07832326 0.008706079 0.046437155 0.031782113 0.108407885 -0.05120256 0.1805215
0.09233676 -0.038639113 0.040870287 0.1054422 0.072687395 -0.12487529 0.15280592 -0.071737394
-0.031926576 -0.1602003 -0.088033 0.14489838 0.12984854 -0.11897982 -0.18528569 -0.0531664
00000000: ad31 d73c 5b13 193d 3549 d23c 43b5 b43d
00000010: 7075 203d f21a 15be b580 7a3e 4309 043b
00000020: 0f63 193d 7259 633d d17e 21bd 6d21 20be
00000030: daef 963c 8a45 3f3e 0a26 6e3d c4ed 72bd
00000040: 3a2e d13d 7563 123e 10bc cdbc ba4e 733d
00000050: a007 513d d825 e33d b040 803d b200 80bd
00000060: 3d30 063e cb02 943e 5b66 4abd 6ed9 153e
00000070: b867 0abe d322 2c3d 4eab fabd 64b8 d73d
00000080: 5e55 8b3d fb16 37bd 2fa8 f43b f615 32bc
00000090: bd73 033e 168a 51bd 0055 44bd 58b9 3cbd
000000a0: bbf0 f63d a21d 9abc d966 95bb 5a2b dcbd
000000b0: 4029 0dbd 4ccb 193e 5c6b 2c3e 26ae 333d
000000c0: 5fb6 cc3c 64d2 d03c da2f 40be c498 0fbc
000000d0: cac4 f7bc 9a1c e03d 8ff0 ddbb d2af a0bd
000000e0: 6690 6f3e 2124 82bd 43c9 e63d 613e 1c3e
000000f0: 6ae9 12be b799 f53c db49 a83e b51d 2b3e
00000100: d348 18bd ed83 76bd 5dc9 c2bd a534 d33e
00000110: c2e5 4fbd d4c8 0dbe b14e 633e 80a1 4d3e
00000120: 09ac 393d 5c99 8c3e 9d43 a13d 6e64 cdbc
00000130: 1894 013e b12c bebd 179a eb3d c191 363e
00000140: 0318 ff3c b557 82bb 1b3f 44bb c8d8 a6bb
00000150: 8fef fb3b 9814 1f3d d24f 323d fbf6 623d
00000160: c348 e63c f010 51bd ced7 93bd 5e3d 303c
00000170: 1fee 5a3e 9bca 2fbc 0610 9dbd fbd7 1a3e
00000180: 9b70 693e aec1 de3c 71ae 43be 4955 553e
00000190: b433 4abe dadd 05bb 4249 33be 78fa 683e
000001a0: 9f7d 0b3e 83e2 cbbc a782 88bc 8031 edbe
000001b0: a7bb dabd ec2a c1be 5e7f 68be f5d2 e63d
000001c0: 59f0 9c3e 3f48 0f3e c0c7 ae3d 8639 8cbe
000001d0: 2a5f 68be 6902 853d e5af 723d 084e 58be
000001e0: 4561 f8bd b9a7 16be 9de2 e3bd eeb6 43be
000001f0: d109 313d 16e0 93be 61de 423d 9c68 36be
00000200: 52e1 71bd 4eea 25be bbcf 6fbe b0d6 a63e
00000210: b386 88be 4e23 0b3e 21c3 6fbd 1d4a 9abe
00000220: 48a2 753d e4ac 453c 94ec ee3d 868d b73d
00000230: ffa5 aa3d 7c37 3cbe e3c0 e83d c587 b73d
00000240: ca4e bd3e 7049 213e e549 aa3e 5ef2 1dbe
00000250: e140 813d 9a4f 3a3d d19c 0cbd d5e3 81bd
00000260: 9879 06be 8563 95be 5482 eb3d 7791 5a3e
00000270: 76ff d6bd f4f6 b9be f9d1 cabe e81e 923e
00000280: b8ed d43d 339d 8e3d 06cc 62be 15cd abbe
00000290: 3477 1e3e 5a8d 70bd 14c1 86bc 6423 e7bd
000002a0: 9571 80be 8166 dd3d 331c ae3b abc3 c03d
000002b0: 801d 8bbe 9e47 623e 5509 fb3d 6ec8 14be
000002c0: 7072 173d 43f5 adbd 7669 bf3d f811 09bd
000002d0: 401d 92bd ebc6 823e fea3 763e 19ff cabe
000002e0: bc97 ae3d 9d8f 153e 4ccf 123e 63d4 3a3e
000002f0: 7a1f 853d 34cc bcbe 873c 24be 03e3 f03e
00000300: 91f7 e5bd 6e5b 91be f902 e23d 84eb 953e
00000310: 0777 db3d 29a7 b13d 6431 623d 9f66 67be
00000320: b876 c23c e007 f8bd bb41 e0bd 6a5b 0bbd
00000330: ab6f 18bd 32e8 3abe f9f6 29bd 3496 ee3c
00000340: 745c 7dbd 5a37 413c cce3 d2bd dcee 393c
00000350: d86a cfba f1a9 44bd bc2d a4bd 9667 a23d
00000360: 9613 3bbe e1eb b23d ebb2 57bd 9200 02be
00000370: c11e c53d 577c 953d 78a0 aabd 8f33 803d
00000380: 6839 383e 40f7 b13d 577e 19be 3bc2 9f3c
00000390: 2802 cbbc 49e0 cdbd 3c5f 6b3a 3f24 1f3e
000003a0: 6203 813d f267 a03d f1a3 0e3c e334 3e3d
000003b0: f62d 023d f404 de3d c7b9 51bd a1da 383e
000003c0: 0e1b bd3d 0c44 1ebd 9a67 273d 15f2 d73d
000003d0: 21dd 943d 9ebe ffbd 2879 1c3e 0eeb 92bd
000003e0: 71c5 02bd 8c0b 24be a54a b4bd 3e60 143e
000003f0: 04f7 043e b1ab f3bd 88bb 3dbe 03c5 59bd

out.weight f4 [36, 200]
0.2877693 0.49037054 -0.0061341487 0.31871793 -0.31163993 0.035280276 0.01111922 0.054125987
-0.22194052 -0.13819467 -0.2668808 0.13394131 -0.5620063 0.25414404 -0.17993928 -0.06346465
0.24991292 -0.26647702 -0.04720293 0.23906803 0.07333709 0.14896552 0.19363587 -0.41697243
-0.3557136 -0.2796443 0.42234048 0.15521555 -0.42809212 -0.15960802 0.015107285 -0.32549307
0.05631113 -0.29603207 0.30253574 0.1935866 -0.87254316 0.023563836 0.15404673 -0.47112173
0.012692288 0.023478426 -0.5153468 -0.40145043 -0.32380322 0.14544752 -0.66809034 0.16155915
0.2947676 0.8062737 0.18662234 -0.48154792 -0.49346557 0.28525445 0.20541453 -0.09045185
0.3775022 0.23430255 -0.061433204 -0.018598387 -0.12688239 -0.52269983 -0.2922515 0.28584936
-0.34475058 0.15513629 0.55921304 0.13761893 -0.15169269 -0.035361852 -0.750462 -0.11103939
0.52002877 -0.18294701 0.5749021 -0.3794869 0.06886636 0.13534436 -0.7051889 -0.043468777
0.2523666 -0.23336273 0.15349652 0.09131886 0.20542945 0.5410782 0.6138104 -0.2150825
0.30360448 0.049803603 0.30481756 -0.19785973 -0.16417688 0.26775354 0.2255634 -0.2565716
0.26846796 -0.24140714 0.44641787 0.07912531 -0.48958397 0.05459216 0.15660122 -0.9960913
-0.0049604857 0.12936248 -0.38849422 -0.44881758 0.06948225 -0.27755016 -0.54153526 0.1614758
0.32699114 0.53500533 -0.11406487 0.23909286 -0.6089734 0.53904957 0.69554174 -0.40041783
-0.24346282 -0.44918647 -0.24757096 -0.08471795 0.29483125 -0.20236675 -0.30946425 -0.16788258
0.636226 1.0221628 0.122316584 0.45178762 -0.14094946 -0.4371788 0.15484959 0.68770105
-0.5123993 -0.082242094 -0.2025107 0.61745197 -0.38950318 0.06643003 -0.034244604 0.4251607
0.5072387 0.08339181 0.039551947 0.06470837 0.030862821 0.5282069 0.22242785 -0.10159119
0.023683723 0.10359637 0.2589472 -0.31129646 -0.113266334 -0.38054195 0.86105484 0.04507098
0.14023426 0.087104194 -0.6964891 -0.3424672 0.17006387 0.41277754 -0.14581974 0.462693
-0.17292412 0.39390728 0.38137275 -0.5761331 0.08585917 -0.51891893 -0.3734329 -0.27912152
-0.27437717 0.5633432 0.065993026 0.29765004 0.5033344 0.53798705 -0.21503216 0.08605182
-0.86762136 0.14147903 -0.44674534 -0.08817656 0.2110347 -0.8821923 0.29467788 -0.54285526
0.26581198 -0.21000087 -0.72993904 0.27536705 0.07253937 0.459839 0.377492 0.67991114
-0.045258466 -0.11158567 -0.025415735 -0.30504534 -0.21295571 0.007727904 0.21585391 -0.19044317
0.029253425 0.22226083 0.009964284 -0.009679121 0.14760312 -0.37866396 -0.45370474 0.26619577
-0.015072887 0.13088846 0.07979706 0.112531744 0.3219398 0.2930587 -0.24768707 0.059934463
0.29568627 0.13086107 -0.32944304 0.26068005 -0.100638464 -0.16951513 0.22675331 0.32228732
0.05575376 -0.29365033 0.07336202 0.32489523 -0.044505678 0.23849493 -0.34073836 0.26372674
0.15152557 -0.1039187 -0.11248787 0.192998 0.011792572 -0.060097925 -0.08533191 0.029236624
-0.31135625 -0.1063562 0.30255708 -0.32460687 0.35953742 -0.10911042 -0.14816304 -0.044528987
00000000: 7f56 933e d911 fb3e f800 c9bb ff2e a33e
00000010: 458f 9fbe 0d82 103d 642d 363c 36b3 5d3d
00000020: 6044 63be e782 0dbe 9aa4 88be e927 093e
00000030: a5df 0fbf 2b1f 823e 0142 38be c1f9 81bd
00000040: 2ce9 7f3e ad6f 88be dc57 41bd 40ce 743e
00000050: c231 963d 6b8a 183e 7b48 463e 697d d5be
00000060: 1820 b6be 8a2d 8fbe 033d d83e d3f0 1e3e
00000070: e42e dbbe 4970 23be 8c84 773c 07a7 a6be
00000080: 80a6 663d 8491 97be f7e5 9a3e 913b 463e
00000090: fd5e 5fbf f208 c13c 6dbe 1d3e de36 f1be
000000a0: 50f3 4f3c d455 c03c c5ed 03bf e98a cdbe
000000b0: 89c9 a5be 32f0 143e f807 2bbf c36f 253e
000000c0: c7eb 963e f467 4e3f ed19 3f3e 738d f6be
000000d0: 85a7 fcbe df0c 923e 3058 523e d23e b9bd
000000e0: f847 c13e 02ed 6f3e 62a1 7bbd a55b 98bc
000000f0: 75ed 01be a8cf 05bf fda1 95be d95a 923e
00000100: 2683 b0be 0cdc 1e3e 9628 0f3f faeb 0c3e
00000110: 5455 1bbe 97d7 10bd 471e 40bf 9f68 e3bd
00000120: 9b20 053f 7656 3bbe c92c 133f 1b4c c2be
00000130: ce09 8d3d b697 0a3e 4287 34bf 510c 32bd
00000140: 3236 813e a4f6 6ebe 312e 1d3e 6205 bb3d
00000150: 195c 523e 1a84 0a3f ae22 1d3f 963e 5cbe
00000160: 0c72 9b3e ddfe 4b3d 0c11 9c3e be9b 4abe
00000170: fc1d 28be fe16 893e 18fa 663e 5a5d 83be
00000180: a274 893e 6f33 77be e290 e43e 730c a23d
00000190: c0aa fabe 079c 5f3d 125c 203e d7ff 7ebf
000001a0: 928b a2bb 9977 043e b7e8 c6be 6bcb e5be
000001b0: b64c 8e3d 0e1b 8ebe 0ea2 0abf ea59 253e
000001c0: 626b a73e 1cf6 083f d89a e9bd c2d4 743e
000001d0: aee5 1bbf 27ff 093f 060f 323f 9103 cdbe
000001e0: 514e 79be c5fb e5be 3e83 7dbe 9b80 adbd
000001f0: 1ff4 963e 3b39 4fbe 1972 9ebe 69e9 2bbe
00000200: b5df 223f 3bd6 823f 1e81 fa3d b550 e73e
00000210: 0e55 10be e6d5 dfbe e490 1e3e 2d0d 303f
00000220: 9a2c 03bf 8b6e a8bd f75e 4fbe 5511 1e3f
00000230: f66c c7be 780c 883d 1244 0cbd aaae d93e
00000240: 65da 013f 53c9 aa3d 3901 223d d285 843d
00000250: 07d4 fc3c 9138 073f 20c4 633e 0b0f d0bd
00000260: 5e04 c23c 552a d43d ba94 843e 4062 9fbe
00000270: 2ef8 e7bd 65d6 c2be 176e 5c3f 599c 383d
00000280: 9299 0f3e af63 b23d 1c4d 32bf dc57 afbe
00000290: 3925 2e3e 9457 d33e c551 15be 19e6 ec3e
000002a0: 0513 31be 37ae c93e 4a43 c33e 757d 13bf
000002b0: efd6 af3d dfd7 04bf 9932 bfbe 04e9 8ebe
000002c0: 2a7b 8cbe 4337 103f 5a27 873d 9665 983e
000002d0: 86da 003f 85b9 093f 6431 5cbe f03b b03d
000002e0: 6f1c 5ebf e1df 103e cebb e4be ea95 b4bd
000002f0: 7b19 583e 5bd7 61bf 05e0 963e 90f8 0abf
00000300: 8218 883e 780a 57be 49dd 3abf e9fc 8c3e
00000310: 858f 943d 0470 eb3e a246 c13e a80e 2e3f
00000320: f160 39bd 0787 e4bd a934 d0bc e72e 9cbe
00000330: 1011 5abe 5b3a fd3b cf08 5d3e 8903 43be
00000340: e1a4 ef3c 5898 633e 3c41 233c 2d95 1ebc
00000350: 4625 173e 3ee0 c1be fd4b e8be d04a 883e
00000360: 45f4 76bc a007 063e a46c a33d 0b77 e63d
00000370: 4bd5 a43e ca0b 963e aea1 7dbe d77d 753d
00000380: 3164 973e 7200 063e c2ac a8be db77 853e
00000390: 8a1b cebd 6095 2dbe 0532 683e d802 a53e
000003a0: 0e5e 643d 5659 96be d43e 963d ab58 a63e
000003b0: 964b 36bd 0438 743e 4275 aebe 3107 873e
000003c0: 8529 1b3e 54d3 d4bd 0a60 e6bd 45a1 453e
000003d0: a235 413c 3e29 76bd 7fc2 aebd a581 ef3c
000003e0: 166a 9fbe 48d1 d9bd c3e8 9a3e df32 a6be
000003f0: 4a15 b83e 4975 dfbd 0db8 17be 0764 36bd

out.bias f4 [36]
-0.5525767 0.06198774 -0.4655974 0.19572571 -0.18344681 -0.47651178 0.017717 -0.16123956
-0.2543583 -0.16825955 -0.008973106 -0.10878263 -0.10282739 -0.106920324 -0.199874 -0.1589602
-0.018249422 -0.11751093 0.15566285 0.08071784 -0.0731467 0.20576991 -0.21744126 -0.32277143
-0.5941398 -0.19511354 -0.005295841 0.033551626 -0.033928588 -0.15892924 0.15311623 -0.14600247
-0.27610445 0.0069539063 -0.1609683 0.031215828
00000000: ab75 0dbf dbe6 7d3d c862 eebe 526c 483e
00000010: 7bd9 3bbe 5af9 f3be 3e23 913c fc1b 25be
00000020: 403b 82be 3b4c 2cbe ef03 13bc 6dc9 debd
00000030: 2b97 d2bd 0bf9 dabd c5ab 4cbe 76c6 22be
00000040: d07f 95bc 92a9 f0bd 1566 1f3e 654f a53d
00000050: f0cd 95bd 59b5 523e eca8 5ebe 4c42 a5be
00000060: 8c19 18bf d8cb 47be bc88 adbb 6e6d 093d
00000070: b4f8 0abd 59be 22be 80ca 1c3e ac81 15be
00000080: 905d 8dbe 98dd e33b e0d4 24be 56b8 ff3c
