modules/prn-gen/exp/en_id/models/unigram/encoder-attn_dot-emb_128-hddn_100-layers_1-epoch_23.pth (torch, 294624 bytes, 5 tensors)

embedding.weight f4 [32, 128]
00000000: b219 0ac0 be42 0dc0 937e c73f 2767 903f
00000010: 6bd2 ff3f bb23 58be c394 83bd f4a0 f2be
00000020: 899d ad3f 6cd6 e9bd 4bca 7c3e 740c 87be
00000030: 2ba3 453f dfd3 77bf 8d53 83bf 536a 8cbd
00000040: 1e27 f73f 4beb ddbe 2c5e 8bbf 4fcb d03e
00000050: 522e c13f 0f87 283f 729f d33e 78d1 8bbe
00000060: d0c1 833d 978f 883f abf1 e23e 3c8b 35bf
00000070: 74bd b23d e407 5f3f 2c7b 08be 5093 a1be
00000080: 510a 23bf 194f ed3f d34e 983f 03bc 07bf
00000090: 6d4e b33e 217b b43f 3865 b2be 9277 2abe
000000a0: 0600 533f aecc c4bf e52e fcbe ba79 4abf
000000b0: d9db 0d3d af71 723f 4c76 e5be 14ca fcbe
000000c0: 70fc 753e f6ce 863f 358a 1b3e d92c b63e
000000d0: 184c 5fbe d79a a1bf c417 b63f 394c 2fbf
000000e0: 846a f13e dfb6 e73f ba9d d43d 0453 f2bd
000000f0: d500 9a3e 4d4e 83bf 1208 90be 5de9 013f
00000100: b509 89bc 8fc8 bbbf 66f6 aa3f f263 f8be
00000110: 56f9 00c0 847b ff3d dfde c23f 2c34 b6be
00000120: b411 b63f 90b7 0140 39b7 6f3e d942 bbbe
00000130: 31de 0840 e825 5c3e 258f 30bf 34a4 b5bf
00000140: ee75 c73f 24bd 803f 3c20 cdbf 1f1c 083d
00000150: 9ee0 3e40 4b09 ae3f 2279 88bf 8847 1fbf
00000160: 14c2 c5bf 7c5d a83f 699b ee3f e7b7 3bbf
00000170: a078 d6bf ee28 a23e dd1d 77bf 743c 9d3e
00000180: a47b 8f3e 5497 fa3f 2b8d 0140 50f9 083e
00000190: 15ec 7cbe acc5 af3f 4001 91bf b0a4 74bf
000001a0: 022d 9dbf 0593 54be de38 403f e8c8 433f
000001b0: f1e8 943e 50ca 923d 6d41 613f aed4 6bbf
000001c0: 4fa7 f0be c6d4 803f 531f 8c3d 97a5 c53c
000001d0: 6e70 31be 9de7 f0bf cb2d 53c0 2394 f23f
000001e0: dc82 99bf b80c 0b40 3c98 3fbf 3535 4c3e
000001f0: d13f 6d3d fc83 133f cdf4 da3d c25e 0540
00000200: 6f10 1abe 071b 29bf a5a6 b93e 54e0 30bf
00000210: 5d01 eb3e 05c2 6fbf 9ba9 5cbe 2999 93bf
00000220: d65c 6ebe 62f4 d6be 3db4 88be 14f4 203d
00000230: 73c1 143e 983f b73e b5c4 dd3f 8522 903f
00000240: cb33 b0bd e937 e23e b104 56be de8a f13d
00000250: 26df a63d 3be5 44bf ef67 9c3f eb28 4a3f
00000260: 5a5c 593f 0b86 a13d 47f2 da3e 67f7 d33f
00000270: f402 2cbe eeec e33d 8fdb 51bf 2467 0e3e
00000280: b4e0 423e da27 a9bf 3ccd 993e f073 093d
00000290: 0175 9dbe 4322 40bf 27f9 ab3f a0cb d63f
000002a0: 16ca 5b3f 9f9a 633e 97e4 91bd 368a 67be
000002b0: f040 913e ef78 b0be 59b5 e5bf 03e6 97bd
000002c0: 647d e2be cf37 603f 4943 c33d 4991 233e
000002d0: 1b46 64bf 2373 da3f 2926 ddbe b841 aa3f
000002e0: 7b97 703f 9db2 a6bf 4830 743f a822 353f
000002f0: 45d5 74bf ca78 d33e a777 873f 93ec 133f
00000300: 5bda 803e 6abe 58be a305 6fbf 5dec 4cbf
00000310: 15f5 173f 4097 913e 765d cabe f704 b03f
00000320: 76bb 683f aa48 c13e 88ec 33be d10a 70bf
00000330: 8e25 a03e 5c63 3c3b 92c3 31be c180 ec3c
00000340: ec26 4c3f 6133 0bbf 3d34 9abf 676d b03e
00000350: ce1e d73e cb0f 71bf e140 57bf 63bc 933d
00000360: 3337 c13d cc65 32bd 01e6 623f 29b7 913f
00000370: 9c85 0f3e 8bd1 ea3e a122 5cbf c298 4dbe
00000380: 6e07 33bf 2c31 b33d 556a 2440 8258 843f
00000390: 252f 983e 2328 923f f759 92be aaa7 3f3e
000003a0: 95bd 133f 4a19 aa3f 2880 7bbf 991a c5bf
000003b0: 20de 823f 02a6 3bbf 4254 0dbf b88a a7be
000003c0: a307 dabd e4be 463f 7fa3 f63e ef29 3bbf
000003d0: 2f72 a3bf caef 4fbf 4bef 8b3e 342c 483f
000003e0: 726e b43f 6f87 b03e d826 43bf a37e b93e
000003f0: 416c 06bf 7caa e2bf b7cb ee3e 045f d6bf
-2.1578183 -2.2071986 1.5585502 1.128148 1.998609 -0.2110738 -0.064248584 -0.47388422
1.3563701 -0.11417851 0.24686544 -0.26376688 0.772021 -0.96807665 -1.0259873 -0.06856217
1.9308813 -0.43343577 -1.0888114 0.40780112 1.5092261 0.65831083 0.41332585 -0.2730825
0.06433451 1.066882 0.44325003 -0.7091558 0.087275416 0.87121415 -0.13328236 -0.31557703
-0.63687617 1.8539764 1.1899055 -0.5302126 0.35020772 1.4100076 -0.3484285 -0.16647175
0.8242191 -1.5374963 -0.49254528 -0.7909199 0.03463349 0.9470472 -0.44816816 -0.49372923
0.24022079 1.053191 0.1518944 0.3558109 -0.21806371 -1.2625378 1.4226003 -0.6847568
0.47151577 1.8102683 0.103816465 -0.1183224 0.3007876 -1.025827 -0.28131157 0.5074671
-0.016728261 -1.4670581 1.3356445 -0.48513752 -2.0152183 0.124747306 1.5224265 -0.3558668
1.4224153 2.0268288 0.23409738 -0.36574438 2.1385615 0.21498835 -0.6896842 -1.4190736
1.5582864 1.0057721 -1.6025462 0.033229943 2.9824595 1.3596586 -1.0661967 -0.62218523
-1.5449853 1.3153529 1.8641177 -0.7332749 -1.6755562 0.31671852 -0.9652994 0.30710185
0.28024018 1.9577432 2.0242412 0.13376355 -0.24699433 1.37322 -1.1328506 -0.95563793
-1.227936 -0.20759209 0.7508677 0.76478434 0.2908397 0.07167494 0.87990457 -0.921214
-0.47002646 1.0064933 0.06841912 0.024126811 -0.17328045 -1.8820683 -3.29967 1.8951458
-1.199306 2.1726513 -0.74841666 0.19942172 0.05792219 0.5762327 0.10691223 2.0839086
-0.15045331 -0.66056865 0.36259952 -0.690923 0.45899478 -0.93655425 -0.21549074 -1.1531116
-0.23277602 -0.41983324 -0.2670001 0.03929527 0.1452692 0.35790706 1.7325655 1.1260535
-0.08603629 0.4418328 -0.20900227 0.11794065 0.08148031 -0.7691228 1.2219218 0.78968686
0.8490654 0.07886895 0.42762968 1.6559876 -0.16798002 0.11129175 -0.81975645 0.13906533
0.1903103 -1.3215287 0.30039394 0.033557832 -0.3075333 -0.7505228 1.343541 1.6780891
0.85855234 0.22226952 -0.07123678 -0.22611317 0.28369856 -0.34467265 -1.7945968 -0.07416918
-0.4423629 0.8758516 0.09534318 0.1597339 -0.8916947 1.7066387 -0.43193176 1.3301306
0.9398114 -1.3023258 0.9538617 0.70756006 -0.95637923 0.41303092 1.058339 0.5778286
0.25166592 -0.21166387 -0.93367976 -0.8004816 0.5935834 0.28435707 -0.3952443 1.3751515
0.9091104 0.3775075 -0.17570698 -0.93766505 0.31278652 0.0028745746 -0.1735976 0.028869988
0.7974689 -0.54375273 -1.2047192 0.34458467 0.4201569 -0.94164723 -0.8408337 0.07213666
0.094343565 -0.043554112 0.8863221 1.1384021 0.14015812 0.45862994 -0.8599034 -0.20077804
-0.6993321 0.08749613 2.56899 1.033951 0.29723468 1.1418499 -0.28584263 0.18716303
0.57711154 1.3288968 -0.98242426 -1.5398742 1.0224037 -0.7330018 -0.5520669 -0.32723022
-0.10645988 0.77635026 0.48171613 -0.7311086 -1.2769221 -0.81225264 0.27331004 0.7819245
1.4096205 0.34478328 -0.76231146 0.3622943 -0.5250893 -1.7708278 0.46639797 -1.6747746

gru.weight_ih_l0 f4 [300, 128]
00000000: a7ad 6c3b 7bf9 4a3c 0574 563d 4813 aa3c
00000010: c8e6 2a3e a11a 03bc 2d34 d1bc 7556 6dbd
00000020: 8a28 50be a69a 5dbd 0232 e43c 6aa4 13be
00000030: 73eb 96bd 1357 40be 5353 4bbd b38b 81bd
00000040: f0de 5c3e c630 063e ac72 893d 2044 95bd
00000050: 4bf7 d5bc 29f2 613e 511d 0b3d a009 613e
00000060: a5bf 13bd b6d9 b73d 3476 5c3c 57aa fabd
00000070: b5d3 79be 5cdf 8c3e f6e6 23bc f17c 0d3d
00000080: 95d8 35be 808f 94bd 14a0 5c3e 71a6 debc
00000090: 5b0d 69bd a61e 603e 4ffc 86be 18c6 1c3e
000000a0: 9b01 1dbe bca8 7cbd c891 233e c30e ac3d
000000b0: 1348 b03d 5bb8 69bc d5f9 243d ba5c d6bd
000000c0: bbef 00bd b94f 003e ff6c 923d e25a 873e
000000d0: 2357 9fbd 6eaf 9a3c 098f 4a3c ba8a dbbc
000000e0: b265 1cbe b97d 5abc 9fa3 0a3e 27d4 a4bd
000000f0: e7d2 6a3d 5762 5ebe c01f 8cbd a3c0 a4bd
00000100: 47da 223e c010 abbe b352 1ebe 01cd b3bd
00000110: 4da0 2d3e 8a1b 53bd 0b3d 3abe af15 9e3c
00000120: be50 873c 1581 3e3e 13da ce3d 95dc e23d
00000130: af18 5f3e 3dad 68be ba40 113e da0d 11bd
00000140: 8f39 eb3d 6661 fcbd e3bb f43b 935e cb3d
00000150: c4bc 50be 65d6 213e 9a93 963d c20a 733d
00000160: ba9f 833d 5594 123e b5cd 8b3d be76 a9bd
00000170: 87a8 fd3d 253e 5a3e f889 733d c936 fc3d
00000180: 687c 513e 1c6c 54be 470c d4bd ca68 08be
00000190: e5b8 8e3e 9f8e bd3c 989e 3abd 9894 67be
000001a0: a147 82bd 2fb9 623c 8892 8ebd 967e 1cbd
000001b0: c609 f1bd aec2 e9bd 083f 04be 3e63 d2bd
000001c0: 24c3 efbd 8820 69bd 1607 35bd bd7d 873a
000001d0: 155f 9e3c e64c 283d 3d7d 24be 7e75 3fbe
000001e0: 5b5d 0abd 7cb7 50be 63eb 1e3d cc3d 413e
000001f0: e46d f5bd 17fc e83d 7e78 e8bc 2e73 c73d
00000200: 70c7 283e 3cc4 e1bd 2e4e ed3d 20dc 3d3e
00000210: aa1c 193c 4e08 a83e ffc9 2fbd bc62 43be
00000220: 25a4 403e f440 a03e 7635 2a3d d10a 96bc
00000230: 0c29 433e 2224 503d f55e dcbd 11d2 6fbd
00000240: 66ff 283d 33fb 963e 7599 dfbb fa6e a53d
00000250: 90fd ccbd 0a77 41be 9c91 393e dc10 a13d
00000260: b7ec 583c 83db 2dbe 9f0c 57bd 9d73 2c3e
00000270: 1f4b 3e3e 70e8 3b3e 29e0 c0bd 3abd a4bd
00000280: 10b3 573b 3364 11be becd afbd c9f2 7abe
00000290: b4e6 263e d4ce 18be 9f73 0c3e 8edc bbbd
000002a0: 4fc4 b4bd 29cc 9b3e e55b 7c3e 343f a63c
000002b0: d431 61bd 3008 26bd 18c5 bb3c 46d7 3c3a
000002c0: f4c1 ae3d 2ea8 ebbd 5593 843e c6f3 5e3e
000002d0: 68b9 7fbc 3ff6 553d d53d 3c3e 466a cd3c
000002e0: c07f 913d d3fc 41be fb7e 543e cd4d 043d
000002f0: 0836 213e d23a fa3d ecfd 013e 75e2 4e3e
00000300: 9c4b 313b 4f90 9fbd ce70 0a3e 0e98 8f3d
00000310: 79a5 8e3c 10ac f43d 6ede 86bd 5888 d6be
00000320: 6c68 373c e4b7 b83b e6a2 36bd 4ca6 47be
00000330: edb3 7e3e 5a28 73be df45 d1bd 4a66 0c3e
00000340: 252d 1d3e 53a3 963c 9b92 cf3d d623 debc
00000350: e730 823e 065d 61bc 09a1 e13d 23d9 89be
00000360: 26aa 29be 8c6c 0dbe 8576 893d f609 4f3e
00000370: 4beb 73bd c6e8 f8bd bed1 013e ea56 9a3e
00000380: f559 613d 7ca3 4ebe 1be1 a6bd 52f6 1abe
00000390: 668d 75be 9f88 163e 4209 593e 9c7c 08bd
000003a0: 546b 5bbd 8dc6 c1bd 709b 223e 4ceb a3be
000003b0: 319a 9e3d 65e5 ce3d 7bf8 41be 71a8 00bf
000003c0: 5d59 e73c c351 30be 8b04 713c 9224 63bd
000003d0: f7e7 42be 4158 4dbc 740c f8bc 1340 edbd
000003e0: d7b5 803c fc64 e73c 5b53 b4bd 5575 59be
000003f0: 04b7 1dbd 9caf d8bd 107b f93d 4fed 4abc
0.0036114247 0.012388582 0.05235674 0.020761147 0.16689599 -0.008001954 -0.025537575 -0.05794378
-0.20327964 -0.054102562 0.027855877 -0.14418188 -0.07369127 -0.18783216 -0.04964001 -0.06325474
0.21569419 0.13104543 0.06711325 -0.072883844 -0.026118895 0.22065033 0.033963505 0.21976328
-0.03607144 0.08977072 0.013455916 -0.12239521 -0.24397166 0.2751416 -0.010003796 0.03454298
-0.177584 -0.07253933 0.2154544 -0.027178975 -0.056897502 0.21886691 -0.2636437 0.15309942
-0.15332644 -0.061684355 0.1597358 0.08401253 0.08607497 -0.014265145 0.04027732 -0.10466905
-0.031478625 0.12530412 0.071496956 0.26436526 -0.07780292 0.01888248 0.012363204 -0.026799548
-0.15273169 -0.013335639 0.13538979 -0.08048277 0.05733004 -0.21717201 -0.06841993 -0.08044555
0.15903579 -0.33411217 -0.15461235 -0.08779336 0.16955681 -0.051539935 -0.18187349 0.019297449
0.016517993 0.18603928 0.10100188 0.11077229 0.2178676 -0.22722335 0.14184847 -0.0354136
0.11485588 -0.12323265 0.007468687 0.09930148 -0.20384508 0.15804441 0.073523715 0.05933643
0.0642695 0.14314397 0.06826345 -0.082746014 0.1238566 0.21312769 0.05945775 0.12315137
0.20457613 -0.20744365 -0.10353904 -0.13321224 0.27875438 0.023139296 -0.045561403 -0.22615278
-0.063613184 0.0138380965 -0.06961542 -0.03820666 -0.11769442 -0.11414085 -0.1291467 -0.10272835
-0.11707142 -0.05691579 -0.04419621 0.0010337156 0.019332448 0.04108896 -0.160634 -0.18697163
-0.033780437 -0.20382494 0.0387987 0.1887123 -0.119838506 0.11376207 -0.028377768 0.09738766
0.1648233 -0.11023757 0.11587177 0.18541002 0.009345213 0.32818836 -0.042917248 -0.19080633
0.18812616 0.31299555 0.04155489 -0.018315705 0.19058627 0.05081571 -0.10760299 -0.058549944
0.041259192 0.29488525 -0.0068237134 0.08077808 -0.10009301 -0.18893066 0.18121952 0.07864544
0.013240031 -0.16978268 -0.05250227 0.16840978 0.18583344 0.18350387 -0.09417755 -0.080439046
0.0032913126 -0.14198379 -0.08584164 -0.24506678 0.16298944 -0.14922649 0.13715981 -0.09172927
-0.088265054 0.304292 0.2464443 0.02029381 -0.05497916 -0.040535152 0.02292113 0.0007203709
0.085330874 -0.11506687 0.25893655 0.2177268 -0.015608169 0.05223679 0.18382962 0.02507509
0.071044445 -0.18944101 0.20751564 0.03230076 0.15743268 0.1221825 0.1269452 0.20203574
0.0027053123 -0.077911966 0.13519594 0.07011424 0.017412888 0.11946881 -0.06585394 -0.41900897
0.01119433 0.005637156 -0.044588946 -0.19497031 0.24873324 -0.23745862 -0.10218405 0.13710895
0.15349253 0.018388426 0.10135385 -0.027116697 0.25427935 -0.013755089 0.11017043 -0.26923475
-0.16568813 -0.13810939 0.06712059 0.20218644 -0.059550565 -0.12153773 0.12677667 0.30144435
0.05501743 -0.20179552 -0.08148404 -0.15133026 -0.2397972 0.14700554 0.21194938 -0.03332196
-0.053569153 -0.09461699 0.15879607 -0.32015455 0.077442534 0.10102347 -0.18942444 -0.5025702
0.028240854 -0.1721869 0.014710556 -0.055454798 -0.190338 -0.012533248 -0.030279376 -0.11584487
0.015711708 0.028246395 -0.08804961 -0.21236165 -0.038504615 -0.1058037 0.121816754 -0.01238568

gru.weight_hh_l0 f4 [300, 100]
00000000: c9a1 e93d c12d a03d a4d9 103d 78ff 703e
00000010: 722b c6be 02ca 1bbe 53a8 f03d f1d2 403e
00000020: 9038 9cbe b858 7cbd 35c9 54bd 2d6f 683d
00000030: cc83 473e 247c 02be 27b4 7f3e 1721 0d3e
00000040: 0223 bdbd bf52 dabd 6acc b8bd c6fd 52be
00000050: cffc 833b b760 febd ef9c 713d 6787 0d3e
00000060: ccfd f6be 0936 ea3d 891b 9a3e d69d 413d
00000070: 2d87 04be 1808 143d a118 213e 2833 bdbe
00000080: 6d5d 3bbe bf67 43bd f8fb 1f3e f875 173d
00000090: 808f 933c 3699 28bd 0d07 f63c c3de 79bd
000000a0: e916 cabe 5169 9abd 6c99 783d a035 db3b
000000b0: 4d97 5abe 8b45 053e 757b 72bd 2fa9 6e3d
000000c0: f118 123e b225 f7bd 0816 02be 217c 703d
000000d0: e50c bcbc 8547 013f 2a6f 11bb efc0 0ebe
000000e0: 2051 813e f739 17be ccb8 c3bd f349 0c3e
000000f0: 1681 b0be d158 93be f672 5fbe 0f16 823e
00000100: da71 6e3d 13f2 8bbe e06f d93e efba 62bc
00000110: 767c 993c 7f8c 8fbe c7b7 b2bd ec89 86be
00000120: 6ebf 04bd e157 bebc bf41 e9be f947 453e
00000130: 3b9f 95bc 6ce6 3ebe 8da2 01bc ce6c b23d
00000140: 1e5f 243c 3204 713e f439 91be cc91 ffbc
00000150: 57e0 b7bd 4099 cfbe 35e3 26bd ff0b 8ebe
00000160: 05b2 bb3c d669 c73c a1e2 e53e ade6 943e
00000170: ac26 21be 868d e2bd a711 21be 3a5b 0d3e
00000180: 0c47 f8bd 20ab 19be 5673 b6bd 84dd 1d3c
00000190: 90ed e93d fe4f e7bd 1860 053e ee70 9cbe
000001a0: 1f2e b73d e452 743d 6c9d 2f3e 795b 41bd
000001b0: 79db 2b3d 1fb2 d93d bb1d d53d 635d 133e
000001c0: 6a9a 613c 3b94 ad3e a382 22be b130 f73e
000001d0: f0ec 073e 0e59 5f3e 782d a2be 6b4f 81bd
000001e0: 8cc6 a2bd 74cd 8cbd fda2 2b3e 16c8 823d
000001f0: a682 d23d 8f1d abbc 8046 eabd 17ff 993d
00000200: 5e09 01be d066 4c3e 3c49 bebd 5101 81be
00000210: 87f1 bb3e 642e 353d 1f98 07be 2a4c 22be
00000220: ada7 083e 0b8b 58be 182e 073e 9e1f 793d
00000230: 6352 213e a2cd 47be c8c5 1e3d 0ec8 93bd
00000240: 2bc7 323e 5feb 79be f7ed eabd 4e50 babd
00000250: 63fb 6c3e fc01 053e bfd4 793d 1d03 0ebd
00000260: fcd1 7b3d ccd8 393e f842 ba3b a96c a8be
00000270: 7871 a0be 72ea 46bc 0c96 c03e ffac 1fbe
00000280: 10b2 b43d bad6 703e 1715 033e 2281 12bc
00000290: 8562 68bc e590 c7bc f6ff 433e acbd 86be
000002a0: 2091 4abe 2781 a73e c5cb 943e 00ed 88be
000002b0: d2f9 47be 80c4 6b3e f06f 553d 19fd 143e
000002c0: 3e6f fc3d 26d3 68bd cd01 d2bd 2fc1 8cbe
000002d0: c24c ddbd 5850 8cbe c736 b6be 3444 38be
000002e0: 4034 383e b87b 83bd 82ff babe d4a3 803d
000002f0: 2df1 0b3e 21a5 383d 7538 93bd 2cff c53e
00000300: 0e36 453c b1bb 01be d55c abbe ebc4 a0bd
00000310: e665 863d 109c 693d 9a25 4e3e a29a 25be
00000320: 441c 323e 889a d7bc aa2d 693d 7a36 9fbe
00000330: 8b21 38be c5ad 133d 4d13 f03c 81c8 e53d
00000340: 7ba6 433e 5b6a 943e 206d 95be 9df4 04be
00000350: fdf4 e23e 726b 28be 652d 1ebe 393e 383e
00000360: 12d6 ae3e d0cb f5bc 0d94 ccbc c7a4 533d
00000370: f2ee 643d 47c7 c4be a9ea 0fbd 6726 193d
00000380: aa7e 8abe d4fc 75be b39e a03e 8001 58be
00000390: 35e4 84be 2af1 07bd 9ccc a5be f9f9 493d
000003a0: a549 08be 4c85 803d 7d4a e63d 3582 38be
000003b0: 0242 99be a0bf 133e a99c 9dbd 399c 12bd
000003c0: 0e57 8cbd 92dc 77be 40f2 9cbe 5099 4dbe
000003d0: f733 a73e 9dca 8cbe a85b b33d 74ec f03d
000003e0: a94c c2bd 4de6 86be a6cf dcbc f80b b63c
000003f0: 9c32 24be 09dd 92be aed2 063e 449d 2dbe
0.11407811 0.07821227 0.03536381 0.23534954 -0.3870502 -0.15213779 0.11750855 0.18830468
-0.30511904 -0.061608046 -0.0519497 0.05674665 0.1948387 -0.12742668 0.24971066 0.13782154
-0.09235193 -0.10660314 -0.09023364 -0.2060462 0.00402794 -0.12420791 0.058987554 0.13821183
-0.48240507 0.11436088 0.30099133 0.047269665 -0.1294219 0.03614053 0.15732051 -0.36953092
-0.18297358 -0.04770636 0.15623462 0.03697774 0.018012762 -0.04116174 0.030032659 -0.061003458
-0.39470604 -0.07539619 0.06069319 0.006689742 -0.21346779 0.1301481 -0.05919977 0.058266815
0.14267327 -0.12067737 -0.12703717 0.05871213 -0.022955367 0.50499755 -0.0022191503 -0.13940786
0.25257206 -0.14768206 -0.095567316 0.13700084 -0.34473485 -0.287787 -0.21821198 0.25407454
0.058214046 -0.27333125 0.42468166 -0.013838514 0.018736105 -0.28036878 -0.08726459 -0.262771
-0.032409124 -0.023235263 -0.45557973 0.19265737 -0.018264404 -0.18642586 -0.00791229 0.08712159
0.010032443 0.23536757 -0.28364527 -0.031197451 -0.08978336 -0.40546608 -0.040744025 -0.27743527
0.022912035 0.024342459 0.44899467 0.29082242 -0.15737408 -0.1106215 -0.1572939 0.13804331
-0.12122926 -0.15006685 -0.08908717 0.009635333 0.114222646 -0.11294554 0.13024938 -0.3055491
0.08944344 0.059649363 0.17149895 -0.047206376 0.041957352 0.10629677 0.10406061 0.14391093
0.013769725 0.33902153 -0.15870146 0.48279336 0.13273978 0.21811315 -0.31675315 -0.06313976
-0.07948026 -0.068751246 0.16761394 0.063858196 0.102788255 -0.020888118 -0.11439228 0.07519358
-0.1260123 0.19961095 -0.09291312 -0.25196317 0.36707708 0.044233695 -0.13241623 -0.15849367
0.13345213 -0.2114679 0.13201177 0.060821168 0.15754084 -0.19512036 0.038762838 -0.07215892
0.17458789 -0.24406193 -0.114711694 -0.09097348 0.23142771 0.12989038 0.060993906 -0.034670938
0.061479554 0.18149108 0.005684253 -0.328954 -0.3133657 -0.012140857 0.37614477 -0.15593337
0.08823025 0.23519412 0.12801014 -0.0089419205 -0.014183645 -0.024361083 0.1914061 -0.26316583
-0.19781923 0.32715723 0.29061714 -0.26743317 -0.19528893 0.23024178 0.052108705 0.14549674
0.12325905 -0.05684199 -0.1025425 -0.27491137 -0.10805656 -0.27405047 -0.35588667 -0.17994767
0.17988682 -0.06420082 -0.36523062 0.06281248 0.1366622 0.045079354 -0.07188503 0.38671243
0.012036813 -0.12669255 -0.33469263 -0.07850059 0.06562404 0.0570336 0.20131531 -0.16172269
0.17393595 -0.026318803 0.056928314 -0.3109625 -0.17981546 0.03605439 0.029306078 0.11219884
0.19106476 0.28987393 -0.29184818 -0.12983938 0.44327536 -0.16447237 -0.15447004 0.17992486
0.34147698 -0.030004412 -0.02497294 0.051670816 0.05589194 -0.38433287 -0.0351359 0.03739014
-0.27049762 -0.24022228 0.31371078 -0.21094322 -0.25955358 -0.033188976 -0.32382667 0.049310658
-0.13309343 0.06275424 0.11244676 -0.1801842 -0.29933172 0.14428568 -0.07695896 -0.035793517
-0.06852542 -0.24205235 -0.30653572 -0.20078015 0.32656834 -0.27498332 0.087577164 0.1176385
-0.09487278 -0.2634758 -0.026954483 0.022222504 -0.16034931 -0.2868426 0.13166305 -0.16954523

gru.bias_ih_l0 f4 [300]
00000000: 099c e33d cfd4 d33c 7873 633e 88f8 10be
00000010: a0f0 c13d 50b0 25be a189 3d3e 930a a23d
00000020: e249 d43d 6f5c 663d 1d99 19bd bf37 143e
00000030: 5952 0e3e 91bf 69bd afd5 bc3c 6587 b4bc
00000040: 3908 003e 7982 13be b88a df3d 5ee4 23be
00000050: 5703 a33e c9b5 693e af72 1d3e 0281 7a3e
00000060: ad70 813d c81d b13d bf84 903e b883 673e
00000070: 33a9 9b3d 31cf fe3c 6eda 383e b67c 2dbd
00000080: 1d5f 15bd fe68 a03d 3604 3e3d 9488 2f3d
00000090: c8ee 0e3e 510a b53d e77e 9c3e 951e 1c3d
000000a0: 7c2c 17be cc90 af3d 645b 513d 1c7e 823e
000000b0: 503c 553e 696a a2bc 2968 b03e 6db8 153e
000000c0: 0b84 b8bd df5c 563e 0aee 013d c44e ae3e
000000d0: a154 febd f9cb b6bd 047e 253e 925d 243d
000000e0: 7ed0 673d edc9 593e 9564 4a3e 57fd c93d
000000f0: b076 933e 0ed1 3f3e 97ef 1ebe b7c2 713e
00000100: 9095 1c3c 9b63 5e3d 41e1 863d 38f9 3f3e
00000110: 07f9 893e e795 3c3d 2167 673c 76c7 b03d
00000120: b530 d6bc 5b16 3a3e 5a72 523d b204 3bbd
00000130: 8a93 053e 1762 84be 5fe4 e23e 40e1 e3bc
00000140: 169c 1f3e bce6 0a3e f954 c1bc e408 f03b
00000150: 4e82 443d 8297 173e 3b65 1abd c212 7e3d
00000160: 198f 533e 55bb 163e b0a6 833e 5143 e5bc
00000170: 5e72 563e c69f 8b3d c959 45bd a340 a73e
00000180: b83d 833e bfb0 003d a89c 7d3e 2345 993e
00000190: 9852 08be 20a4 61bd 93d0 18bc f1b7 55be
000001a0: e7b0 65be f2db f6bd 9494 c1bd d46a 2b3e
000001b0: c9f4 a4be b6cc 82be 8f10 11bd ed08 d3bd
000001c0: 34fc 88bd faa8 b7bd faf7 053d dc7e fdbd
000001d0: 0e0a 8abc cedc 12be 4bb4 2cbe 15d5 29bc
000001e0: 6f87 80be d15a e1bd 7190 febd 5714 9bbd
000001f0: 7b38 93be 4474 e3bd 45ed edbd 82b4 6dbe
00000200: 7f96 d4bd 9e96 a53d 9d13 44be 4a1a 3dbe
00000210: ea48 8cbe 50e8 5f3e f538 5cbd 1d50 06be
00000220: ac86 26be 5ccb 3fbd 75af 01be d7e5 b1ba
00000230: 1ffd fcbd 35a7 a9bd 83e8 3fbe f8af 3cbe
00000240: 382b 9bbe c11d 02be aa5c c83d 2427 f03d
00000250: aa61 aabd bbaa 3bbe c7e4 743d 6159 8abe
00000260: 7d9b 85be 45ff 8a3d 2209 b8bd ed49 963c
00000270: ffee 07be c2de 0bbe db50 61be e45e cabd
00000280: 03b2 d4bd 3076 b7be 962c bb3c 93ae 4f3e
00000290: 6ea9 04be dd55 ccbd 9413 433d b586 043e
000002a0: a9c2 87bd 1cf1 183c 35cf cdbd 7157 4b3b
000002b0: 42e5 80bd 05da 37bd 71ae 33be 94ac ddbd
000002c0: 81e3 8fbe 4d62 60be ec93 57be 2b73 0abe
000002d0: 50e4 5dbe 3494 683d 70e0 23be 2d1d 49be
000002e0: c549 2dbd 36ba ae3d 2cb9 87be 93ed ec3c
000002f0: af54 84be b33f 8ebe bfe2 a6be 46d0 f6bd
00000300: 6b87 a6bd f362 08be 1171 29bd 836c 48be
00000310: 457e e3bd 4298 68be 2487 16be c9bd d4bc
00000320: 1523 1b3e 1658 053e 7881 0dbe f0e8 a23d
00000330: b1bb 80bd 13d6 0b3c 5005 9dbb 172f 363d
00000340: fd4b 423e 27d7 4dbe b7c8 b3bc 0192 f0bd
00000350: 4ad1 a4bc 173d bbbd 17ea d2bb bfe0 da3d
00000360: fa5c 35bd 742b 84bc ec0a 183e 9747 b7bc
00000370: aad7 e0bc 5384 553c e6e4 efbd a3f2 853d
00000380: e328 423d 96e3 74be 3ee4 acbe 53ed e33d
00000390: 87fc 3f3e 1b64 87bd 874a a83c 6dc5 8e3d
000003a0: 86d0 aabc e0cf ea3d 893f 373e 7249 033e
000003b0: 990e 473e cae7 f43c 4b41 0a3e e591 343d
000003c0: 5d51 cfbd 1438 a33d c794 fc3c 2260 843e
000003d0: 92de 5ebe 46c1 11be a4dc 503d 0139 4a3d
000003e0: 9e87 e2bd 057e 803e 6b7b 733d 1761 7dbe
000003f0: 921d b0bd 2dc2 c03d 3655 15be fcbf dcbb
0.11113746 0.025858311 0.22212017 -0.14157307 0.09469724 -0.16180539 0.18509533 0.07912173
0.103656545 0.056240495 -0.037499536 0.1447439 0.138986 -0.057067458 0.023051111 -0.022037217
0.12503137 -0.1440524 0.109151304 -0.16005084 0.31838486 0.22823252 0.1537578 0.24463275
0.06320319 0.086482584 0.28226277 0.2260884 0.076006316 0.031104656 0.18052074 -0.04235526
-0.03646766 0.07832526 0.046390735 0.04285486 0.13958275 0.08839858 0.3056557 0.038115103
-0.14763063 0.0857254 0.051112548 0.2548684 0.20823789 -0.019826131 0.34454468 0.14621134
-0.0900956 0.20933865 0.031721152 0.34044468 -0.124184854 -0.089256234 0.16161352 0.040128298
0.056595318 0.21268435 0.19764931 0.09862774 0.2880149 0.18732092 -0.15521084 0.23609434
0.009557143 0.05429421 0.065859325 0.18747413 0.26947805 0.046041396 0.014123709 0.08631794
-0.026146272 0.1817259 0.051378585 -0.045658775 0.13044563 -0.25856087 0.44314858 -0.027817369
0.15586886 0.1356458 -0.023600088 0.0073252786 0.04797583 0.1480389 -0.037694197 0.062029608
0.20660056 0.14719899 0.2571311 -0.0279862 0.20942065 0.06817584 -0.04818133 0.326665
0.25633025 0.03141856 0.24766791 0.2993556 -0.13312757 -0.055088162 -0.009327072 -0.2087095
-0.22430764 -0.1205367 -0.09452167 0.1673997 -0.32218006 -0.25546807 -0.035416182 -0.10304437
-0.06688729 -0.089677766 0.032707192 -0.12377712 -0.016850498 -0.14342043 -0.16865651 -0.010365744
-0.25103328 -0.1100365 -0.12429894 -0.07572239 -0.2875403 -0.1110616 -0.11617521 -0.2321339
-0.10380267 0.080853686 -0.19148107 -0.1846706 -0.2739938 0.21865964 -0.053765256 -0.13116498
-0.1626231 -0.046824798 -0.12664588 -0.0013572526 -0.123529665 -0.08283845 -0.1874104 -0.18426502
-0.3030641 -0.12706663 0.09783299 0.117262155 -0.08319409 -0.18326847 0.05978849 -0.27021316
-0.2609519 0.0678697 -0.08986117 0.018345797 -0.13274764 -0.13659194 -0.220035 -0.0988138
-0.103855155 -0.35832357 0.022848409 0.20281439 -0.12955257 -0.099773146 0.047626093 0.12942012
-0.06628925 0.009334829 -0.10049287 0.003102746 -0.062937275 -0.044885654 -0.17547013 -0.10823932
-0.2810326 -0.21912499 -0.21052521 -0.13520496 -0.21669126 0.056781963 -0.16003585 -0.19640036
-0.04230668 0.08531611 -0.26508462 0.028921878 -0.25845858 -0.27782974 -0.3259487 -0.12051444
-0.08131298 -0.13318996 -0.041367594 -0.19572644 -0.111080684 -0.22714332 -0.1469999 -0.025969403
0.15150101 0.13021883 -0.1381892 0.079545856 -0.06285799 0.008534926 -0.004791893 0.044478502
0.189743 -0.20101605 -0.021946294 -0.11746598 -0.020119328 -0.09142511 -0.006436597 0.10687398
-0.044278122 -0.016134001 0.14847916 -0.022373004 -0.027446587 0.013032037 -0.11713581 0.0654042
0.047402274 -0.23914942 -0.33767885 0.111292504 0.18748675 -0.066108905 0.02054335 0.0697125
-0.020851385 0.1146543 0.1789533 0.12820986 0.19439162 0.029895682 0.1350147 0.04408445
-0.10122941 0.079696804 0.030832661 0.25854594 -0.21764591 -0.14233884 0.05099167 0.04937077
-0.11061023 0.25096145 0.059443872 -0.24744068 -0.0859939 0.09412036 -0.14583287 -0.0067367535

gru.bias_hh_l0 f4 [300]
00000000: 7875 343e 9768 063e 26ff b73e c4a7 8fbd
00000010: 9639 e73d 7fa8 47bd 2c94 d4ba bf39 683e
00000020: 7cf0 523c 548e 333e 54e6 393d 5b74 873e
00000030: 8b1f 8d3e 4268 0e3d 6b39 c3bd d902 b6bb
00000040: b99d 273e 2da8 82bd 7785 34bd 7d87 acbd
00000050: dbf5 403e 0301 ec3d 627c ca3d e643 753e
00000060: 74ba 293e 9c88 bebd 7880 463e f6e1 423e
00000070: 74ec 883d 3f80 a3bd 28c4 553c 64c9 bc3d
00000080: a0bb b4bc fdaf 2c3d 8a78 9abd c6d6 5f3d
00000090: 993a 123e 701f e53d 688b b63e da01 973d
000000a0: 06ba 3f3b fec8 e43c ddea 0c3e 56df 493e
000000b0: 7363 213e 1445 a73d 966c b53e 0eed 363e
000000c0: cf1c 4cbc 3c93 d73d 7c75 cf3d 4269 bf3e
000000d0: 8d1c 01bd 4aaa 573c b902 9a3d dcd7 d03d
000000e0: cd66 14bd d442 0d3e ccd5 363e 201a 013e
000000f0: 8ae4 363e 3298 353e 1aa2 19ba dd5a e23d
00000100: e636 0b3e 52bf 153d 2c5a 043e c490 893e
00000110: 343f 713e 3188 e33d 1f91 4abc db3a a2bd
00000120: 5aa4 313d 957a 713e 04b9 053e 7af3 903d
00000130: c145 223d 3fd6 14be 5073 a03e f0a4 e9bc
00000140: 243d 113e d87f b53d dfc8 d4bc a23d 97bd
00000150: 5b20 533e 06fe ef3d 25c2 f2bd 11ac 4bbc
00000160: 01ff 693e e7bd 5c3e 185f 983e 47bd c53b
00000170: 4e2e b83e 1650 5d3e 4a8e e0bc 825b 6e3e
00000180: 9498 913e 8cc2 68bd a3e6 3a3e 2860 2e3e
00000190: 895e 48bd 3687 f6bd 894e 23be 6e8c 99be
000001a0: f2c9 39be 084c 7dbe 5937 56be eebb 0f3e
000001b0: b011 93be 15ab f1bd d1fa 91bd 38c5 1cbe
000001c0: 9d98 8b3d 80b0 8dbd 3892 dfbd ddff 67be
000001d0: 9779 19bd 9a85 1bbe 4e04 f0bd 0033 213c
000001e0: 70b5 5fbe 0f13 5ebe 6666 0dbe dfd5 2a3d
000001f0: b8c1 65be 3e03 09bc 2569 07be 6fcb 54be
00000200: 6813 d1bd d019 e33d e51f 07be 0c84 59bd
00000210: fdd0 16be e659 883e efeb 703d 3091 4ebe
00000220: f4fd 2cbd 2fd6 4bbe 5e10 6fbe e7ec d53c
00000230: ca6c 7fbe d612 b83b 5fc7 1fbe fb7d 1abe
00000240: 27a7 69be dd9b 0fbe 58c1 9f3d 6b4f c33d
00000250: f4a9 febd d64c 9cbe 33f9 993c f580 07be
00000260: 5dca f3bd 9966 6abd 67e2 6fbe 8f3e 86bd
00000270: 8ed2 4ebe 843a 1bbe 6a91 11be 7f62 8abe
00000280: 76d5 43be 2348 9bbe 297e c33d 7c11 433e
00000290: f640 55be a2bd 99bd eed8 323e 420c 323d
000002a0: 7b3a 6bbd 58e3 2cbd da5b b4bd 3507 32bd
000002b0: 8675 6fbe cd08 5fbe f7f2 19be 5dab 6dbe
000002c0: ebe5 1abe e7c6 10be 64a4 80be 8be5 8cbc
000002d0: 53a6 85be 5842 f4ba 01a6 5fbe 1bab 39be
000002e0: 77f8 9bbd 9b21 643d 62ed 21be 4640 02be
000002f0: 70fe 9cbe f8af 81be dd45 aabe e823 07be
00000300: 9e8e 84bc 5f9a 5fbe b648 4dbe e535 12be
00000310: 1a82 55bd 2f42 a3be 79ac a2bd bef9 46bc
00000320: e6d7 073e b887 88bc e843 4bbc bbe8 1a3e
00000330: 2ad6 22be fd97 c7bc 1d50 2c3c f9a5 cebd
00000340: 0b4a 393e b4d5 45be 9b1d c7bd 205c 42be
00000350: 0e49 a73c 4c74 e6bc 9bd8 5a3d 352a 3c3d
00000360: 6338 07bc a3ca 97bd 7ca3 743d 96e9 613c
00000370: 8599 61bd 1e4d b9bc 9c67 043d 6bce 81bb
00000380: 8b7f 073e df26 3bbe 9981 6dbe 2676 b33d
00000390: 7d4b b43d 2765 893d 7cb8 7f3d 538f 573e
000003a0: 2c84 3a3d c9c6 483e d045 c73d a066 513e
000003b0: 1ecc ef3d ff28 d13c 5230 493d c9da a63b
000003c0: 602b f53d 60ed b13d 0b35 a53d e4bf 863d
000003d0: 2ba2 52be 58fd d6bd 343c d23c ba71 1dbe
000003e0: 0da8 2dbc a1fe 783e ccfd d5bd 11db 4ebe
000003f0: 55a6 9fbe 9014 ae3c 9e37 6cbd e754 0bbc
0.17622936 0.13125835 0.3593685 -0.07014421 0.112902805 -0.048744675 -0.0016218475 0.22678278
0.012874719 0.17534763 0.045385674 0.2645596 0.27563128 0.034767397 -0.09532436 -0.0055545387
0.1636876 -0.06379733 -0.044072594 -0.0842428 0.18843786 0.115236305 0.098870054 0.23951682
0.16575032 -0.093034 0.19384944 0.1903151 0.06685725 -0.079834454 0.013047256 0.092181
-0.022062123 0.042160023 -0.07542522 0.054648183 0.14280166 0.11187637 0.35653234 0.073734
0.0029255166 0.027927872 0.13761468 0.19714102 0.15760593 0.081674725 0.35434407 0.17863867
-0.01245804 0.105261296 0.1012983 0.37384993 -0.03152137 0.013163159 0.075200506 0.10197422
-0.03623085 0.13795024 0.17854995 0.12607622 0.17860618 0.17733839 -0.0005860642 0.11052487
0.13595161 0.03655941 0.12925023 0.2686826 0.23559266 0.11109961 -0.012363701 -0.07921382
0.04336963 0.23581918 0.13058859 0.070776895 0.039617304 -0.14534853 0.31337976 -0.028521031
0.1418348 0.08862275 -0.025974689 -0.073848024 0.20617811 0.11718373 -0.118534364 -0.012431161
0.22851183 0.21556817 0.2976005 0.0060345265 0.35972828 0.21612582 -0.027411599 0.23277095
0.2843672 -0.05682616 0.18252043 0.17028868 -0.04891828 -0.12037508 -0.15947928 -0.29989952
-0.18143442 -0.24736035 -0.20919551 0.14036533 -0.28724432 -0.118002094 -0.071279176 -0.15309608
0.06816218 -0.0691843 -0.10916561 -0.22656198 -0.037469473 -0.15187684 -0.11719571 0.0098388195
-0.21846557 -0.21686958 -0.13808593 0.04170787 -0.22437179 -0.008362589 -0.13223703 -0.20780729
-0.102087796 0.11088908 -0.1319576 -0.053104445 -0.1472816 0.26631087 0.058818754 -0.20172572
-0.042234376 -0.19905923 -0.23346087 0.02611394 -0.24943843 0.00561748 -0.15603398 -0.1508712
-0.2281767 -0.14024301 0.07800549 0.09536632 -0.1243476 -0.3052737 0.018795585 -0.13232787
-0.11903832 -0.05722675 -0.2342621 -0.06554901 -0.20197508 -0.1515904 -0.14215627 -0.27028272
-0.19124398 -0.30328473 0.095455475 0.19049639 -0.20825562 -0.07506873 0.17465565 0.04346872
-0.05742882 -0.042209 -0.08806582 -0.043463904 -0.23384675 -0.21780701 -0.1503409 -0.23209901
-0.15126769 -0.14138375 -0.2512542 -0.017199298 -0.26103458 -0.0018635495 -0.21840669 -0.18131678
-0.0761575 0.05569611 -0.1581321 -0.12719831 -0.3066287 -0.25329566 -0.33256426 -0.13197291
-0.016181286 -0.21836232 -0.20047268 -0.14278372 -0.052126028 -0.31886432 -0.07943053 -0.012144504
0.13265952 -0.016666278 -0.012406327 0.15127842 -0.1590201 -0.024364466 0.010517147 -0.100902505
0.18094651 -0.19319803 -0.09722444 -0.18980455 0.020420577 -0.028131627 0.053429227 0.04593869
-0.00825319 -0.07411697 0.059726223 0.013788601 -0.05507805 -0.02261978 0.032325372 -0.0039613745
0.13232248 -0.18276547 -0.23193969 0.087627694 0.08803461 0.067087464 0.062431797 0.21050768
0.045536205 0.1960708 0.097301126 0.20449305 0.11708854 0.025532244 0.049118347 0.005091999
0.11971164 0.08687854 0.08066758 0.06579569 -0.20569675 -0.1049754 0.025663473 -0.15375414
-0.010599148 0.24315883 -0.104487985 -0.20200755 -0.3118159 0.02125004 -0.05767023 -0.008504129
