modules/prn_gen/exp/en_id/models/bigram/train-decoder-wdecay_1e_5-attn_dot-emb_256-hddn_128-layers_1-epoch_70.pth (torch, 866560 bytes, 7 tensors)

embedding.weight f4 [36, 256]
0	0xbb21e898	-0.0024705287
1	0x3b2c8983	0.002632708
2	0xbc5c4cc0	-0.013446033
3	0xbcf9a988	-0.030476347
4	0xbba608a3	-0.0050669475
5	0xbc0acc0d	-0.008471501
6	0xbf157287	-0.5837788
7	0x3ed9dde1	0.42552093
8	0x3c5699db	0.013098205
9	0xbf46ced0	-0.7765932
10	0xbbdbf21c	-0.0067122113
11	0xbdc60b90	-0.09670174
12	0xbe4c41d6	-0.1994699
13	0x3d8d00a0	0.06884885
14	0x3e404645	0.18776806
15	0xbdd074f3	-0.10178556
16	0xbd9a6177	-0.07538121
17	0xbb0cae7d	-0.0021466308
18	0x3ed004db	0.40628704
19	0xba841c03	-0.0010079149
20	0x3dcd3389	0.10019595
21	0x3dbe395a	0.09288283
22	0x3be47428	0.0069718547
23	0xbe364ce1	-0.17802764
24	0xbd10504f	-0.03523284
25	0xbb4edee9	-0.003156597
26	0x3b3d3e25	0.0028876152
27	0x3da63860	0.081162214
28	0x3b4c33ac	0.0031158729
29	0xbc892a5b	-0.01674383
30	0xbf16a43c	-0.5884435
31	0x3ef9f2af	0.48817965
32	0x3f5e8835	0.86926585
33	0x3ac14433	0.0014745056
34	0x3a313897	0.00067604467
35	0xbb8e12c7	-0.0043357345
36	0x3eccfacd	0.40035096
37	0x3c861bce	0.01637068
38	0x3b99e805	0.0046968483
39	0x3d31c843	0.043403875
40	0xbb412e01	-0.0029476883
41	0xbc234fa9	-0.009967723
42	0x3dbb4c4f	0.09145414
43	0x3ed80579	0.42191675
44	0xbe0444d6	-0.12916884
45	0xb96e0a40	-0.00022701267
46	0x3d090abd	0.033457506
47	0x3b413dfa	0.0029486404
48	0xbb39bc9f	-0.0028341187
49	0xbe8227a5	-0.2542087
50	0x3c851721	0.01624638
51	0xb9ef8749	-0.00045686428
52	0xbec263fb	-0.37966904
53	0xbd58c491	-0.052921835
54	0xbcc7c822	-0.024387423
55	0x3d12fe18	0.035886854
56	0xbb4a1501	-0.0030835273
57	0xbe8874b3	-0.26651534
58	0x3f3a5397	0.727838
59	0xbc33a305	-0.01096416
60	0xbe3f6e91	-0.18694521
61	0x3d4a8baa	0.0494496
62	0xbbbe8cae	-0.00581511
63	0xbdb3eaad	-0.08784995
64	0xbbb6bca4	-0.005576687
65	0xbabe5bc1	-0.0014523194
66	0x3e4b8bde	0.19877574
67	0x3b1b5892	0.0023703915
68	0xbe2c0ac5	-0.16800983
69	0xbeb3e912	-0.35138756
70	0xbabc71a3	-0.0014377128
71	0xbd5fd6ac	-0.054648086
72	0x3bb0c54a	0.0053946124
73	0x3b8deee8	0.0043314584
74	0xbb8a913b	-0.0042287386
75	0xbb84b7e3	-0.0040502413
76	0x3cf7ec8b	0.03026416
77	0x3eef83c9	0.46780232
78	0xbc8522e1	-0.016251983
79	0x3bd1c9e9	0.0064022434
80	0xbdbc8f24	-0.092069894
81	0x3d63f6bb	0.055655222
82	0xbc2baf63	-0.010478827
83	0xbd72bbc1	-0.059261087
84	0x3b760b31	0.0037543292
85	0xbb422047	-0.002962129
86	0x3dcf3166	0.10116844
87	0x3b169633	0.002297771
88	0x3e4ff839	0.20309533
89	0xb9f90f76	-0.000475045
90	0x3b045a0c	0.0020195274
91	0x3bc3aedf	0.005971774
92	0x3cb02747	0.021503104
93	0x3a1c1e5f	0.00059554534
94	0x3a07b917	0.0005177422
95	0x3e7b9ac5	0.24570759
96	0xbbf558bc	-0.0074873846
97	0x3bcfad0c	0.0063377675
98	0x3e65d07d	0.22442813
99	0x3bae74c3	0.0053239777
100	0x3b2e00a0	0.0026550665
101	0x3b095cef	0.0020959934
102	0x3d965752	0.07340874
103	0x3cea6fd9	0.028617786
104	0x3ac21a34	0.0014808835
105	0xbce3d684	-0.02781225
106	0x3b900222	0.0043947855
107	0x39d7f8e7	0.00041193442
108	0x3e258a0d	0.16165943
109	0xbae8e984	-0.0017769788
110	0xbb63d625	-0.0034765091
111	0xbdf2ebb8	-0.11861366
112	0x3d302096	0.042999826
113	0x3b52c454	0.0032160478
114	0x3aa68dd1	0.001270706
115	0xbe006801	-0.12539674
116	0xbadaa242	-0.0016680437
117	0x3d7a9b53	0.061183285
118	0x3e50c640	0.20388126
119	0x3dcd042a	0.1001056
120	0x3c19e622	0.009393247
121	0xbb48234f	-0.0030538624
122	0x3b86f344	0.004118355
123	0xbb937041	-0.0044994657
124	0xb98259bf	-0.00024862398
125	0xb9c766ce	-0.00038032833
126	0xbc2509bb	-0.010073121
127	0x3d9a144d	0.07523403
128	0xbd035ee1	-0.032072905
129	0x3c4156f3	0.011800515
130	0x3e05ece1	0.13078643
131	0x3bb42a27	0.005498189
132	0x3a5df288	0.0008466621
133	0x3b112e5e	0.002215288
134	0xb8c403cb	-9.346715e-05
135	0xbd8f121d	-0.06985877
136	0xbab1466d	-0.0013525017
137	0xbb36e35a	-0.0027906508
138	0x3e4c118a	0.19928566
139	0xbbc3b66d	-0.0059726746
140	0x3d447a6a	0.047968306
141	0x3cf16e4d	0.02947154
142	0xba9090d5	-0.0011029491
143	0x3b54b2c9	0.0032455197
144	0xbba59288	-0.0050528683
145	0x3c9abf3b	0.018890014
146	0x3a9340fa	0.0011234574
147	0xbb5bc349	-0.0033533147
148	0x3d3f5e5d	0.04672085
149	0x3db3b179	0.087740846
150	0x3c0725d8	0.008248769
151	0xbc0b1bf7	-0.008490554
152	0xbeacdcab	-0.33762106
153	0x3bbb0b55	0.005708138
154	0xbd3db9e5	-0.04631986
155	0xbe12b7dd	-0.14327951
156	0x3d94c3cd	0.072639085
157	0x3bf8cbbe	0.0075926473
158	0x3f12c3da	0.57330096
159	0xbb3d98ef	-0.0028930267
160	0xbb2f3be4	-0.0026738578
161	0xbc396bfd	-0.01131725
162	0xbf405121	-0.7512379
163	0x3cd30465	0.025758931
164	0x3c406c45	0.0117445635
165	0x3b2377e3	0.0024943284
166	0x3d552040	0.05203271
167	0x3c3e0b66	0.011599397
168	0xbc2a125d	-0.010380355
169	0xbb95229d	-0.0045512454
170	0x39e0a4ad	0.00042847302
171	0x3a1e6799	0.0006042659
172	0xbd4e4dcb	-0.050367158
173	0xbe0ca6ec	-0.1373555
174	0xbb00d35c	-0.001965723
175	0x3e074e67	0.13213502
176	0xbdbdedb9	-0.092738576
177	0x3c1a32f8	0.009411566
178	0x3c919da6	0.017775368
179	0xbe15fd72	-0.14647463
180	0x3e0aca67	0.13553773
181	0x3d2e3a7f	0.042536255
182	0xbb076456	-0.002065917
183	0xbe5671d9	-0.20941867
184	0x3caa36b0	0.02077803
185	0xbea6e6a6	-0.32597846
186	0xbad0f15f	-0.0015941075
187	0x3e485203	0.19562535
188	0x3df97d9e	0.12182163
189	0xbbaa611b	-0.005199564
190	0xbb852c48	-0.0040641166
191	0xbb277b29	-0.0025555587
192	0xbea65c50	-0.32492304
193	0x3c5c9840	0.013464034
194	0x3dab9307	0.083776526
195	0xbb211fe1	-0.0024585652
196	0xbd0df421	-0.034656648
197	0xbcb152e9	-0.02164598
198	0xbaead486	-0.001791612
199	0xba59758b	-0.00082954083
200	0x3b0803d2	0.002075423
201	0xbd84dde4	-0.06487635
202	0x3b9af5a3	0.004728989
203	0x3bb6984d	0.005572355
204	0x3e9f7bac	0.31149042
205	0xbc04a902	-0.008096935
206	0x3cec6b0d	0.02885964
207	0xbb8fb5db	-0.0043856925
208	0x3c0113a9	0.0078782225
209	0x3b812dcc	0.003942227
210	0x3d06b5d9	0.032888267
211	0x3d617f4f	0.05505305
212	0xbd8670a4	-0.06564453
213	0x3e2d3a6f	0.16916822
214	0x3d418f4b	0.047255795
215	0xbeca4465	-0.39505306
216	0xbf54ece1	-0.8317395
217	0xbb9f8446	-0.004868063
218	0x3bf6ac2b	0.0075278482
219	0x3e47d72b	0.19515674
220	0xbad68ff3	-0.0016369805
221	0x3e9d0270	0.30665922
222	0xbabdbb08	-0.0014475295
223	0x3d0e3ab9	0.03472397
224	0xbb99d901	-0.0046950583
225	0x3b4333f7	0.0029785612
226	0x3c486ea8	0.012233414
227	0x3e712201	0.23548128
228	0x3dfeb257	0.124363594
229	0xbaa3fbaf	-0.0012510921
230	0xbed915dd	-0.42399493
231	0xbae2aa12	-0.0017293117
232	0x3c5caa26	0.013468301
233	0x3c518086	0.01278699
234	0xbb93c995	-0.0045101144
235	0x3a47e577	0.00076254405
236	0xbb8addc1	-0.004237861
237	0xbccc6661	-0.024951162
238	0xbb889778	-0.004168447
239	0xbc6a1179	-0.014286392
240	0x3c8ba544	0.017046578
241	0x3e0aad12	0.13542584
242	0xbf79174b	-0.9730117
243	0x3a98aed2	0.001164878
244	0xbb167685	-0.0022958827
245	0x3e6abd41	0.22923757
246	0xbae412a6	-0.0017400577
247	0xbc635067	-0.01387415
248	0xbb042e51	-0.0020169208
249	0x3c06ce81	0.008227945
250	0xbc140226	-0.009033715
251	0x3b74df61	0.003736459
252	0xba90e5a5	-0.0011054768
253	0x3be011ea	0.006838073
254	0x3bf9bdad	0.007621488
255	0xbe67b1cd	-0.2262642

gru.weight_ih_l0 f4 [384, 384]
0	0xbc69ad25	-0.014262472
1	0xba93492d	-0.0011237018
2	0xbbf11a3a	-0.007357863
3	0xbbbb83fe	-0.005722522
4	0x3c89744a	0.016779084
5	0x3bb22fdb	0.0054378337
6	0xbc83ed75	-0.01610444
7	0x3d19294a	0.037392892
8	0xbc8b38b3	-0.01699481
9	0xbd1c2b17	-0.03812703
10	0x3b92abf0	0.004476063
11	0x3b7a4328	0.0038187
12	0xbb89ec43	-0.004209073
13	0x3d1efe7a	0.038816907
14	0x3c7e7b4e	0.015532328
15	0xbc2a109d	-0.0103799375
16	0x3ce768f7	0.028248293
17	0x3a8c72e2	0.001071539
18	0x3c9347e0	0.017978609
19	0xbd399ff3	-0.045318555
20	0xbcc95b12	-0.024579559
21	0x3c723459	0.0147829885
22	0xbc35c99b	-0.01109543
23	0xbcc72002	-0.024307255
24	0x3baf74a8	0.0053544827
25	0xbb430832	-0.0029759523
26	0xbbd79f32	-0.006580257
27	0x3d31e985	0.043435592
28	0x3cc144c5	0.023592362
29	0x3c2f726b	0.010708432
30	0xbc533946	-0.012892073
31	0x3c9f7f27	0.01946981
32	0x3d347c71	0.04406399
33	0x3ad4c64d	0.0016233415
34	0x3ab46a03	0.0013764504
35	0x3b993f19	0.0046767113
36	0x3cc4a3b5	0.024003843
37	0xbb72809a	-0.0037002922
38	0xbc517952	-0.012785273
39	0x3c0c1d57	0.008551917
40	0xbc203b16	-0.009779712
41	0xbc2043ca	-0.009781787
42	0x3a5137d2	0.0007981035
43	0xbc8fd673	-0.017558312
44	0xbb4898dc	-0.003060869
45	0xba264f54	-0.0006344218
46	0x3c89c327	0.016816689
47	0x3c31715f	0.010830252
48	0x3c70edec	0.0147051625
49	0xbc90cad4	-0.017674841
50	0xbce730e9	-0.028221564
51	0x3b85082a	0.004059811
52	0xbd5846ee	-0.05280202
53	0x3d0b173c	0.033957705
54	0x3bb2c3a3	0.0054554506
55	0x3d3eeb40	0.04661107
56	0x3c29205c	0.0103226565
57	0xbc391087	-0.011295444
58	0x3d683871	0.05669445
59	0x3c04de48	0.008109637
60	0xbc49c713	-0.012315529
61	0x3c80a006	0.015701305
62	0x3b3b4716	0.0028576306
63	0x39b2c2f9	0.00034096072
64	0x3c116f44	0.008876625
65	0x3b6f50cb	0.0036516662
66	0xbc24aaa1	-0.010050447
67	0x3c525a6d	0.012838942
68	0xbd1362ec	-0.03598301
69	0xbd31a7c1	-0.043372873
70	0x3cbac125	0.022797177
71	0xbbe636de	-0.0070255836
72	0xbc34325b	-0.010998334
73	0xbc83ccf1	-0.016088935
74	0x3c03c104	0.008041624
75	0xbcf679ac	-0.030087315
76	0xbba618cc	-0.005068874
77	0xbb28bdef	-0.0025747975
78	0x3cf7fea4	0.03027279
79	0x3b679ebe	0.003534242
80	0xbc6bf649	-0.014401981
81	0xbc081da8	-0.008307852
82	0x3cc98238	0.024598226
83	0xb9cb3939	-0.0003876181
84	0x3c04e975	0.008112301
85	0x3ca4bdc4	0.020110019
86	0x3c50cbd4	0.012743909
87	0xbb878d27	-0.0041366997
88	0x3c2d74d5	0.010586937
89	0xba94d8cc	-0.0011356114
90	0xbc04453f	-0.00807315
91	0xbc109155	-0.008823712
92	0x3cc5aaf1	0.024129363
93	0x3bd9da09	0.0066483063
94	0xbb3d7cc8	-0.0028913487
95	0x3c9985fd	0.018740648
96	0xbc132305	-0.008980517
97	0x3b43ba5c	0.0029865718
98	0x3c6bf738	0.014402203
99	0x3b4c3273	0.0031158
100	0x3c20eda3	0.009822282
101	0x3aba88be	0.0014231426
102	0xbb66a8f0	-0.003519591
103	0x3bc6ccd2	0.006066897
104	0x3b4734fc	0.0030396571
105	0xbc58df37	-0.013236812
106	0x3bb1ace1	0.00542222
107	0xbcb16659	-0.021655248
108	0xbc87ea99	-0.016591357
109	0xbc39c446	-0.011338299
110	0xbb1eeb8a	-0.002424928
111	0x3cd67704	0.026179798
112	0xbc039155	-0.008030255
113	0xbc18e76c	-0.009332519
114	0xbb894b8b	-0.0041899136
115	0xbd39f76e	-0.045401983
116	0x3c89d417	0.016824765
117	0xbd09f1e0	-0.033677936
118	0x3bbdb84a	0.0057897912
119	0x3cafe365	0.021470735
120	0x3c6434f5	0.013928642
121	0xbbb17d0f	-0.0054165195
122	0xbbdabc4b	-0.0066752783
123	0x3d1547fa	0.036445595
124	0xbbc2f7de	-0.005949958
125	0x3a8eff2b	0.0010909786
126	0x3ca42198	0.02003555
127	0x3b9c6699	0.004772973
128	0xbcc7d29e	-0.024392422
129	0x3d04009e	0.03222715
130	0x3c1fc094	0.009750504
131	0xbb940c89	-0.004518096
132	0xbc72c9d1	-0.014818625
133	0xbb369021	-0.0027856904
134	0x3b570702	0.0032810573
135	0xbd44fa79	-0.04809043
136	0x3c4155b4	0.011800218
137	0xbc706e83	-0.014674786
138	0x3ba7c342	0.005119712
139	0x3c2d9361	0.01059422
140	0xbcd8cc69	-0.026464658
141	0xbc031260	-0.007999986
142	0xbc5edd7c	-0.013602611
143	0x3c9c876b	0.019107541
144	0x3c09a4ff	0.008401155
145	0xbcda3f0f	-0.026641397
146	0x3a97c7b2	0.00115799
147	0x3b8c4180	0.004280269
148	0xbc4a07fd	-0.012331006
149	0xbd20ab3d	-0.039225806
150	0x3c72d686	0.014821654
151	0xbccb7b27	-0.024838997
152	0x3c9163a5	0.01774771
153	0xbb8260a1	-0.003978804
154	0xbbd32429	-0.0064435196
155	0xbb39b634	-0.0028337361
156	0xb96eaf72	-0.00022762807
157	0xbb2d001e	-0.0026397775
158	0x3d1dae89	0.038496528
159	0x3b6e3fef	0.0036354025
160	0x3bf6bad2	0.007529595
161	0xbce076c9	-0.027400391
162	0xbcf11a87	-0.029431595
163	0x3c03769b	0.008023883
164	0xbd4d83a6	-0.050174378
165	0x3b7b7aa5	0.0038372662
166	0x3c75c393	0.015000242
167	0x3bc2a9db	0.0059406585
168	0xba1913ba	-0.00058394263
169	0x3a57a336	0.00082259194
170	0x3ccb7b14	0.024838962
171	0x3b13f057	0.0022573674
172	0x3c1e76f6	0.009671917
173	0xbd6d99bc	-0.05800794
174	0xbb1cea7b	-0.0023943472
175	0x3cc67166	0.024223994
176	0xbc9ea64a	-0.019366402
177	0xbcc4bcab	-0.024015745
178	0x3cd8312e	0.026390638
179	0x3cadf13b	0.021233192
180	0x3c639893	0.013891357
181	0x3b36e451	0.0027907083
182	0x3b296149	0.002584534
183	0xbcacccdd	-0.02109378
184	0xbc3e5dfa	-0.011619085
185	0xbb727e54	-0.0037001567
186	0xbc638ec5	-0.013889019
187	0xbb75f050	-0.003752727
188	0x3c266e5a	0.010158146
189	0x3c48e432	0.012261437
190	0xbbc00c9c	-0.005860878
191	0xbba4c3d0	-0.0050282255
192	0xbcfc28c4	-0.030781157
193	0x3b1f53e8	0.0024311487
194	0x3c766328	0.015038289
195	0xbb3367e5	-0.0027375158
196	0xbca9ad93	-0.02071265
197	0x3be1716e	0.006879977
198	0xbc4353c2	-0.011921825
199	0xbb1cbc36	-0.0023915893
200	0x3c834f1b	0.016028931
201	0xbc64dd3a	-0.01396876
202	0x3abc26fe	0.0014354882
203	0xbac69808	-0.001515151
204	0x3c9e4171	0.019318314
205	0x3b7f9d32	0.0039003608
206	0x3bcc9b02	0.0062440643
207	0xbc853da8	-0.016264752
208	0x3bb3749e	0.0054765483
209	0xbaaf7dc0	-0.0013388917
210	0xbccd7490	-0.025079995
211	0x3c9cb80a	0.019130725
212	0x3c95e2aa	0.018296558
213	0x3ccd088c	0.02502849
214	0x3c53a6cc	0.012918185
215	0xbd01e88c	-0.031715915
216	0xbcb4ed2b	-0.022085747
217	0x3cd3de14	0.025862731
218	0x3bfc050c	0.0076910313
219	0xba082015	-0.0005192769
220	0xbb4db84d	-0.003139037
221	0x3d013556	0.031545006
222	0xbc65eab9	-0.014033013
223	0x3ccc4202	0.024933819
224	0x3cabdb10	0.02097848
225	0x3c5c22f2	0.013436066
226	0x3b173362	0.0023071398
227	0x3c93657c	0.017992727
228	0x3cc614c0	0.024179816
229	0x3c2a66e3	0.010400507
230	0xbc908a3b	-0.017644038
231	0xbb357123	-0.0027685843
232	0xbca1adde	-0.019736227
233	0xbbdedd97	-0.006801318
234	0x3c103d8c	0.008803736
235	0x3c8de8c2	0.017322902
236	0x3922e10c	0.0001553336
237	0x3cecce79	0.028907048
238	0x3b9202d7	0.004455905
239	0x3c26a1df	0.010170429
240	0xbc3d04f5	-0.011536826
241	0xbca8b5f7	-0.02059458
242	0xbd063624	-0.032766476
243	0xbb75bd83	-0.003749699
244	0xba1a62fd	-0.0005889384
245	0xbc2f37ee	-0.010694487
246	0x3ab072de	0.0013461967
247	0xbd0359ba	-0.03206799
248	0x3cb37627	0.021906925
249	0xbc3415cf	-0.010991528
250	0x3d079a0c	0.033105895
251	0xbc23e5a4	-0.010003481
252	0xbbb9caa0	-0.0056699067
253	0x3c0cd1d6	0.008594951
254	0x3c9dc978	0.019261107
255	0xbcbc4fb3	-0.022987222

gru.weight_hh_l0 f4 [384, 128]
0	0xbd571c61	-0.0525173
1	0xbdbf88cf	-0.09352266
2	0x3d9f5137	0.077791624
3	0xbce89f7f	-0.028396366
4	0xbc8a9542	-0.016916875
5	0xbde734b7	-0.112893514
6	0x3d8e5562	0.06949879
7	0xbd4ecf94	-0.05049093
8	0xbe1fd894	-0.15609962
9	0xbd4ddb0d	-0.05025773
10	0x3de1d8d7	0.11027687
11	0xbe273242	-0.16327766
12	0xbd9990c1	-0.07498313
13	0x3c1b54e8	0.009480692
14	0x3e15e761	0.14639045
15	0xbd31f024	-0.043441907
16	0xbe116d75	-0.14201911
17	0xbb12cbe7	-0.0022399367
18	0x3c6b1722	0.014348777
19	0xbe10088a	-0.14065757
20	0xbc8309a7	-0.015995814
21	0xbe02c2ec	-0.1276967
22	0xbc655c7d	-0.013999102
23	0xbdd8d3d7	-0.1058728
24	0xbe1b7501	-0.15181352
25	0x3da4b078	0.08041471
26	0x3c839e54	0.016066708
27	0xbbd84b87	-0.0066008004
28	0xbddec653	-0.10877671
29	0xbdfab096	-0.12240712
30	0xbe12d9cf	-0.143409
31	0xbddcd57a	-0.10782905
32	0xbdb22fa6	-0.087004945
33	0xbcd174f8	-0.02556847
34	0x3dbf8d95	0.093531765
35	0x3d71ac6a	0.059002317
36	0x3d71b00e	0.05900579
37	0xbdb9b1a4	-0.090670854
38	0xbe2095e2	-0.15682176
39	0x3d9d60ab	0.076844536
40	0x3d24a1b3	0.04019327
41	0xbe0b74f4	-0.13618833
42	0xbdbc79c3	-0.09202912
43	0xbd8771f3	-0.06613531
44	0x3d43bf89	0.047790084
45	0x3e1f1785	0.15536316
46	0xbe238fbc	-0.15972799
47	0xbd2be312	-0.041964598
48	0xbd25b144	-0.040452257
49	0x3a0fdea6	0.00054881943
50	0xbd4661a0	-0.048432946
51	0xbce1ef8d	-0.027580047
52	0xbde647c3	-0.11244156
53	0xbd361621	-0.044454698
54	0x3da23b02	0.07921411
55	0x3cd82d29	0.026388722
56	0x3d8f1fc1	0.069884785
57	0xbcbc861c	-0.023013167
58	0xbd91f188	-0.071261466
59	0x3da60e6f	0.08108222
60	0xbd06bfea	-0.032897867
61	0xbe22b13e	-0.15887925
62	0xbddf518d	-0.109042265
63	0x3d8a8493	0.06763568
64	0x3c947529	0.018122273
65	0xbd72ae36	-0.05924817
66	0x3d6cef3f	0.05784535
67	0x3b873862	0.0041265944
68	0xbc8a632b	-0.01689299
69	0x3c5c6961	0.013452859
70	0x3e0014db	0.12507956
71	0xbd6844ab	-0.056706112
72	0xbcdcab16	-0.026937049
73	0x3cd87a07	0.026425375
74	0xbd7366a4	-0.059424058
75	0xbd8dcf14	-0.06924263
76	0xbdb29b49	-0.087210245
77	0xbd0b882b	-0.034065407
78	0xbc9640c2	-0.018341426
79	0x3d1b9693	0.037985396
80	0x3d627efa	0.055296876
81	0x3da9b543	0.08286526
82	0x3d900a34	0.07033196
83	0x3d92d1d3	0.07168927
84	0xbbbe5b7e	-0.0058092466
85	0xbccd9d20	-0.025099337
86	0x3d30edcb	0.043195527
87	0xbc7abb6a	-0.015303472
88	0xbc9ccc62	-0.019140426
89	0x3c86fb13	0.016477143
90	0xbc7c974c	-0.015416931
91	0x3d59d382	0.053180225
92	0xbd398c22	-0.045299657
93	0xbdd685ca	-0.10474737
94	0xbdf5832d	-0.119879104
95	0xbc6d8b80	-0.014498591
96	0xbd73a5fb	-0.059484463
97	0x3d31fa07	0.043451335
98	0x3d3079a7	0.043084767
99	0xbda23543	-0.07920315
100	0xbe11163a	-0.14168635
101	0xbdc44e80	-0.09585285
102	0xbd45cf14	-0.04829319
103	0xbd91389b	-0.07090875
104	0x3dee99a2	0.11650397
105	0x3dae8f50	0.085234284
106	0x3dde6936	0.10859911
107	0xbc4fe30e	-0.012688411
108	0xbce3cdf7	-0.027808173
109	0xbd526109	-0.05136207
110	0xbcfa506e	-0.03055593
111	0xbdad96df	-0.08476042
112	0x3bd023fd	0.0063519464
113	0xbc96a17f	-0.018387554
114	0xbcfef948	-0.031124726
115	0xbc961015	-0.018318215
116	0xbdaad2b0	-0.08340967
117	0xbd20fe75	-0.03930517
118	0xbd238480	-0.039921284
119	0x3bcdbb51	0.0062784334
120	0x3d31b401	0.043384556
121	0x3d2830d2	0.041062184
122	0xbd02b509	-0.03191093
123	0xbdff753a	-0.12473531
124	0xbcf60522	-0.030031744
125	0xbd83abe9	-0.06429274
126	0x3d76f849	0.060295377
127	0x3cbfb261	0.023400487
128	0x3d07ceb8	0.033156127
129	0xbd712ee2	-0.0588826
130	0xbd0d9b98	-0.034572214
131	0xbca28106	-0.019836914
132	0x3c5103b1	0.012757228
133	0x3c9b27cb	0.018939873
134	0xbc9cd6f1	-0.01914546
135	0x3b5a8592	0.0033343774
136	0x3d3cbbb8	0.04607746
137	0xbc180d57	-0.009280524
138	0x3d7e9f98	0.06216392
139	0x3c8cf36b	0.017205914
140	0xbc711d4d	-0.0147164585
141	0xbc8fd25a	-0.017556358
142	0xbc654571	-0.013993607
143	0x3cb9fb24	0.022702761
144	0xbd011d86	-0.031522296
145	0x3d1bd960	0.0380491
146	0xbcb55e0c	-0.022139572
147	0xbd089ccc	-0.03335266
148	0xbafc5f96	-0.0019254561
149	0xbbb8a988	-0.005635444
150	0x3ced339a	0.02895527
151	0x3e0f26a0	0.13979578
152	0xbd315c78	-0.043301076
153	0xbd0fa503	-0.035069477
154	0x3d4a17ae	0.04933899
155	0xbd5f5e64	-0.054533377
156	0x3b46ceba	0.003033562
157	0x3c51c9ac	0.01280443
158	0x3c6e6cf4	0.014552344
159	0xbcd3333b	-0.025781265
160	0xbccf0404	-0.02527047
161	0xbd2b9999	-0.04189453
162	0xbb6575f4	-0.0035012932
163	0xbc056bb6	-0.008143356
164	0x3d332bec	0.04374306
165	0x3d6e13a5	0.058124203
166	0xbcab39a4	-0.020901509
167	0x3c4effa3	0.012634191
168	0x3d1b3a04	0.037897125
169	0xbc8f82b2	-0.017518375
170	0x3c317a8e	0.010832442
171	0xbb4a0b68	-0.0030829553
172	0xbcd59569	-0.02607222
173	0xbcd01b63	-0.025403684
174	0xbb690b22	-0.0035559614
175	0xbcc63539	-0.0241953
176	0xbca0ea4c	-0.019642971
177	0xbbc38a10	-0.005967386
178	0xbd271674	-0.040792897
179	0xbd3dd93e	-0.046349756
180	0x3d888fd8	0.06668061
181	0xbb9af506	-0.004728916
182	0x3c796e0e	0.015223993
183	0x3cb7657e	0.022387262
184	0x3c149d32	0.009070681
185	0x3d6411e4	0.055681124
186	0x3d3aceec	0.045607492
187	0xbd473c58	-0.048641533
188	0x3d9ae166	0.075625226
189	0xbcca2cbf	-0.02467954
190	0x3d32904f	0.043594655
191	0xbc6eed76	-0.014582982
192	0xbd22f2be	-0.03978228
193	0x3b948b68	0.00453322
194	0x3c41973e	0.011815844
195	0xbd24f08c	-0.040268466
196	0x3ccb19e0	0.024792612
197	0x3d4552ea	0.048174776
198	0xbd27c70c	-0.04096131
199	0x3b72f8a7	0.0037074478
200	0xbd897e4d	-0.06713543
201	0xbc7bbb67	-0.015364504
202	0xbb2daf64	-0.0026502246
203	0x3d2c55c0	0.042073965
204	0xbd2bab2d	-0.041911293
205	0xbc8ebb7b	-0.017423382
206	0x3c9259ba	0.01786505
207	0x3c9e2013	0.019302404
208	0x3cc7e121	0.024399342
209	0xbc5196f1	-0.012792335
210	0x3c1847c2	0.009294452
211	0x3bb8447a	0.0056233974
212	0x3d24f4b9	0.04027245
213	0x3d1b3bc4	0.037898794
214	0x3ce425df	0.02785009
215	0xbcf27e5a	-0.029601265
216	0xbd576db8	-0.05259487
217	0xbbcdb0ea	-0.0062771933
218	0x3d94da9c	0.07268259
219	0x3c859c36	0.016309839
220	0x3d57daea	0.052699007
221	0xbda86ed1	-0.082242616
222	0x3a5442fe	0.0008097141
223	0xbdf1a4b5	-0.117989935
224	0xbd5acd32	-0.053418346
225	0xbcaa6917	-0.020802064
226	0x3c0a592a	0.00844411
227	0x3cf6effd	0.030143732
228	0xbcc435f4	-0.023951508
229	0x3d9f9ac1	0.07793189
230	0xbce3dee4	-0.027816243
231	0xbd649a49	-0.0558112
232	0xbcd699aa	-0.02619632
233	0x3d61b157	0.055100765
234	0xbd885cff	-0.066583626
235	0xbaf06cb7	-0.0018342946
236	0xbcb0f65e	-0.021601852
237	0xbc25b9cf	-0.010115101
238	0x3beb4c83	0.0071807518
239	0x3c326794	0.010888953
240	0xbcb6681c	-0.02226644
241	0xbd0d5338	-0.03450319
242	0x3d39f517	0.04539975
243	0x3ccb3391	0.024804862
244	0x3b88cb7b	0.0041746474
245	0x3c1e5b27	0.009665287
246	0xbd361dcd	-0.044462014
247	0xbc541ada	-0.012945855
248	0xbce355e6	-0.02775092
249	0xbca9bb19	-0.020719098
250	0xbd0316c0	-0.032004118
251	0x3d2d45f8	0.042303056
252	0x3d2815a7	0.041036274
253	0x3d618fcb	0.055068772
254	0x3c3271fd	0.010891435
255	0xbc1258be	-0.008932291

gru.bias_ih_l0 f4 [384]
0	0xbd104507	-0.03522208
1	0xbc93412a	-0.017975409
2	0x3c67199d	0.014105228
3	0xbc3e8ce5	-0.011630272
4	0x3c92f45f	0.01793879
5	0xbc9b7ebb	-0.018981328
6	0x3b4110a7	0.0029459388
7	0xbcb1736b	-0.02166148
8	0x3b9442a2	0.004524545
9	0xbdbf6a00	-0.0934639
10	0xbb8c8615	-0.0042884448
11	0x3daf55bd	0.08561275
12	0x3d94de2d	0.07268939
13	0x3be5ec12	0.007016667
14	0x3d1d2c28	0.03837219
15	0x3c8b1882	0.01697946
16	0xbde1309f	-0.10995602
17	0xbda12d44	-0.07869962
18	0x3d22224f	0.0395835
19	0xbd57f17e	-0.05272054
20	0xbdc45ebe	-0.09588383
21	0x3a23b6e0	0.0006245207
22	0xbd115cb8	-0.035488814
23	0xbda30e8b	-0.07961758
24	0xbda11157	-0.078646354
25	0xbcb4db6a	-0.022077281
26	0x3d7765a5	0.06039967
27	0x3d27d2ac	0.040972397
28	0xbd965b26	-0.07341604
29	0xbcab054e	-0.020876553
30	0xbd585e63	-0.05282439
31	0x3c848229	0.016175346
32	0xbd29cc7d	-0.04145478
33	0xbbf4516e	-0.0074559962
34	0x3cbd6ac0	0.023122191
35	0x3cdfb163	0.027306264
36	0xbd67ed0e	-0.056622557
37	0xbd523dc6	-0.051328443
38	0xbd82ab1c	-0.06380293
39	0x3d7bdeb4	0.061491683
40	0xbcba7fe1	-0.022766056
41	0x3cf7c74c	0.0302464
42	0xbd84611e	-0.06463836
43	0x3bd8829b	0.0066073663
44	0x3c18e141	0.0093310485
45	0xbca771cc	-0.020440005
46	0x3c3ad331	0.011402891
47	0xbd9b2d33	-0.075769804
48	0x3d23af07	0.03996184
49	0x3ca9ec6c	0.020742618
50	0xbcc415e7	-0.023936225
51	0x3c2d6c0a	0.010584841
52	0xbc9605ce	-0.018313315
53	0xbcada1c4	-0.0211953
54	0xbbaa7491	-0.005201884
55	0xbd75ea32	-0.0600378
56	0xbde0d6df	-0.109784834
57	0xbcec9639	-0.028880225
58	0xbc5fd5cd	-0.013661814
59	0xbd12e635	-0.035864074
60	0xbdae335e	-0.08505891
61	0xbd5663b7	-0.05234119
62	0x3cc9d47e	0.024637457
63	0xbd0b5409	-0.03401569
64	0xbd3ad505	-0.045613308
65	0xbd783fb4	-0.060607627
66	0x3c43a5a1	0.0119413445
67	0x3c43a49c	0.011941101
68	0xbc0f7698	-0.008756302
69	0xbb85f9cd	-0.0040886165
70	0xbbbeea8a	-0.005826299
71	0x3d8d72a5	0.06906632
72	0xbd4796b7	-0.048727717
73	0xbd690850	-0.056892693
74	0xbca526d6	-0.02016012
75	0xbde13269	-0.10995943
76	0xbc8fc97a	-0.017552126
77	0xbc86e584	-0.016466863
78	0xbd733ad7	-0.059382286
79	0x3e0996cc	0.1343643
80	0xbb9d26a1	-0.0047958647
81	0xbd2388ff	-0.03992557
82	0xbd05fe82	-0.03271342
83	0xbd65473c	-0.055976138
84	0x3c44227d	0.011971113
85	0xbd8fb6e8	-0.070173085
86	0x3d506e0c	0.0508862
87	0x3cd87b62	0.026426021
88	0xbde089f8	-0.109638155
89	0xbd117b15	-0.03551777
90	0xbd77c38b	-0.06048922
91	0x3bfcf5c4	0.0077197272
92	0xbd113a20	-0.035455823
93	0xbd9fec21	-0.0780871
94	0x3d6b7407	0.0574837
95	0xbd94f1f8	-0.072727144
96	0x3d881a31	0.066456206
97	0xbc51f28a	-0.0128141735
98	0xbdba560c	-0.090984434
99	0xbcadc435	-0.021211723
100	0x3d052aa6	0.032511376
101	0xbd03cbe4	-0.032176867
102	0xbd26a383	-0.04068328
103	0xbd0cd865	-0.034386057
104	0xbc5288e7	-0.012850023
105	0xbd80d13a	-0.06289907
106	0xbe195fbc	-0.14977926
107	0x3c056822	0.008142503
108	0x3d52914a	0.05140809
109	0xbd82c6cd	-0.063855745
110	0xbcf5101b	-0.029914906
111	0xbcecbdae	-0.02889904
112	0xbdb22561	-0.08698536
113	0xbc1e53bb	-0.009663518
114	0xbd4091a5	-0.047013897
115	0x3d9e3e13	0.077266835
116	0x3d36cdb6	0.044629775
117	0xbd8347d9	-0.06410188
118	0xbd550a75	-0.052011926
119	0x3d4a03cf	0.04932004
120	0xbcb479bd	-0.022030706
121	0x3bed4bcc	0.0072417017
122	0x3cce1a02	0.025158886
123	0x3d4ac03b	0.04949973
124	0xbcfd4cbb	-0.030920377
125	0xbbe741e1	-0.007057414
126	0xbd4a9333	-0.049456786
127	0x3d43bcda	0.047787525
128	0xbdf5df57	-0.12005489
129	0x3dbab64c	0.091168016
130	0x3c8a9e24	0.01692111
131	0xbcf1c859	-0.029514479
132	0xbe1f7d2c	-0.15575093
133	0xbe4e10e4	-0.20123631
134	0x3e173922	0.14767888
135	0x3e523157	0.20526634
136	0x3eb31c67	0.34982607
137	0xbe9aba2a	-0.30220157
138	0xbe642b02	-0.22282031
139	0xbe09485f	-0.13406514
140	0xbd90319d	-0.07040713
141	0x3c3ef6e3	0.011655542
142	0xbe272e63	-0.16326289
143	0x3d7e2cf4	0.06205459
144	0xbea3e5ba	-0.32011205
145	0xbe5b72f5	-0.21430571
146	0xbd5a1453	-0.05324204
147	0xbe8a13a3	-0.26968107
148	0xbe5e8e23	-0.21733908
149	0xbe754b7c	-0.23954576
150	0xbd8cdd37	-0.06878131
151	0xbde02365	-0.10944251
152	0xbe0244f5	-0.12721618
153	0xbe73ccd6	-0.23808607
154	0xbe9aa003	-0.30200204
155	0x3e04ad50	0.12956738
156	0x3d062155	0.03274663
157	0xbdd96174	-0.10614291
158	0xbde2d0fc	-0.11075017
159	0x3e856d65	0.26060024
160	0xbe59c155	-0.21265157
161	0x3e120480	0.14259529
162	0xbdad05ad	-0.08448348
163	0x3b2cccb4	0.002636713
164	0xbe025ed2	-0.12731484
165	0x3d79c9e3	0.06098355
166	0xbd874512	-0.06604971
167	0xbd028253	-0.031862568
168	0x3e132de6	0.14372978
169	0xbe41afb0	-0.18914676
170	0xbe6ad6da	-0.22933522
171	0xbe05a892	-0.13052586
172	0xbd0b2f45	-0.033980627
173	0xbd8a51d9	-0.067538925
174	0xbe6846b9	-0.22683229
175	0xbe8f65fc	-0.28007495
176	0x3e59f61d	0.21285291
177	0x3e47a95c	0.19498199
178	0xbda11f1f	-0.07867264
179	0x3a1efe16	0.00060650834
180	0xbc855243	-0.016274577
181	0x3ee349ce	0.44392246
182	0xbdce7e1c	-0.10082647
183	0xbe88130e	-0.26577038
184	0xbe02a21c	-0.12757152
185	0x3cdc9db1	0.026930662
186	0xbe639c7b	-0.22227661
187	0xbe7e6854	-0.24844486
188	0xbe4a1792	-0.19735554
189	0xbe817ebb	-0.25292
190	0x3d64cb1a	0.055857755
191	0x3de947c3	0.113906406
192	0x3d27f0ba	0.04100106
193	0xbe1f080e	-0.15530416
194	0xbc2d25af	-0.0105680665
195	0x3ed26c84	0.41098416
196	0xbe6084a2	-0.21925595
197	0xbdcc0a46	-0.09962897
198	0xbe391a89	-0.18076529
199	0xbe0ae6f0	-0.13564658
200	0x3caa31db	0.020775726
201	0x3d8746fa	0.066053346
202	0xbe8bc573	-0.2729908
203	0xbeb6b7bb	-0.3568705
204	0x3dad0107	0.084474616
205	0x3e9df303	0.30849466
206	0xbccd946d	-0.025095189
207	0xbe9625b4	-0.2932564
208	0x3e797219	0.24359931
209	0xbe24cb15	-0.16093095
210	0xbe40534e	-0.18781778
211	0x3d78b7a2	0.060722
212	0x3de33d48	0.11095673
213	0x3d1ea530	0.038731754
214	0xbe507587	-0.20357333
215	0x3e9698ee	0.2941355
216	0xbe2ccc05	-0.16874702
217	0xbd245fe6	-0.04013052
218	0xbaf3300e	-0.001855375
219	0x3dc5f3d2	0.09665646
220	0x3dad5e68	0.08465272
221	0xbe1d9611	-0.15389277
222	0xbe96652b	-0.2937406
223	0xbd42fd3e	-0.04760479
224	0x3e1c1785	0.15243347
225	0x3dfc083f	0.1230626
226	0x3e1b5e66	0.15172729
227	0xbdbb617a	-0.091494516
228	0xbe1519ce	-0.14560625
229	0xbe53020d	-0.20606251
230	0x3e09229b	0.13392107
231	0x3e790a48	0.24320328
232	0xbe25cc7e	-0.16191289
233	0xbeaec057	-0.3413112
234	0xbe4d0ac2	-0.20023635
235	0x3e405664	0.18782955
236	0xba65d916	-0.0008768005
237	0xbe848d3b	-0.25889
238	0x3e3dd3f0	0.18537879
239	0x3dfa8ca2	0.12233855
240	0xbe2535a5	-0.16133745
241	0x3e189838	0.14901817
242	0xbce0b0ae	-0.027427997
243	0xbe11c171	-0.14233948
244	0x3ce6db50	0.028180748
245	0xbe2a7047	-0.16644393
246	0x3e87c08d	0.26514092
247	0xba9deca6	-0.0012048676
248	0xbdfe8626	-0.124279305
249	0x3e8f3afb	0.27974686
250	0x3be232d8	0.0069030337
251	0x3eaed81c	0.34149253
252	0x3d001525	0.031270165
253	0x3dcd9f9b	0.10040208
254	0xbe8178bd	-0.25287428
255	0x3edf6430	0.43631124

gru.bias_hh_l0 f4 [384]
0	0xbd040fd8	-0.032241672
1	0xbc933ef3	-0.017974352
2	0x3c67199d	0.014105228
3	0xbc1751a2	-0.009235771
4	0x3c92d30f	0.017922906
5	0xbbeeb5a6	-0.007284838
6	0x3b40bbf1	0.0029408897
7	0xbcb15fe1	-0.021652164
8	0x3b94411e	0.004524364
9	0xbdb459ea	-0.08806212
10	0x3a705f8e	0.0009169512
11	0x3dbb9f8e	0.09161292
12	0x3d8ed5b4	0.069743544
13	0x3be34278	0.006935414
14	0x3d1ef17d	0.03880452
15	0x3c894520	0.016756594
16	0xbdc90259	-0.09814901
17	0xbd89267d	-0.06696794
18	0x3d22208a	0.039581813
19	0xbd5acfc5	-0.0534208
20	0xbd6e51ce	-0.058183484
21	0x3b85deb6	0.004085387
22	0xbd11b535	-0.035573203
23	0xbda3d3ac	-0.079993576
24	0xbd9ef2b2	-0.07761134
25	0xbc2d5798	-0.010579966
26	0x3d822d28	0.06356269
27	0x3d41a5c6	0.047277234
28	0xbd998792	-0.07496561
29	0xbc2aef06	-0.010432964
30	0xbd676434	-0.056492046
31	0x3c8558d6	0.016277712
32	0xbd01460e	-0.03156095
33	0xbbc1b870	-0.0059118792
34	0x3cc3cc50	0.023901135
35	0x3cdf09f7	0.027226431
36	0xbd45f70b	-0.0483313
37	0xbd5228d8	-0.051308483
38	0xbd829256	-0.063755676
39	0x3d7d1959	0.06179175
40	0xbcba5276	-0.022744399
41	0x3cb519fb	0.022107115
42	0xbd9e5580	-0.077311516
43	0x3b8a50be	0.004221051
44	0x3c1ecfe6	0.009693122
45	0xbca8c8f2	-0.02060363
46	0x3c36aea8	0.01115004
47	0xbda7e111	-0.08197225
48	0x3d23aad2	0.03995783
49	0x3ca9ec5d	0.02074259
50	0xbccf7008	-0.025321975
51	0x3c2d6c06	0.010584837
52	0xbd05b4b4	-0.032643035
53	0xbcab6f4d	-0.020927096
54	0xbbf35be4	-0.0074267257
55	0xbd7826cd	-0.06058388
56	0xbdbbbeb6	-0.091672346
57	0xbce1ae7c	-0.027549021
58	0xbc3f7edc	-0.0116879605
59	0xbd185cfa	-0.037198044
60	0xbdb168c7	-0.08662563
61	0xbd338a05	-0.043832798
62	0x3cc1df7f	0.023666142
63	0xbd106138	-0.035248965
64	0xbd3e89d3	-0.04651816
65	0xbd565060	-0.052322745
66	0x3c26f9ae	0.010191364
67	0x3c43a49c	0.011941101
68	0xbc30f203	-0.010799888
69	0xbb681aa8	-0.003541628
70	0xbd2a2f0b	-0.04154877
71	0x3d941169	0.07229883
72	0xbd4b407e	-0.04962205
73	0xbd69138d	-0.05690341
74	0xbca786d4	-0.020450033
75	0xbdca7134	-0.09884873
76	0xbc8f6fde	-0.017509397
77	0xbc86de2e	-0.016463365
78	0xbd72c8d4	-0.059273556
79	0x3db532a9	0.08847553
80	0xbb9e935f	-0.0048393453
81	0xbd1fb047	-0.03898647
82	0xbcd6a596	-0.026202004
83	0xbd64c598	-0.055852503
84	0x3c6507a7	0.013978875
85	0xbd8dd97a	-0.06926246
86	0x3d4caf75	0.049972016
87	0x3cdfa77f	0.027301548
88	0xbde194b2	-0.110146895
89	0xbd11b277	-0.035570588
90	0xbd7c509f	-0.061600324
91	0x3c0fcd0b	0.008776913
92	0xbd1266c7	-0.035742547
93	0xbdac2a58	-0.08406514
94	0x3d09a1c2	0.03360153
95	0xbd94b9fc	-0.07262036
96	0x3d8819ea	0.06645568
97	0xbc45244f	-0.012032582
98	0xbdba608f	-0.09100448
99	0xbcadcca6	-0.021215748
100	0x3cf61653	0.030039942
101	0xbd110dab	-0.035413425
102	0xbd2f31b7	-0.04277202
103	0xbd0c7690	-0.034292758
104	0xbc3e9bab	-0.011633794
105	0xbd7bf38a	-0.061511554
106	0xbe0113a5	-0.1260515
107	0x3c04e87f	0.008112072
108	0x3d52914a	0.05140809
109	0xbd80755b	-0.06272384
110	0xbcf5115b	-0.029915502
111	0xbcec9489	-0.02887942
112	0xbdbc83af	-0.09204804
113	0xbc1ebe0a	-0.0096888635
114	0xbd3e08af	-0.046395
115	0x3d9a95cc	0.07548103
116	0x3d36d8f5	0.0446405
117	0xbd63ee33	-0.055647086
118	0xbd60cf26	-0.054885052
119	0x3d4953c2	0.049152143
120	0xbcb71711	-0.022349866
121	0x3bed4bc4	0.007241698
122	0x3cce1a4c	0.025159024
123	0x3d4ac03b	0.04949973
124	0xbcf33433	-0.029687976
125	0xbc706db5	-0.014674594
126	0xbd3b6838	-0.045753688
127	0x3d43bcda	0.047787525
128	0xbe08e051	-0.1336682
129	0x3dd7764f	0.105206124
130	0x3deb2a03	0.114826225
131	0xbd1e0172	-0.038575597
132	0xbe209d5b	-0.15685026
133	0xbe688985	-0.2270871
134	0x3e1e4358	0.15455377
135	0x3e159e09	0.14611067
136	0x3eaab77e	0.33343118
137	0xbea5ee78	-0.324085
138	0xbe585833	-0.21127395
139	0xbe1bc623	-0.15212302
140	0xbdbb635d	-0.091498114
141	0x3d7ebbfb	0.06219099
142	0xbdf793e6	-0.12088756
143	0x3d35b2cc	0.044359967
144	0xbea2998e	-0.31757778
145	0xbe5f1200	-0.2178421
146	0x3d41962e	0.047262363
147	0xbe901981	-0.28144458
148	0xbe7fdd2f	-0.24986719
149	0xbe816a06	-0.25276202
150	0xbddc299b	-0.10750123
151	0xbd996db6	-0.07491629
152	0xbd157e66	-0.036497496
153	0xbe889c96	-0.26681966
154	0xbe991664	-0.29899895
155	0x3e249f43	0.16076379
156	0x3d343800	0.04399872
157	0xbd943375	-0.07236377
158	0xbe2e4217	-0.17017399
159	0x3e90addf	0.28257653
160	0xbe723b90	-0.23655534
161	0x3e320957	0.17386375
162	0xbdc31a17	-0.095264606
163	0x3d141645	0.03615405
164	0xbdcb299c	-0.09920046
165	0x3da447c7	0.08021503
166	0xbd67f385	-0.056628723
167	0xbd0e1dc0	-0.03469634
168	0x3e1d8ceb	0.15385787
169	0xbe685436	-0.22688374
170	0xbe467e95	-0.19384225
171	0xbe27f1cb	-0.1640083
172	0xbde5669d	-0.112012126
173	0xbcce776b	-0.025203427
174	0xbe3aafc6	-0.18231115
175	0xbe8d9420	-0.27652073
176	0x3e56ac4f	0.20964168
177	0x3e50b5dc	0.20381874
178	0xbda5fed5	-0.08105246
179	0x3d11b5c8	0.03557375
180	0x3d19a4a0	0.037510514
181	0x3ede5d9c	0.43430793
182	0xbdb8b893	-0.0901958
183	0xbe7f84c2	-0.24952987
184	0xbe161c4f	-0.14659236
185	0x3df7c151	0.12097419
186	0xbe800038	-0.25000167
187	0xbe69f032	-0.22845533
188	0xbe215324	-0.15754372
189	0xbe743bcf	-0.2385094
190	0x3c656927	0.014002121
191	0x3d4e18b8	0.050316542
192	0x3c56d253	0.013111669
193	0xbe5c6928	-0.21524489
194	0xbbada289	-0.0052989167
195	0x3ed0fc1d	0.40817347
196	0xbe2ced91	-0.168875
197	0xbd8adecf	-0.067807786
198	0xbe2b3a10	-0.16721368
199	0xbdd42a6e	-0.10359655
200	0x3d65a3c7	0.056064393
201	0x3d4c21e6	0.049837016
202	0xbe64e0a6	-0.22351322
203	0xbea7e66d	-0.32792988
204	0x3d7b9bbc	0.061427817
205	0x3e8e6dae	0.27818054
206	0x3c9ae5c0	0.018908381
207	0xbe9dd6f1	-0.3082805
208	0x3e3aa0d6	0.18225417
209	0xbe3d71a8	-0.18500388
210	0xbe259d1f	-0.16173218
211	0x3e015f09	0.1263391
212	0x3df00994	0.11720577
213	0x3c007b0d	0.007841838
214	0xbe240f64	-0.16021496
215	0x3e54dd05	0.20787437
216	0xbe29ec5d	-0.16594072
217	0xbd74af28	-0.059737355
218	0x3d105fdf	0.03524768
219	0x3e037776	0.1283854
220	0x3dbab288	0.091160834
221	0xbe01f7fd	-0.12692256
222	0xbe8ff72d	-0.28118268
223	0xbb83c87c	-0.0040217023
224	0x3e3c5aed	0.1839406
225	0x3d959720	0.073042154
226	0x3e03f81b	0.12887613
227	0xbd919862	-0.07109143
228	0xbe048cfc	-0.12944406
229	0xbe58ad1e	-0.21159789
230	0x3e3a1a11	0.18174006
231	0x3e4e4040	0.20141697
232	0xbe3bada2	-0.18327954
233	0xbe9511cc	-0.2911514
234	0xbe66182a	-0.22470155
235	0x3e85d6c0	0.26140404
236	0x3d809965	0.06279258
237	0xbe7ee8ae	-0.24893448
238	0x3e0b119d	0.13580938
239	0x3d68e87e	0.056862347
240	0xbe55703c	-0.20843595
241	0x3db4a37f	0.08820247
242	0xbcfc7a2f	-0.03081998
243	0xbe240643	-0.16018014
244	0x3cf09cd7	0.029371662
245	0xbe339ff6	-0.17541489
246	0x3e3a67e0	0.18203688
247	0xbcc970e3	-0.024589961
248	0xbe12c75e	-0.14333865
249	0x3ead5190	0.3385129
250	0x3d68ef32	0.05686874
251	0x3eaffafa	0.34371167
252	0x3c56a62a	0.01310114
253	0x3df3d1bb	0.11905237
254	0xbe68c566	-0.22731552
255	0x3ee02359	0.43776968

out.weight f4 [36, 256]
0	0x3cc48d75	0.023993233
1	0xbd830f3a	-0.063993886
2	0x3d446219	0.047945116
3	0xbdcf8934	-0.10133591
4	0x3c82d91c	0.015972666
5	0xbacf51a7	-0.0015817181
6	0x3d23bdb4	0.039975837
7	0xbd9f2c32	-0.077721015
8	0xbbfa79fd	-0.0076439367
9	0x3c4054ee	0.011738999
10	0x3d1d43dc	0.038394794
11	0xbc04fd98	-0.008117102
12	0x3c11ccce	0.008898927
13	0x3d0634ef	0.032765325
14	0x3cb94cb7	0.022619588
15	0x3c99f3b5	0.018792966
16	0xbd2630c5	-0.040573854
17	0x3cb7a859	0.022419142
18	0xbd4e060e	-0.050298743
19	0xbc8e3e2b	-0.017363628
20	0xbb7f5021	-0.0038957673
21	0xbd0d9ec9	-0.034575257
22	0xbc9c82ae	-0.019105282
23	0xbc643ef0	-0.013931021
24	0xbd691442	-0.056904085
25	0xbbbf69d3	-0.0058414727
26	0xbbda5962	-0.0066634873
27	0xbcfef1a7	-0.031121088
28	0x3b3d6aba	0.0028902725
29	0xbd20505b	-0.039139133
30	0xbb65a1be	-0.0035039033
31	0x3d0f911c	0.035050496
32	0xbc35bdd2	-0.01109262
33	0xbd1fa70d	-0.03897767
34	0x3c6f9ec4	0.014625255
35	0xbd7ae136	-0.061249934
36	0x3c2a6c9f	0.010401874
37	0xbd90579d	-0.07047961
38	0x3bf4e536	0.007473613
39	0xbbef1f9e	-0.0072974702
40	0x3d4da26f	0.050203737
41	0xbce9ca2d	-0.028538788
42	0xbd51b16f	-0.051194604
43	0xbdc2f586	-0.09519486
44	0xbd15d8ec	-0.036583826
45	0x3d4fce62	0.05073393
46	0xbce5f141	-0.02806914
47	0xbc92a82f	-0.017902462
48	0xbdd1c04e	-0.10241757
49	0xbdb47c6e	-0.088127956
50	0xbcbf4105	-0.023346433
51	0x3d8ee7ba	0.06977792
52	0x3d02a59c	0.03189622
53	0x3ce1c93c	0.027561776
54	0x3d3c5ce7	0.045987036
55	0x3d12cd2f	0.03584021
56	0x3bb4a831	0.005513214
57	0x3cc925d9	0.02455418
58	0xbc81310f	-0.015770463
59	0x3d497849	0.04918698
60	0xbd3fd8b7	-0.046837535
61	0xbcfbe8bf	-0.03075063
62	0x3cc9a5b1	0.02461514
63	0xbd2a1624	-0.04152502
64	0x3d3b4fcb	0.045730393
65	0x3d16389b	0.036675077
66	0x3d599a16	0.053125463
67	0x3dc2f717	0.09519785
68	0x3d1224f5	0.035679776
69	0x3cc58604	0.024111755
70	0xbd9761fa	-0.073917344
71	0x3c78e685	0.015191679
72	0xbdb4a21e	-0.08819984
73	0xbcce7bf1	-0.025205584
74	0xbcfd25ab	-0.03090175
75	0x3b2fb50f	0.00268108
76	0xbdc5a48f	-0.09650528
77	0x3d8b8ba2	0.06813742
78	0xbc950e06	-0.018195163
79	0x3d2bd4a5	0.04195084
80	0x3db054cc	0.08609924
81	0xbc93592f	-0.017986862
82	0xbc9509cc	-0.018193148
83	0x3d6ce30e	0.057833724
84	0x3d607adc	0.054804668
85	0xbd3c4578	-0.045964688
86	0x3ce2ba44	0.027676709
87	0xbd6596ef	-0.056052145
88	0x3d1ad6d2	0.037802525
89	0x3d190a7d	0.037363518
90	0x3d488076	0.048950635
91	0x3d90be9e	0.07067607
92	0xbdb14cb9	-0.08657212
93	0xbcc01550	-0.023447663
94	0xbcee0f01	-0.029059889
95	0xbda45b98	-0.080252826
96	0xbd861253	-0.06546464
97	0xbd884bbb	-0.066550694
98	0x3d77413b	0.060364943
99	0x3d17ecf8	0.037091225
100	0xbd1904e6	-0.037358187
101	0xbd307447	-0.04307964
102	0x3d9a2748	0.075270236
103	0xbd7041d6	-0.058656536
104	0x3cc322e8	0.023820356
105	0x3b5f6da3	0.0034092448
106	0x3c4496f1	0.011998878
107	0xbd41f32d	-0.04735105
108	0x3d9e9fc7	0.07745319
109	0x3d60abb8	0.054851264
110	0xbd9091e8	-0.070590794
111	0xbd968f58	-0.073515594
112	0x3a61ad72	0.0008608914
113	0xbc79380d	-0.015211117
114	0x3cc66be7	0.024221374
115	0xbcd0a726	-0.025470328
116	0x3d3276f4	0.043570474
117	0xbc65c1ef	-0.014023288
118	0x3c12fbe8	0.008971192
119	0x3b418cad	0.0029533312
120	0xbcc6b820	-0.02425772
121	0xbdca1d67	-0.09868889
122	0xbd1b1fee	-0.037872247
123	0x3c8478a1	0.016170802
124	0x3d1678d6	0.036736332
125	0x3d5261e5	0.05136289
126	0x3d19ed7e	0.037580006
127	0x3c1059be	0.008810459
128	0x3bdc4711	0.006722339
129	0x3bc55327	0.0060218754
130	0x3d07c1fb	0.03314398
131	0xbc89cc6c	-0.016821109
132	0x3dc07d4c	0.093988985
133	0xbc980d59	-0.018561052
134	0x38e85c2a	0.00011079789
135	0x394219e0	0.00018510921
136	0x3b2631ee	0.002535935
137	0xbcbba486	-0.0229056
138	0x3b3473a9	0.002753476
139	0xbd08cdae	-0.033399276
140	0x3c6d6954	0.014490444
141	0x3a98ef84	0.0011668061
142	0x3d296b34	0.041362002
143	0xbcf93386	-0.030420076
144	0x3d736c9c	0.05942975
145	0x3be94977	0.0071193534
146	0xbcc1ba1c	-0.023648314
147	0xbbdec794	-0.006798694
148	0x3d6b99dd	0.057519782
149	0xbd40b20d	-0.047044802
150	0x3a71430d	0.0009203412
151	0xbd11cc83	-0.03559543
152	0x3cbce406	0.023057949
153	0x3cb9330b	0.022607347
154	0xbdc9908c	-0.09842023
155	0xbc7336f8	-0.014844649
156	0xbcae624e	-0.02128711
157	0xbcfd8bf6	-0.030950528
158	0x3cde104b	0.027107378
159	0x3cfefbac	0.031125866
160	0xbcb6f439	-0.022333251
161	0x3ced0674	0.028933741
162	0x3c39a652	0.011331158
163	0xbd4c9026	-0.04994216
164	0xbbf65a3b	-0.0075180805
165	0xbced8a2b	-0.028996548
166	0xbc02d87f	-0.007986187
167	0x3ca96314	0.020677127
168	0xbc30840d	-0.010773671
169	0xbd28a032	-0.0411684
170	0xbceb4550	-0.028719574
171	0x3b933f26	0.004493612
172	0xbb844ef7	-0.0040377337
173	0xbca27188	-0.019829527
174	0xbcb41fab	-0.021987757
175	0xbd63d1fd	-0.055620182
176	0x3d4b4cbf	0.049633738
177	0xbdd5eb80	-0.10445309
178	0x3a814f8a	0.0009865623
179	0x3d873297	0.06601446
180	0xbb5defb8	-0.0033864807
181	0x3a7ccbc6	0.0009643402
182	0x3c51d1aa	0.012806335
183	0xbce951ed	-0.028481448
184	0xbc4af5ac	-0.012387674
185	0xbc63517e	-0.01387441
186	0xbcc83e24	-0.024443693
187	0x3c04ba45	0.008101051
188	0x3c987a35	0.01861296
189	0xbc010025	-0.00787357
190	0xbd6c2fbf	-0.05766272
191	0xbac0826d	-0.0014687307
192	0x3b8c9171	0.004289799
193	0x3cde1508	0.027109638
194	0x3b007f46	0.001960711
195	0x3b83c322	0.0040210644
196	0xbbe08bfc	-0.006852625
197	0xbc2bfc1f	-0.010497122
198	0x3c3f5e30	0.011680171
199	0x3d532bf6	0.051555596
200	0xbb90a8db	-0.0044146604
201	0xbcb92b94	-0.022603787
202	0x3d1ce20a	0.038301505
203	0xbc6b7803	-0.014371875
204	0x3cb01e5b	0.02149885
205	0xbb8d0f09	-0.004304771
206	0x3b8c8711	0.004288562
207	0x3d9bc497	0.07605856
208	0xbc4f28e4	-0.012644026
209	0x3c50ec1d	0.012751606
210	0x3d3f4e0d	0.046705294
211	0x3c529c8b	0.012854706
212	0xbd01b108	-0.03166297
213	0xbd430201	-0.047609333
214	0x3d79b04b	0.06095914
215	0xbc281f7a	-0.010261411
216	0x3b72a481	0.0037024322
217	0x3d239e6c	0.039946005
218	0xbc1c7a0d	-0.009550584
219	0xbc6ba707	-0.014383084
220	0xbcd7a1a4	-0.026322193
221	0x3d173d35	0.036923606
222	0x3c28c614	0.010301132
223	0xbd172b75	-0.03690668
224	0xbc4a2fb9	-0.0123404795
225	0x3cd44639	0.025912391
226	0x3c72e3ea	0.014824847
227	0xbc7224e2	-0.014779301
228	0xbd66fe01	-0.05639458
229	0xbb905dfd	-0.0044057355
230	0xbc76cf4d	-0.015064073
231	0x3cd86da7	0.026419474
232	0x3d363b59	0.044490192
233	0xbcc9a0ad	-0.024612749
234	0xbd0f75e0	-0.035024524
235	0x3d0f83fc	0.03503798
236	0xbc000f2b	-0.007816116
237	0xbc29a287	-0.010353691
238	0x3afef1ef	0.0019450764
239	0x3ac524ca	0.0015040871
240	0xbcae9211	-0.021309884
241	0x3b732da2	0.0037106057
242	0x3c2c444c	0.01051433
243	0xbdb8f66b	-0.090313755
244	0x3cf69836	0.030101877
245	0x3ca5ba32	0.020230386
246	0x3c9eb995	0.019375602
247	0x3d454f01	0.048171047
248	0x3c56ce91	0.013110773
249	0xbcb58cef	-0.022161929
250	0xbc79839b	-0.015229131
251	0x3c36aee1	0.011150093
252	0xbc427e7d	-0.0118709775
253	0x3cf40bf5	0.029790858
254	0xbcc2c157	-0.023773832
255	0x3ab74973	0.0013983682

out.bias f4 [36]
0	0xbe10e0b9	-0.14148225
1	0x3e84c801	0.2593384
2	0xbe10e0b9	-0.14148225
3	0x3ec00145	0.3750097
4	0xbeab25da	-0.33427316
5	0xbebc383c	-0.36761653
6	0x3e4de8ac	0.20108289
7	0xbed1f277	-0.41005298
8	0xbe2cea30	-0.1688621
9	0xbe545938	-0.20737159
10	0xbde89334	-0.11356202
11	0xbdf25e57	-0.118344
12	0xbed1d4de	-0.40982717
13	0xbe8b204e	-0.27173084
14	0xbedd0644	-0.43168843
15	0xbeb1e19a	-0.34742433
16	0x3ef30604	0.47465527
17	0xbe7a18f6	-0.24423584
18	0xbe628232	-0.22119978
19	0x3dba5f0b	0.09100159
20	0xbaab9eff	-0.0013093649
21	0x3eb564e3	0.35428533
22	0xbdbce42e	-0.09223209
23	0xbe77ecfd	-0.24211498
24	0xbe5044f6	-0.20338807
25	0xbe558713	-0.20852308
26	0xbc9d26a4	-0.019183464
27	0x3e959ef5	0.29222837
28	0x3dc3e776	0.09565632
29	0xbe70e233	-0.23523788
30	0x3e44f686	0.19234666
31	0xbe8b3241	-0.27186778
32	0xbe98fbec	-0.298797
33	0xbe144585	-0.14479645
34	0xbeea5397	-0.457669
35	0xbe373e62	-0.17894891
