modules/prn_gen/exp/en_id/models/bigram/train+val-decoder-wdecay_1e_5-attn_dot-emb_256-hddn_128-layers_1-epoch_99.pth (torch, 866544 bytes, 7 tensors)

embedding.weight f4 [36, 256]
0.0011746704 -0.0029345201 0.018951185 -0.0073291278 -0.0019336236 -0.012823029 -0.013154079 0.5102171
0.01076588 -0.011683456 -0.019120833 -0.14047237 0.0015077963 -0.022200238 -0.092642836 0.026199454
0.05532266 -0.0026968182 -5.9533693e-05 0.0012200777 -0.006085828 -0.00081003585 -0.027484637 -9.44453e-05
0.0021155549 0.022471046 -0.0034015158 0.004408638 0.0013246111 0.002502773 -0.0016176059 -0.0024354225
-0.009943783 0.0026934615 0.001975155 -0.015225465 0.00068239035 -0.001836377 -0.008006749 0.009664381
0.010680808 0.0058489675 -0.00260844 -0.006186946 -0.028965907 0.0075569274 -0.0038830761 0.83370525
-7.543329e-05 0.009829647 0.009421899 0.001954325 0.006579483 -0.018378938 -0.007141639 0.0025170988
0.0021252108 0.0011166281 -0.005623408 -0.00035422068 -0.15978335 -0.0008094766 0.00015468073 -0.0020167115
8.287293e-05 -0.0014820528 -0.0013061363 -0.0014409341 0.016746012 0.00020375552 0.012076297 0.0014326968
-0.0032210103 0.04171677 -0.011611273 -0.0055812555 0.00043203056 -0.004229992 0.00027616156 -0.0034505818
-0.016253725 -0.0008865873 0.008154401 0.0064301114 0.0057035796 -0.0062025357 -0.0017815765 0.00401834
-0.0027855781 0.008577815 -0.006154953 -0.15934539 0.0103630945 -0.0041352953 0.008630477 0.00017031407
0.09765555 -1.543998e-05 0.008831287 0.0013696625 0.20908083 -0.0004095441 0.004163497 0.0014362659
-0.0057198307 0.001597029 0.02689686 0.013879507 -0.6745967 -0.0017126792 0.16422105 0.0070916503
-0.0025766979 0.00132112 -0.013325891 0.0084172385 0.0014103198 -0.0027041219 -0.0012338342 -0.010535307
-0.026000516 -0.0013392523 -0.07342526 0.00520989 -0.0003923865 -0.0014529433 -0.0034531353 -0.0023551001
0.004667844 0.010597269 -0.0071033067 5.572865e-05 -0.00095081964 0.00073112966 0.0005056981 -0.016575605
-0.15428306 -0.004111218 0.0022054664 0.14920181 -0.0013836088 -0.0012672449 -0.007722645 0.00046317658
0.0022407481 0.010456911 -0.009472546 0.0055306433 0.0022543194 -0.011031528 0.0038767653 -0.028851839
-0.000464279 0.020963883 0.0021900702 -0.034558017 -0.012029701 -0.0015749269 -0.0011663394 0.022726532
-0.013472167 -0.002925532 0.03467743 0.017474972 0.0009218875 -0.004083096 -0.0009688353 -0.0012354235
0.0015534426 -0.082680054 -0.0024910425 -0.0032709637 -0.0016375469 -0.0018026305 0.6349541 -0.018246688
-0.002532034 0.002726893 0.0034369866 -0.01149577 0.008821852 0.93941283 0.01402222 0.009519583
0.008492474 -0.01849778 0.011177394 0.012584539 0.0020783904 0.008698233 -0.94956386 0.00093357643
0.04506666 0.03330032 -0.01609399 0.0056551276 0.002730206 0.0042897523 0.008524965 0.0026724162
0.0026790802 0.00011426091 0.017835263 -0.10434235 -0.55115676 0.013440213 -0.00042503167 0.010931913
0.0017826677 0.0010060619 -0.00867273 -0.75392336 0.019393478 0.0009290904 -0.009436188 0.008580312
-0.0020103066 0.008831797 -0.0006795357 0.0006558627 0.00059356506 0.00088843406 0.012641568 -0.020479105
-0.0020218368 0.0010387857 -0.19151138 0.013939489 -0.0020030409 -0.0023731077 -0.023522692 0.00067697
0.017449608 0.0004040055 0.001030104 0.0011140514 0.011990226 -0.001415688 -0.0019057526 -0.01018348
0.009686126 0.007511271 0.023469351 0.002160723 0.00060847134 0.001458145 -0.0014303155 -0.26769087
-0.002737645 0.0034248373 0.028889542 -0.030963948 -0.0030495282 0.0016535667 0.0048619024 -0.014219322
00000000: 66f7 993a 1451 40bb 843f 9b3c 2e29 f0bb
00000010: a471 fdba af17 52bc 3584 57bc 969d 023f
00000020: 6063 303c f76b 3fbc 4ba3 9cbc fdd7 0fbe
00000030: 40a1 c53a 46dd b5bc 87bb bdbd 3da0 d63c
00000040: 039a 623d 1abd 30bb d1b3 79b8 04eb 9f3a
00000050: a06b c7bb 9658 54ba 7627 e1bc ef10 c6b8
00000060: 1fa5 0a3b 3315 b83c f7eb 5ebb 5676 903b
00000070: 939e ad3a 9005 243b d905 d4ba 9c9b 1fbb
00000080: 40eb 22bc c984 303b 9a71 013b 3b74 79bc
00000090: 71e2 323a 96b2 f0ba bd2e 03bc 5a57 1e3c
000000a0: 8efe 2e3c b2a8 bf3b 5cf2 2abb ddbb cabb
000000b0: e949 edbc 1aa0 f73b 357b 7ebb b56d 553f
000000c0: f031 9eb8 870c 213c 4f5e 1a3c 2214 003b
000000d0: b498 d73b 6d8f 96bc 6904 eabb e9f5 243b
000000e0: 1f47 0b3b d25b 923a 9144 b8bb b2b6 b9b9
000000f0: 3f9e 23be 0e33 54ba cb31 2239 ce2a 04bb
00000100: 11cc ad38 7141 c2ba a932 abba badd bcba
00000110: ef2e 893c 35a7 5539 a9db 453c 54c9 bb3a
00000120: 9617 53bb 34df 2a3d 353d 3ebc f7e2 b6bb
00000130: 2982 e239 bf9b 8abb c7c9 9039 2823 62bb
00000140: 8826 85bc de69 68ba 099a 053c afb3 d23b
00000150: 18e5 ba3b a43e cbbb ca83 e9ba 47ac 833b
00000160: 3f8e 36bb f789 0c3c 7daf c9bb 702b 23be
00000170: f8c9 293c 5f81 87bb d866 0d3c 5696 3239
00000180: a2ff c73d 1b85 81b7 1ab1 103c 3f86 b33a
00000190: 4919 563e 14b8 d6b9 f26d 883b 1641 bc3a
000001a0: 6b6d bbbb 6753 d13a ce56 dc3c df66 633c
000001b0: 5fb2 2cbf fa7b e0ba 9029 283e 1361 e83b
000001c0: d1dd 28bb 6e29 ad3a d754 5abc 75e8 093c
000001d0: 7bda b83a a337 31bb 9bb8 a1ba 489c 2cbc
000001e0: 09ff d4bc da89 afba fc5f 96bd bab7 aa3b
000001f0: 39b9 cdb9 b070 beba ff4d 62bb 0658 1abb
00000200: b7f4 983b 2ba0 2d3c dbc2 e8bb 2fbe 6938
00000210: 6d40 79ba 48a9 3f3a d390 043a 90c9 87bc
00000220: 61fc 1dbe 65b7 86bb 9689 103b 5cc8 183e
00000230: 355a b5ba af19 a6ba 3e0e fdbb 82d6 f239
00000240: 84d9 123b 7753 2b3c bd32 1bbc 663a b53b
00000250: 34bd 133b 95bd 34bc 5411 7e3b b15a ecbc
00000260: 796a f3b9 73bc ab3c 4887 0f3b b58c 0dbd
00000270: 3918 45bc c76d ceba dbdf 98ba fe2c ba3c
00000280: 5dba 5cbc 48ba 3fbb ec09 0e3d ac27 8f3c
00000290: d3aa 713a 7ecb 85bb 70f9 7dba efed a1ba
000002a0: e29c cb3a 2954 a9bd c240 23bb aa5d 56bb
000002b0: f5a2 d6ba 3e46 ecba 5a8c 223f 147a 95bc
000002c0: 7bf0 25bb acb5 323b 113f 613b c158 3cbc
000002d0: 8789 103c 5c7d 703f 74bd 653c 06f8 1b3c
000002e0: 0524 0b3c a888 97bc 6321 373c 622f 4e3c
000002f0: 9b35 083b 0983 0e3c 9e16 73bf 41bb 743a
00000300: d197 383d eb65 083d 8bd7 83bc a64e b93b
00000310: 41ed 323b 0d91 8c3b 4bac 0b3c b423 2f3b
00000320: 8293 2f3b 5c9f ef38 421b 923c 71b1 d5bd
00000330: 9c18 0dbf 5734 5c3c c9d6 deb9 c41b 333c
00000340: 67a8 e93a d6dd 833a 1118 0ebc 1f01 41bf
00000350: 12df 9e3c 348e 733a 3e9a 1abc 7094 0c3c
00000360: 59bf 03bb 3eb3 103c de22 32ba 33ee 2b3a
00000370: 7a99 1b3a cde5 683a 941e 4f3c ccc3 a7bc
00000380: cb80 04bb dd27 883a 8f1b 44be 7462 643c
00000390: 7345 03bb 2486 1bbb a9b2 c0bc b076 313a
000003a0: 7bf2 8e3c b3d0 d339 8e04 873a 5d05 923a
000003b0: a772 443c 9b8e b9ba 72ca f9ba 9cd8 26bc
000003c0: 8fb2 1e3c 1c21 f63b cc42 c03c eb9a 0d3b
000003d0: d281 1f3a 3a1f bf3a 6d79 bbba c70e 89be
000003e0: 106a 33bb 3c73 603b c3a9 ec3c 1ba8 fdbc
000003f0: 98da 47bb 7ebc d83a 9850 9f3b 29f8 68bc

gru.weight_ih_l0 f4 [384, 384]
-0.0009815682 -0.009681236 -0.0048238426 0.03309332 -0.0031563311 -0.0046749557 0.044231758 0.012487233
0.015549513 -0.01682124 -0.021725487 -0.071335174 0.0018333949 0.0028952756 -0.013092951 0.0029371516
0.0009478445 -0.014583872 0.0014989829 0.018473618 0.032327823 -0.0037960566 -0.044057563 -0.0027049975
0.017101236 -0.02182503 0.0016781442 -0.019490078 0.0075180596 -0.008290762 -0.0020440198 -0.0082069505
-0.017277159 0.00028613655 -0.025341209 -0.008092884 0.0056682597 0.0035834056 -0.052253515 0.004699785
0.0035586464 -0.0065723667 0.00527595 -0.018722447 0.0006599742 0.0020998092 -0.004211512 0.035344344
0.0017840281 0.0060146027 -0.037633732 -0.010984579 -0.015633937 0.05200263 -0.005266811 0.044214703
0.008470339 0.0074545504 -0.020623535 -0.06401033 0.012244804 -0.007786688 -0.018168747 -0.00012773238
-0.03396038 -0.01516977 0.0076016677 -0.0058089425 0.017483054 -0.0049743853 -0.054580476 0.009472521
-0.0050571463 0.05023983 0.0062825647 0.013074046 -0.009157482 -0.00560793 0.0016872864 -0.01718597
-0.009405949 0.0061313445 0.037168503 0.02009671 0.038443103 0.019028027 0.008469019 0.036023736
-0.006130545 -0.012073092 -0.0063033844 -0.013742425 0.028431142 -0.008956677 0.0040490003 -0.04267894
0.020812824 0.004297378 0.010428496 0.0027172288 -0.03795344 0.011561775 0.00947573 -0.019043729
0.031874217 0.00462641 0.0629141 -0.028719924 -0.008443176 -0.002845582 0.030105546 0.003400855
-0.0039949194 -0.02834661 -0.031354822 0.0050006458 -0.023037873 0.004985446 0.0032101804 -0.009651632
0.015072759 -0.0079204785 -0.00020515964 -0.016599817 0.0009971648 -0.0075831125 0.0018919883 -0.0043140394
0.011084861 0.0058122645 -0.01380197 0.0018930493 0.008168431 0.004174423 -0.010527606 0.028786326
0.00069970137 0.013123948 -0.0037098955 0.00352546 -0.021230586 -0.013067543 -0.02297132 0.0058190757
0.012648665 0.029922584 -0.0074381456 -0.017134205 0.030767998 0.009349746 0.011923833 -0.0074862195
-0.0087578 -0.005657524 0.009373548 0.012119677 0.006643972 -0.030790646 -0.01596348 0.02931157
-0.024617909 -0.014968467 -0.05364865 0.044165213 0.007043724 -0.00077111437 -0.005792729 0.001992968
-0.0011627974 -0.013303317 -0.0013243956 -0.0013546931 0.0073236935 0.0064893835 0.018848915 -0.0073288386
-0.002743997 -0.0023593856 -0.012448777 -0.00016599265 0.0025381611 0.05788996 -0.004957383 -0.0119833145
-0.0011891915 0.041619048 0.0050184685 -0.005920983 0.016216928 0.0036837226 -0.057849072 -0.00051487767
0.02209438 -0.0010149586 -0.025122603 -0.034805905 0.0020088414 0.021606822 0.017868761 0.003328514
-0.0025865503 -0.0040211105 -0.013876121 0.010653908 0.006861352 0.01693775 -0.008057982 -0.0063017067
0.0011454246 -0.008815719 -0.03036824 -0.06461297 -0.020026054 0.0097867 -0.0095130615 0.0191033
-0.00395536 0.012855336 0.004589544 0.0070203245 -0.026095795 0.0017867325 0.023448542 -0.0053864
-0.019418145 0.010331267 -0.013218791 -0.041782483 0.00996656 -0.004903099 0.006561529 -0.0020406973
-0.032290008 0.020756904 0.00784278 -0.0025448296 0.013604335 -0.0059604193 0.02883886 -0.022873316
0.01248393 -0.028811542 -0.027877176 0.024348719 0.005977316 0.0111599 0.0037099076 -0.015412548
-0.006567028 0.019332316 -0.0063313134 -0.017450094 4.7810045e-05 -0.011054639 0.015282797 -0.0069097276
00000000: f7a7 80ba 0c9e 1ebc 5311 9ebb dc8c 073d
00000010: 73da 4ebb 5f30 99bb 5c2c 353d 4097 4c3c
00000020: 62c3 7e3c b2cc 89bc a6f9 b1bc 2d18 92bd
00000030: 864e f03a aabe 3d3b d183 56bc 3a7d 403b
00000040: c578 783a 31f1 6ebc 8579 c43a fc55 973c
00000050: 2e6a 043d 43c7 78bb b475 34bd 5446 31bb
00000060: e417 8c3c 68ca b2bc 2df5 db3a a8a9 9fbc
00000070: 0e5a f63b fad5 07bc f6f4 05bb 7276 06bc
00000080: d488 8dbc 9904 9639 5e98 cfbc 0498 04bc
00000090: cfbc b93b 92d7 6a3b c807 56bd a700 9a3b
000000a0: 2e38 693b 025d d7bb e0e1 ac3b d15f 99bc
000000b0: 1e02 2d3a f49c 093b b900 8abb 3bc5 103d
000000c0: 0dd6 e93a 2516 c53b d425 1abd aaf8 33bc
000000d0: be12 80bc b600 553d 3695 acbb 7a1a 353d
000000e0: 2dc7 0a3c 4d45 f43b b0f2 a8bc d917 83bd
000000f0: 6e9e 483c 7927 ffbb a0d6 94bc e6ef 05b9
00000100: 0a1a 0bbd a18a 78bc 6917 f93b f158 bebb
00000110: 9f38 8f3c 2b00 a3bb c78f 5fbd a232 1b3c
00000120: 6bb6 a5bb 48c8 4d3d f9dd cd3b 8634 563c
00000130: 4309 16bc bac2 b7bb f027 dd3a 97c9 8cbc
00000140: 691b 1abc 72e9 c83b 003e 183d dba1 a43c
00000150: 8476 1d3d aae0 9b3c a4c1 0a3c a08d 133d
00000160: bde2 c8bb 38ce 45bc 9f8c cebb e827 61bc
00000170: 6de8 e83c 07bf 12bc 7aad 843b 1dd0 2ebd
00000180: a87f aa3c 05d1 8c3b 48dc 2a3c 8913 323b
00000190: 1175 1bbd 996d 3d3c 1840 1b3c 9801 9cbc
000001a0: 8a8e 023d 2499 973b 1cd9 803d 0c46 ebbc
000001b0: 3f55 0abc f27c 3abb e89f f63c e1e0 5e3b
000001c0: d0e7 82bb 2637 e8bc ea6d 00bd 75dc a33b
000001d0: ecb9 bcbc f45c a33b e461 523b e121 1ebc
000001e0: bcf3 763c e5c4 01bc 1f20 57b9 57fc 87bc
000001f0: 4cb3 823a c27b f8bb 98fc f73a c95c 8dbb
00000200: 479d 353c cf74 be3b a821 62bc 3220 f83a
00000210: e2d4 053c 99c9 883b fb7b 2cbc 4dd1 eb3c
00000220: 2a6c 373a d405 573c b821 73bb 670b 673b
00000230: c4eb adbc 3f19 56bc 5a2e bcbc f2ad be3b
00000240: 593c 4f3c 3520 f53c b0bb f3bb 085d 8cbc
00000250: 2b0d fc3c ad2f 193c 2e5c 433c f64e f5bb
00000260: e07c 0fbc c062 b9bb 8393 193c 9c91 463c
00000270: adb5 d93b aa3c fcbc d8c5 82bc d11e f03c
00000280: 7fab c9bc 4d3e 75bc b0be 5bbd 95e6 343d
00000290: 0acf e63b 9c24 4aba efd0 bdbb 749c 023b
000002a0: 0269 98ba 28f6 59bc 5897 adba f58f b1ba
000002b0: 98fb ef3b e5a4 d43b 0a69 9a3c c126 f0bb
000002c0: a1d4 33bb ec9f 1abb f5f5 4bbc 500e 2eb9
000002d0: 4757 263b 061e 6d3d 8b71 a2bb aa55 44bc
000002e0: a5de 9bba bc78 2a3d f771 a43b ce04 c2bb
000002f0: 5dd9 843c 9c6a 713b 26f3 6cbd dbf8 06ba
00000300: 46ff b43c 5c08 85ba ebcd cdbc a390 0ebd
00000310: c4a6 033b ca00 b13c 8261 923c 3323 5a3b
00000320: 1d83 29bb 85c3 83bb ab58 63bc bb8d 2e3c
00000330: 31d5 e03b 09c1 8a3c a005 04bc 8c7e cebb
00000340: 1222 963a ce6f 10bc d1c6 f8bc ce53 84bd
00000350: ae0d a4bc 6558 203c acdc 1bbc 867e 9c3c
00000360: f79b 81bb 309f 523c e363 963b c00a e63b
00000370: d9c6 d5bc cb30 ea3a 2817 c03c 6680 b0bb
00000380: cd12 9fbc 7944 293c a193 58bc 1c24 2bbd
00000390: c84a 233c 2daa a0bb 1802 d73b 38bd 05bb
000003a0: 8742 04bd 620a aa3c 017f 003c 28c7 26bb
000003b0: b7e4 5e3c 9f4f c3bb 793f ec3c d260 bbbc
000003c0: 6689 4c3c 2f06 ecbc ad5e e4bc f776 c73c
000003d0: 5cdd c33b 03d8 363c ec21 733b e984 7cbc
000003e0: 3930 d7bb ce5e 9e3c e876 cfbb 80f3 8ebc
000003f0: a587 4838 841e 35bc b264 7a3c ff6a e2bb

gru.weight_hh_l0 f4 [384, 128]
0.04236415 -0.051981483 -0.10437403 0.0063580587 -0.038913786 -0.08921505 -0.06186427 0.01773302
0.01234909 0.06286825 -0.024046902 -0.056745335 0.05113016 0.031774376 -0.14835511 -0.029222082
-0.0069672773 0.01651685 -0.043478563 0.022075998 0.002054868 -0.020513648 -0.06615176 -0.026928797
0.023031935 -0.027241675 0.0698375 0.028373457 0.020665184 0.06661716 0.049103618 -0.048196368
-0.034897026 -0.0051249345 -0.0797074 -0.082930624 -0.013834989 0.03655334 0.08582549 0.003577677
-0.055517957 0.025477767 -0.045913145 0.06268602 -0.046514254 -0.10989146 0.015247381 0.08432109
0.0023732428 -0.014527718 -0.07910276 0.036794234 0.0070920014 -0.014312923 0.041554987 0.058578063
0.046363086 0.015381763 0.03718907 -0.045180645 -0.055575978 0.03524447 -0.022169346 0.06889268
-0.033982355 0.063989654 0.0038030588 0.0076687764 -0.03846221 -0.06761568 0.061066486 -0.093951255
-0.05699679 0.052935172 0.040721957 0.01576129 0.02897274 0.0071793054 0.052805915 -0.097800225
0.0030913355 0.11168159 -0.011832422 0.024519868 -0.010122488 -0.04006833 -0.024534507 0.029264145
0.051104914 0.08965529 -0.0039813616 0.11090254 -0.08776139 0.0053115604 -0.031187236 0.013052391
-0.018163228 0.073432505 0.033085518 0.015764054 -0.030485922 -0.007904851 0.0284874 -0.09410613
-0.027963128 0.0015393387 -0.015531466 -0.0035700377 0.04518155 -0.023571251 -0.025238857 0.0173943
0.0036101067 0.015437155 0.008987281 0.06834016 -0.05195025 0.033567987 -0.053106505 0.019261938
0.010475572 -0.030244038 -0.10492903 0.01482448 0.026147947 -0.01178127 0.045757726 -0.039131172
0.0707088 -0.03926108 0.09263487 0.039727915 -0.036588058 -0.02710862 0.11894137 0.08215731
0.11441976 0.13743606 -0.018694289 0.06310239 0.15932834 -0.0052510346 -0.041809205 0.077371284
-0.0692746 0.063600585 -0.061663594 -0.123352766 0.07706094 0.115852565 0.025012089 0.05466328
-0.012792742 -0.20957033 -0.009927444 -0.0142975105 -0.08112712 0.23519202 0.13584879 0.050180823
0.06638982 0.0754098 -0.22511251 0.024746144 -0.0362614 0.25511056 0.20016477 -0.19309641
-0.11830624 -0.005445949 0.09018452 -0.0018712418 0.085542455 0.012023933 0.09959569 0.067820564
0.08413281 0.0077100312 0.012586793 -0.14768144 0.09562203 -0.04197627 -0.25211036 0.036020916
-0.043570597 -0.07252726 0.03553331 -0.113362156 -0.029423162 0.0017979176 0.011504225 -0.033428025
-0.16603738 0.18932728 -0.0197761 0.15841748 -0.032867283 -0.12220286 -0.022723358 0.00084786955
-0.006556866 -0.23752967 -0.10299333 0.013991462 -0.041511256 0.19284354 0.1144704 -0.06782923
0.01429519 -0.03067478 -0.18606162 -0.053683538 -0.003731784 -0.029159801 0.071454205 0.044410847
-0.13653144 -0.046732605 0.143312 -0.100223735 -0.1265265 -0.044725016 -0.041625045 -0.09708697
-0.15215299 0.10490316 -0.22108638 -0.111252144 -0.011190822 0.15259507 -0.15078124 -0.017353201
0.08356666 -0.0662048 0.26264888 0.04716419 -0.11662709 0.022104824 0.013283683 0.12429572
-0.21933675 0.007102798 -0.12817922 0.22671154 -0.17086026 0.0667256 -0.0511644 -0.011653787
0.084141314 -0.041288637 0.1939101 -0.024426518 0.1495103 -0.11294619 -0.08797328 0.034423117
00000000: 0886 2d3d 89ea 54bd 0dc2 d5bd 4357 d03b
00000010: 1064 1fbd 61b6 b6bd 6465 7dbd d744 913c
00000020: d653 4a3c 12c1 803d 02fe c4bc cc6d 68bd
00000030: dc6d 513d d925 023d 67ea 17be 2663 efbc
00000040: c24d e4bb 584e 873c 9416 32bd b9d8 b43c
00000050: f7aa 063b 3d0c a8bc 937a 87bd c899 dcbc
00000060: 78ad bc3c ef29 dfbc f706 8f3d 746f e83c
00000070: 084a a93c 946e 883d e020 493d 8e69 45bd
00000080: 2ff0 0ebd 11ef a7bb a23d a3bd 88d7 a9bd
00000090: 26ac 62bc f4b8 153d 46c5 af3d 7677 6a3b
000000a0: cc66 63bd c0b6 d03c 6c0f 3cbd 8761 803d
000000b0: bb85 3ebd c60e e1bd 27d0 793c 89b0 ac3d
000000c0: 6888 1b3b aa05 6ebc a100 a2bd 8db5 163d
000000d0: 0564 e83b c080 6abc 9035 2a3d 8def 6f3d
000000e0: 38e7 3d3d ca03 7c3c 9153 183d 570f 39bd
000000f0: a3a3 63bd 815c 103d 7d9c b5bc 9b17 8d3d
00000100: 1531 0bbd 020d 833d bd3c 793b 5c4a fb3b
00000110: 8d8a 1dbd 177a 8abd da20 7a3d 8469 c0bd
00000120: 7775 69bd 8dd2 583d 11cc 263d d21d 813c
00000130: 3d58 ed3c 6140 eb3b 044b 583d 7c4b c8bd
00000140: 0198 4a3b 51b9 e43d c6dc 41bc e4dd c83c
00000150: cbd8 25bc b01e 24bd 97fc c8bc 5cbb ef3c
00000160: 6353 513d 319d b73d 1576 82bb df20 e33d
00000170: 3ebc b3bd 990c ae3b 607c ffbc b2d9 553c
00000180: 0dcb 94bc c863 963d ae84 073d 9e23 813c
00000190: 9dbd f9bc 5983 01bc 685e e93c b7ba c0bd
000001a0: ee12 e5bc a3c3 c93a b177 7ebc 4bf7 69bb
000001b0: 4a10 393d 7f18 c1bc b8c1 cebc 7e7e 8e3c
000001c0: 8a97 6c3b 1fec 7c3c 633f 133c edf5 8b3d
000001d0: c9c9 54bd 967e 093d 3586 59bd 36cb 9d3c
000001e0: bca1 2b3c 58c2 f7bc 08e5 d6bd 60e2 723c
000001f0: 3834 d63c 3a06 41bc 746c 3b3d 0248 20bd
00000200: c6cf 903d 3ad0 20bd 5ab7 bd3d bdb9 223d
00000210: 5cdd 15bd e612 debc 8897 f33d 1742 a83d
00000220: e854 ea3d 0abc 0c3e c424 99bc d33b 813d
00000230: f826 233e df10 acbb 2140 2bbd d674 9e3d
00000240: d7df 8dbd 0641 823d f792 7cbd 60a0 fcbd
00000250: 20d2 9d3d 1c44 ed3d 27e6 cc3c 9ae6 5f3d
00000260: a698 51bc 9b99 56be b8a6 22bc 1b40 6abc
00000270: fa25 a6bd 2dd6 703e f21b 0b3e 688a 4d3d
00000280: 63f7 873d 7470 9a3d e583 66be 6db8 ca3c
00000290: d586 14bd da9d 823e fef7 4c3e 11bb 45be
000002a0: 8b4a f2bd ee73 b2bb a9b2 b83d 7544 f5ba
000002b0: e230 af3d 0800 453c d3f8 cb3d 82e5 8a3d
000002c0: d34d ac3d 6ea4 fc3b d638 4e3c ce39 17be
000002d0: 7cd5 c33d 4fef 2bbd 9c14 81be ab8a 133d
000002e0: 1577 32bd 2c89 94bd 608b 113d 6b2a e8bd
000002f0: d808 f1bc 1ba8 eb3a 387c 3c3c d3eb 08bd
00000300: b405 2abe 03df 413e 7d01 a2bc 3138 223e
00000310: d89f 06bd 7e45 fabd 5626 babc 9043 5e3a
00000320: fbda d6bb fa3a 73be 2bee d2bd 723c 653c
00000330: b507 2abd c778 453e 756f ea3d 0dea 8abd
00000340: 5f36 6a3c ad49 fbbc f086 3ebe 45e3 5bbd
00000350: f290 74bb 89e0 eebc 9556 923d 26e8 353d
00000360: e6ce 0bbe b06a 3fbd 62c0 123e 1a42 cdbd
00000370: 2a90 01be 9431 37bd 067f 2abd 89d5 c6bd
00000380: fecd 1bbe 78d7 d63d 7864 62be 2ad8 e3bd
00000390: b659 37bc e241 1c3e 6666 1abe 4d28 8ebc
000003a0: ff24 ab3d 6296 87bd ea79 863e 3d2f 413d
000003b0: 2fda eebd 2d15 b53c cea3 593c c18e fe3d
000003c0: d099 60be 97be e83b 6a41 03be 1227 683e
000003d0: fef5 2ebe 6ea7 883d c391 51bd 87ef 3ebc
000003e0: 4852 ac3d 461e 29bd 5f90 463e 1f1a c8bc
000003f0: 3a19 193e 5550 e7bd 562b b4bd 41ff 0c3d

gru.bias_ih_l0 f4 [384]
0.09254805 0.05179382 -0.047524374 0.05552821 -0.045475286 -0.08412664 -0.004264764 -0.13480091
0.03122285 -0.093074515 -0.07553993 -0.014306795 -0.09598869 -0.09086842 -0.07388758 -0.06758899
-0.055049766 -0.10321974 0.024839016 -0.019218918 0.045610085 -0.020163363 -0.0068675303 0.02034695
-0.0059419246 -0.025327908 0.0077743023 -0.02948393 0.032351557 0.015412628 -0.1288616 0.004729191
0.054648332 -0.14759997 -0.06544925 -0.061872195 -0.080791175 -0.02541265 -0.075130686 -0.046372104
0.05244843 -0.08849877 -0.10558903 -0.05803449 0.11514213 -0.13247538 -0.06036197 -0.035599526
-0.14100263 0.06030818 -0.061046753 -0.1150596 0.020885784 -0.10735761 -0.08061781 -0.0006081787
0.023078788 -0.09655802 -0.038855206 0.06856016 -0.095918246 -0.004254536 0.10341096 -0.020247087
-0.15671039 -0.035422996 0.0150420675 0.00909243 -0.07189146 -0.21163355 -0.15249078 0.016183542
-0.054259203 0.0351787 -0.062332332 0.118942514 0.053850383 -0.081475645 -0.06837475 -0.0077012107
0.014186669 -0.050045114 0.032279607 -0.064860195 0.0042162733 -0.0039625634 -0.045632094 -0.0014422962
0.010934586 -0.17402062 0.01970124 -0.14453046 -0.0028610625 0.066678286 -0.030626886 -0.04701006
-0.045587976 -0.0424012 -0.10144293 -0.020970207 -0.07585525 0.026278902 -0.050495204 -0.10950945
0.017890513 -0.003011774 0.053262405 0.0733893 0.11644108 -0.05243417 0.05458725 -0.08239756
0.03921593 -0.10863491 -0.045474213 0.03950151 -0.07674064 -0.13742983 -0.008321566 -0.22632697
-0.054602984 -0.009395592 -0.008813448 -0.09769684 -0.03846051 -0.035123028 -0.077978946 0.06926096
0.5654397 -0.3181969 -0.027685093 -0.25951642 0.037677966 -0.2773141 0.0065878406 0.044261213
-0.120177664 0.36181217 -0.35633692 -0.07139151 0.13881621 -0.18665574 0.062332362 -0.3143067
-0.12690647 0.106886484 -0.10432948 -0.13768545 -0.07139286 -0.021148596 -0.15717223 -0.29478687
-0.2535164 -0.30319712 0.43788534 -0.21753529 -0.06611212 0.06051867 0.18991426 0.053951513
-0.2287719 0.228076 -0.012657903 0.06258562 0.30168766 0.37491223 -0.23799025 -0.05401084
0.5473983 0.075101435 0.046341263 0.23507799 -0.11908027 -0.17661518 0.19285177 -0.11109948
-0.2898553 -0.34311676 -0.114473104 -0.3416904 0.2367784 0.15744722 -0.046274733 -0.26586106
-0.17307706 -0.02679336 0.08538121 0.5892784 -0.24107608 -0.31279168 0.5246582 -0.19455023
0.07116492 -0.30040196 -0.20683698 0.07693013 -0.03338789 -0.3178876 -0.18977067 -0.32766584
-0.34109592 0.38400775 0.03752062 0.2206905 0.14556426 -0.4034501 -0.2699481 0.5098852
-0.35359168 -0.17046025 0.2098045 0.044442736 -0.032156486 -0.059804335 0.16194218 -0.015682817
-0.16402721 -0.40106285 -0.10813381 -0.34153065 0.36978227 -0.2651625 0.26175845 -0.21033268
-0.09627028 -0.16066843 -0.36268938 -0.18813549 -0.26893038 -0.2569741 -0.043011475 0.090681136
0.3819151 0.017712465 0.64552975 0.03642818 0.034063973 0.05558713 -0.047447678 -0.33631533
0.5715099 -0.18919477 -0.40164697 0.06271266 -0.29600123 0.212756 0.191595 -0.14539485
-0.04640868 -0.22339831 -0.06137441 -0.34607708 -0.30280104 0.042048447 0.011846409 0.08674689
00000000: d589 bd3d c225 543d eba8 42bd 8c71 633d
00000010: 4b44 3abd 964a acbd 6fbf 8bbb 4009 0abe
00000020: 10c7 ff3c da9d bebd aeb4 9abd 0c67 6abc
00000030: b895 c4bd 3919 babd 5f52 97bd 196c 8abd
00000040: dd7b 61bd df64 d3bd 317b cb3c fe70 9dbc
00000050: a4d1 3a3d a32d a5bc 0509 e1bb a6ae a63c
00000060: 7ab4 c2bb 797c cfbc 93bf fe3b 4888 f1bc
00000070: 1183 043d 3f85 7c3c 4cf4 03be 54f7 9a3b
00000080: eed6 5f3d 7224 17be 420a 86bd b36d 7dbd
00000090: d875 a5bd 312e d0bc 1ede 99bd adf0 3dbd
000000a0: 2ad4 563d d83e b5bd 103f d8bd 93b5 6dbd
000000b0: a3cf eb3d a0a7 07be 1d3e 77bd cfd0 11bd
000000c0: fe62 10be b605 773d 290c 7abd 5ea4 ebbd
000000d0: aa18 ab3c 4ede dbbd f31a a5bd 2f6e 1fba
000000e0: ba0f bd3c 36c0 c5bd a326 1fbd 4569 8c3d
000000f0: c970 c4bd a269 8bbb 20c9 d33d 38dd a5bc
00000100: b078 20be b417 11bd 0173 763c 6af8 143c
00000110: d43b 93bd 77b6 58be 8b26 1cbe 5993 843c
00000120: e63e 5ebd 8a17 103d 3050 7fbd 2298 f33d
00000130: 3892 5c3d b4dc a6bd 1008 8cbd 705a fcbb
00000140: 346f 683c 1bfc 4cbd 9f37 043d 6cd5 84bd
00000150: aa28 8a3b 64d8 81bb b8e8 3abd 6e0b bdba
00000160: fa26 333c 7632 32be 7f64 a13c cbff 13be
00000170: aa80 3bbb a08e 883d 3ce5 fabc 9f8d 40bd
00000180: 75ba 3abd e1ac 2dbd 50c1 cfbd b6c9 abbc
00000190: ff59 9bbd da46 d73c 0fd4 4ebd 7e46 e0bd
000001a0: 208f 923c 2f61 45bb ae29 5a3d 214d 963d
000001b0: a978 ee3d 36c5 56bd e196 5f3d 0dc0 a8bd
000001c0: e2a0 203d fb7b debd 2b43 3abd 56cc 213d
000001d0: 322a 9dbd 68ba 0cbe 2d57 08bc 42c2 67be
000001e0: 61a7 5fbd f8ef 19bc 4866 10bc 4815 c8bd
000001f0: c588 1dbd 2add 0fbd 6db3 9fbd b1d8 8d3d
00000200: a8c0 103f b4ea a2be d9cb e2bc 56df 84be
00000210: 3654 1a3d 1dfc 8dbe d0de d73b 3f4b 353d
00000220: b51f f6bd 723f b93e cb71 b6be b635 92bd
00000230: d625 0e3e af22 3fbe 3850 7f3d cfec a0be
00000240: c5f3 01be 4de7 da3d b2aa d5bd 6afd 0cbe
00000250: 6b36 92bd d23f adbc c2f1 20be 4eee 96be
00000260: e7cc 81be a73c 9bbe 8232 e03e 92c1 5ebe
00000270: cb65 87bd 6de2 773d e278 423e 43fc 5c3d
00000280: 2e43 6abe c18c 693e 1863 4fbc e42c 803d
00000290: ce76 9a3e 7ff4 bf3e b7b3 73be 783a 5dbd
000002a0: 4c22 0c3f c8ce 993d 56d0 3d3d 49b8 703e
000002b0: 5be0 f3bd 9cda 34be ef7a 453e 2088 e3bd
000002c0: ea67 94be 00ad afbe e070 eabd 0bf2 aebe
000002d0: 0976 723e d839 213e 938a 3dbd f11e 88be
000002e0: 1d3b 31be c07d dbbc 58dc ae3d f3da 163f
000002f0: a6dc 76be 3b26 a0be 0050 063f 2d38 47be
00000300: eabe 913d 49ce 99be 13cd 53be 8b8d 9d3d
00000310: bdc1 08bd 2ac2 a2be 3e53 42be d1c3 a7be
00000320: 20a4 aebe aa9c c43e 39af 193d b1fc 613e
00000330: cc0e 153e 0391 cebe a336 8abe d687 023f
00000340: f809 b5be 228d 2ebe fed6 563e 9609 363d
00000350: 85b6 03bd 64f5 74bd 2cd4 253e 4079 80bc
00000360: c0f6 27be 1c58 cdbe 4275 ddbd 1bdd aebe
00000370: 1a54 bd3e 61c3 87be 3405 863e 7361 57be
00000380: 5a29 c5bd 4486 24be 6cb2 b9be 97a6 40be
00000390: 3eb1 89be 1c92 83be cd2c 30bd 08b7 b93d
000003a0: 608a c33e bb19 913c 7041 253f b735 153d
000003b0: aa86 0b3d 55af 633d 7f58 42bd 8631 acbe
000003c0: 794e 123f 46bc 41be aca4 cdbe 7f6f 803d
000003d0: 798d 97be b5dc 593e 7b31 443e 63e2 14be
000003e0: 0717 3ebd 87c2 64be bc63 7bbd 0431 b1be
000003f0: bd08 9bbe fe3a 2c3d 7117 423c 5aa8 b13d

gru.bias_hh_l0 f4 [384]
0.09254782 0.053608965 -0.050723758 0.05552821 -0.045489483 -0.08184476 -0.00426193 -0.13481206
0.03122236 -0.09307438 -0.06448711 -0.01424234 -0.0959944 -0.10006821 -0.07391021 -0.066762164
-0.057343613 -0.103219286 0.023800666 -0.019376379 0.045610085 -0.020420171 -0.006596436 0.018555855
-0.005781765 -0.02483302 0.007774306 -0.028961696 0.032294497 0.015409639 -0.12886249 0.004745621
0.055399753 -0.14760649 -0.06575704 -0.061872195 -0.0807786 -0.02541265 -0.07398765 -0.04699879
0.05244843 -0.088498786 -0.10559066 -0.05804536 0.11577816 -0.122471444 -0.0603236 -0.036392096
-0.14899363 0.06043032 -0.06104796 -0.12527934 0.020886952 -0.10735761 -0.08033893 -0.0050454647
0.02338972 -0.097030155 -0.03885455 0.06856016 -0.0959234 -0.0038995675 0.10312673 -0.014939558
-0.15672584 -0.030092407 0.0033092932 0.009102374 -0.07210021 -0.22259152 -0.1555925 0.02117556
-0.057468552 0.035178155 -0.06234225 0.1189425 0.05385407 -0.08460683 -0.0683739 -0.0077012107
0.014180924 -0.050034728 0.032279607 -0.06487188 0.004216332 -0.004087891 -0.045632053 -0.0014422962
0.0052801087 -0.17171729 0.019780697 -0.1406619 -0.0028610625 0.06616213 -0.030629098 -0.04527212
-0.052749284 -0.041892417 -0.095864795 -0.021186478 -0.07721078 0.02627891 -0.05049297 -0.109508745
0.017890513 -0.0029476648 0.053262405 0.0733893 0.116643086 -0.052434094 0.05458725 -0.08588241
0.039381925 -0.105557926 -0.045537926 0.038692538 -0.07669016 -0.13742977 -0.008321566 -0.21521544
-0.054602917 -0.0093389675 -0.0088137435 -0.09615343 -0.039831057 -0.035088927 -0.078056216 0.06926096
0.5401853 -0.27650803 -0.015702022 -0.27463537 0.014257161 -0.32139823 0.028560443 0.07654875
-0.09477101 0.33824614 -0.36275595 -0.088634 0.14621052 -0.1891422 0.061909582 -0.31050888
-0.102545016 0.09873833 -0.11592242 -0.1275293 -0.082499646 0.012310076 -0.14393328 -0.26788646
-0.24072495 -0.29175237 0.41973448 -0.22576928 -0.039989695 0.11372856 0.18831535 0.041783486
-0.21614733 0.18204908 -0.003015008 0.03175612 0.25804526 0.37126324 -0.2427938 -0.052178603
0.55204576 0.05685994 0.075150326 0.2652002 -0.12060567 -0.187592 0.19171406 -0.054614663
-0.35547876 -0.33657268 -0.1390041 -0.3313379 0.22384065 0.19125356 -0.11393371 -0.27020687
-0.1763627 0.005724818 0.12928806 0.5867137 -0.23795381 -0.2818416 0.5856984 -0.18431866
0.039566066 -0.29515994 -0.21517886 0.07164489 -0.07291974 -0.3583764 -0.1790888 -0.3497926
-0.3176248 0.42009926 0.007384299 0.2359472 0.122630276 -0.4063811 -0.2708751 0.51649046
-0.34261602 -0.17011616 0.22272336 0.022018142 0.008341192 -0.040762912 0.18078415 -0.017910806
-0.19411668 -0.38309625 -0.08603236 -0.3562989 0.35716566 -0.27007395 0.25023204 -0.22281934
-0.07861944 -0.16695978 -0.34623718 -0.19341561 -0.26654887 -0.23047474 -0.03668386 0.08035609
0.3720345 -0.037674833 0.6259623 0.0375786 0.0024795858 0.063343495 -0.03274531 -0.37189025
0.5724181 -0.18377693 -0.40159377 0.09363793 -0.28629756 0.2092186 0.24563774 -0.17629115
-0.058962636 -0.20662145 -0.058135815 -0.33013391 -0.30128178 0.043255493 0.002301647 0.06743602
00000000: b689 bd3d 1395 5b3d b7c3 4fbd 8c71 633d
00000010: 2e53 3abd 3a9e a7bd a9a7 8bbb 2c0c 0abe
00000020: 09c6 ff3c c89d bebd d111 84bd b458 69bc
00000030: b698 c4bd 90f0 ccbd 3c5e 97bd 9aba 88bd
00000040: 23e1 6abd a264 d3bd 9df9 c23c 36bb 9ebc
00000050: a4d1 3a3d 3448 a7bc ea26 d8bb 7302 983c
00000060: f674 bdbb 9e6e cbbc 9bbf fe3b 1441 edbc
00000070: 3c47 043d b678 7c3c 87f4 03be 2781 9b3b
00000080: daea 623d 2826 17be a1ab 86bd b36d 7dbd
00000090: 406f a5bd 312e d0bc d686 97bd ce81 40bd
000000a0: 2ad4 563d da3e b5bd ea3f d8bd f9c0 6dbd
000000b0: 1a1d ed3d 4fd2 fabd e115 77bd e10f 15bd
000000c0: c991 18be c985 773d 6d0d 7abd 3a49 00be
000000d0: 1d1b ab3c 4ede dbbd bd88 a4bd 6d54 a5bb
000000e0: cc9b bf3c bfb7 c6bd f325 1fbd 4569 8c3d
000000f0: 7d73 c4bd e38f 7fbb 1b34 d33d 0cc5 74bc
00000100: bd7c 20be 5a84 f6bc bae0 583b 2022 153c
00000110: 46a9 93bd 08ef 63be a453 1fbe 5e78 ad3c
00000120: 2564 6bbd f816 103d 965a 7fbd 2098 f33d
00000130: 1696 5c3d 5846 adbd 9e07 8cbd 705a fcbb
00000140: 1b57 683c 37f1 4cbd 9f37 043d 8cdb 84bd
00000150: 2829 8a3b b7f3 85bb ade8 3abd 6e0b bdba
00000160: c304 ad3b a8d6 2fbe 210b a23c ac09 10be
00000170: aa80 3bbb 0380 873d e0e9 fabc 426f 39bd
00000180: a20f 58bd 6297 2bbd c354 c4bd 448f adbc
00000190: af20 9ebd de46 d73c b7d1 4ebd 1f46 e0bd
000001a0: 208f 923c 9c2d 41bb ae29 5a3d 214d 963d
000001b0: 92e2 ee3d 22c5 56bd e196 5f3d 1ee3 afbd
000001c0: f14e 213d c12e d8bd fa85 3abd 117c 1e3d
000001d0: bb0f 9dbd 64ba 0cbe 2d57 08bc 7061 5cbe
000001e0: 4fa7 5fbd 7802 19bc 8567 10bc 17ec c4bd
000001f0: e425 23bd 68b9 0fbd f0db 9fbd b1d8 8d3d
00000200: 9549 0a3f 7692 8dbe 87a1 80bc 029d 8cbe
00000210: de96 693c 4f8e a4be 97f7 e93c 97c5 9c3d
00000220: 4e17 c2bd 992e ad3e 26bb b9be be85 b5bd
00000230: 36b8 153e 7eae 41be e794 7d3d 05fb 9ebe
00000240: 1f03 d2bd 5237 ca3d bc68 edbd 0a97 02be
00000250: 93f5 a8bd 33b0 493c 3f63 13be 6a28 89be
00000260: 9a80 76be 9160 95be 70e7 d63e 1030 67be
00000270: 3ccc 23bd 85ea e83d bdd5 403e 2925 2b3d
00000280: ba55 5dbe 136b 3a3e 7197 45bb b512 023d
00000290: 821e 843e 3716 be3e f09e 78be 3bb9 55bd
000002a0: df52 0d3f f8e5 683d 6ae8 993d 52c8 873e
000002b0: 1b00 f7bd 1e18 40be b150 443e a0b3 5fbd
000002c0: 5001 b6be 4153 acbe 1757 0ebe 1fa5 a9be
000002d0: 7c36 653e f9d7 433e 1456 e9bd 8e58 8abe
000002e0: 6c98 34be 4197 bb3b 1764 043e de32 163f
000002f0: 2aaa 73be 8b4d 90be 55f0 153f 08be 3cbe
00000300: 0710 223d 341f 97be d957 5cbe 8eba 923d
00000310: f256 95bd 1d7d b7be 0e63 37be 0418 b3be
00000320: b89f a2be 4017 d73e fdf7 f13b 259c 713e
00000330: 9525 fb3d 2f11 d0be 24b0 8abe b838 043f
00000340: 5e6b afbe ee32 2ebe 9811 643e 645f b43c
00000350: 7fa9 083c 03f7 26bd 7b1f 393e afb9 92bc
00000360: 86c6 46be 3125 c4be bc31 b0bd cf6c b6be
00000370: 6bde b63e 2247 8abe 6a1e 803e c12a 64be
00000380: 3b03 a1bd 81f7 2abe 0046 b1be be0e 46be
00000390: 1879 88be 9201 6cbe d141 16bd bc91 a43d
000003a0: 4e7b be3e ed50 1abd 113f 203f 05ec 193d
000003b0: 8c80 223b 3cba 813d f21f 06bd 6668 bebe
000003c0: fe89 123f 0530 3cbe b39d cdbe 3ec5 bf3d
000003d0: 9895 92be 673d 563e 7688 7b3e ab85 34be
000003e0: ce82 71bd 9394 53be d21f 6ebd 5007 a9be
000003f0: 9b41 9abe ac2c 313d 3bd7 163b e51b 8a3d

out.weight f4 [36, 256]
0.014402297 -0.045937702 0.058370896 0.0037454918 -0.021651028 -0.028915217 -0.009922911 0.012535989
-0.060943566 0.0014770721 0.019143939 0.1286723 0.0094031375 0.0020788484 0.03232759 0.03686817
-0.036497667 0.031105086 -0.060788784 0.012532821 -0.01589441 0.021202382 0.025962675 -0.00033757425
0.042679746 -0.0936011 0.008106051 -0.059350282 -0.06500647 0.07935007 0.050839335 0.11763387
0.0020814599 0.014756556 -0.04949655 0.09783173 -0.027839813 -0.024095058 -0.0019333515 -0.04813483
0.030165533 -0.09450194 -0.042897906 0.048705243 0.012056422 0.00012652266 0.042566024 0.03225706
0.04177154 0.042442918 0.044915147 -0.01731445 0.05183198 -0.0013248418 -0.08230087 -0.022407403
0.0064909807 -0.072613604 -0.045452982 -0.0048950873 -0.03289521 0.0014021933 0.0028132747 -0.025146846
-0.10568249 0.014265981 -0.014007029 0.006918482 0.00860311 0.046442445 -0.030527374 0.029177884
0.058619812 -0.01804971 -0.05668528 0.038415957 -0.020316469 -0.019340137 0.031803973 0.099466726
0.007141614 0.03748178 0.0558246 0.102777086 -0.07135844 0.03382305 0.04942943 0.07042223
-0.05536053 0.008285365 -0.015980892 -0.048196502 0.07770941 -0.021374324 0.010753535 0.043433905
0.053210236 0.044717528 -0.004272971 -0.11615821 0.0109616155 -0.057762425 0.04368241 -0.04722741
0.021223975 0.01550611 -0.031147704 0.08659834 -0.032167304 0.04963254 0.0867091 0.0055211154
0.0010114512 -0.05592528 -0.036554478 -0.0043277415 -0.0018379217 -0.048986997 0.08233049 -0.018615814
-0.0094657475 -0.03241264 0.13511106 -0.033597447 0.020919278 -0.06402998 -0.036802053 0.03396353
0.008068791 -0.017607497 -0.02442217 -0.0139803225 0.0049690837 -0.027180644 0.025313018 -0.0050985767
-0.019259678 -0.07158503 0.024191637 -0.002705839 0.03170608 -0.048783176 -0.0058843996 -0.014607061
-0.011881123 0.045569874 -0.017716903 -0.0666453 -0.0133603 0.0071994057 -0.02685239 -0.011174962
-0.01588556 0.011804951 -0.009705861 -0.06556243 -0.022180464 -0.032882698 -0.0054057515 -0.019460265
-0.01645244 -0.008854268 -0.004309984 0.016958553 -0.004209449 0.015430018 -0.0054729464 0.008167525
0.017036336 0.029268287 -0.002048779 -0.019686958 0.05317908 0.03334928 -0.002183462 -0.009857751
0.0076951 -0.009846239 0.013689062 0.0040749884 -0.03175565 0.012237426 -0.046535257 -0.059753075
0.029859757 0.00015496253 -0.00233327 0.0091704745 -0.040712908 0.016879167 0.05252878 0.024708034
-0.010166606 -0.003007601 -0.08228722 0.009757147 0.0020881817 0.0064860694 -0.020000387 0.08373482
0.0059087304 0.011155019 0.041483223 -0.0399417 0.0009802275 0.023312835 0.054300975 0.02970614
-0.04351185 0.0045351745 0.037095275 -0.023434324 -0.04587167 -0.011596208 0.014775386 0.038469728
0.008647929 -0.098532915 -0.0076586963 0.023836046 -0.06390527 -0.028630253 -0.010738109 0.020852687
-0.005034147 0.0038895928 -0.03771118 0.010637282 0.00064398465 -0.109177224 0.00095411926 -0.0030386022
-0.009488697 -0.01195706 -0.012841113 0.045255125 -0.016686117 0.008239942 0.07083606 0.020255657
0.0046179593 -0.011396945 -0.03182882 -0.0018121578 0.030755643 -0.017502548 0.008823448 0.014821759
0.008117482 -0.034035336 -0.03255144 0.002036367 -0.027647894 0.0074030445 0.014222136 0.014075772
00000000: 9df7 6b3c 2c29 3cbd 5216 6f3d ed76 753b
00000010: 7f5d b1bc 9bdf ecbc b593 22bc c063 4d3c
00000020: f69f 79bd 519a c13a c0d3 9c3c acc2 033e
00000030: 9e0f 1a3c 4a3d 083b ef69 043d 1403 173d
00000040: 947e 15bd 18d0 fe3c a9fd 78bd 7656 4d3c
00000050: fe34 82bc 9eb0 ad3c adaf d43c 73fc b0b9
00000060: f5d0 2e3d efb1 bfbd 3ecf 043c 4819 73bd
00000070: 1d22 85bd 4a82 a23d e83c 503d 07ea f03d
00000080: 1a69 083b 7bc5 713c e5bc 4abd 015c c83d
00000090: 5210 e4bc 0063 c5bc 8368 fdba 0729 45bd
000000a0: b51d f73c 3c8a c1bd b7b5 2fbd 267f 473d
000000b0: 4d88 453c 2bab 0439 b659 2e3d fb1f 043d
000000c0: a218 2b3d a0d8 2d3d f2f8 373d 09d7 8dbc
000000d0: c54d 543d 50a6 adba 5c8d a8bd bb8f b7bc
000000e0: 4bb2 d43b 71b6 94bd e82c 3abd f866 a0bb
000000f0: 21bd 06bd cdc9 b73a eb5e 383b c200 cebc
00000100: 1070 d8bd dcbb 693c bd7d 65bc 6fb4 e23b
00000110: 0ff4 0c3c 6f3a 3e3d 8b14 fabc 7506 ef3c
00000120: 541b 703d fcdc 93bc d32e 68bd 0d5a 1d3d
00000130: b96e a6bc 356f 9ebc e244 023d 36b5 cb3d
00000140: 3304 ea3b 7f86 193d 56a8 643d cb7c d23d
00000150: 6024 92bd 0a8a 0a3d 8476 4a3d 8839 903d
00000160: b9c1 62bd 57bf 073c 5cea 82bc b269 45bd
00000170: 1c26 9f3d 3519 afbc 982f 303c c0e7 313d
00000180: faf2 593d ba29 373d 4704 8cbb 5be4 edbd
00000190: 5998 333c 4b98 6cbd 54ec 323d 8771 41bd
000001a0: e7dd ad3c 570d 7e3c 7829 ffbc 785a b13d
000001b0: ddc1 03bd 7e4b 4b3d 8a94 b13d 79ea b43b
000001c0: ac92 843a e811 65bd 26ba 15bd bacf 8dbb
000001d0: 6be6 f0ba 97a6 48bd e39c a83d 3180 98bc
000001e0: 3916 1bbc 1ec3 04bd 8e5a 0a3e 7a9d 09bd
000001f0: e85e ab3c 2622 83bd c0bd 16bd 581d 0b3d
00000200: f632 043c 993d 90bc 0111 c8bc b90d 65bc
00000210: b2d3 a23b f1a9 debc 3f5d cf3c f611 a7bb
00000220: 79c6 9dbc 2c9b 92bd 8a2d c63c 7254 31bb
00000230: 3cde 013d ded0 47bd ecd1 c0bb 7452 6fbc
00000240: 0ba9 42bc 7aa7 3a3d 0a23 91bc 557d 88bd
00000250: 29e5 5abc fee8 eb3b 8bf9 dbbc 3017 37bc
00000260: 6f22 82bc 8e69 413c 5505 1fbc 9845 86bd
00000270: ceb3 b5bc 02b0 06bd bb22 b1bb 226b 9fbc
00000280: 44c7 86bc 7e11 11bc c43a 8dbb aaec 8a3c
00000290: 6bef 89bb 30ce 7c3c 6756 b3bb 15d1 053c
000002a0: c98f 8b3c 0cc4 ef3c cf44 06bb 8b46 a1bc
000002b0: 4fd2 593d 4199 083d 6a18 0fbb 6882 21bc
000002c0: 2d27 fc3b 1f52 21bc 1648 603c 7b87 853b
000002d0: 3612 02bd 7c7f 483c c19b 3ebd a4bf 74bd
000002e0: 739c f43c 707d 2239 c6e9 18bb c23f 163c
000002f0: 94c2 26bd 2e46 8a3c 6b28 573d 8168 ca3c
00000300: d691 26bc 2c1b 45bb 3486 a8bd 71dc 1f3c
00000310: e0d9 083b 1889 d43b dad7 a3bc 297d ab3d
00000320: 069e c13b 8ac3 363c 50ea 293d e899 23bd
00000330: fa7a 803a 8ffa be3c b36a 5e3d 4a5a f33c
00000340: 7b39 32bd cd9b 943b 37f1 173d 57f9 bfbc
00000350: efe3 3bbd 06fe 3dbc 7614 723c 6f92 1d3d
00000360: 0bb0 0d3c a0cb c9bd cdf5 fabb d043 c33c
00000370: c4e0 82bd fe89 eabc e5ee 2fbc 41d3 aa3c
00000380: 7cf5 a4bb 8ae8 7e3b 0a77 1abd ff47 2e3c
00000390: 14d1 283a 4f98 dfbd dc1d 7a3a 4923 47bb
000003a0: 7b76 1bbc 8be7 43bc 8863 52bc 705d 393d
000003b0: 53b1 88bc d200 073c 7f12 913d 31ef a53c
000003c0: 4052 973b 41ba 3abc f05e 02bd ed85 edba
000003d0: 42f3 fb3c 8161 8fbc 3990 103c f7d6 723c
000003e0: 30ff 043c a368 0bbd a954 05bd 9274 053b
000003f0: d67d e2bc 3d95 f23b f603 693c 119e 663c

out.bias f4 [36]
-0.1652499 0.2407141 -0.1652499 0.34614018 -0.33597636 -0.37798008 0.23715842 -0.7464749
-0.16111456 -0.26996636 -0.027642062 -0.1574121 -0.45205566 -0.2317994 -0.36424643 -0.14005741
0.38320476 -0.1594304 -0.09743387 0.29887486 -0.13254537 0.515225 -0.24672806 -0.19682194
-0.22297545 -0.20150965 0.21277034 0.43019798 0.31048724 -0.40369514 0.39235622 -0.2630893
-0.2536462 0.03054582 -0.34477967 -0.19689845
00000000: 4537 29be c27d 763e 4537 29be 4939 b13e
00000010: 1805 acbe 9b86 c1be a8d9 723e fb18 3fbf
00000020: 37fb 24be 0839 8abe 9b71 e2bc a330 21be
00000030: d773 e7be d25c 6dbe 827e babe 366b 0fbe
00000040: 6a33 c43e b941 23be 698b c7bd 2006 993e
00000050: f9b9 07be c9e5 033f 48a6 7cbe b18b 49be
00000060: ad53 64be 8c58 4ebe 78e0 593e e942 dc3e
00000070: 2ff8 9e3e 21b1 cebe eae2 c83e a4b3 86be
00000080: eadd 81be 3a3b fa3c f686 b0be bf9f 49be
